results/fl/wesad/seed_42/best_model.pth (torch, 112949 bytes, 10 tensors)

mlp.0.weight f4 [128, 140]
000000 58 fa 5d 3d 30 9d 85 3d 27 d7 1a bd 7c de 36 3d
       0.054193825 0.06524122 -0.03780284 0.04464577
000010 4f c6 c6 3b 44 89 6e 3c 48 87 28 bc 1e 9d c0 3c
       0.0060661207 0.014559094 -0.01028616 0.02351242
000020 90 88 8e 3d 0f 93 72 bd 9e 2e 94 3d 4b 17 e8 3c
       0.06959641 -0.059222277 0.07235454 0.02833142
000030 8e f1 77 3d 91 57 45 3c ac c6 21 3d df 9e 5c bc
       0.0605331 0.012044803 0.03949611 -0.013465612
000040 4b b0 83 3d fc 07 da 3c 45 1a 26 bd 5c 0d 1d 3d
       0.064301096 0.026615135 -0.040552396 0.03834282
000050 64 53 02 bd 02 ca b4 bb af 15 e2 bc 81 46 82 3d
       -0.03181781 -0.0055172453 -0.02759823 0.06361104
000060 b8 20 74 bd fd 3c 03 bd 6a 83 87 bc 8c d0 3c bd
       -0.059601516 -0.032040585 -0.016542155 -0.046097323
000070 3c 63 77 3c 48 7e 68 bd 6b 8d 8e 3d 9f 36 49 bd
       0.015099343 -0.056761056 0.06960567 -0.049124356
000080 a8 48 4e 3d cf 26 c1 3c 83 40 1a bd 91 21 fd 3c
       0.05036226 0.023578076 -0.03765918 0.030899795
000090 77 a6 08 3d eb 80 a6 3d 44 b1 02 3d 42 1d c1 bb
       0.03336188 0.08130058 0.031907335 -0.0058933804
0000a0 cb 2f f3 3c 45 8f 19 bc 0d 17 03 3d 74 2a ae 3d
       0.029685875 -0.009372537 0.032004405 0.08504191
0000b0 d0 86 c5 3c 98 be 50 bd 23 36 56 3d 49 2d b8 3c
       0.024112135 -0.050963014 0.052297723 0.022482531
0000c0 3f 7b 67 3d 1c 47 1e bd 93 f7 a8 bd 65 ba e9 bc
       0.05651402 -0.038642034 -0.08250346 -0.028531263
0000d0 aa 41 84 bd 02 f0 90 3d a5 bf 05 3c fa 51 d2 3c
       -0.06457837 0.07077028 0.008163367 0.025673855
0000e0 c6 f0 17 3d 20 55 87 ba b4 e6 8f 3d 15 48 4c bd
       0.037094854 -0.0010325052 0.07026425 -0.04987343
0000f0 96 c0 c3 3c df c8 32 bd d7 5f 36 3d c7 d5 29 bc
       0.023895543 -0.043648597 0.044524994 -0.01036591
000100 b8 0f 36 3d 1e 1f 7f 3a c7 8f b5 3d e1 d5 0f bd
       0.044448584 0.0009732115 0.08865314 -0.03511608
000110 e8 60 02 bd da 7a 04 bd 66 28 9e 3d 80 bf 90 3c
       -0.0318307 -0.032343723 0.07722549 0.01766944
000120 56 e4 a8 3d 51 75 8c bd 9a 34 a9 bd c2 dc 84 bd
       0.082466766 -0.06858314 -0.08261986 -0.06487419
000130 48 de 63 bd f6 25 ca 3c c0 e8 00 3d 82 0f 76 3d
       -0.055631906 0.024676304 0.031471968 0.060073383
000140 6d 21 31 bd b3 c6 17 bd c6 69 b9 3c fc 30 5e bc
       -0.043244768 -0.03705473 0.022633445 -0.0135614835
000150 10 1e 53 3d dd f0 14 bd 49 93 85 3d ab ad 31 bd
       0.05154234 -0.036362518 0.06522233 -0.043378513
000160 55 e4 b4 bc 4c 57 56 3d 0f 53 d7 3b 1b 43 a1 bc
       -0.022081533 0.052329347 0.0065711807 -0.019685319
000170 53 dd 40 3d 7a 28 6a 3d c1 3c 78 bd d4 ce 4b bd
       0.04708607 0.057167508 -0.060604814 -0.049757794
000180 d6 31 a7 3d d0 6c df bc f1 44 e6 bc 85 a5 92 bd
       0.08163802 -0.027273566 -0.028109046 -0.071604766
000190 87 8b 4b bd 14 1c 0e 3d cc a7 f8 bc ac a3 47 bd
       -0.04969361 0.034694746 -0.03035345 -0.048740074
0001a0 bd 69 8b bb d8 b9 84 bd 54 e1 71 bd e8 fb fb bc
       -0.0042545483 -0.064807594 -0.05905278 -0.030759767
0001b0 41 48 77 bd 56 c5 07 bd 19 f8 95 3d b1 14 ba 3c
       -0.06037164 -0.03314718 0.073227115 0.022714945
0001c0 51 58 b7 3c e9 70 96 bd 1e 3c 74 bd 64 59 12 bd
       0.02238098 -0.07345755 -0.059627645 -0.03572978
0001d0 17 c0 95 3c 5b 66 8c bd eb 0a f3 bc 32 31 12 bd
       0.018280072 -0.0685546 -0.029668292 -0.035691448
0001e0 ae 56 76 3a e8 a2 c8 bc d8 1e 2f bc 0e 2e 44 bd
       0.00093970716 -0.024491742 -0.010688506 -0.047895484
0001f0 55 d8 50 bd 1f 78 7e bd 81 fe af bc 85 6b 74 bd
       -0.05098756 -0.062126275 -0.021483662 -0.05967285
000200 cb 57 9f 3d dc 9c 18 bb 4a 25 8a 3d 74 1d 0e 3d
       0.07780417 -0.0023286855 0.067453936 0.034696057
000210 f1 0e a6 bd 5b 32 7a 3d 6b ae 62 bc 1c c5 2d bd
       -0.081083186 0.06108318 -0.01383553 -0.042424306
000220 75 4c 67 bd 92 2f 9e bd 25 49 05 3d 22 d4 fd 38
       -0.0564694 -0.07723917 0.03254046 0.00012103493
000230 cd 33 d9 3c 27 51 6e bd e8 d3 9c 3d 79 53 14 bd
       0.026513958 -0.05818286 0.076576054 -0.03621242
000240 1a 01 f7 bc 3a 32 b0 3c ae 80 0e 3c bc 01 b6 3d
       -0.030151892 0.021508325 0.008697672 0.088870496
000250 a4 8f b4 3d fb 6a 64 bd b7 33 a0 3c a7 7f 82 bd
       0.0881646 -0.055766087 0.01955591 -0.06372004
000260 b2 6d 26 bc 68 73 88 bd 32 60 9a 3d 50 ae 81 bd
       -0.010157989 -0.06662637 0.07537879 -0.063320756
000270 d2 bf 30 3d 94 dc 35 ba f3 df d2 3c c2 d4 9f bd
       0.043151684 -0.0006937471 0.025741553 -0.07804252
000280 b7 48 a5 3d 24 01 cf 3c be d5 74 3c 1e 1f 91 bd
       0.0807051 0.025269099 0.014943538 -0.07086013
000290 79 6e 21 3d 68 b6 0e bc fc 12 0f bd dc 97 a0 3d
       0.039411996 -0.008710481 -0.034930214 0.07841465
0002a0 a9 30 ba 3c 6e f3 59 bd b8 7f bc bc bd ea 4e bc
       0.022728281 -0.05321067 -0.02301012 -0.012629208
0002b0 e1 f6 35 3d e9 4a b9 bc 99 1d 1c bd 4f bd 08 bd
       0.044424895 -0.022618728 -0.038114164 -0.033383664
0002c0 81 28 6d bd 40 e3 06 3d 91 c0 68 3d cd 27 a0 bd
       -0.057899956 0.032931566 0.05682427 -0.078200914
0002d0 1b fd 8b ba fe 98 3b 3d 30 ef 82 bb 7c af ec bc
       -0.001068029 0.0458002 -0.0039957985 -0.028892271
0002e0 4b c0 82 3d 09 02 43 3d 5a d3 0d 3d 45 d1 9b bb
       0.06384333 0.047609363 0.03462539 -0.0047551715
0002f0 ba 47 a6 bc 66 b7 12 3c f6 63 ad bc 09 1e fd bc
       -0.020297874 0.008954858 -0.02116583 -0.030898111
000300 9e ab 89 3d 5c 25 7f 3d f0 6f c1 3c bc bb 96 bc
       0.067221865 0.062291488 0.023612946 -0.018400066
000310 e0 f3 32 3a 69 02 8b bc d2 48 6f 3c f7 fe 9a 3c
       0.00068265013 -0.016968923 0.014604764 0.018920405
000320 79 83 bb bd 42 01 3e bd a7 60 66 3d 63 7e 8e 3c
       -0.09155936 -0.04638792 0.05624452 0.01739425
000330 4c 82 9a bc cd 5d 86 bd 32 4c 88 bd 11 1a b9 bd
       -0.018860959 -0.0656086 -0.06655158 -0.09038175
000340 36 68 2d bd c0 92 46 3c a6 e1 42 3d 78 8e 95 3c
       -0.04233571 0.012119949 0.047578476 0.018256411
000350 eb 01 a5 bd 28 bc 6a bd 54 a0 a0 bc 31 d5 9a 3d
       -0.080570064 -0.057308346 -0.0196077 0.07560194
000360 38 a4 bb 3b 33 ac 2f bd 0c be ea 3c 6b c2 f2 bc
       0.0057263635 -0.04288883 0.028655075 -0.029633721
000370 68 b7 24 bd 0b e7 42 3d 41 99 bd bc 0e 25 9c bc
       -0.040213972 0.04758362 -0.023144366 -0.019060638
000380 10 b9 99 bd 8f d0 8f 3d 44 94 2b 3d 82 37 b9 3c
       -0.07506001 0.07022201 0.041889444 0.022609476
000390 d5 9b 95 bd 2f d2 f6 bd 42 2f 86 bd 34 93 93 3d
       -0.07305113 -0.12051808 -0.065519825 0.07205811
0003a0 31 df ff 3c 3c 41 ab 3d 7a 96 57 3d 71 59 ad 3c
       0.031234356 0.08362052 0.05263374 0.021160813
0003b0 ca 8f 6a bb 59 4c 5b bd 40 cb 81 bd cd 40 a4 bd
       -0.0035791271 -0.053539608 -0.06337595 -0.08020172
0003c0 05 35 31 3d 62 fc df bc bb 73 d0 bc 16 8b 00 bd
       0.043263454 -0.027342025 -0.02544581 -0.031382643
0003d0 5e 70 fd bb 45 7a 95 bd 0a 31 62 bd f1 fe 2d 3d
       -0.0077343425 -0.07298712 -0.05522255 0.04247946
0003e0 45 db 33 bc 3b 1b 16 3d 82 d9 1f bd 41 80 42 bd
       -0.010977571 0.036647063 -0.03902579 -0.047485594
0003f0 45 25 12 bd bd de fc bc 88 28 9b bc e1 aa af bd
       -0.035680074 -0.030867929 -0.018940225 -0.085775144

mlp.0.bias f4 [128]
000000 4d 06 d8 3c ed 7c 69 bd cb cf 9b 3d 8a a7 71 bc
       0.026370192 -0.057003904 0.07607993 -0.014749417
000010 e8 59 04 bd 3a e3 8d bb e6 2d 80 3d ba 63 79 bd
       -0.032312304 -0.004330066 0.062587544 -0.060886122
000020 02 12 c8 3c 0f 21 9a bc e6 1c a2 bc dd f8 ac 3c
       0.02442265 -0.018814592 -0.01978917 0.021114761
000030 e5 d5 fa 3c 34 5c 85 bd 45 4f b8 3c f4 99 80 3d
       0.030619571 -0.06511727 0.022498736 0.06279364
000040 cb 11 50 bd e5 dc 72 3d 22 33 4d bd e4 89 5f 3d
       -0.05079822 0.059292693 -0.050097592 0.054574862
000050 36 aa 5f 3d ea a9 fb 3c 4b eb c9 3c 62 d7 e5 3b
       0.054605685 0.03072067 0.02464833 0.007014201
000060 b2 e5 19 bc 51 a1 7e 3d de 56 d8 bb b6 42 9e 3d
       -0.009393143 0.062165562 -0.0066021523 0.07727568
000070 d9 ca cb 3d 09 41 ac bd 50 f2 70 3d 98 66 ee 3c
       0.099507995 -0.08410842 0.058824837 0.029101655
000080 0b 03 85 bd 40 7d 0f bd c4 a2 64 3c e3 07 9f 3d
       -0.06494721 -0.035031557 0.013954822 0.07765176
000090 fe a6 30 3d 68 5d 5c bc e6 0b 2e bd 6d 3d 2a bd
       0.043128006 -0.013450004 -0.042491816 -0.041562486
0000a0 34 2a 88 bc 5e 8b 9d ba 6e 54 ae bd e7 bb 89 bd
       -0.016621687 -0.0012019684 -0.085121974 -0.06725293
0000b0 ab c2 51 bd e7 be ea 3b df 8f 97 3c 9b a1 cd 3c
       -0.05121104 0.0071638706 0.01850122 0.025101474
0000c0 95 6f a4 3d 8f 02 0e 3c d3 19 13 bd 93 8d 01 3d
       0.08029095 0.008667602 -0.0359133 0.031629156
0000d0 60 ae 04 bd f9 ec 83 3d 5e d8 07 bd 11 32 33 bd
       -0.03239286 0.06441683 -0.03316533 -0.04374892
0000e0 50 d3 6d bc 7b dd 37 bd fc 8c 7c bb b3 4e bb b8
       -0.014515713 -0.044888955 -0.0038536182 -8.931514e-05
0000f0 b1 71 50 3c 6c 28 92 bc b0 f8 85 bd 65 b2 ae bd
       0.012722419 -0.01784154 -0.06541574 -0.0853012
000100 9c 11 8e bd 2b da 5e bd 59 c8 b3 bd 37 ed 99 3d
       -0.069369525 -0.05440728 -0.08778448 0.07515948
000110 81 4b 10 3d f2 f2 4d 3d a8 91 36 3d 05 4b 83 3c
       0.035228256 0.05028052 0.044572502 0.016026983
000120 7f 09 05 bd fa 7e aa bc be 6d b9 bc b8 01 d3 3c
       -0.03247976 -0.0208125 -0.022635337 0.025757656
000130 22 2d be 3c 08 3c b8 bd 94 4e 83 3c b5 ef 91 bd
       0.02321488 -0.08995825 0.01602868 -0.071257986
000140 ff 12 72 3d 80 c1 5e 3c 69 15 52 bb c2 db 99 bd
       0.059100147 0.013595939 -0.0032056218 -0.075126186
000150 71 c5 2d 3c 1f 40 44 3c cf b6 96 3c 9b d6 5f bd
       0.010606156 0.011978178 0.018397717 -0.054648023
000160 e6 1f 55 bd bc 7d 34 bd 44 9f e9 bc 79 af 54 bd
       -0.052032374 -0.044065222 -0.028518327 -0.051925156
000170 a1 71 97 bd a7 66 a2 3d 59 e7 aa bd 36 e6 de bc
       -0.0739472 0.07929736 -0.08344907 -0.027209383
000180 80 99 d2 3b dc 15 0b bd 61 56 dc bc 2c e0 94 3c
       0.00642699 -0.033956394 -0.026896657 0.0181733
000190 cb 65 eb bc 29 74 e6 bc 23 0d 6e 3d 3e 99 ab bc
       -0.028735062 -0.028131561 0.058117997 -0.020947095
0001a0 5b ce 80 bc db 62 2c 3d c0 3d ba bb d5 fe 62 bd
       -0.015723398 0.042086463 -0.0056836307 -0.055418808
0001b0 e1 91 83 3d 48 cf 9a bd c4 1e a3 bd 7a 34 4a bd
       0.064243086 -0.07559067 -0.079648525 -0.04936645
0001c0 a2 70 17 3c 5b f6 7d 3d b1 4d 33 bd 3e 66 45 bd
       0.009243162 0.06200252 -0.043775264 -0.04819321
0001d0 f9 a9 a4 3d a4 88 93 3d 99 91 88 3c 25 56 8f bd
       0.08040232 0.072037965 0.016670989 -0.06998853
0001e0 98 dc 45 3d e3 c0 35 b9 97 de 9a bd de bd 57 3d
       0.048306078 -0.00017333361 -0.07561987 0.052671306
0001f0 e5 f8 38 bd 74 07 94 3c 03 99 4e bd d7 4e 93 3d
       -0.04515924 0.01806996 -0.050438892 0.07192772

mlp.1.weight f4 [128]
000000 2f 5b 7b 3f 03 ed 80 3f 74 9f 7b 3f db d0 81 3f
       0.9818601 1.007233 0.9829018 1.0141863
000010 8b 3f 7e 3f 2a 28 7c 3f 0d 69 7b 3f 83 ff 79 3f
       0.9931571 0.98498785 0.9820717 0.97655505
000020 ee 5f 81 3f 54 df 7c 3f a6 76 7f 3f 3a 91 7a 3f
       1.01074 0.9877827 0.9979042 0.9787785
000030 cf 2e 85 3f 7b 6e 81 3f 38 63 84 3f 66 26 81 3f
       1.040491 1.0111841 1.0342779 1.0089843
000040 49 10 7a 3f d1 37 7b 3f d0 4b 85 3f ba b0 84 3f
       0.976811 0.98132044 1.0413761 1.0366433
000050 3a 19 7d 3f 54 46 7d 3f 6d a0 7b 3f 3b ba 80 3f
       0.9886662 0.9893544 0.98291665 1.0056833
000060 4e ee 81 3f ab 8a 7c 3f db 12 80 3f ca 78 80 3f
       1.015085 0.9864909 1.0005754 1.0036862
000070 3b d9 80 3f 35 6a 7a 3f 7f 72 7e 3f 80 e6 80 3f
       1.0066293 0.9781831 0.9939346 1.0070343
000080 85 2f 7d 3f 1e 38 81 3f da 7f 83 3f 6d a0 7b 3f
       0.98900634 1.0095251 1.0273392 0.98291665
000090 a1 7a 7d 3f 24 34 81 3f e2 98 80 3f 5d f7 82 3f
       0.9901524 1.0094037 1.0046656 1.0231739
0000a0 f5 0d 84 3f e0 7d 82 3f 21 ee 79 3f 1b ff 7f 3f
       1.0316759 1.0194664 0.9762898 0.99998635
0000b0 fb 89 7b 3f 03 c1 7b 3f b7 75 80 3f 07 ff 7f 3f
       0.98257416 0.9834139 1.0035924 0.99998516
0000c0 2c 0c 7d 3f 16 de 7d 3f 9a 2a 7a 3f ff 1d 80 3f
       0.988467 0.99167 0.97721255 1.0009154
0000d0 eb 7e 83 3f d4 23 7c 3f 8a 46 7e 3f 58 9b 7f 3f
       1.0273107 0.9849217 0.99326384 0.9984641
0000e0 a9 c5 7e 3f 89 50 7d 3f a0 45 80 3f 17 96 81 3f
       0.99520355 0.9895101 1.0021248 1.0123929
0000f0 e0 9d 7f 3f 22 0f 7b 3f 5a 2c 7e 3f 6a 33 7a 3f
       0.99850273 0.98069966 0.99286425 0.977347
000100 58 56 81 3f 04 85 81 3f bd cf 7e 3f 1a e3 7a 3f
       1.0104475 1.0118718 0.99535733 0.9800278
000110 20 ef 78 3f 42 96 82 3f ff 0c 7f 3f 58 6b 7a 3f
       0.97239876 1.0202105 0.99629205 0.97820044
000120 49 3d 7d 3f ea 6f 7a 3f 34 f8 80 3f cf 49 80 3f
       0.9892164 0.9782702 1.0075746 1.0022525
000130 c8 33 80 3f 4b f8 77 3f b1 de 81 3f 1e f0 7e 3f
       1.0015802 0.9686324 1.0146085 0.9958514
000140 53 01 7f 3f 0c 34 80 3f b1 e1 80 3f f3 10 7f 3f
       0.99611396 1.0015883 1.0068876 0.9963524
000150 95 f9 7d 3f 76 9e 81 3f ab cc 7f 3f 11 3a 7c 3f
       0.99208957 1.0126483 0.99921674 0.985261
000160 32 7d 7f 3f 2e f7 7b 3f c7 cc 83 3f 1c 84 7a 3f
       0.9980041 0.9842404 1.0296868 0.9785783
000170 da 74 7c 3f 24 8f 82 3f 78 c4 7c 3f 11 c2 7f 3f
       0.986158 1.0199933 0.9873729 0.99905497
000180 18 4f 81 3f 26 9f 7f 3f 31 9f 7e 3f b3 67 7d 3f
       1.0102262 0.99852216 0.99461657 0.9898636
000190 bf b9 78 3f 8f dd 78 3f 12 95 7a 3f 14 89 80 3f
       0.97158426 0.9721307 0.97883713 1.0041833
0001a0 89 f6 78 3f 35 6c 7a 3f d2 6a 82 3f ff 0a 81 3f
       0.9725118 0.9782136 1.0188849 1.0081481
0001b0 d5 a7 80 3f 5f 18 80 3f 4b 84 81 3f 14 b5 7b 3f
       1.0051218 1.0007437 1.0118498 0.9832318
0001c0 ee 96 7d 3f 2b 44 7c 3f a0 b1 82 3f 14 e3 7b 3f
       0.99058425 0.98541516 1.0210457 0.9839337
0001d0 b5 28 82 3f fe dc 81 3f 7d df 7c 3f d2 ff 7a 3f
       1.0168673 1.0145566 0.98778516 0.980466
0001e0 58 3b 80 3f 9a 0f 80 3f cf 4c 81 3f 17 df 7a 3f
       1.001811 1.0004761 1.0101565 0.9799666
0001f0 25 da 83 3f 7e 6e 7c 3f e9 9b 7c 3f f0 f8 7a 3f
       1.0300947 0.986061 0.986754 0.980361

mlp.1.bias f4 [128]
000000 73 07 9a bc 61 f0 06 bb 59 22 60 bc cc df af bb
       -0.01880238 -0.0020590054 -0.013680064 -0.005367255
000010 2c f6 26 bc 73 13 ab bc 4b a6 db bc a2 dd be bc
       -0.010190528 -0.020883298 -0.026812693 -0.023299042
000020 79 32 20 3c 25 da 61 bc c1 02 95 bb 5c 79 c3 bc
       0.009777659 -0.01378492 -0.0045474474 -0.02386158
000030 e0 61 b6 3c ac bd b0 39 cb 26 89 3c 22 4b c7 3a
       0.022263467 0.00033710652 0.01674213 0.0015204886
000040 22 24 8f bc 2f 34 d3 bc 2a 61 a4 3c a4 c0 b7 3c
       -0.017473284 -0.025781719 0.020065863 0.022430725
000050 53 ff 60 bc d9 58 1b bc 6c 66 56 bc 92 82 d0 bb
       -0.013732749 -0.009481632 -0.013085943 -0.0063632214
000060 ed 8f 37 3b c4 be 3b bb 9f 45 c7 3b b6 d6 db 3b
       0.002800937 -0.002864764 0.0060812975 0.006708945
000070 2b bc 5d 3c 50 af 90 bc 15 74 6b bc af 97 1d ba
       0.013533632 -0.01766172 -0.014370938 -0.00060116773
000080 44 6d 86 bc 08 64 80 3b 29 46 b9 3c d0 ec 1c bc
       -0.016409524 0.0039181747 0.022616463 -0.009577945
000090 9e fc 91 bc 90 8d 2f 3b 76 35 29 3c 8f c8 2b 3c
       -0.017820653 0.0026787259 0.0103276875 0.010484829
0000a0 24 46 ca 3c cd 8a 16 bc d3 10 bb bc 29 8c 8d bb
       0.024691649 -0.009188366 -0.02283517 -0.004319687
0000b0 2b d7 5f bc c9 00 d1 bc d5 c1 8a bc 17 7f 53 bc
       -0.01366214 -0.02551307 -0.01693813 -0.012908719
0000c0 df 72 f2 bb f7 d6 84 bc 7f 58 9d bc b9 8b 19 bc
       -0.0073989476 -0.016215784 -0.019207237 -0.009371691
0000d0 a8 58 b6 3b 8b df ad bc f6 bc 49 bc 2e 01 c3 bb
       0.005564768 -0.021224758 -0.012313118 -0.0059510684
0000e0 a5 8c 39 bc 9b 5d ab bb e0 da 86 3a ac 26 5e 3a
       -0.011325036 -0.0052296645 0.0010288619 0.00084743905
0000f0 1c 2b a8 bb 5b c4 67 bc da 9d d8 bb 25 d7 b5 bc
       -0.005132092 -0.014145936 -0.0066106142 -0.022197315
000100 60 fa 39 bc c2 f4 82 3c 7c 3d 42 bc 29 92 88 bc
       -0.011351198 0.01598585 -0.011855479 -0.016671257
000110 17 59 bf bc e2 a6 21 3c 53 f8 6e bc 21 19 a0 bc
       -0.023357911 0.009866448 -0.014585572 -0.019543232
000120 0d f8 84 bc 5e 0f 8c bc a3 40 17 ba c3 28 59 bc
       -0.016231561 -0.017097171 -0.00057698245 -0.013254347
000130 9e b4 c8 bb 94 c0 03 bd d5 e4 bf 3b 58 e5 7e bc
       -0.006125047 -0.03216608 0.0058561363 -0.0155576095
000140 87 12 53 bc 65 ad ba ba 52 5a 02 bb 94 d6 c4 bc
       -0.012882835 -0.001424235 -0.001989026 -0.0240281
000150 81 d0 2d bc ba d2 ea bb 11 13 02 bc 97 3f e2 bb
       -0.010608793 -0.007166234 -0.007939116 -0.006904553
000160 e6 da 93 bc c0 f8 11 3a bf bc a5 3c 82 39 8b bc
       -0.018048715 0.00055683777 0.020231603 -0.016995195
000170 f7 98 8f bc a0 3d 96 bb fd d5 9c bc 93 0a 5e bc
       -0.017528994 -0.004584983 -0.019145006 -0.013552326
000180 5f b3 f1 3a 55 f5 07 bc 6a 03 ad bc f2 c6 e1 bc
       0.0018440298 -0.008298238 -0.021119792 -0.027560685
000190 21 0b c4 bc a5 d6 00 bd 6f 78 aa bc 2d e3 ab 3b
       -0.023931088 -0.0314547 -0.02080938 0.0052455873
0001a0 c4 05 a1 bc 1d 78 cc bc 76 6c 6c 3c 3a dc 61 bb
       -0.01965607 -0.024959618 0.014430156 -0.003446354
0001b0 0d f8 a3 ba fe cd fa bb f9 84 de bb a4 75 21 bc
       -0.0012509838 -0.0076539507 -0.006790754 -0.009854708
0001c0 99 03 4d bc dc 88 a9 bc ff 55 87 3c 49 93 69 bc
       -0.012513065 -0.020695142 0.016520498 -0.014256307
0001d0 41 55 29 3b fe 88 3c 3b 18 53 bd bc d3 aa 51 bc
       0.0025838169 0.0028768177 -0.023110911 -0.012797075
0001e0 8a 3b df bb a8 2e 79 3a 3e 44 15 bc d3 6f 9e bc
       -0.0068125175 0.00095055485 -0.0091105085 -0.019340431
0001f0 a3 b3 8c 3c e9 ab 00 bc 92 92 6c bc c1 eb 56 bc
       0.017175501 -0.007853487 -0.014439242 -0.013117732

mlp.4.weight f4 [64, 128]
000000 15 15 0f 3c 92 d7 ea bb a8 80 72 3d 98 fb 5c 3d
       0.008733054 -0.0071668113 0.059204727 0.053950876
000010 33 24 a2 bc f2 bc 54 3d ca 8f 4a bd e5 69 ef bc
       -0.019792652 0.051938005 -0.049453534 -0.0292253
000020 36 fe 75 bd eb da 8b bd fe 4e 8f 3d ec b6 03 3d
       -0.060056888 -0.06828865 0.069974884 0.03215687
000030 18 21 f0 bc 15 9a b2 bd a7 71 9d 3d 4a b0 82 3c
       -0.029312655 -0.08720795 0.07687693 0.015953202
000040 7a b1 54 bd c2 9e 90 3a f2 b1 3a bb c4 df 18 3d
       -0.051927067 0.0011033642 -0.0028487411 0.037322775
000050 f4 b5 38 bd a8 65 50 bd d8 ad 37 bd 9d eb 3e bd
       -0.0450954 -0.050878197 -0.044843525 -0.046611417
000060 1b 05 9b 3c c2 09 1a 3d 67 25 e9 3c 36 7e 78 3d
       0.018923333 0.037606962 0.028460218 0.06066724
000070 22 ac 41 bd a9 8c 14 bd 7b d7 67 bd 3f 74 6c bd
       -0.0472833 -0.036266956 -0.056601983 -0.05772805
000080 58 eb 35 bd d3 c4 ec bb 19 7c d3 3d 89 9d 9c bd
       -0.044413894 -0.0072256117 0.10326404 -0.07647235
000090 00 51 96 3d 57 b6 67 3d e4 58 56 3d 8f 23 92 3d
       0.07339668 0.056570377 0.052330866 0.071356885
0000a0 1c 8c 94 3d e1 ca c3 3d ff 85 03 3d 34 87 dd bc
       0.07253286 0.095601805 0.03211021 -0.027042009
0000b0 f3 d1 df 3c 90 ed 9e bb ca 65 69 bd 51 04 f9 3c
       0.027321791 -0.004850097 -0.05698184 0.030397566
0000c0 3a 62 9b 3d f5 b0 88 3d 44 b4 07 bd 06 c4 03 3c
       0.075870946 0.06674377 -0.0331309 0.008042341
0000d0 a9 ca 8a b9 18 4e 17 3d a0 ed b5 bd 9b 54 32 bc
       -0.00026472405 0.03693971 -0.08883214 -0.010884429
0000e0 60 d1 e8 b9 9f a5 ba 3d bb 83 b1 bb 46 76 06 bd
       -0.00044406485 0.09113621 -0.005417315 -0.032827638
0000f0 4e c0 b3 bc a1 6c a3 3d 69 13 d6 bc f6 ac 40 3c
       -0.021942284 0.07979704 -0.026132302 0.011759987
000100 ed 61 4e 3d e6 6d bb bd 9e e2 8b bc e7 9b 82 bd
       0.050386358 -0.09151821 -0.017075833 -0.06377392
000110 4f b2 90 bc a2 85 36 3c 94 1f 1b bc 08 eb 4d 3d
       -0.01766315 0.011140259 -0.009467978 0.05027297
000120 54 80 97 bd 15 38 36 3d d4 ac ce bc fe d9 11 3d
       -0.073975235 0.044487078 -0.025228895 0.035608284
000130 f9 81 09 bd 00 f8 88 3d c8 c5 c6 3c fb 04 0e 3d
       -0.033571217 0.06687927 0.024264231 0.03467272
000140 f9 b9 96 bd a8 7c bb 3c 5f 8a 30 3d a5 4b 95 bd
       -0.0735969 0.02288659 0.04310071 -0.07289819
000150 fa ab 82 3d 99 4e 3b 3d e1 9b e8 bc f1 16 7f bd
       0.06380458 0.045729253 -0.028394641 -0.062277738
000160 ed d7 60 3d bf f5 d3 bc ee 74 86 3d 54 ee e1 39
       0.054893423 -0.025874017 0.06565271 0.00043092913
000170 72 51 9b 3d 8c 2e 9c bd 60 bc e2 bc 5c cc 79 3c
       0.07583894 -0.076260656 -0.027677715 0.015246477
000180 e1 3e d2 bc d2 4c 07 bc 68 1c b0 bc 03 b5 c3 3d
       -0.025664749 -0.0082580615 -0.02149792 0.095560096
000190 5e 2e 4a 3d 09 8c 85 bd ea 2e 3d 3c 1b 1e a0 3d
       0.049360625 -0.0652085 0.01154683 0.07818242
0001a0 68 43 38 3d ed 48 a1 3d 94 ce 14 bd c5 88 c6 3c
       0.04498616 0.078752376 -0.03632982 0.024235139
0001b0 be 0a d0 3d c1 ba 9b 3d 46 65 44 bd 03 0c cb 3b
       0.10158299 0.0760398 -0.047948144 0.0061965003
0001c0 1a e7 00 3b 66 bd aa 3d e1 15 92 bc 10 e4 3b bc
       0.0019668997 0.08336906 -0.017832698 -0.011467949
0001d0 32 08 53 3d 4d 6a 48 3b a6 89 83 bd 86 ef 8f 3d
       0.051521488 0.0030580938 -0.06422739 0.07028107
0001e0 89 07 2f bd d4 23 7f 3d d2 d1 1e bd 19 1a 8d bd
       -0.042731795 0.062290028 -0.03877432 -0.06889743
0001f0 58 3a 12 bd 91 9b d5 3b a6 5e 8b 3d 12 b9 91 bc
       -0.035700172 0.006518789 0.06805162 -0.017788444
000200 c0 76 5d 3d 2c a7 0f 3c 2e e0 ee 3c 83 53 8f 3d
       0.054068327 0.008767884 0.029159632 0.069983505
000210 96 12 4a 3d 30 eb 72 3d 11 e0 51 bd 9b c1 a2 bd
       0.04933413 0.059306324 -0.051239077 -0.079470836
000220 59 48 6e 3d 75 1c 8d 3d 27 6a 09 3d e1 f1 c4 3c
       0.058174465 0.068901934 0.0335485 0.024041118
000230 d5 13 f7 bc 6f 95 9a 3c b5 97 7d bd 0b cc 8c bc
       -0.030160824 0.018870084 -0.061912257 -0.017187139
000240 9c c7 8c 3d 71 e8 80 bd 22 ad c8 bd 77 b8 b5 bc
       0.0687401 -0.06294335 -0.097986475 -0.022182686
000250 93 6c da 3c 8e 79 91 bd 3a 1c 38 3d e5 4e ea b9
       0.0266631 -0.07103263 0.044948794 -0.0004469074
000260 2d 79 eb 3a 3e 74 30 3d bc 1e fe 3c ad 5b 42 bc
       0.001796519 0.043079607 0.031020515 -0.0118626775
000270 8d 20 9d bd c2 b8 7c 3d bd 4b 04 bd 83 a7 6a bd
       -0.07672224 0.061699636 -0.032298792 -0.057288658
000280 3d d2 84 3c d4 32 34 3d 04 33 41 bc af d7 42 bd
       0.01621353 0.043993786 -0.011791948 -0.047568973
000290 8e c3 a8 bd 6e 55 a4 3c 05 25 bd 3c ea 48 0d 3d
       -0.08240424 0.020060267 0.023088941 0.034493364
0002a0 61 a1 86 3d 21 02 81 bd 11 0a c9 3c be e6 97 3d
       0.06573749 -0.06299234 0.024540933 0.074170575
0002b0 6a c2 76 bc 7c 70 1a bd 7c 0c 74 bd f4 d3 5a 3b
       -0.015061 -0.03770493 -0.05958222 0.0033390494
0002c0 08 5f 4d bd 6e e8 80 bd 9b bf 9f bd a2 84 ab 3c
       -0.050139457 -0.062943324 -0.07800218 0.020937268
0002d0 e7 b3 8e bc e9 7a e5 3c 59 71 25 3d 3f 2d b6 bd
       -0.017419768 0.02801271 0.0403913 -0.08895349
0002e0 a6 78 24 bd c0 08 8a 3d 84 3d df bc 40 90 43 3d
       -0.04015412 0.0673995 -0.027251013 0.04774499
0002f0 75 68 af bd 2a b5 87 3d 8e f8 09 3d 80 53 5c bd
       -0.085648455 0.06626351 0.033684306 -0.05379057
000300 7c 92 4f 3c 68 0c 18 3d 65 c8 1f 3d 9e f4 03 b7
       0.012669202 0.037121207 0.03900947 -7.865163e-06
000310 1c f9 d0 bc 3a 43 17 bd 32 e6 71 bd b9 30 90 3d
       -0.02550941 -0.036929347 -0.059057422 0.07040543
000320 57 41 15 3c 13 81 73 3c 70 86 8c bd 6e cf 63 bd
       0.0091098165 0.014862317 -0.068615794 -0.055617742
000330 17 f1 06 bc 9b c4 03 3d a1 54 63 3d a6 35 8c bc
       -0.008236191 0.03216992 0.05550063 -0.017115425
000340 3c 14 c7 3c 96 8e ac bc 1e 59 15 bd 7a fd 95 3d
       0.02430164 -0.021064084 -0.036461942 0.073237374
000350 eb e5 86 3c 73 dd 8a 3d af f0 a9 bd cd 09 56 3b
       0.016467055 0.06780519 -0.0829786 0.003265965
000360 60 4d 30 bd 57 62 70 3d c0 93 f0 3c f3 b3 24 3c
       -0.04304254 0.058687534 0.029367328 0.010052669
000370 11 c7 2d 3d 3b 06 81 bd d5 8b b9 bc 0d ff e5 3c
       0.042426173 -0.063000165 -0.022649685 0.02807572
000380 13 95 65 bd 0f 0d 8a 3b 4f 47 26 3c 65 96 95 bd
       -0.05605037 0.0042129825 0.010148837 -0.07304076
000390 77 44 51 bd f8 38 68 bd c6 d5 b9 bd 5a 45 21 bd
       -0.051090684 -0.056694955 -0.09073977 -0.03937278
0003a0 a9 37 c2 3c 18 f1 ad 3c ad 54 03 3d 09 5e 03 bb
       0.023708181 0.021233127 0.032063175 -0.0020045063
0003b0 90 89 6f bd 94 6a a0 bd bc f1 7c 3d 26 02 0c 3c
       -0.0584808 -0.07832828 0.061753973 0.008545434
0003c0 71 0d 60 3d d2 92 ad bd 8b 95 65 bd 6e 74 a1 3a
       0.05470032 -0.084752694 -0.05605082 0.0012318024
0003d0 2e 5e 71 3d e1 16 ab bd e2 30 61 bd e5 db 8c bd
       0.058927707 -0.08353973 -0.05497826 -0.06877879
0003e0 5a a3 fa 3c fe 85 f5 bb 4a c0 d6 bc b8 98 2b 3d
       0.03059547 -0.0074927798 -0.026214737 0.04189369
0003f0 b7 f7 95 bd 20 ea 6a bc ef c9 07 bd c2 f6 8b bc
       -0.073226385 -0.014338046 -0.033151563 -0.017085437

mlp.4.bias f4 [64]
000000 81 c6 ba 3c a2 4d 7a 3a 95 ca 4f bd e4 aa 34 bd
       0.022799732 0.00095483114 -0.050730307 -0.044108286
000010 ed 58 a3 bd 53 a0 02 bc 7d cc 14 bd 56 0f 42 bc
       -0.079759456 -0.007972795 -0.036327828 -0.011844477
000020 ce c0 8f 3d d3 30 39 3c eb ba 57 3d 92 6f 40 3d
       0.070191965 0.0113031445 0.052668493 0.0469814
000030 78 32 7e 3d a7 ca a6 3d 93 6e d9 3c 7d 79 94 3d
       0.06205985 0.081441216 0.026541984 0.072497346
000040 56 40 9b bd 14 00 be 3c 2d d0 7f 3d bb 2c c1 bd
       -0.075806305 0.023193397 0.06245439 -0.0943236
000050 3a 57 9f bd 0c 46 bd bc 5b 36 1a 3d 99 1e 5a 3d
       -0.07780309 -0.02310469 0.037649494 0.053251836
000060 ad e6 75 bd 9b 3c b2 3d c9 14 7d bc 2c d9 ff bc
       -0.060034443 0.08702966 -0.01544685 -0.031231485
000070 46 d4 13 bd 54 85 54 3d 07 60 d7 3c 32 66 9a 3c
       -0.03609111 0.051884964 0.026290907 0.018847559
000080 b2 30 99 bd c6 4d 40 bc eb cc b0 bd ef c1 b7 bd
       -0.07479991 -0.011737293 -0.08632835 -0.08972537
000090 a1 14 00 3d 5d f4 f9 bc 86 0c d0 bd 87 78 9c bd
       0.031269673 -0.03051203 -0.10158639 -0.07640176
0000a0 15 59 ae 3d cd 10 b4 3d 59 4e 8e bd 53 53 20 bd
       0.08513085 0.08792267 -0.069485374 -0.039141964
0000b0 7b 33 77 3d da 42 0c bc 3d 00 ae bb f6 af 17 bd
       0.06035183 -0.0085608605 -0.005310087 -0.037033044
0000c0 2b b7 33 3d 14 34 ab bd e1 42 a8 bd 30 4c cb 3c
       0.043875854 -0.083595425 -0.08215881 0.024816602
0000d0 66 7c 21 3d 03 c7 18 3d 6d cd f3 bc 7f 1c ba bc
       0.039425276 0.037299167 -0.02976104 -0.022718666
0000e0 3a fb 1a bd 56 03 4d bd 9e bd a3 bd 92 d3 31 3d
       -0.037837245 -0.05005201 -0.07995151 0.04341466
0000f0 8b 47 50 bd 22 d8 bb bd e4 99 e0 3c ab 1b 6f 3d
       -0.05084948 -0.091720834 0.02741713 0.058375996

mlp.5.weight f4 [64]
000000 8e 26 84 3f 77 49 80 3f a8 ac 85 3f 4b 35 7f 3f
       1.0324266 1.002242 1.0443316 0.99690694
000010 64 d5 84 3f 7d bc 86 3f b0 5c 81 3f 42 c3 85 3f
       1.0377622 1.0526272 1.0106411 1.0450213
000020 e9 ed 83 3f dc 1a 81 3f 4b db 86 3f 8f bf 87 3f
       1.030698 1.0086322 1.0535673 1.0605334
000030 22 43 81 3f c4 23 86 3f 47 79 86 3f f7 31 83 3f
       1.0098612 1.0479665 1.0505761 1.0249623
000040 67 79 7f 3f aa 77 7d 3f b8 a9 84 3f e3 81 81 3f
       0.9979462 0.9901072 1.0364294 1.0117763
000050 fe 48 80 3f 71 97 85 3f 9a 7d 84 3f c1 15 7d 3f
       1.0022275 1.0436841 1.035083 0.9886132
000060 14 0c 86 3f bc a5 85 3f 58 86 7f 3f 0d 43 81 3f
       1.0472436 1.0441203 0.9981437 1.0098587
000070 5a 1a 83 3f cb ed 84 3f 8e 01 82 3f fd 36 86 3f
       1.0242417 1.0385069 1.0156724 1.0485531
000080 a9 80 84 3f d5 14 80 3f 82 0c 80 3f fe bb 81 3f
       1.0351764 1.0006357 1.0003817 1.0135496
000090 e3 0c 82 3f a2 4e 84 3f dc 7e 7c 3f 4f a9 7d 3f
       1.0160183 1.0336497 0.9863107 0.9908647
0000a0 f0 f0 84 3f 43 3a 82 3f 8b f8 7d 3f 8b 2d 86 3f
       1.0386028 1.017403 0.9920737 1.0482649
0000b0 80 7d 84 3f bd b7 84 3f 7d dd 84 3f a4 4b 80 3f
       1.03508 1.0368572 1.0380093 1.0023084
0000c0 88 7c 88 3f e1 b7 85 3f 30 67 84 3f 7b 43 7e 3f
       1.0663004 1.044674 1.034399 0.9932172
0000d0 ff 88 83 3f 75 cc 83 3f 7f f2 7c 3f 75 f9 86 3f
       1.0276183 1.029677 0.9880752 1.0544878
0000e0 ab aa 85 3f 6f b2 84 3f 6c 4f 83 3f 3e 5f 85 3f
       1.0442709 1.0366954 1.0258613 1.0419691
0000f0 a2 2d 7d 3f 58 ad 82 3f ca 35 85 3f 96 dc 80 3f
       0.98897755 1.020915 1.040704 1.0067317

mlp.5.bias f4 [64]
000000 cc 30 08 3d 61 da 5a 3b 1a ef 1a 3d 18 fa 32 bc
       0.03324966 0.0033394324 0.03782568 -0.010923885
000010 79 23 e8 3c bd ef 00 3d 06 09 6f 3b 02 4a cb 3c
       0.028337227 0.031478632 0.0036473884 0.024815563
000020 06 c8 c6 3c b4 87 68 3c 8c 5b 29 3d 62 b7 3f 3d
       0.0242653 0.01419251 0.04134707 0.046805747
000030 e5 23 f7 3b ab b5 16 3d 19 e8 de 3c d5 eb 25 3c
       0.0075421208 0.036794346 0.027210282 0.0101270275
000040 2f c9 c1 b9 4b c7 16 bc 2f f0 00 3d a2 28 1a 3c
       -0.00036961722 -0.009202789 0.031479057 0.009409102
000050 b6 01 83 3a 05 92 28 3d 8a 74 fc 3c 81 b5 41 3c
       0.0009995017 0.04115488 0.030817289 0.011823059
000060 49 4f 1e 3d bc a0 f1 3c f3 b6 70 bb 36 c5 47 3c
       0.03864983 0.02949559 -0.003673014 0.012193015
000070 1a 6f c6 3c ad 46 e6 3c db 80 32 3c c9 91 00 3d
       0.0242229 0.028109873 0.010894979 0.03138903
000080 2c 95 db 3c ac 5f 0e 3b 27 95 fc ba 57 6a 8c 3b
       0.02680453 0.0021724505 -0.0019270525 0.0042851376
000090 1a 03 59 3c 3a 54 96 3c 2b b0 85 bc 73 d3 51 bc
       0.013245368 0.01835071 -0.016319355 -0.012806761
0000a0 a4 4b 24 3d 21 ad 8e 3c c4 e2 e7 bb 98 4b f4 3c
       0.0401112 0.017416539 -0.007076593 0.029821202
0000b0 59 79 9c 3c 15 9c c0 3c 38 cf af 3c 3d a3 c4 3a
       0.019100832 0.023511926 0.021461114 0.0015002262
0000c0 24 2c 61 3d e2 87 37 3d a6 fb 7a 3c da 7e 02 bc
       0.054973736 0.044807322 0.015318787 -0.007964814
0000d0 11 a5 09 3c 3b e9 47 3c 2d f2 48 bc a3 06 1e 3d
       0.008401171 0.012201603 -0.01226477 0.038580548
0000e0 21 c0 0b 3d 3f 8e 02 3d d6 77 a4 3c 8f 6c 08 3d
       0.034118775 0.031873938 0.020076673 0.033306655
0000f0 01 61 59 bc b0 81 6b 3c bd 52 00 3d 84 8a 39 3c
       -0.013267756 0.014374182 0.031328905 0.011324529

mlp.8.weight f4 [2, 64]
000000 0f 18 c7 3c e0 d0 cb bd e3 f6 da 3d 43 7e 96 bd
       0.024303464 -0.09951949 0.10691621 -0.07348301
000010 3a b6 e8 3d 65 fc 0a be fc 4d fd 3d be 61 92 bd
       0.11362882 -0.13572843 0.1236839 -0.07147549
000020 08 27 13 3e 54 ab 89 3d fd f2 0f 3e d6 56 98 3d
       0.14370358 0.06722131 0.14057536 0.07438438
000030 4c 42 a6 bd f0 5d 5d 3d c1 03 19 3e d9 ae 06 be
       -0.08118114 0.054044664 0.14942838 -0.13152637
000040 f9 e1 09 3d f9 13 b7 3c 66 c9 eb 3d dc ae c4 bd
       0.03366277 0.02234839 0.11513023 -0.09603664
000050 6d 61 b5 bd 2f b7 90 3b e7 ac 85 bd 5a ff 5b bd
       -0.08856473 0.0044163684 -0.06527119 -0.05371032
000060 92 80 61 bc 54 ed 0e 3e 41 5d c0 bd 22 58 4c 3b
       -0.013763564 0.13957721 -0.09392787 0.003118046
000070 57 56 8d bd dd 95 93 3c 35 04 8d bd 9e 4b 28 3e
       -0.06901234 0.018015796 -0.06885568 0.16435096
000080 20 c9 cf 3d f9 dc d4 3c d1 e3 0c bd c5 67 b7 3d
       0.101457834 0.025984274 -0.03439695 0.08955339
000090 b3 54 b4 bd c4 c7 10 be 83 35 a6 bd e9 16 42 bd
       -0.088052176 -0.14138705 -0.08115675 -0.04738513
0000a0 53 b5 e0 bd 06 c0 c4 3d c2 f9 6d 39 ef d5 b8 bd
       -0.10972085 0.09606938 0.00022695123 -0.090251796
0000b0 c5 c0 f1 bd e1 0d 13 3e c0 86 1a 3e cd 00 9f bd
       -0.11804346 0.14360763 0.15090466 -0.077638246
0000c0 09 28 6a 3d 45 ea 1f bd b2 4f 9f bd 58 ea 53 3d
       0.057167087 -0.039041776 -0.077788725 0.05173716
0000d0 8e cc fc bd 49 e6 0f be 41 04 22 3b 56 09 08 3e
       -0.12343703 -0.1405269 0.0024721774 0.13284811
0000e0 db cb 03 3e ca 1a 0e 3e aa c0 b5 3d 2c cf 8d 3d
       0.12870733 0.13877407 0.088746384 0.069242805
0000f0 bc 81 d8 3b 19 69 bf bd 12 ed 0e 3e 84 16 e0 3d
       0.0066072624 -0.09346218 0.13957623 0.109417945
000100 c5 6b 0c be de a9 f7 bd 8e 9f 90 bd 39 4c 99 bd
       -0.13712986 -0.120929465 -0.07061683 -0.074852414
000110 85 66 a1 bd 29 38 22 3e f6 48 0f bd 54 f2 1d 3e
       -0.07880882 0.15841736 -0.03498169 0.15424472
000120 31 f9 22 bd 14 8c 02 3b 86 12 58 bd 9a b8 b5 bd
       -0.03978843 0.001991992 -0.05275204 -0.088731006
000130 9a 37 4e bc 12 25 cc bd 40 d3 0c be 0c 40 03 3d
       -0.012586499 -0.09968008 -0.1375246 0.0320435
000140 24 2c e2 3c 2d 9a c7 3c c9 ca ff ba 5f 41 14 bd
       0.027608939 0.024365509 -0.0019515391 -0.036195155
000150 08 df fa bd ed c8 b6 3d 1d 73 5a 3d 86 ab dc bd
       -0.12249571 0.08925042 0.053332437 -0.10774903
000160 7e 21 24 3e 85 d3 91 bd 31 55 d2 bd e1 13 b0 bd
       0.16028401 -0.07120422 -0.10270155 -0.085975416
000170 b1 a7 76 bc ea 14 07 be dd 21 17 3d 86 82 e3 bd
       -0.015054629 -0.13191572 0.03689753 -0.1110888
000180 fd 5c cc bd d7 0b e2 3d 6d 71 2e bd 7f 24 84 bc
       -0.099786736 0.110374145 -0.04258864 -0.016130684
000190 2a 6b 59 bd c6 15 6b 3c 19 2e a7 bd da 90 72 bd
       -0.053080715 0.014348453 -0.08163089 -0.059220172
0001a0 a2 9e 6d bd 69 44 80 bd 7c 63 b4 3c 81 c0 c8 3d
       -0.058012612 -0.06263048 0.022020094 0.09802342
0001b0 25 ec d6 3d 03 08 c2 bd 80 84 04 be ba d5 83 bc
       0.1049426 -0.09474184 -0.1294117 -0.016093124
0001c0 1c ec 26 3e 20 cd 00 3d c1 a7 17 3e 33 82 ba 3d
       0.16301006 0.031445622 0.14810087 0.09106865
0001d0 fb 09 e1 3d bf 40 6f 3c 81 8d e8 3b 03 8b 07 be
       0.10988232 0.014602839 0.0070969467 -0.13236623
0001e0 f1 ae 94 bc b1 32 4c 3c 69 52 d3 bd a5 8c 00 be
       -0.018149825 0.012463258 -0.10318453 -0.12553652
0001f0 eb e3 55 bd a0 2a a0 3c 5f 00 76 bd e7 e4 31 3d
       -0.052219313 0.019551575 -0.060058948 0.04343119

mlp.8.bias f4 [2]
000000 5c 1b 63 bd 20 59 e1 3d
       -0.055446014 0.11003327
