results/dp/sleep-edf/seed_123/best_model.pth (torch, 160245 bytes, 30 tensors)

_module.mlp.0.weight f4 [128, 24]
000000 18 03 24 3b 64 6d 6e bd f4 89 83 bd e0 88 7e 3e
       0.0025026258 -0.05820979 -0.06422797 0.24856901
000010 a7 35 55 bd 3a f4 a4 3e 4b 29 3e be ce 06 20 be
       -0.05205312 0.3221758 -0.1857044 -0.15627596
000020 e4 5d d2 bd 3d a3 95 3e 72 49 29 be 85 91 14 3e
       -0.102718145 0.29226103 -0.16531923 0.14508636
000030 23 45 96 be cb 15 3b be 97 5c 15 be 4b 40 f0 bc
       -0.29349622 -0.18270032 -0.14586101 -0.029327532
000040 0a cb 2d bc 1d 73 12 3e 2d b5 7a 3b 5d e9 e3 3d
       -0.01060749 0.14301725 0.0038254962 0.11128495
000050 77 2a 55 3e 68 d4 a6 bc a9 cc 6c 3d 9c 49 12 be
       0.2081698 -0.020364955 0.057812367 -0.14285892
000060 8f e5 b3 3d 2f 29 70 3d f1 fb cd ba 6f be d0 3c
       0.08784019 0.058633026 -0.0015715343 0.02548143
000070 19 4e 94 3e 12 e5 33 be 14 ca 92 3d b4 eb 97 3d
       0.28965834 -0.17567852 0.071674496 0.07418004
000080 c1 bd e3 3c a0 fa ef 3d 17 79 32 3e ba ef 8e 3c
       0.027800443 0.11717725 0.17429005 0.017448295
000090 0c 71 25 be 9a a5 5b bd 24 31 75 be 7b 55 af 3d
       -0.16156405 -0.053624727 -0.23944527 0.08561226
0000a0 11 a4 d0 3c 0c 47 2f be 7e 38 38 3d 96 69 13 3e
       0.025468858 -0.17116946 0.04497575 0.14395747
0000b0 28 85 df 3d 5d 18 6c 3d 6a cd 04 be 5b 67 13 3a
       0.109140694 0.057640422 -0.12968984 0.0005623006
0000c0 60 f9 ec 3d a1 83 d7 3d 82 95 63 bc 4a ad 16 3d
       0.11571002 0.10523153 -0.013890626 0.036786355
0000d0 c8 a4 7c 3e 22 6c 66 3e 3f 45 e9 bd d4 45 6f be
       0.24672234 0.22502187 -0.11390161 -0.23366481
0000e0 a1 14 da bd 62 de 70 3e fb 75 74 3c 69 c7 02 be
       -0.10648466 0.23522332 0.014920707 -0.12771381
0000f0 24 5f 8e bd 67 22 06 3d 3f 1b 1e bd cd 5b b0 bd
       -0.069517404 0.032747652 -0.038600203 -0.086112596
000100 57 09 19 bd 4a 6f 04 3d 00 eb db bc c3 b6 96 bd
       -0.037362423 0.032332696 -0.026845455 -0.07359078
000110 9b 03 e2 bd 21 a9 2a 3d 3f e2 3a 3e f1 96 f7 3c
       -0.11035844 0.0416652 0.18250369 0.030223342
000120 5f f1 97 bc 15 7e cf bd 6d 06 3e 3c fc 50 61 bd
       -0.018547712 -0.1013147 0.011598212 -0.055008873
000130 a4 84 94 3d 84 1b 2e bd 5d b8 12 3e 2d b9 fb 3d
       0.07251862 -0.04250671 0.14328142 0.12291179
000140 2e ee 5e bd 80 d0 61 3d 8b 59 6c 3c 6e 19 17 bd
       -0.054426365 0.05513048 0.014425646 -0.036889486
000150 61 16 f3 bb 18 03 67 be 41 2b 23 be 29 e6 a3 3e
       -0.0074184393 -0.22559774 -0.15934469 0.32011536
000160 5a fe 02 3e fd cf e8 3c 4c 3b 82 be 9c 8f 4e 3e
       0.1279234 0.028419489 -0.25435865 0.2017197
000170 a6 b9 8f bd 7f c2 36 3e c9 97 22 be d5 71 23 3e
       -0.070178315 0.17847632 -0.15878214 0.15961392
000180 5d c1 09 bc cc 34 c4 3e b1 5a 01 3e 48 91 8b 3d
       -0.008407918 0.3832153 0.12632252 0.068148196
000190 0e c3 6a 3e ff 93 64 be 43 f8 36 bd fc 40 ac be
       0.2292597 -0.22322081 -0.044670355 -0.3364333
0001a0 ee 91 d5 3c 7a fb 2f 3e 43 7e a8 bd e7 3a 09 3e
       0.026070561 0.17185774 -0.082272075 0.13401376
0001b0 04 70 25 3e bc 55 1b be 49 5d 43 3e f1 c9 9a bd
       0.16156012 -0.15169424 0.19078554 -0.075580485
0001c0 2c 37 a6 3c e1 a5 99 3d c5 34 e8 bd 56 d9 33 3d
       0.02028998 0.07502342 -0.1133819 0.04390844
0001d0 51 24 e4 bd 74 99 8c bd 99 bf cc 3c 53 0e e4 3d
       -0.11139739 -0.06865206 0.024993705 0.11135545
0001e0 7f fb d8 3b 7e de 27 3e ff 53 8d 3e 74 f0 9c 3d
       0.0066217775 0.16393468 0.27603146 0.0766305
0001f0 34 40 a1 3e e6 42 76 be d7 62 7c be fd 79 b5 3d
       0.31494296 -0.24048957 -0.2464708 0.08861158
000200 1d 5a 4f 3c 17 41 23 3d 07 b8 44 bd 5d 86 25 be
       0.012655762 0.039856996 -0.048027065 -0.16164537
000210 44 ea 56 bd fe 41 23 be 84 b2 cb 3d e8 37 f0 bd
       -0.052469507 -0.15943143 0.099461585 -0.11729413
000220 44 f2 1b bd 5c 21 46 bc 80 3e 0c 3e 8e a7 b3 3d
       -0.03807284 -0.012092914 0.13695717 0.08772193
000230 74 2d 5c bd 88 98 00 3b 49 dd 01 3c 6d 9b 00 bc
       -0.053754285 0.0019622166 0.007926294 -0.007849556
000240 58 90 a4 bc 52 74 46 be 4b 93 1b be 42 0a c1 bd
       -0.02008836 -0.1938031 -0.15192907 -0.09425785
000250 8f 39 f7 bd f9 f6 7c bd 4c f8 14 3d 0a 75 52 bb
       -0.12071525 -0.06175897 0.036369607 -0.0032113218
000260 09 d0 a8 bc 4a 8f 92 3e 47 cd aa bd d4 99 ef 3d
       -0.020607011 0.28624946 -0.08339935 0.11699262
000270 44 f3 5c be 2d 2d 51 3e ee 74 3e be fc 86 11 be
       -0.21577173 0.2042739 -0.18599293 -0.14211649
000280 a1 e0 05 3d d7 de 80 3e f3 62 03 be 36 49 32 3e
       0.032684926 0.25170013 -0.12830715 0.1741074
000290 03 37 04 3e 2a 05 cf 3d e3 79 4e 3e d0 89 e1 3d
       0.1291161 0.10108407 0.20163684 0.11012614
0002a0 1e 2a c7 3d 83 f6 b9 3d 30 c5 30 bd a1 a0 09 3e
       0.0972483 0.090802215 -0.043156803 0.13440181
0002b0 d4 6c 84 ba c1 a8 ae 3d d1 6e 95 be f4 08 59 be
       -0.0010103234 0.08528281 -0.2918611 -0.21194822
0002c0 41 c1 84 be 10 9a 17 be 41 6b 16 3e 99 35 fc 3c
       -0.2592869 -0.14804864 0.14689352 0.030787276
0002d0 43 61 2a be d4 7a 19 be 15 38 ad bb de ca 3c be
       -0.16638665 -0.14988261 -0.0052862265 -0.18436763
0002e0 9d 7c 81 bd af cd e6 3d 10 55 4e bb 3f 5c d6 bd
       -0.06322596 0.112697 -0.0031483807 -0.10466813
0002f0 ab 23 90 3d 43 15 9e bd c6 a2 5b be 7d b2 c8 be
       0.07038053 -0.07718899 -0.21448812 -0.39198676
000300 d8 a3 52 bd 1f a1 05 3e e6 14 87 be a4 93 0a bd
       -0.051425785 0.13049744 -0.26383132 -0.033832207
000310 81 6e fa 3d 39 30 a8 bd d0 7b 10 3e ec ad a9 bd
       0.12228108 -0.08212323 0.1410973 -0.08285126
000320 6f 83 ee 3c d8 74 07 3d 77 dc 5c bd 07 01 4c 3d
       0.029115407 0.033070415 -0.05392119 0.049805667
000330 07 b6 01 3d ff 7f 37 bb 24 79 71 bc 6b ea a8 bd
       0.031667735 -0.0027999876 -0.014738355 -0.08247837
000340 ac cc 2d bd b1 4d c3 3d 3c e9 17 3d d2 21 1e bd
       -0.04243152 0.09536303 0.037087664 -0.038606472
000350 ee 2a e7 3d a2 d5 1c be fe ea 28 bd 57 c0 75 3d
       0.11287485 -0.1531587 -0.04123973 0.059997883
000360 6f 0e 14 3e 04 00 ac be ec c7 44 be 67 24 05 bd
       0.14458631 -0.33593762 -0.19216889 -0.03250542
000370 1d 63 d3 bd 36 df 97 3d 01 9c 8f 3e 13 75 ad bd
       -0.10321639 0.07415621 0.2804871 -0.08469596
000380 ec 6f 1d 3e 80 47 97 bd 7b bc cf 3c 77 20 6c bd
       0.15374726 -0.073866844 0.02535843 -0.05764815
000390 cb 02 f0 3d 74 6f 49 3e df be 38 3d 0c 42 7c bc
       0.11719283 0.19671422 0.045103904 -0.015396606
0003a0 11 44 9c bd 7b e1 57 3e e6 d2 53 3c 67 bf 6c be
       -0.0763017 0.21082108 0.0129287 -0.23119889
0003b0 35 65 a2 3d 73 d6 ad bd 3b ef 94 be c7 10 93 3d
       0.0792946 -0.084881686 -0.29088768 0.071809344
0003c0 dc 98 84 3c 14 b3 ec 3d 52 56 e0 3c f5 be 74 3d
       0.01618617 0.11557594 0.02738491 0.059752423
0003d0 68 75 90 3e aa 49 e0 3d 9f 33 7f 3a d9 ef ab be
       0.28214574 0.1095155 0.000973517 -0.33581427
0003e0 65 88 87 3a a4 55 73 3e 73 99 94 bd f0 2f ab bd
       0.0010340331 0.23763138 -0.072558306 -0.08358753
0003f0 61 72 7c 3d 69 2c 1a 3d e8 80 1b be a8 f2 51 3d
       0.061632518 0.03764001 -0.15185893 0.051256806

_module.mlp.0.bias f4 [128]
000000 eb 63 25 bc ea 41 43 3e f6 05 e2 bb 65 1e 15 be
       -0.010094623 0.19068113 -0.0068976833 -0.14562376
000010 35 ea ec bd d5 6e 2d 3e 39 df ae bd 86 40 6d be
       -0.11568109 0.1693681 -0.0853867 -0.23169145
000020 8f fa c9 bb ac 2f 3a 3e 6f ac 95 be ed ab c4 bd
       -0.006163902 0.18182248 -0.2923312 -0.09603105
000030 90 49 18 be 19 50 13 be ea 72 e5 bd 2e c0 20 3e
       -0.14871812 -0.14386024 -0.11203559 0.1569831
000040 2f 93 9a bd 8e 8c 89 3d 67 28 cd bc 92 dd ac be
       -0.07547604 0.06716262 -0.02504368 -0.33762795
000050 6d f3 34 be bd 36 04 be 10 48 24 be f4 9c e6 bd
       -0.17670985 -0.12911506 -0.16043115 -0.11260405
000060 e0 b3 08 3e df 05 16 be 1c c6 5b 3e 4c 35 c2 bd
       0.13349867 -0.14650677 0.21462291 -0.09482822
000070 8a a9 af 3c 36 5c 95 bd 97 d2 07 be 09 19 3c be
       0.021443147 -0.072929785 -0.13263927 -0.18368925
000080 26 d1 17 3e 48 0f 05 be 33 3d 94 be 89 10 0e 3d
       0.14825878 -0.1299411 -0.2895294 0.034683738
000090 30 18 1f bd aa 02 e3 bd d8 ea de 3d 68 66 30 3e
       -0.038841426 -0.110844925 0.10884637 0.17226565
0000a0 f6 73 e4 3d 51 c5 94 3d 4b 5d 78 3d 9c e3 95 3e
       0.1115493 0.072641976 0.060635846 0.29275215
0000b0 a0 f2 3b be f4 3a 1b 3e 6b a1 ac 3d c9 5e f0 bd
       -0.18354273 0.15159208 0.084292255 -0.11736829
0000c0 db 15 d9 3c b8 e5 98 3e fe 36 75 bd a3 33 29 be
       0.02649968 0.29862761 -0.059866898 -0.16523604
0000d0 15 bb 70 be 78 a9 74 3e 1b fd fc 3d 7f 33 76 bc
       -0.23508866 0.23892772 0.123529635 -0.015026926
0000e0 95 ea 19 3e 5b c2 e0 3e 22 e8 30 be cf 82 20 be
       0.15030892 0.4389828 -0.17276052 -0.156749
0000f0 d1 9c 0d 3d 15 de 7c 3d bf 4e 72 bd 77 cd 22 be
       0.03457338 0.06173523 -0.05915713 -0.15898691
000100 35 31 75 be 47 57 89 be 6c 6d 40 be f0 79 cb 3d
       -0.23944552 -0.268244 -0.18791741 0.09935367
000110 ab 48 91 3e 4c 91 4f bd 56 f5 20 3e 14 64 05 bd
       0.28375754 -0.050675675 0.15718588 -0.032566145
000120 9d a1 27 3e da 5e 13 bd 6d b6 23 bc 86 28 56 3e
       0.16370244 -0.03597913 -0.009992224 0.20913896
000130 f4 f8 28 bd 87 6d 8b be 83 ca 2a 3e 66 18 3e 3e
       -0.041253045 -0.27232 0.16678815 0.18563995
000140 5d 50 96 3e 11 4a 61 bc e2 97 4c bd 23 37 9b 3e
       0.29358187 -0.013750569 -0.049949534 0.30315503
000150 0d db 49 be 56 e4 a9 bd 12 5f d9 3c ff 2b 57 3e
       -0.19712467 -0.08295505 0.02653459 0.21012877
000160 dc 18 33 be 09 c8 3e be 2b b6 2f be 3a 1f cc bd
       -0.17489952 -0.18630995 -0.17159335 -0.099668935
000170 24 97 5a be 4d 8b b4 bd 55 cb 7b bc 8f 1c 8c 3e
       -0.21346718 -0.08815632 -0.015368302 0.27365538
000180 9a 1b 2f be 1b da 6d be 57 bf 72 be 37 8a d7 3d
       -0.17100373 -0.23227732 -0.23705803 0.10524409
000190 ff 3d 8b 3e 4b f4 f0 bd ae 67 1c 3d a0 16 13 3d
       0.27195737 -0.11765345 0.038184814 0.03591025
0001a0 da b9 7d 3d c2 0a a4 3d dc bc 8c bd 71 47 bf bd
       0.06194482 0.080098644 -0.068719596 -0.09339798
0001b0 02 11 cb 3d 7f 0f 9e be 60 99 91 3d f3 ba 8e 3e
       0.09915353 -0.30871198 0.07109332 0.27877006
0001c0 18 e0 2a be 13 cb 66 3e 43 aa ab be 0a 96 9d 3e
       -0.16687047 0.22538404 -0.33528337 0.30778533
0001d0 fe a8 62 bd 1f f2 48 bd d6 b0 48 3e 70 b9 39 be
       -0.055336945 -0.04905903 0.19598708 -0.18137145
0001e0 8c 78 fe 3d 30 3d d0 3c 8e 7d a3 3e 47 1c 60 3e
       0.12425336 0.025419801 0.31931728 0.21885787
0001f0 ef 8e f2 3d e0 26 2e 3e 74 3d 22 3e 66 3f db bd
       0.11843669 0.17007017 0.15843755 -0.10705452

_module.mlp.1.weight f4 [128]
000000 b4 53 88 3f 4e 72 42 3f b3 57 82 3f f3 b2 6a 3f
       1.0650544 0.75955665 1.0183014 0.91679305
000010 0b 2d 77 3f 3e 4f 8b 3f 9e 44 73 3f 42 28 75 3f
       0.96553105 1.0883558 0.95026577 0.95764554
000020 95 03 81 3f 68 e5 8a 3f 5a a1 81 3f c7 28 80 3f
       1.0079218 1.0851259 1.0127366 1.0012444
000030 88 7d 8a 3f 30 7b 50 3f e5 8c 6f 3f 45 60 68 3f
       1.0819559 0.8143797 0.93574363 0.90771896
000040 20 f3 87 3f 31 57 64 3f b1 7c 84 3f 5a 65 8f 3f
       1.0621071 0.89195544 1.0350553 1.1202805
000050 2c e5 85 3f be 8f 61 3f 08 c5 a0 3f 6b c6 61 3f
       1.0460563 0.8810996 1.2560129 0.88193387
000060 86 df 8c 3f 6c 6a 83 3f 08 3a a6 3f 7a 86 83 3f
       1.1005714 1.0266852 1.298646 1.0275414
000070 24 bc 88 3f 4d 24 65 3f 3c 58 69 3f 7a 63 76 3f
       1.0682416 0.89508516 0.9115026 0.9624554
000080 b5 93 87 3f 2d d6 89 3f fd 11 8c 3f 51 6e 74 3f
       1.0591952 1.0768486 1.094299 0.9548083
000090 b3 0a 8c 3f b4 92 66 3f e5 d1 8d 3f 29 ec 5b 3f
       1.0940765 0.900676 1.107968 0.85907227
0000a0 2d 50 64 3f aa 30 95 3f 77 2b 7e 3f a5 34 97 3f
       0.8918484 1.1655476 0.9928507 1.1812941
0000b0 95 13 86 3f 7e b0 65 3f 05 99 70 3f 81 a7 61 3f
       1.0474726 0.8972243 0.9398349 0.88146216
0000c0 08 22 78 3f a3 11 74 3f 12 34 79 3f be 0f 8e 3f
       0.9692693 0.9533941 0.9734508 1.1098554
0000d0 c6 42 54 3f d8 36 8e 3f 0d bc 72 3f 12 02 76 3f
       0.8291439 1.1110487 0.9481819 0.9609691
0000e0 73 d2 80 3f 01 5a 91 3f 30 c9 88 3f b0 d5 85 3f
       1.0064224 1.1355592 1.0686398 1.0455837
0000f0 47 77 8c 3f 6e 47 82 3f ff 56 89 3f 2b 86 55 3f
       1.09739 1.0178049 1.0729674 0.8340785
000100 67 64 8b 3f 02 9a 5d 3f 2d 1f 78 3f 33 cb 80 3f
       1.0890015 0.8656312 0.9692257 1.0062011
000110 55 9e 8c 3f ff 96 8b 3f e8 df 6f 3f 1e a4 6a 3f
       1.0985819 1.0905455 0.9370103 0.9165667
000120 90 e1 a1 3f 6a 7d 4c 3f 33 de 81 3f 69 03 94 3f
       1.2646961 0.79878867 1.0145935 1.1563541
000130 63 cb 89 3f 27 75 85 3f 95 1a 74 3f 3c 19 75 3f
       1.0765194 1.0426377 0.9535306 0.9574163
000140 27 7f 6e 3f e4 33 83 3f b0 12 8b 3f f8 eb 7f 3f
       0.9316277 1.0250211 1.0865078 0.99969435
000150 25 60 85 3f 3d b2 8a 3f 81 35 81 3f 07 63 76 3f
       1.0419966 1.0835644 1.0094453 0.96244854
000160 3d 98 84 3f b6 0f 77 3f 68 72 59 3f f4 c4 5d 3f
       1.035896 0.9650835 0.84940195 0.8662865
000170 4e 31 7c 3f d5 8b 7d 3f a4 ec 96 3f 37 1f 83 3f
       0.98512733 0.9904149 1.1790967 1.0243901
000180 86 06 6d 3f 58 1a 8c 3f aa 62 8b 3f 87 97 71 3f
       0.9258808 1.094554 1.0889485 0.9437184
000190 92 37 91 3f 91 ed 8e 3f b2 23 75 3f 82 87 72 3f
       1.1345084 1.116625 0.9575759 0.9473802
0001a0 30 0a 80 3f dc 58 92 3f fd d1 4e 3f 9c 84 73 3f
       1.0003109 1.1433368 0.80789167 0.9512422
0001b0 5d e1 51 3f 33 e3 74 3f 23 ee 6d 3f 6b 1c 80 3f
       0.819845 0.9565918 0.9294149 1.0008672
0001c0 cc 75 81 3f e4 8a 8a 3f 1a 6c 82 3f b7 f6 8b 3f
       1.0114074 1.0823636 1.018924 1.0934666
0001d0 2b 64 a0 3f d7 54 56 3f e9 bf 87 3f 41 d9 6d 3f
       1.2530569 0.83723205 1.0605441 0.9290963
0001e0 6b 0a 58 3f 90 b1 6f 3f 34 20 70 3f e1 98 5c 3f
       0.84390897 0.93630314 0.9379914 0.86170775
0001f0 83 d8 6b 3f ee 89 80 3f e1 b6 86 3f 42 83 91 3f
       0.92127246 1.0042093 1.052456 1.1368182

_module.mlp.1.bias f4 [128]
000000 9d 5b 43 bb af 5a 36 bd 9c 63 f7 bd 12 d6 f3 3c
       -0.0029809244 -0.044520076 -0.12079546 0.029765163
000010 2d 81 a0 bd 37 71 10 be 4d 89 39 3c 72 65 0e bd
       -0.07837138 -0.14105688 0.011324239 -0.034764715
000020 32 55 a1 3a 36 a7 60 be 00 61 33 3e 1f 82 72 3c
       0.0012308715 -0.21938786 0.17517471 0.014801531
000030 20 d1 01 be cf 82 0e 3e b4 00 a3 bd 5f 12 fc 3c
       -0.12677431 0.13917087 -0.079591185 0.030770479
000040 ad c3 d6 3c 9a 12 c7 bd 71 88 e3 bd 0d a7 ce bd
       0.026216352 -0.09720345 -0.111100085 -0.10090456
000050 0a 4c 8d bd df 19 8f bd 96 00 3d be a1 1c 68 bd
       -0.06899269 -0.069873564 -0.18457255 -0.056667928
000060 90 b8 14 bd 26 a8 84 bd ae e7 28 3d 10 09 c2 3d
       -0.036308825 -0.06477384 0.041236572 0.09474385
000070 44 8a 87 bd 31 dc 03 bc bd b6 a7 bd ed 84 c5 bd
       -0.06618169 -0.008048103 -0.081891514 -0.09644494
000080 4a 48 ac 3c 5d b0 9b bd ac 4c 24 bd 65 0e 80 3c
       0.021030564 -0.07601998 -0.040112182 0.015631864
000090 5a 22 0a bd a2 0b e8 bd 31 a3 47 be ee f7 1e bd
       -0.033724166 -0.11330344 -0.19495846 -0.038810663
0000a0 d8 fa b6 3c 20 35 b3 3c a0 a5 4c be fa e0 76 3b
       0.022336408 0.021875918 -0.19985056 0.0037670718
0000b0 95 64 16 3e 53 c9 01 be 62 d7 e3 bd 20 d6 68 be
       0.14686806 -0.12674455 -0.111250654 -0.22737932
0000c0 f3 10 8a bc cb 18 2e be 8b 63 a4 3d 5c d3 41 3c
       -0.016853785 -0.17001645 0.08026799 0.011830177
0000d0 17 69 8d 3b 48 23 f5 3d 6a fc ff bd f8 80 03 3e
       0.004315506 0.1196962 -0.12499316 0.12842166
0000e0 bf 2e 22 be b3 96 ff bd 9f 74 78 3b e2 3d 1a 3d
       -0.15838145 -0.124799155 0.0037911308 0.037656672
0000f0 9c 81 a8 bc 43 9c 87 3d bb 0b 19 be 0e 3b 04 bd
       -0.020569615 0.066216014 -0.14945881 -0.03228288
000100 c2 77 8a bd f9 77 2b 3d 13 f2 81 3e 2b 42 44 3d
       -0.06761123 0.04186246 0.2538 0.047914665
000110 23 95 4a bd 77 96 34 3d e0 5f 3e be 02 10 32 bd
       -0.049458634 0.044088807 -0.18591261 -0.043472297
000120 fb 66 06 be 0b 16 0e 3e 12 af c6 bb 9a ba 64 3c
       -0.13125221 0.13875596 -0.0060633505 0.013960505
000130 e2 66 5a bd c7 b2 15 3e 84 96 c2 bd 06 bc 34 bd
       -0.053320773 0.1461898 -0.09501365 -0.044124626
000140 0b 17 b1 bd bf 15 71 3c d9 0a 14 be a9 1b 70 3d
       -0.08646973 0.014714657 -0.14457263 0.05862013
000150 5b a0 c4 3c 5b 83 1c 3e ff 52 2e be 33 cf 30 bc
       0.024002245 0.15284483 -0.17023848 -0.010791588
000160 37 35 48 bd e2 87 b0 bd a6 b7 8b bc 90 01 0d 3d
       -0.048878875 -0.086196676 -0.017055344 0.03442532
000170 1e 05 99 bd 71 db d1 bd 20 b8 90 3a 48 9a 9a 3d
       -0.07471679 -0.10246933 0.0011041202 0.07548958
000180 82 ec 32 be f1 50 62 bd 45 db 45 3e 39 b3 4f bd
       -0.17473033 -0.055252973 0.19321926 -0.05070803
000190 f7 f8 02 3d d5 8b cd bd 37 a1 3b 3e 82 3c 9a 3e
       0.031975713 -0.100364365 0.18323217 0.3012429
0001a0 bb dd 0a 3d 6e 6c 9e bd 3c 1f b0 3d 32 33 e3 bb
       0.033902865 -0.07735525 0.085997075 -0.006933593
0001b0 04 3d c5 3d 6e d0 3f be 14 8d c0 3d bb 7b 15 3d
       0.096307784 -0.18731853 0.094019085 0.03649495
0001c0 28 53 e9 3d 37 91 e7 bd 2c 8c 06 bd 2f bd 8d 3e
       0.11392814 -0.113069944 -0.032848522 0.27683398
0001d0 da f6 01 3e 5a 5d 49 bd 49 c5 eb bc 43 6f ac 3d
       0.12691823 -0.049161293 -0.028780596 0.08419659
0001e0 71 05 22 be 51 e5 ab bd 41 f3 18 3e 50 09 f5 bd
       -0.15822388 -0.08393348 0.14936544 -0.11964667
0001f0 58 5e fb 3b 04 93 4b be b6 e5 80 3d 5b ad 19 be
       0.0076711588 -0.19880301 0.06293814 -0.15007536

_module.mlp.4.weight f4 [64, 128]
000000 79 1a 3a be 96 e1 da 3d cb d7 26 3e 7f 68 c7 3d
       -0.18174161 0.10687558 0.16293256 0.09736728
000010 e4 d0 1d be 3f 5a 19 3d 66 90 b3 3d 2c 43 1d be
       -0.15411717 0.03743958 0.08767776 -0.15357655
000020 06 79 12 bc db 53 29 3d 32 65 45 be e3 36 64 be
       -0.008939987 0.041339736 -0.19276884 -0.22286563
000030 8f 20 26 3e 76 0d f1 3d 60 96 f1 3c 86 06 0b bc
       0.16223358 0.117701456 0.02949065 -0.008485442
000040 28 a1 47 3d 7c 3b 2f ba 5f e3 9c bd d8 bb 8d bd
       0.048737675 -0.0006684584 -0.07660555 -0.06920594
000050 36 da 30 bd 85 ff e6 bd 54 bd 1a be 40 65 05 bd
       -0.043176852 -0.11279205 -0.15111285 -0.032567263
000060 80 90 d0 3e 5b 1a cb be 31 c0 1d 3d 7d 61 13 3e
       0.40735245 -0.39668545 0.038513366 0.14392658
000070 40 bf 2b bd f6 98 39 be 5a 1c 19 be d9 c5 52 3d
       -0.041930437 -0.18124756 -0.14952222 0.051458213
000080 c2 2b 1b 3e 01 30 6e bd 7a 61 82 bc 67 86 14 3e
       0.15153411 -0.05815125 -0.015915621 0.14504395
000090 c3 7d 51 bd 49 de f5 bc 40 f9 e8 bc b6 18 5a 3d
       -0.051145326 -0.03001322 -0.028439164 0.053246222
0000a0 dd e7 42 3e 30 fc 99 3d 6b c6 1b bd cf 35 d1 3d
       0.19033761 0.07518804 -0.038031023 0.10215341
0000b0 2a a7 a8 bc 4d 0a ec bc 6e e4 6b 3e f7 11 04 be
       -0.020587523 -0.028813506 0.23036358 -0.12897478
0000c0 f1 e8 5e bd e9 91 cf 3c 9e a0 fb bd 0f d2 c7 3d
       -0.05442137 0.02533813 -0.12286495 0.09756862
0000d0 fa 0a 55 3d 52 f1 30 3e 9d 45 b6 3d fe cb d2 3d
       0.05201242 0.17279556 0.088999964 0.10292815
0000e0 01 fd 3d be 94 af 91 3e 9f 25 e1 bd 41 ab 63 be
       -0.18553545 0.28454268 -0.10993504 -0.22233297
0000f0 eb c0 fa bb 63 27 21 be 93 b8 8a bd 03 f8 0b 3e
       -0.007652392 -0.15737681 -0.06773486 0.13668828
000100 3f db 58 3d 77 23 67 3d 3a 3e 06 bd 9f 2c 69 3e
       0.052943464 0.056430306 -0.032774188 0.22770928
000110 6a 69 ff 3d 91 0f f9 3b cc b8 ed bd 9d 3f 7b bd
       0.12471278 0.0076007326 -0.11607513 -0.061339963
000120 b8 22 e6 3d bb 19 15 3e df 08 8a 3e 7e a8 8c 3e
       0.11237091 0.14560597 0.26959893 0.274723
000130 dd 46 ae bd a8 5b d6 bc 24 36 31 be 1f f4 d8 3d
       -0.0850961 -0.026166752 -0.1730581 0.105934374
000140 1e 18 b2 bd 73 b8 ed bc 68 1a d5 bc c0 04 bd 3c
       -0.08696006 -0.029018616 -0.026013568 0.023073554
000150 6d c0 a9 bc cd e9 8e 3c 92 05 69 3d c3 cb 95 3d
       -0.020721639 0.01744547 0.056890078 0.07314255
000160 17 89 a4 bd 40 76 00 be bf 06 a3 bd 94 d5 64 bb
       -0.0803396 -0.12545109 -0.07960271 -0.0034917342
000170 d5 60 cf 3d 4a 61 03 bd fd f7 43 bd b8 5f d9 3d
       0.10125891 -0.032075204 -0.047843922 0.1061396
000180 d9 50 ed 3c 33 2f ba 3d c0 08 31 be 4b c1 5b bb
       0.028969215 0.09091034 -0.17288494 -0.003353196
000190 5f ed 57 3d 0a 4d 30 bc d5 ed 7b bd 40 ef 59 3b
       0.05271661 -0.010760555 -0.06150611 0.0033254176
0001a0 b3 1b 44 be 5d 29 ef 3d c9 9e 58 3d 25 9f 06 3d
       -0.19151191 0.11677811 0.052885804 0.032866616
0001b0 c1 b7 55 bd fa 6a b5 bd 9f 3f 89 3d d2 88 41 3d
       -0.052177195 -0.08858295 0.06701588 0.047249623
0001c0 1e b6 9b 3d fb 64 1f 3e 9d 10 03 bd 7c f8 e7 bd
       0.076030955 0.15565865 -0.031998266 -0.113266915
0001d0 83 cf df 3d d6 46 b5 3d 7c 54 ed 3d 17 2e 1d 3e
       0.109282516 0.088514015 0.1158838 0.15349613
0001e0 f8 c4 b8 3c 2a 25 96 bd fc f3 91 3c dd d7 a6 3c
       0.02255486 -0.07331307 0.017816536 0.020366604
0001f0 10 4f 00 bd 96 ff f8 3c e8 67 26 3e 3e e3 4f 3e
       -0.0313254 0.03039531 0.16250575 0.2030153
000200 cc 60 3b 3a e5 02 0b be d0 1e 24 3e 95 3d 1a 3d
       0.0007147908 -0.13575323 0.16027379 0.037656385
000210 9c e3 67 bd 3a 8f ec 3d 4d d8 f9 bd f1 5f b7 bc
       -0.05661355 0.11550756 -0.12199459 -0.022384616
000220 43 5b 06 3d 60 f6 61 bd 89 cd 95 3d f3 08 62 be
       0.032801878 -0.055166602 0.07314593 -0.22073726
000230 08 29 7b 38 3b 9b a4 bc ef 6f 8d 3c e8 95 58 3d
       5.9881277e-05 -0.02009355 0.017265288 0.052877337
000240 b0 a6 0d 3e ad 98 4d bd 99 6c f3 3c 39 3f 4f 3d
       0.13833117 -0.05019443 0.02971487 0.050597403
000250 85 24 be bd 39 b2 56 3c 24 bd 9a be 7b 18 d4 3d
       -0.09284309 0.013104015 -0.30222428 0.10356232
000260 64 60 05 bd 0e 91 b9 3d ad 07 26 bd e6 2c 40 be
       -0.03256263 0.0906087 -0.040534664 -0.18767127
000270 95 3b 8c 3d 3b 2c 41 3e c3 c4 03 be fe 27 eb bd
       0.06847302 0.18864529 -0.12868027 -0.11482237
000280 86 03 4f 3d bc 69 8b 3c 4d f9 50 bc 73 bd ef 3d
       0.05054047 0.017018192 -0.01275475 0.117060564
000290 33 03 3b 3d 42 2e 9e bd 81 c5 3f 3d af 8b 38 be
       0.045657348 -0.07723667 0.046819214 -0.18022035
0002a0 56 df 10 bd 53 a0 53 bc 76 47 c2 3c d5 1e 45 bd
       -0.03536924 -0.012916642 0.023715716 -0.048125107
0002b0 7d 81 fe bc 04 47 e1 3d 71 df 1e bd 31 76 59 bd
       -0.031067604 0.10999873 -0.03878731 -0.05309123
0002c0 86 33 e9 bd 93 33 91 bc d8 d7 af 3d 22 88 04 3e
       -0.113867804 -0.017724788 0.08586091 0.12942556
0002d0 98 7b 49 bd 9e 53 35 3e 2a df d2 bd 30 93 50 bd
       -0.049190134 0.17707679 -0.102964714 -0.05092162
0002e0 b8 75 9e bd da 9b 0a 3e b9 b0 88 be d9 d1 50 bc
       -0.07737297 0.13536015 -0.2669733 -0.012745344
0002f0 1f 94 70 3d 54 1a ee 3d b4 65 5e bd 18 17 20 3e
       0.05873501 0.116261154 -0.05429621 0.1563381
000300 e0 b9 87 bd 22 f0 0d bd 2c 2f 92 bd d5 7b b2 3d
       -0.0662725 -0.034652837 -0.071379036 0.08715025
000310 6f d7 5e 3d da 41 52 3e 8a 66 8a bd b9 0f 4b 3d
       0.054404672 0.20532933 -0.06757839 0.04957554
000320 49 79 d9 bd fc 7b 01 bd 80 ab d9 bd 38 ab 87 3e
       -0.106188364 -0.03161238 -0.10628414 0.26497817
000330 90 4d 96 3d 2e 69 26 3d a4 d6 d6 3d 96 d2 9a bd
       0.073390126 0.04062765 0.10490158 -0.07559697
000340 50 b7 33 be 95 d9 36 be 6f 3c a5 bc 9f 97 2c 3e
       -0.17550397 -0.17856438 -0.020170419 0.16854714
000350 a3 4a f0 3c a6 b9 8b bc 89 29 ed bd dd d2 82 3b
       0.029332465 -0.017056298 -0.11580188 0.003992422
000360 73 a5 1c 3e a6 95 d3 bd 57 9f f2 bd fd 0e 95 bc
       0.15297489 -0.103312775 -0.11846798 -0.018195624
000370 d7 1c ca 3d 28 25 9c bd e1 38 b5 3c 23 e7 a1 bd
       0.09868782 -0.076242745 0.022121849 -0.07905414
000380 cc 08 0e 3e 4d c6 24 bc b8 eb 86 bd b1 fe 0d be
       0.13870543 -0.010057044 -0.065879285 -0.13866688
000390 38 0c 0d be 9a 0a 4a bd b5 c2 50 3d 83 64 cb 3d
       -0.13774192 -0.049326517 0.050966937 0.099312805
0003a0 3d 4b 3a be 57 21 26 3e 95 33 6f 3d a8 9a 43 bd
       -0.18192764 0.16223656 0.0583988 -0.047754914
0003b0 9e 28 ed 3d 50 5e 6c 3e 72 f6 bf bd 65 29 36 3c
       0.11580013 0.23082852 -0.093731776 0.011118268
0003c0 cc 7d 8d 3c 9d 9f f9 bd 96 06 04 be 24 98 1c bd
       0.017271899 -0.12188647 -0.12893137 -0.03823103
0003d0 e1 74 2e 3c 1f 92 c0 3d 5b 83 10 be 88 ab 02 be
       0.010647983 0.094028704 -0.14112608 -0.12760746
0003e0 eb 96 6c 3d ba 00 60 be 09 e0 ce 3d 7f d3 b6 bd
       0.057761114 -0.21875277 0.10101325 -0.089270584
0003f0 26 58 b0 3d ba 4a 91 3d 08 d4 af bd d9 84 0d be
       0.08610563 0.07094331 -0.085853636 -0.13820209

_module.mlp.4.bias f4 [64]
000000 3b 63 d7 bd 6b 9c 2b 3e 09 3f 0a 3e be 25 38 3d
       -0.105169736 0.16758887 0.13500609 0.04495787
000010 67 ba 93 bd 64 b7 26 3e 77 37 c8 3d 2a f4 b1 bd
       -0.07213288 0.16280895 0.09776204 -0.08689149
000020 38 26 54 be b1 e9 e3 bc 53 3f 1a bd 9a 20 e0 3b
       -0.20717704 -0.027821394 -0.037658047 0.006839824
000030 00 1e 9c bd 75 b1 53 3e 77 57 bc bd 8c cb 69 3e
       -0.076229095 0.20673163 -0.0919637 0.22831553
000040 8d 78 33 be f0 31 21 bc 0f 80 e0 3b b6 3d 39 3e
       -0.17526455 -0.009838566 0.0068512033 0.18089947
000050 2d 21 75 bc a3 fc 4d 3e cf 4d 42 3d ea 7c 58 be
       -0.014961523 0.20115905 0.047437485 -0.21141401
000060 e7 53 d9 3c 45 f4 db 3d 4d 56 bd bc a7 a0 0c 3c
       0.026529266 0.1073995 -0.02311244 0.008583224
000070 4b b9 a8 bd 59 ae a4 bc 83 b0 b7 bd b0 f7 29 be
       -0.08238467 -0.020102667 -0.08969214 -0.16598392
000080 9a dc 02 3e 06 5c cd 3c 1a af 9d 3c c2 08 68 3d
       0.12779465 0.025068294 0.019248534 0.056648977
000090 8e 34 2a 3d de bd 0f be 91 d3 5b bd 20 7a 12 3e
       0.041554026 -0.14037272 -0.053668562 0.143044
0000a0 7e a2 77 bc f1 e7 0d bc cd bc 93 3d cf 1a bf bd
       -0.015114425 -0.008661256 0.07213745 -0.09331285
0000b0 e2 61 6f 3d 2e b5 12 3e 1b ae 56 3d 2d fb ef bd
       0.058442958 0.14326927 0.052412134 -0.1171783
0000c0 70 97 93 3b f8 9e b2 bd bc b0 e3 bd 1a ad 92 3c
       0.0045041367 -0.08721727 -0.11117694 0.017904807
0000d0 af bf 9c 3d 9d d2 de 3c 71 64 f0 bc 20 85 3b be
       0.07653748 0.027200038 -0.02934477 -0.18312502
0000e0 6b 59 96 3d 1e aa 83 3e 6c 7d 45 bc 90 cf a2 3c
       0.07341274 0.25715727 -0.012053829 0.019874364
0000f0 26 dd 42 3d 99 05 bd 3d fe ca 39 3e 35 69 ad 3e
       0.047574185 0.09229583 0.18143842 0.3386933

_module.mlp.5.weight f4 [64]
000000 67 4d 92 3f a7 05 78 3f a9 b1 89 3f b6 17 8e 3f
       1.1429871 0.96883625 1.0757343 1.1100986
000010 56 97 a2 3f c8 7a 6d 3f 00 2d a4 3f a3 98 81 3f
       1.2702434 0.92765474 1.2826233 1.0124706
000020 98 3d 96 3f 33 b9 83 3f d7 40 9b 3f 9f f3 94 3f
       1.1737547 1.0290893 1.2129163 1.1636847
000030 f6 85 8f 3f d7 d3 8d 3f 93 0c 7f 3f 23 2b 69 3f
       1.1212757 1.1080273 0.9962856 0.91081446
000040 41 67 82 3f f4 25 88 3f 85 ae 85 3f f8 b3 84 3f
       1.018776 1.0636582 1.0443884 1.0367422
000050 42 38 9f 3f 63 b9 71 3f 07 3e a2 3f 2e b8 8d 3f
       1.2439044 0.944235 1.2675179 1.1071832
000060 0e 3c 98 3f e1 83 7d 3f 8a df 8d 3f 6c cc 9f 3f
       1.1893327 0.99029356 1.1083844 1.248426
000070 c0 c3 67 3f 79 d4 9e 3f bd 76 7a 3f 67 81 68 3f
       0.90533066 1.2408592 0.9783743 0.9082245
000080 d2 2b 5c 3f 80 30 82 3f b0 c4 7a 3f 01 3a 75 3f
       0.86004364 1.0171051 0.9795637 0.9579163
000090 f2 ac 96 3f f4 85 6d 3f 16 9e a0 3f 57 e7 78 3f
       1.1771529 0.9278252 1.2548244 0.97227997
0000a0 62 a2 7a 3f e7 47 99 3f 93 88 a5 3f ee 2d 85 3f
       0.97904027 1.1975068 1.2932304 1.0404642
0000b0 60 3e 70 3f e2 87 83 3f 5f 91 a8 3f 01 21 79 3f
       0.93845177 1.0275843 1.3169364 0.97315985
0000c0 d0 6f 82 3f 48 00 a6 3f 99 52 86 3f 50 60 87 3f
       1.0190372 1.2968836 1.0493957 1.0576267
0000d0 ba cf 9c 3f 13 b8 7a 3f 9d 31 87 3f aa f3 80 3f
       1.2250893 0.97937125 1.0562016 1.007436
0000e0 07 0b 8e 3f e9 ee 99 3f 03 23 8b 3f bb 2f 84 3f
       1.1097115 1.2026035 1.087006 1.0327066
0000f0 0c ca 90 3f 11 db 7e 3f fc b9 8a 3f f8 2e 89 3f
       1.131166 0.9955302 1.0838008 1.0717459

_module.mlp.5.bias f4 [64]
000000 68 01 75 3d 7d c2 0d bd 9f 11 58 3e 87 86 77 bd
       0.059815794 -0.034609307 0.21100472 -0.06043103
000010 94 7b c2 bd 1e e1 d7 3d e8 03 f0 3c 1b de 6f bd
       -0.09496227 0.105409846 0.029298738 -0.058561426
000020 53 94 5d bc 64 45 a3 3d d2 14 84 bd db b5 81 3c
       -0.013524133 0.079722196 -0.06449284 0.015833786
000030 86 e5 0d 3d 5c b8 30 be e4 30 38 bd f8 7a 7b bd
       0.03464272 -0.17257828 -0.0449685 -0.06139657
000040 2c fa 0f be c7 40 11 be 39 06 ee 3b 7d c1 94 bd
       -0.14060277 -0.14184867 0.0072639254 -0.072634675
000050 2a 21 84 3e c4 49 24 be f6 e5 61 bd 1b fb 61 3d
       0.25806552 -0.16043764 -0.05515095 0.055171113
000060 19 0f 34 3d 79 60 46 bc 9d 8d 84 bd 2c 27 b2 3a
       0.04395971 -0.012107962 -0.06472323 0.0013591996
000070 91 dc c8 bd 78 1e 70 3d c1 b1 2b bd 2b 7b 0e be
       -0.09807695 0.058622807 -0.041917566 -0.13914172
000080 3c 60 15 3d 3d 3f 81 3d 08 55 fb 3d 35 f4 8d bd
       0.03646873 0.0631089 0.12272078 -0.069313444
000090 73 69 13 3d 58 b5 45 3e d2 b6 4c 3e a5 e7 f0 3d
       0.035989236 0.19307458 0.19991615 0.11762933
0000a0 1e 54 d7 3d 11 b3 99 3d 3a 44 cf bb eb 78 1e 3e
       0.10514091 0.07504857 -0.006325272 0.15475814
0000b0 52 0e 16 bd 16 c4 49 3d 50 14 ac 3d 7d b1 d9 3d
       -0.03663475 0.049259268 0.08402312 0.10629556
0000c0 c0 9a 24 3c f9 a2 01 bc 75 32 3e 3c 28 10 63 3c
       0.010046661 -0.007912391 0.01160871 0.013858832
0000d0 42 17 61 3d 5f f8 08 3e 01 2e 5b 3e 71 7c a9 3d
       0.05495382 0.13375996 0.21404268 0.082756884
0000e0 6e b3 06 be 3f 5d 8f bd fe 21 c0 bd 3b 98 da 3c
       -0.13154384 -0.07000207 -0.093814835 0.026683917
0000f0 5d d9 56 bd 02 41 f5 bd d8 18 b3 bc 4a 32 1e 3e
       -0.052453388 -0.1197529 -0.021862432 0.15448871

_module.mlp.8.weight f4 [5, 64]
000000 e2 c0 9b 3e f6 b0 4e be c1 53 a7 3e 55 6b a7 be
       0.30420595 -0.20184693 0.32681087 -0.32699075
000010 39 ea d9 be 5a 65 81 bd de 4d 13 3f 9b d6 72 be
       -0.4256151 -0.063181594 0.5754069 -0.23714678
000020 12 ea 22 3e 25 8d 99 be a1 9a ad be bd d0 a7 be
       0.15909603 -0.29990497 -0.33907035 -0.32776442
000030 95 57 fb bd bb bb ec ba 7a 59 d5 3c e3 29 31 be
       -0.12272564 -0.0018061319 0.026043642 -0.17301135
000040 bd 1e e2 3d f3 ef 82 be f7 b5 cf 3d 0f e5 fa 3d
       0.11041019 -0.25573692 0.10142129 0.12250721
000050 fa 93 b2 3e 81 38 6b be 94 41 a2 3e 7b 08 17 be
       0.34878522 -0.22970773 0.31690657 -0.14749329
000060 d9 3b 3e be 0d 25 70 3e a1 98 19 be f2 0a 91 3e
       -0.18577518 0.23451634 -0.1499963 0.28328663
000070 17 aa 01 3e c1 98 a5 3e 63 43 c9 3c 71 67 c7 be
       0.1266254 0.32343104 0.024568265 -0.38946107
000080 9c c4 a6 3e 3f 40 91 3e cb ba ce 3d d1 db 23 be
       0.32571876 0.28369328 0.10094222 -0.16001822
000090 55 53 58 3e cb e1 25 be 46 56 95 be 32 2a 90 be
       0.21125539 -0.16199414 -0.29167384 -0.28157192
0000a0 78 f2 2a be 96 20 35 be 36 f4 31 3e e5 cc c1 3d
       -0.16694057 -0.17688212 0.17378315 0.09462909
0000b0 34 85 22 be e0 81 b1 3e 41 eb ca be 8e 14 c5 bd
       -0.15871125 0.346694 -0.3963261 -0.09623061
0000c0 c0 9f 67 be f0 e0 b0 3e 3b 6e 32 3c e8 e6 28 3e
       -0.22619534 0.34546614 0.010890539 0.16494334
0000d0 44 e0 a6 be da d1 1d 3e cc 86 a7 bd da 29 ba 3e
       -0.32592976 0.15412083 -0.08180007 0.36360055
0000e0 f6 8f 4e be 40 7d 3e 3e 35 a2 bb bc a5 76 ff bb
       -0.20172104 0.18602467 -0.022904495 -0.007796126
0000f0 04 a8 86 3e 53 36 26 be 39 d4 20 be fa 9e 7c 3e
       0.2630006 -0.1623166 -0.15705957 0.2467002
000100 96 08 52 be 2e ac b8 3d 0f ca e2 bd b1 13 77 3c
       -0.20511088 0.09017216 -0.11073696 0.015080378
000110 fd fa 47 be 15 b3 12 be 3b 7c 61 3e f7 82 03 be
       -0.19529338 -0.14326127 0.22020046 -0.12842928
000120 f3 0a f2 bd de 1d 05 3e 68 fc 00 be 86 47 2c be
       -0.11818495 0.12999675 -0.12596285 -0.16824159
000130 f4 ce 91 bc 47 64 4d be 45 04 1b 3e 90 e0 7f 3e
       -0.017798878 -0.20057784 0.15138347 0.24988008
000140 95 cd 5a 3e ba b2 0e be 85 c9 14 3e 19 69 c3 bd
       0.21367486 -0.13935366 0.14529999 -0.0954153
000150 87 88 ff 3c fb b5 58 bc 84 e9 95 be eb e8 0e be
       0.031193031 -0.013226981 -0.2927972 -0.13956039
000160 ec 97 5d bd 3d 95 d4 bc 99 ef c7 bd 3f 66 f7 bd
       -0.054099962 -0.025950069 -0.097624965 -0.12080049
000170 02 21 57 3e 78 56 7d be 1a 1c aa bd 2b c4 2e 3b
       0.21008685 -0.24740016 -0.08306141 0.0026667218
000180 51 a9 c0 3e 61 11 8a 3d 55 c0 5f 3b a2 36 44 3d
       0.37629178 0.06741596 0.0034141738 0.047903664
000190 13 46 6c be 95 53 d7 3d ad 2c 32 bd 3d 0f 29 be
       -0.23073606 0.10513989 -0.043499637 -0.16509719
0001a0 ee 71 03 3e 70 3d 1c 3e b0 5f c3 3d 82 0d c6 be
       0.1283643 0.15257812 0.09539735 -0.3868218
0001b0 2d cd c4 bd d6 df 47 be fb db 9b be 9c c8 c5 bd
       -0.09609447 -0.1951898 -0.3044127 -0.09657404
0001c0 62 8b c4 bc d7 71 9f bc 35 46 66 be e4 69 0f 3e
       -0.023992244 -0.019463463 -0.2248772 0.14005238
0001d0 0a a6 99 bd f6 3c b6 3b 82 25 32 bd 03 26 1f 3e
       -0.075023726 0.0055614663 -0.0434928 0.15541844
0001e0 cc 14 30 bb b0 89 11 3e 1d 68 20 be f9 53 73 be
       -0.0026867865 0.1421268 -0.15664716 -0.23762502
0001f0 37 e6 1c bd 1f 2e 5a bd f3 bc 74 be 5a 80 22 be
       -0.038305487 -0.05326664 -0.23900203 -0.15869275
000200 ac f2 8d bd db 39 fd 3d 13 fd cd bd 3a 33 4c 3d
       -0.069310516 0.12364551 -0.10058036 0.04985354
000210 62 88 1f bd 5e a7 c7 bc e4 59 87 be 14 9e ba 3d
       -0.038948424 -0.0243718 -0.2643577 0.09112182
000220 79 24 1d be 4a d6 a5 3e 43 41 d2 3d 9d de f6 3d
       -0.15345944 0.32390052 0.10266354 0.12054179
000230 13 fd 37 be e1 29 ef 3d 4d e3 91 be a7 cc ad 3e
       -0.17967634 0.1167791 -0.2849373 0.339452
000240 c3 3d 28 3d c7 9a f2 3e 02 fa 17 3e d0 f4 91 be
       0.041074526 0.4738371 0.14841464 -0.2850709
000250 d8 a6 8a be b9 a5 a4 3e 46 cb 29 be d8 cf 94 3e
       -0.27080417 0.32157686 -0.16581449 0.29064822
000260 91 92 73 3e b2 f2 80 be ac b2 de bc 10 1e 12 bf
       0.2378638 -0.25185162 -0.027184807 -0.5707712
000270 36 36 a2 3d d0 56 1f be 54 12 e1 bd b6 85 13 bd
       0.07920496 -0.1556046 -0.10989824 -0.03601619
000280 34 f0 02 3e 3b 19 23 3e 0b 80 94 3e dd c9 a6 3e
       0.12786943 0.15927593 0.2900394 0.32575884
000290 40 46 10 3c d3 ff 9e bd 7c 92 86 3e ed 56 2f 3d
       0.008805811 -0.07763638 0.26283634 0.04280751
0002a0 e6 4a f2 bd c9 67 a2 3e 7e 89 88 3d 1d 87 5b be
       -0.11830692 0.31719807 0.066668496 -0.2143826
0002b0 52 a3 03 bd 53 f6 6c be 23 91 67 3e cd 21 ad 3e
       -0.032138176 -0.2314084 0.22613959 0.3381485
0002c0 d7 5a 54 3d 99 21 90 bb 98 96 b0 3c c1 81 cc be
       0.051844444 -0.0043985364 0.021556184 -0.39942744
0002d0 65 db 6a be 82 89 ee be 41 69 a1 3e 62 c8 a1 3c
       -0.22935255 -0.46589285 0.31525615 0.01974887
0002e0 5b 83 a5 3e a3 68 3d 3e 34 6d 3a 3e b2 d2 5f 3e
       0.3232678 0.18496947 0.1820572 0.21857718
0002f0 b6 1f 52 be 6c 04 58 3d 03 11 22 be c4 0c 03 3d
       -0.2051991 0.052738592 -0.15826802 0.031994596
000300 79 52 53 be 1c 0a ad 3d 50 00 02 be c9 cd 28 be
       -0.2063693 0.08449194 -0.12695432 -0.16484751
000310 34 80 ec bd 6e 20 cd 3d 79 fe 81 be 66 4f 39 3e
       -0.1154789 0.10015951 -0.2538946 0.18096694
000320 0a 07 69 be 6e 9e 85 be 6f 26 3a bc 5b 62 bf bd
       -0.22756591 -0.26097435 -0.011361702 -0.09344932
000330 45 05 00 3f 03 fc 14 be 1a bc 9e bd d0 3a 85 be
       0.5000804 -0.1454926 -0.07750721 -0.26021433
000340 fd 8e cf 3d 41 eb 91 be c8 6f a4 be 5e ea 83 be
       0.10134695 -0.28499797 -0.32116532 -0.25764745
000350 d9 5e f0 be 7c be 01 3d 0b 44 65 be 96 98 ba bd
       -0.46947363 0.0316758 -0.22389238 -0.09111135
000360 a6 83 31 bd 03 5d 5d be 73 ec c8 bd 0d 56 71 be
       -0.04333844 -0.21617512 -0.09810724 -0.23567982
000370 13 06 c7 bd d5 1a 69 be c5 9c ad bc 62 87 8c 3d
       -0.097179554 -0.22764142 -0.021192918 0.0686176
000380 8c ea 88 be 02 9d 44 bd 3c 70 00 be 73 b4 d6 3d
       -0.26741445 -0.048001297 -0.12542814 0.10483637
000390 ee 11 bc bd e0 51 bc bc c3 25 93 3e 3d 02 6f 3e
       -0.09183107 -0.02298826 0.28739747 0.23340698
0003a0 75 32 9f bc 22 3d 8e be 4f 93 c1 bd 03 61 c0 3e
       -0.01943324 -0.27781016 -0.09451925 0.37574014
0003b0 44 5a 4c bb 2f 5a 9f be 80 c9 0a 3f 61 2f 8a be
       -0.0031181732 -0.31123492 0.54213715 -0.26989272
0003c0 68 93 b2 bd d6 1d a7 be 05 13 a2 3e bc 77 1d be
       -0.08719522 -0.3263995 0.31655136 -0.15377706
0003d0 1d 52 f2 3e 48 9f 9a 3e 50 18 70 be 73 0a 7e 3d
       0.47328272 0.30199647 -0.23446774 0.062021684
0003e0 6b 23 d2 bd fa 6f 79 be 62 9e 6d 3e 77 7b 5b 3e
       -0.10260662 -0.24359122 0.2320495 0.21433817
0003f0 bb a6 87 be 74 9e e7 3d 47 a3 85 3e 17 e6 5f bd
       -0.26494393 0.113095194 0.26101133 -0.05466279

_module.mlp.8.bias f4 [5]
000000 30 3a 15 bd 7a ab 92 3c 06 9c 35 bd e5 99 a6 be
       -0.036432445 0.017904032 -0.04433825 -0.32539287
000010 a0 b8 be bd
       -0.09312558

exp_avg f4 [128, 24]
000000 5b 82 b2 3a f8 a0 91 39 f4 be 2b 3a 07 54 80 39
       0.0013619171 0.00027776486 0.00065515866 0.00024476668
000010 91 47 49 3a a7 1d c7 3a d6 96 6b 3b 61 59 05 bb
       0.0007678206 0.0015191332 0.003594806 -0.0020347463
000020 9b 03 d4 ba 5e 8e 83 b9 73 f5 14 bb 0a ab 1f bb
       -0.0016175391 -0.0002509234 -0.0022729307 -0.0024363422
000030 48 b4 5e 3a d9 be 90 ba af fa 33 bb f0 26 5d ba
       0.0008495492 -0.0011043205 -0.0027462651 -0.0008436283
000040 c9 b3 c1 3a ac ba 7c bb 0b 31 f0 b8 05 cb 91 b9
       0.0014778312 -0.0038563414 -0.00011453227 -0.00027807817
000050 46 f6 79 3a b1 e6 46 ba 55 3b b4 39 5e 8a cb 3a
       0.0009535294 -0.0007587476 0.0003437648 0.0015528908
000060 0d 73 0d 3a ee 78 d9 ba fd d4 8c bb bf e1 e9 3a
       0.0005395867 -0.0016591826 -0.004297851 0.0017843767
000070 84 73 34 3b 8b 11 1f ba 00 eb 09 ba bb 80 87 ba
       0.0027534673 -0.0006067983 -0.0005261153 -0.0010338047
000080 b0 96 90 3a 5b 39 67 bb 04 64 d6 3a ce 82 40 ba
       0.0011031236 -0.003528199 0.0016356711 -0.000734371
000090 95 73 d5 ba e8 9e 94 37 b1 93 ad 3a 6c 66 0f 3b
       -0.0016285056 1.7716971e-05 0.0013242868 0.0021881117
0000a0 c9 67 49 ba fb ea 5b ba 5e 82 83 3a 7c 8c f4 3a
       -0.00076830067 -0.0008389202 0.0010033359 0.001865759
0000b0 72 52 11 3b c5 dc 2e 3b df 3e c1 b8 d7 24 7c 39
       0.0022174385 0.0026681882 -9.214668e-05 0.00024046317
0000c0 b7 ab 47 3a 25 fe 4e 3a 4c ea 30 ba 2f 0f 37 ba
       0.0007616835 0.0007896147 -0.000674878 -0.00069831585
0000d0 c5 d5 38 39 b3 0f f1 ba c4 0d 18 ba 10 ae 6e b9
       0.00017627243 -0.001839152 -0.0005800391 -0.00022762292
0000e0 de 10 54 39 16 a7 f0 b8 74 9a 45 3b 79 7b 5d ba
       0.00020224179 -0.00011475214 0.0030151876 -0.000844888
0000f0 cb 94 8f 39 e5 53 c3 b9 28 5e 72 3a 87 e4 a0 ba
       0.00027385945 -0.00037255805 0.0009245598 -0.0012275138
000100 1a e7 c1 ba ee ce dd 3a b6 cb 1c 3b d8 e3 4b bb
       -0.0014793605 0.0016922632 0.0023925132 -0.0031111147
000110 93 da f5 b8 86 01 c6 3a db ec 2a bb d9 2f ea ba
       -0.00011723223 0.0015106655 -0.0026081118 -0.0017867043
000120 51 46 f4 b8 2e f6 3e 3a 20 b3 8b 3a 67 57 6d 3b
       -0.00011647924 0.00072846084 0.0010658242 0.0036215426
000130 00 2d 31 bb 3c c0 04 3b 10 23 34 3b 82 fc 2b b9
       -0.0027034879 0.0020256182 0.002748672 -0.00016401897
000140 2d b4 06 3a 9f 37 8e b9 c5 85 d4 ba 1b 02 ea 39
       0.00051385426 -0.00027125792 -0.0016214183 0.00044633527
000150 ca 4e fe ba 66 4e 91 ba e0 7b 8f b9 db e8 05 bb
       -0.0019402143 -0.0011085987 -0.0002736738 -0.0020432982
000160 a4 98 95 3a 54 53 08 bb c3 1e 22 3a 75 43 dd ba
       0.0011413288 -0.002080162 0.00061843934 -0.0016881066
000170 6a fa 33 39 f6 81 03 3a d5 a4 20 ba bf 90 d5 b8
       0.00017164057 0.0005016619 -0.00061280775 -0.000101835925
000180 67 99 f7 38 06 7c 80 ba 52 65 0a 39 0e 31 3c 3b
       0.00011806451 -0.0009802587 0.0001319845 0.0028715762
000190 87 db a1 ba b8 a4 42 3a cc 79 1a 3b fe cf 7f bb
       -0.001234875 0.00074250577 0.0023571132 -0.0039033885
0001a0 a4 26 22 3b 29 ea c6 bb 6a 09 3a b9 40 4d 34 ba
       0.002474227 -0.0060703945 -0.0001774185 -0.0006877966
0001b0 8f 5a 07 bb 56 a6 f1 ba f8 f5 0f ba af dd 2f 3a
       -0.0020653342 -0.0018436413 -0.0005491669 0.00067087536
0001c0 e4 5f 45 3b cd 09 21 bb 4b 84 77 bb 50 10 eb 39
       0.003011697 -0.0024572492 -0.0037768062 0.00044834847
0001d0 41 0c 32 bb 12 35 03 bb a0 7e 78 ba 33 27 ea b9
       -0.0027167948 -0.0020020646 -0.0009479318 -0.00044661164
0001e0 67 be 4d 3b 84 9c b5 39 24 29 1c 3a 58 15 da ba
       0.0031394006 0.00034639623 0.0005957058 -0.0016638441
0001f0 69 15 33 ba 8f d8 b4 ba d0 d1 b1 ba 58 e9 bf ba
       -0.00068314985 -0.001379745 -0.0013566557 -0.0014641685
000200 26 e8 0d 3a 1e e2 b5 38 bb 51 fb ba 5a 65 e0 ba
       0.0005413316 8.67287e-05 -0.0019174138 -0.0017120049
000210 dd bf a9 ba 60 4a 17 bb c3 ba 00 b9 a6 8f 78 3a
       -0.0012950856 -0.0023085102 -0.00012276605 0.00094818545
000220 54 4c 77 3a ce 51 f4 38 da 1f fd b9 55 e4 eb ba
       0.0009433676 0.00011650064 -0.00048279652 -0.0017997125
000230 53 a9 22 ba 1f 6d 62 ba 4a b0 86 ba 70 ad e9 ba
       -0.0006205041 -0.0008637476 -0.0010275927 -0.0017828178
000240 1d 44 af 3a 27 ae 7f 38 ee 91 2e 3a 69 ea 4a bb
       0.001337174 6.095893e-05 0.00066593185 -0.0030962473
000250 8a aa 53 3a 1c a9 cf ba 32 6d 41 bb e4 60 e2 3a
       0.00080744235 -0.0015843245 -0.0029514548 0.0017271307
000260 53 5c bf b7 a4 b2 e5 3a ca 21 f2 b9 03 a6 16 3a
       -2.2811966e-05 0.0017524553 -0.00046183012 0.00057467836
000270 2d de b2 3a d8 ad 68 3a 8d 91 3c ba e3 21 a8 ba
       0.0013646536 0.00088760024 -0.00071933196 -0.0012827482
000280 84 71 40 3a a3 56 00 bb 9e f1 23 3b 5d 7e 87 bb
       0.0007341134 -0.001958289 0.0025015841 -0.0041349367
000290 56 c2 dd ba f3 73 08 39 81 58 07 3b 7a 15 80 3a
       -0.0016918879 0.00013013165 0.0020652118 0.0009772026
0002a0 12 4b 82 b8 13 23 50 39 a5 67 81 3a 8a fb 02 ba
       -6.212866e-05 0.00019849492 0.0009872807 -0.00049965887
0002b0 ef d8 6f 3a 83 20 c0 b9 d8 1e 1f 3b b9 8c 9c b9
       0.0009149452 -0.00036645317 0.002427986 -0.00029859485
0002c0 a7 15 f8 39 e0 c0 0c ba 21 f2 96 ba fa 3f 9b ba
       0.00047318378 -0.0005369317 -0.0011516252 -0.0011844628
0002d0 94 e8 c9 ba a0 7b da 3a 00 a4 5a 39 64 32 c8 ba
       -0.0015404397 0.0016668923 0.00020851195 -0.0015273807
0002e0 8c 39 d0 39 f7 f1 20 39 74 08 2f 3b 8c af 7d b9
       0.00039715727 0.00015348928 0.002670792 -0.00024193357
0002f0 9d 9c 25 3a bf 5e f8 3a c4 82 b0 3a a6 04 2f 3b
       0.00063175877 0.0018949135 0.0013466706 0.0026705652
000300 27 e1 32 bb 00 23 1d bb 32 00 96 ba bf 5d 62 bb
       -0.0027294846 -0.002397716 -0.001144415 -0.003454074
000310 ef 9f 9a 3b 2f 25 15 3a 2e e4 5e ba a3 96 00 3b
       0.0047187726 0.000568944 -0.00085026294 0.0019621036
000320 17 24 10 ba a1 61 f6 ba b0 1c 30 39 40 fc 11 bb
       -0.0005498542 -0.0018797406 0.00016795355 -0.0022275597
000330 b9 2e c2 3a 98 6b b5 b9 7f 5c 42 3b 24 51 81 b8
       0.001481495 -0.00034603174 0.0029657183 -6.166313e-05
000340 38 36 e7 ba d5 55 75 3a db 56 83 ba 48 49 09 bb
       -0.001764006 0.0009358798 -0.0010020392 -0.002094822
000350 aa ef 83 ba 75 cc fa ba a6 0b 2c 3b 2c e3 b3 3a
       -0.0010065932 -0.0019134419 0.002625206 0.0013724319
000360 80 6b 4b bb b6 03 00 bb fa ef cc 3a 59 8c 33 3a
       -0.0031039417 -0.0019533462 0.0015635483 0.00068492215
000370 de 9c 71 bb 77 ee df ba a8 68 4b 3a 90 02 8c ba
       -0.0036867182 -0.0017084618 0.00077594304 -0.0010681916
000380 0e 8b c9 39 b8 b9 cd 3a 37 76 40 ba 7d cd b4 ba
       0.0003844131 0.0015695607 -0.0007341834 -0.001379415
000390 5a 6b 30 3b dd 06 94 39 f0 ed 02 bb 94 7d 12 bb
       0.0026919455 0.00028233873 -0.0019978248 -0.0022352682
0003a0 83 fd 8e 3a ec cf a4 b9 63 8a 8a ba a1 d6 67 3b
       0.0010909293 -0.0003143543 -0.0010569807 0.0035375732
0003b0 d7 df 66 38 d8 6f 97 3a c5 c8 8e bb 01 3a e4 3a
       5.504474e-05 0.0011553718 -0.0043574297 0.0017412306
0003c0 22 f4 b6 39 65 9a 44 ba 20 bf ca 3a de 13 39 3a
       0.00034895638 -0.0007499813 0.0015468337 0.00070601504
0003d0 60 ff 2e b8 b9 6c b1 3a e3 2c c0 b9 12 cd 86 39
       -4.172267e-05 0.001353643 -0.00036654537 0.0002571126
0003e0 de ba b5 3a 60 33 05 3b 62 b9 4c ba ab b9 d5 3a
       0.0013864895 0.0020324811 -0.00078096066 0.0016305944
0003f0 be 0c 81 bb 65 c0 91 ba b6 71 ac ba 22 07 bd b9
       -0.0039382866 -0.001111996 -0.0013156447 -0.00036054204
