models/wesad/dp_torch/model_wesad_binary_dp.pth (torch, 194471 bytes, 16 tensors)

_module.conv1.weight f4 [32, 14, 7]
00000000: fdf2 07be 75c4 b63d 0461 3cbd b4f8 3cbd
00000010: e6a2 983b 5e1a edbd 08b3 c83d a4d6 813d
00000020: faaf 513d 5d33 8c3d a12e 1b3d 62f7 abbd
00000030: 4eab 2a3d 2eda 413d b34e e43d 9c0f f43d
00000040: 2608 dfbd 9257 a53d d786 febd 3641 163b
00000050: 2aa9 b03b 7f27 99bd 7a05 fbbd ccf7 03bd
00000060: b339 0ebe 6d23 17bd 6da8 e33c 99f8 29be
00000070: 089c 5abd e7b7 57bd d260 5b3d 2fde ad3d
00000080: 7cca 963d d8f2 303e 1e98 273d 71aa bf3d
00000090: 3fd3 bfbc e314 5b3d 990b 153e e462 a53d
000000a0: 5e70 6b3b 1cf6 873d a4d0 a3bd aca0 cabd
000000b0: 45b3 e9bd 2ad4 9fbc 7a90 b4bd 60e2 9dbd
000000c0: 524e f5bd e4f1 4ebd ed7a ba3d fc5f 703d
000000d0: 24bc c8bc c977 673d 00d0 ad3d c59e 84bd
000000e0: 4fe7 0e3c 6b22 d7bd 44f1 18bd 2ec5 bbbd
000000f0: b68c 1a3c 56bd 193e d357 813d c797 043e
00000100: 6d54 2d3e 8746 f1bd 423b b13d c909 34bd
00000110: 7020 bc3d f8f7 963c 8f6d ee3d 6355 843d
00000120: 01d3 c23d 0600 e5bd 11ae a7bd 89c7 fd3c
00000130: e30c 113e c935 be3d f8ad f73d b05f 0cbd
00000140: 31dd 0e3e c117 a9bd be29 abbc 0a4c 8e3b
00000150: 8f7f 9e3c a6c6 2b3e 7035 5dbd 804a a4bd
00000160: a724 a53d a626 fe3d 9f71 c4bd ec26 483d
00000170: f558 013e c31c d1bd 71a5 d639 12fe 9bbc
00000180: 6612 32be 2195 003d e4fe 163c aef3 b3bd
00000190: c092 ec3c da30 043e bfb5 363c 69a4 c7bc
000001a0: 8d73 56bc 7e10 c3bd 401d d1bd f5ce a03d
000001b0: 5a62 823c b1f5 cf3d 96e3 5d3c be10 c1bd
000001c0: 1c57 e8bd d0c6 d0bd 2c95 08be ffa1 14be
000001d0: ef9c 24be cc99 6d3d 241d 22be ece9 86bc
000001e0: b343 293e efc0 193d 9874 f73c c8a1 92bd
000001f0: b2bc 8a3d a57e 96bd 2c97 61bd 8eee 85bd
00000200: 270a bb3d 99f3 0c3e a6f3 bd3d 7251 2c3c
00000210: 181f 5c3d 4b89 cebd ca14 d63d ff6c 373c
00000220: 9c5a 41bd eba6 74bd f6f9 bebb 7d36 a1bc
00000230: 397a 203d a42d efbb 4e3d 03bd 551e 373d
00000240: c46d a8bc 1529 eabc 33a5 003c c998 fd3c
00000250: 1c4e d8bd f182 8b3d 076a da3d ec71 c0bd
00000260: 6789 35bd 2cb9 68bd cbca c43c a3c9 c23c
00000270: 40fa f7bd ead0 103e b284 cbbd 40c7 093e
00000280: a4a4 cb3d 5ed3 1e3d 6825 22be 2187 db3d
00000290: 6b21 dd3d 0f03 e1bd 1bdf 0dbe fed0 953d
000002a0: f398 c3bd 5344 45be 1420 593d 9da4 1bbe
000002b0: 59d2 673d 8929 bb3d 3f94 03bd 7475 723d
000002c0: 86b7 e13c 5105 f4bd 43de 073d 3bca 323d
000002d0: da2f a0bd e15d b4bd 8c43 053e 5f7b 7d3d
000002e0: 2295 883d 0d51 fbbd 6646 3a3c b69a 06be
000002f0: 4a40 90bd b2d6 e7bd ec10 763c 448c e0bd
00000300: fd7e abbd 12e5 7dbd d7f0 3d3d 1e35 d23c
00000310: 4bf9 14be 5087 81bd 3250 c7bd 5af5 223d
00000320: cfb4 e8bd 57b2 90bd 1e25 fb3d 1432 d6bd
00000330: 00fc cf3d 7e00 303d 24a1 c83d 458a 193d
00000340: ae80 153e 75ae 093e 8952 263e d145 9cbc
00000350: 4c42 a73d 96fc 0cbc 2660 aa3d 4b7c 2ebd
00000360: 5463 073e 58e4 8d3d 043a d0bd 3a58 9b3d
00000370: 496b aa3c f909 303a a251 e7bd b354 e7bc
00000380: ce32 4fbd 3909 cfbd b7d8 933d 31ae 113d
00000390: bce8 96bd 4d59 04be 1ecb d53d b879 00be
000003a0: 5112 273d 695a 8dbd 4cbd 9b3d f9ac 22bd
000003b0: ba8f cf3d a670 443c abd2 d93d a3a9 1e3d
000003c0: d85c 8c3d 0575 013e a8d1 fdbd 62e3 a0bb
000003d0: 4df2 f43d a28e d2bd a48f 50ba 148c 83ba
000003e0: 451a f8bd dbcd 7ebd bc2f e63d 596b 7fbd
000003f0: a17e f4bd 784f bf3d 8b2a 773d ec71 083e
-0.13276286 0.0892419 -0.04599096 -0.04613562 0.004658091 -0.11577295 0.097997725 0.063397676
0.051193215 0.06845734 0.037886266 -0.08396794 0.041667275 0.047327213 0.11147823 0.1191704
-0.10890226 0.08073343 -0.124280624 0.0022927052 0.0053912597 -0.074782364 -0.12256904 -0.03221874
-0.13889198 -0.03689902 0.027790273 -0.16598739 -0.05337146 -0.052665617 0.053559132 0.08489644
0.073628396 0.17280138 0.040916555 0.09358681 -0.02341616 0.053486716 0.14555205 0.080755025
0.003592513 0.066387385 -0.079987794 -0.09893927 -0.11411146 -0.019510347 -0.08816619 -0.07709193
-0.11977829 -0.050523654 0.091054775 0.058685288 -0.024503775 0.05651072 0.084869385 -0.064755954
0.00872214 -0.105046116 -0.037339464 -0.091684684 0.009432962 0.15013632 0.06315579 0.12948523
0.16926737 -0.1178103 0.08653881 -0.043954644 0.091858745 0.018428788 0.116419904 0.06461599
0.09512902 -0.11181645 -0.081874974 0.030978935 0.14165072 0.092876025 0.12093729 -0.034270942
0.13951565 -0.08256484 -0.020893928 0.0043425607 0.019347934 0.16774997 -0.05400604 -0.08022022
0.080636315 0.12409715 -0.09591984 0.048865244 0.1263159 -0.10210564 0.00040940524 -0.019042049
-0.17389831 0.03139222 0.009216044 -0.087867126 0.02887857 0.1290926 0.01115173 -0.024370389
-0.013089073 -0.0952463 -0.10210657 0.07851974 0.015916038 0.10154284 0.01354303 -0.094270214
-0.1134474 -0.101941705 -0.13338155 -0.14514922 -0.1607549 0.058008 -0.15831429 -0.016468965
0.16529731 0.03753751 0.030206963 -0.071597636 0.06774272 -0.07348374 -0.05507581 -0.06539641
0.09132796 0.137648 0.09274988 0.010517465 0.05374059 -0.1008478 0.10453184 0.01119542
-0.047205552 -0.059729498 -0.0058281375 -0.019679302 0.03917906 -0.007299142 -0.032040887 0.04470666
-0.020560153 -0.028584043 0.007851887 0.030956643 -0.10561773 0.068120845 0.10664754 -0.09396729
-0.04432049 -0.05681722 0.02402248 0.023777789 -0.12108278 0.14142194 -0.09937419 0.13454914
0.09943512 0.038775794 -0.15834582 0.10719133 0.107973896 -0.109869115 -0.13854639 0.07315253
-0.09550657 -0.19264345 0.053009108 -0.15199514 0.056597088 0.091387816 -0.0321238 0.059194043
0.027553331 -0.119150765 0.03317095 0.043649893 -0.07821627 -0.088069685 0.13014048 0.061885234
0.0666907 -0.122713186 0.011369323 -0.13144955 -0.07043512 -0.11320247 0.015018683 -0.109642535
-0.083738305 -0.061986037 0.04637226 0.025660094 -0.14548223 -0.06324637 -0.09732093 0.039784767
-0.113626115 -0.070652656 0.12262939 -0.104587704 0.10155487 0.04296922 0.0979636 0.03748538
0.14599869 0.13445456 0.16242422 -0.01907626 0.08166942 -0.008605143 0.0831912 -0.042599004
0.13221484 0.06928319 -0.101673156 0.07585187 0.02080311 0.0006715353 -0.11294867 -0.02823863
-0.05058556 -0.10109181 0.072190695 0.035566512 -0.07368609 -0.1292469 0.10439132 -0.12546432
0.040788952 -0.0690201 0.07604465 -0.03971574 0.101348355 0.011989748 0.10635885 0.038735997
0.06853646 0.12642296 -0.123935044 -0.0049099186 0.11960278 -0.10281111 -0.00079559744 -0.0010036253
-0.121143855 -0.062208038 0.11239573 -0.062358234 -0.11938215 0.09341329 0.060343307 0.13324708

_module.conv1.bias f4 [32]
00000000: 958c 9ebc b76f 823c c3f6 803d c2b7 143d
00000010: 5896 003d d856 aa3c 0981 3d3d 8a80 c1bb
00000020: 5a78 08bd e170 f33c 05ca 8f3c e827 103d
00000030: dcc5 513d a162 93bd 714f f9bc c943 a539
00000040: 7815 8bbc 2f80 f33c ef6d 40bd 8cb8 a83d
00000050: 13e0 123d bb13 d2bc 7564 febc fecd 9c3c
00000060: 049f 973c db93 5d3c 2b87 6fbd d1ce f9ba
00000070: 4801 2ebd 74dd b33c e61f a1bc 1274 2ebc
-0.019354144 0.01592241 0.06297066 0.036308058 0.03139338 0.020793363 0.046265636 -0.0059052156
-0.0333179 0.02971691 0.017552385 0.035194308 0.051214084 -0.07196546 -0.030433388 0.00031521756
-0.01697801 0.029724209 -0.04697984 0.082383245 0.035858225 -0.025644174 -0.031053761 0.019141193
0.018508442 0.013524021 -0.058478516 -0.0019058828 -0.04248169 0.021956183 -0.01966853 -0.0106477905

_module.gn1.weight f4 [32]
00000000: 41f9 7f3f e506 833f 3008 7f3f c608 7f3f
00000010: 1752 7d3f f7f5 743f 71d8 7e3f 4fa3 843f
00000020: bc3b 833f 9a5d 813f 5e8c 823f 0e66 823f
00000030: d209 7f3f 68af 833f 117c 833f 40d8 813f
00000040: 368e 7d3f b638 7e3f 43f9 7b3f fc83 8b3f
00000050: 1de9 7a3f 0666 803f 2206 813f 73d4 743f
00000060: b269 803f 20c1 763f 806b 813f 4d93 7b3f
00000070: bf5c 763f e96f 813f 962d 7b3f deec 7f3f
0.99989706 1.0236479 0.9962187 0.9962276 0.98953384 0.9568781 0.99549013 1.0362338
1.0252604 1.010669 1.0199087 1.0187395 0.9962436 1.0287905 1.0272237 1.0144119
0.9904512 0.99305284 0.9842722 1.0899653 0.9801195 1.0031135 1.0079997 0.9563667
1.0032256 0.96388435 1.0110931 0.9827164 0.9623527 1.0112277 0.98116434 0.99970806

_module.gn1.bias f4 [32]
00000000: 263d dcbc d6e0 233d 0ea3 403b 4d36 9d3c
00000010: 28f4 4fbd 44ae 073c 53f4 353c 318c 973c
00000020: e842 df3c 4669 bebc 1657 a33c 6288 493d
00000030: ae59 6dbc 485c c6ba 8797 2abc 6092 9bbc
00000040: dddc 95bc 4399 b4bc 120a cf3c 6e91 cbbc
00000050: e6c3 0d3d 059f 41bd c4a3 0fbd 9255 b13d
00000060: d82d 6d3c 6486 da3b 79eb 623c c777 cdbc
00000070: 45f6 b03c ab38 06bd d414 e73c 503a e13c
-0.026884627 0.040009342 0.0029394063 0.019190932 -0.050769955 0.008281294 0.011105615 0.018499466
0.027253583 -0.023243558 0.019938987 0.04920233 -0.014486713 -0.0015133703 -0.0104121035 -0.018990695
-0.018293792 -0.022045737 0.025273357 -0.02484962 0.03461065 -0.047270793 -0.03506829 0.08658899
0.014476262 0.0066688526 0.013850086 -0.025081528 0.021601805 -0.032768887 0.028208174 0.027493626

_module.conv2.weight f4 [64, 32, 5]
00000000: 5b23 cbbd 4910 b8bd 05cb f93d ac2e bd3d
00000010: a760 a43d a128 7d3d d84b 823d 02ec 1fbe
00000020: 5c0a 893c d77f ae3d abb8 dd3d 2dd1 b43d
00000030: fc09 733b 0628 ee3d d06e 9c3d 66d7 d63c
00000040: a5be bcbd 5836 8e3c e87e 613d 803a 823d
00000050: 92ca 75bd dd3e 693c 6751 003d cad3 66bd
00000060: e766 02be 9643 a53c 04d8 293e 87f9 9d3c
00000070: a812 9ebd 7f02 31bd 28b0 dcbd f424 88bd
00000080: 838b 05be 5184 8fbd a8fb 343d b838 4dbd
00000090: fcd6 773a 0451 1a3d 4ecb 803d 0d29 90bc
000000a0: 98bd 47bd f89f d83d 75dc 593d e25c ee3d
000000b0: 8eb0 1e3d d45c 7e3d 6f4f 023e 634d 173d
000000c0: b8cf e13d 1939 393c 6934 8f3c 5863 91bd
000000d0: 7e5e c0bd 7530 c13c 02fe eebd 65bb 92bd
000000e0: cfab d23d c115 ef3c 4f92 f93d 08d3 4a3d
000000f0: 93c2 73bd 38ce 3b3d ce5e 6fbd 3ceb ef3c
00000100: 5156 2bbc b8ae 0c3e a09e f2bd a494 07be
00000110: 6c54 febb 6abb b6bc c5ad d9bc eb92 26bd
00000120: a52e fbbc d59e 36bd 8ea5 4b3d d7e1 58bd
00000130: 8797 b0bd f0ec ecbd 3ec1 953d 27d1 813d
00000140: 28a6 b93c ffc8 21bc 8028 76bd ace2 0c3a
00000150: 2a15 cb3d 2e03 a8bd eaf3 093e 640c 6dbd
00000160: 33f2 9bbd 393d d3ba 69b6 c43b 3aab f93b
00000170: 9966 5f3d 2f1e a13d 87bc 1a3d 3f3d 4abd
00000180: 5464 a2bd 710c 62bd 08b5 72bc 1e20 19bd
00000190: eb7a e83d d7a9 bbbb 43a2 a23c cacb cabd
000001a0: f34c 8d3d a90d eb3c fec4 b03d 6e37 44bd
000001b0: 2b95 8c3c 4175 f4bd 3a6d e13a 751a 72bd
000001c0: 42a3 b23d 9c4c 023e 4c5a f4bd bec0 bf3c
000001d0: 345e d1bd 31a8 7dbc 07b7 b43d 48db e43c
000001e0: 97c8 d2bb d2d9 89bd bbae 5bbd c6ae 873c
000001f0: c17f 153d 9f4a 7abd 2b48 423d 08b0 8c3b
00000200: 1c23 21bb 23fb 883b 5ba4 cbbc 09e8 b6bc
00000210: 4809 6d3d 4621 8f3b 3395 ccbd 3b8a 5b3d
00000220: 7180 9dbd 07ba a3bc ae65 0c3d bb7c 2dbc
00000230: f00a 91bd 8536 863d 2dc2 d93d 88cf 36bd
00000240: c20d ad3d 52a2 b9bd a819 be3d 156a 9e3c
00000250: a0a0 85bd 16ef 77bd 8fa0 b13d 0f17 6b3c
00000260: 72a3 8d3d 0107 263e 6a5a 63bd 6714 75bb
00000270: 0bfd cb3d 32c3 843b 0823 d9bd 4994 c43d
00000280: 9a71 8b3c 07b5 73bc 7e9e 80bc 64e0 afbd
00000290: ee68 94bb eb27 773d aca9 62bd 8892 80bd
000002a0: 4d1e 0ebd 6b9d bdbd 472f 703d d74d f5bd
000002b0: b0f4 02be 82b0 b5bd 52ab 073d e7fd 123e
000002c0: 27d3 0bbe 2ae2 b63d 2e1c ee3c d4d4 713c
000002d0: f1d5 833d 29b9 c13b 3c04 e13c 36be bdbd
000002e0: 9b10 98bd 154d e4bd 9f5a 77bc 310c 54bd
000002f0: 0d88 713d 234c b13d 9e81 8abc e486 c73d
00000300: 52c2 95bd 2e90 093d 2594 503d a665 4fbd
00000310: 1359 11bd 82fa e7bd 66ec 49bb 6b5d 553d
00000320: 2c0c ba3b 8710 6b3d 2d66 35bd 4129 c43d
00000330: 8955 623d 38de 22bc e7d4 bcba c47f 203d
00000340: 2fc3 763c f0a9 a8bc c640 423d 1e5e 9ebd
00000350: 0a2f e23c 00a9 cbbc 1895 a43d 85ba 90bd
00000360: a5d0 943c ce0d c83d 110a 73bd 0d88 05bd
00000370: 7d58 b03d 033f 043d fb2b 09bb d930 193d
00000380: ca89 8f3d ee12 a5bd 63f2 87bd 3cfb 843c
00000390: 05be 913c 664d b2bd 5178 8abd bd87 6cbd
000003a0: f872 003e f8e5 623d cd95 9c3b 94bb 253d
000003b0: 78d2 41bd 26fe 823d 8735 e1bc ce2e 933d
000003c0: 7dfc dc3c 008b e03d c7cd e43d 0d33 793b
000003d0: 512a c33d 2c45 4a3d 3e45 75bd e1f4 4dbc
000003e0: a025 b5bc 461c a7bd bced 90bd ad91 8d3d
000003f0: 4723 58bd 87c3 a53c 5970 833d b6b8 033e
-0.09918853 -0.08987481 0.12196926 0.092374176 0.080262475 0.061806325 0.06362122 -0.15617374
0.016728573 0.08520477 0.10826238 0.088289596 0.0037084809 0.116287276 0.07638323 0.026225757
-0.0921605 0.017359897 0.055052668 0.06358814 -0.06000764 0.014236179 0.03132763 -0.05635432
-0.12734567 0.020173829 0.1658631 0.019284023 -0.07718402 -0.04321527 -0.10775787 -0.06647673
-0.13041501 -0.07007659 0.04418531 -0.05010292 0.00094543374 0.03767492 0.06288777 -0.0175977
-0.048764795 0.105773866 0.05318876 0.1163881 0.038742594 0.062100247 0.12725614 0.036939036
0.11025947 0.011305117 0.017481046 -0.070990264 -0.09393023 0.023582676 -0.11669542 -0.07164649
0.10286676 0.029185178 0.12186109 0.04951766 -0.059511732 0.045850962 -0.058440022 0.029286973
-0.010457591 0.13738525 -0.118466616 -0.13240296 -0.0077615287 -0.022306163 -0.026572118 -0.040667456
-0.03066189 -0.044585068 0.049718432 -0.052949753 -0.086226515 -0.1156863 0.07312249 0.06338721
0.022662237 -0.009874581 -0.060097218 0.0005374353 0.09916146 -0.082037315 0.13471952 -0.057873145
-0.07614555 -0.0016116268 0.0060031903 0.0076192887 0.054541204 0.07867085 0.03777745 -0.049374815
-0.07929292 -0.055187646 -0.014813669 -0.037384145 0.1135157 -0.0057270336 0.019852763 -0.09902151
0.068994425 0.028693037 0.08631323 -0.047904424 0.017160973 -0.11936427 0.001719869 -0.059107263
0.08722545 0.12724537 -0.11931285 0.023407336 -0.10223046 -0.0154819945 0.08823972 0.027936593
-0.0064326036 -0.06730999 -0.053633433 0.01656283 0.03649879 -0.06110632 0.047432106 0.0042934455
-0.0024587577 0.0041803285 -0.024858644 -0.02232744 0.05787018 0.00436798 -0.09989395 0.053598624
-0.07690514 -0.019986166 0.034276657 -0.01058882 -0.07082164 0.065533675 0.10632739 -0.04463151
0.0844989 -0.09064163 0.09282237 0.019337693 -0.065247774 -0.060530744 0.08673202 0.014348759
0.0691594 0.1621361 -0.055506147 -0.0037396194 0.099603735 0.0040515894 -0.10602385 0.09598596
0.017021943 -0.014874703 -0.015700575 -0.08587721 -0.00452911 0.060340803 -0.055337593 -0.062779486
-0.034696866 -0.09258541 0.058638837 -0.119777374 -0.12788653 -0.08871557 0.03312237 0.14354669
-0.13654767 0.08929856 0.029066171 0.014760215 0.064372905 0.0059119654 0.02746784 -0.092647955
-0.07425042 -0.11147515 -0.015097289 -0.05176944 0.05896764 0.086571 -0.01690751 0.09742525
-0.07312454 0.033584766 0.05092253 -0.05063405 -0.03548534 -0.113270774 -0.003081107 0.052091043
0.0056777205 0.05738881 -0.044286896 0.09578181 0.055257354 -0.009940676 -0.0014406712 0.039184347
0.015061184 -0.020588845 0.047425054 -0.07732795 0.02761032 -0.024860859 0.0803625 -0.07066826
0.018165896 0.09768258 -0.059335772 -0.03260045 0.08610628 0.032286655 -0.0020930755 0.0374001
0.07008703 -0.08060251 -0.066380285 0.01623308 0.017790804 -0.08706169 -0.0676123 -0.057746638
0.12543857 0.055395097 0.0047786 0.04046209 -0.04731986 0.06396131 -0.027491344 0.07186662
0.026975865 0.10964012 0.111720614 0.0038024813 0.095295556 0.049382374 -0.059880488 -0.012570591
-0.022112668 -0.081596896 -0.07076594 0.06912551 -0.052768018 0.020234836 0.06417913 0.1286343

_module.conv2.bias f4 [64]
00000000: 66c1 06bd 96c5 cfba 6175 dcbc 2b5a 63bd
00000010: 1609 103c a871 96bb 9323 14bd b4a8 87bd
00000020: cab2 8d3b 85b8 0f3c 8118 15bd a996 9a3b
00000030: 7bbb ab3c c62c 55ba fa2f 85bc 052c cbbb
00000040: 06df ac3c 226f 67bc c4d6 93bb d156 4a3c
00000050: 3206 4fbd d2b5 7f3d 6dd7 debc 10b5 893c
00000060: e66e 97bc e77f f0bc 04fd 373d bb04 783d
00000070: 48dc ccbc 3303 07bb 5e91 8f3d 6910 d53c
00000080: 0951 4ebd 9cf9 143d 56b1 9d3c eac5 c83c
00000090: bc29 323d 2be9 f13c 0b53 22bd 6f02 a63b
000000a0: 11ff 863b c967 26bc cb14 13bd 0002 0b3d
000000b0: 2efe 4f3d d4bc a1bd 386d 183d bdb8 afbc
000000c0: 1786 8a3c dd58 fe3c 3609 a1bb 8baa 3d3d
000000d0: b7fb 7dbd c84d 24bc 15c8 febb 7f03 6e3c
000000e0: 72b0 da39 73e6 33bc 0639 36bd 27bb 89bd
000000f0: 5138 c43c 62e3 30bb 3847 d23c b1b0 fa3b
-0.032899283 -0.0015851732 -0.02691144 -0.055505913 0.008791229 -0.0045911856 -0.03616674 -0.066239744
0.004324292 0.00877202 -0.036400322 0.004717667 0.020963421 -0.0008131977 -0.016258229 -0.006200316
0.02110244 -0.014125617 -0.004511686 0.0123498 -0.050543018 0.062429257 -0.027202332 0.01680997
-0.018485498 -0.029357864 0.04491903 0.060551386 -0.025007382 -0.0020601272 0.070101485 0.026008802
-0.05037025 0.03637086 0.0192496 0.024508435 0.043496832 0.029530128 -0.039629977 0.005066208
0.0041197618 -0.01015658 -0.0359085 0.033937454 0.050779514 -0.07897344 0.037213534 -0.021450395
0.016909642 0.031048233 -0.004914428 0.04630522 -0.062007632 -0.01002831 -0.0077753165 0.014527201
0.00041711662 -0.010980236 -0.044487976 -0.067251496 0.023952635 -0.0026991 0.025668725 0.007650458

_module.gn2.weight f4 [64]
00000000: e9bf 793f 7512 7a3f 9054 813f d151 803f
00000010: 3d2f 773f a1d4 7b3f 4c03 843f 9433 7a3f
00000020: 2d6c 7a3f 383d 7f3f 9607 773f dd39 7c3f
00000030: b6a0 7c3f cefd 813f 89f3 833f 875c 813f
00000040: 3170 783f 849b 7b3f a762 7f3f 0356 743f
00000050: 23c3 7f3f 4f96 7e3f 3f44 793f 83b5 7c3f
00000060: 0ceb 7e3f 5352 733f 57c6 7e3f 75d0 833f
00000070: 204f 813f d530 843f be10 843f d387 813f
00000080: 1add 773f 85a9 833f 241a 783f e9c1 7b3f
00000090: 40ec 713f 7cfe 803f 7542 823f 4374 873f
000000a0: f0a3 7b3f ff64 833f 06e0 813f 64e1 7a3f
000000b0: bd32 853f 7e92 863f 6131 843f 93fd 823f
000000c0: 80f9 813f b5cb 703f 73a7 733f 59ce 7f3f
000000d0: aef6 7a3f 1c78 893f aa43 813f b3c4 813f
000000e0: 64bf 713f 218d 7d3f 72db 763f 85ca 853f
000000f0: 1d71 7b3f c4cc 743f ae5c 823f d169 803f
0.97558457 0.97684413 1.0103931 1.0024968 0.96556455 0.9837132 1.0313506 0.9773495
0.97821313 0.9970279 0.9649595 0.9852579 0.98682725 1.015558 1.0308696 1.0106362
0.9704619 0.98284173 0.99759907 0.95443743 0.9990713 0.994481 0.9736976 0.98714465
0.99577403 0.9504749 0.9952139 1.0297991 1.0102272 1.0327402 1.0317609 1.0119575
0.9682175 1.0286108 0.9691489 0.9834276 0.94501114 1.0077662 1.0176531 1.0582355
0.98297024 1.0265197 1.0146492 0.9800017 1.0406109 1.0513456 1.0327569 1.0233635
1.0154266 0.9406083 0.9517738 0.99924237 0.98032653 1.073978 1.0098774 1.0138153
0.94432664 0.9904347 0.96428597 1.0452429 0.9821947 0.9562495 1.0184534 1.0032293

_module.gn2.bias f4 [64]
00000000: bf58 363c ec4d afbc 4a54 ee3c b428 963c
00000010: a359 20bd d3d0 c43c 98f5 f139 0214 c8bc
00000020: 8d4b b33c 1b4d 23bd f05a 2d3d 0e1f 06bd
00000030: 725a a43c f4f2 793c f49a 67bc 2643 093d
00000040: 9a9c 4d3b 87ea 7b3c 613c 203b c78e 733a
00000050: 8b5d aabb 1a78 d03c 609b 1d3d a389 c0bb
00000060: 2bea d03b b399 3f3d d31f 9a3b 5395 c5bc
00000070: 5bc1 11bd 6d23 a2bc 3219 403c 2d17 823d
00000080: 6b9b 2e3d 6879 de3c 07ef 87bc 448e fd3c
00000090: f273 67bc 3dfa 1abb 1aaf faba 5c79 373c
000000a0: 69aa 9b3c ecab adbb 7dd8 2abd 88d6 84bc
000000b0: cd56 8ebb a90c 25bd 683e d83c b96a 173d
000000c0: 19cc 8bbc b874 f53c 4f41 c0bc 3ccc d9bb
000000d0: 630c 22bd 2df9 c6bc 5858 efbb aad4 863d
000000e0: 3588 293d 9f76 123c fbe0 90bb 0d72 bcbc
000000f0: f032 a73c 2b43 4a3b da93 46bc 4b76 96bb
0.011129557 -0.02139946 0.029092927 0.018329956 -0.039147984 0.024025356 0.00046150084 -0.024423603
0.021886611 -0.039868455 0.042323053 -0.03274446 0.020062659 0.015255678 -0.014136065 0.033511303
0.003137386 0.01537574 0.002445005 0.000929099 -0.0051991395 0.025447894 0.038478255 -0.0058757826
0.0063755712 0.04677744 0.004703501 -0.024119055 -0.03558479 -0.019792283 0.011724757 0.06352077
0.042628687 0.0271575 -0.01659347 0.030951627 -0.014126765 -0.0023647689 -0.0019125671 0.011198368
0.019002156 -0.0053000357 -0.041710366 -0.016215578 -0.0043438436 -0.040295277 0.026396945 0.036967013
-0.017065095 0.029962882 -0.023468642 -0.006646661 -0.039562594 -0.024288738 -0.0073042326 0.06583531
0.041389663 0.008939414 -0.004421351 -0.023003602 0.020410031 0.003086279 -0.0121202115 -0.0045917383

_module.conv3.weight f4 [128, 64, 3]
00000000: cfd6 eeba 9ee9 7abd cd8e 513d b7e9 3e3d
00000010: f009 ed3b deb6 193c 1ff7 5ebd 1803 e8bd
00000020: 9491 5cbd f36f c43d e4f8 7f3d 8c4d 8cbd
00000030: 2b28 d43d 688d b2bd 47fa 5abd 4968 16bd
00000040: 32cc c6bd f94d 1d3e cb7e 06bd b45c bebd
00000050: dda4 973d ea66 dfbc 4d18 1abd 24f6 4d3d
00000060: 1a31 3abc 1c51 97bd 7614 60bd 9ecc 2d3d
00000070: dc8d 9dbd 88b5 2f3d bbea dd3c 77a6 40bd
00000080: a313 a93c 8a83 debd ec0c da3d 6bb5 e0bd
00000090: 9b8a c6bd c111 dd3c d85c f8bc 8a93 bbbc
000000a0: 66f2 21bc 4800 e23d 82e7 cc3c 9be1 83bd
000000b0: 205a fd3d d28e a7bd 6ef4 35bd 3ab6 46bd
000000c0: a130 663d bfd7 b73d 5217 ba3d a701 bbbd
000000d0: 1074 3c3d 8007 edbd e463 30bd 8cc5 8339
000000e0: 459f 133e 4827 e1bd c03e 783d e59f ebbd
000000f0: 2c34 d93d bf52 8d3d 1787 8ebc 5b45 abbd
00000100: be83 e4bc 24df d73c 1851 a83d 13ae 363d
00000110: ac55 f2bd d8b3 c3bd a04e f63c 6054 0d3d
00000120: 3629 33bd 79c0 053d 3957 61bd b265 783d
00000130: 44b4 06bd e1af 423d b832 4c3d 5ee8 a3bc
00000140: a255 ca3d 962e cebc 4351 3fbc 6066 88bd
00000150: f484 62bd e4ae 8a3b a51a ddbd e4a3 35bc
00000160: 920e c3bd 0e79 c53d 8256 7c3d f26d fc3a
00000170: cc94 ae3d 929d 55bd e65b c03c 5854 e0bc
00000180: c198 9bbb 6c0b 853b 5d77 c1bd 5a5a 8dbc
00000190: 89e5 9f3c 502b 23bc d009 76bd 29a5 a3bd
000001a0: 2954 b93b c7ae b5bd 6a53 823d a4ff d83d
000001b0: e83f 33bc 1345 8a3d e7c3 873c 9247 53bd
000001c0: 9f40 903b 6292 a73b d8e9 2d3d 400d 7ebc
000001d0: f037 db3d 873c e03c 1b0e d7bd 6a76 013d
000001e0: 1530 373d b51e 79bd 8755 753d 113f d73c
000001f0: d39e 01be b48f 88bd d101 ea3b c41a debd
00000200: 7325 013e 56a6 8f3d 43db f5bd a317 d4bd
00000210: e464 503d 68b8 e5bc 4645 3a3b d3bd 22bd
00000220: cf6c 68bd b1d7 90bd cf72 37bd fc72 683d
00000230: ae1e d83c 5231 23bc 5063 aebd 7efc c03d
00000240: ec03 5fbd b482 0d3d cf73 9ebd e8bc 47bb
00000250: 8615 9a3d 9903 f13d af50 063e 7bb2 66bd
00000260: c10f 283d 05cd 9e3d 4cb0 903d 1422 3fba
00000270: 1e37 39bd f4c4 ca3d 0960 283e cedb 223d
00000280: 054c 9ebd e0cb 21bd 60c3 1bbd d7c1 8b3c
00000290: ac77 a33c 6f28 a13c a9f1 57bd 44e6 b2bc
000002a0: 6ef1 3ebc 4e75 2a3c cdc1 983d 73e9 11be
000002b0: 723c c7bc 97d4 a6bd efa8 0bbe df50 333c
000002c0: 0aca af3a b2c2 853c 41d0 36bd 8da4 1d3c
000002d0: b34d 39bd b202 813d e505 373d ff6c 223e
000002e0: 9fa6 69bd 7837 683d 6084 edb7 a13b adbd
000002f0: 6ebc 4aba 79f9 d7bd d732 97bb 59b6 853c
00000300: b8d2 cbbd b3fb 81bd aa5c b5bd 7ccf f33d
00000310: 546d 64bc 8f7b 39bd a041 b4bd 9191 683d
00000320: d51a e03d 4af6 813c ba9e 63bd cf93 833d
00000330: e8aa d03a a242 813c b05c f93b c632 fabc
00000340: 49c9 c0bd e149 ccbc 671b 4f3d 841c a23d
00000350: 92eb 1dbb d8ea a9bc 4bdd 88bb 63df 4b3d
00000360: a431 793d 4ba1 abbd 3d39 8d3d 3c11 713d
00000370: bc5b b5bd 6943 393d 0333 e03d e9c0 c8bd
00000380: 0889 0ebd e8e7 903c e005 aabd 6e6d 82bd
00000390: 3fc8 1dbd 54ec 88bd fd9b cbbd 1268 143d
000003a0: f118 e4bd 5034 ecbd 5c9b adbd 06ec 583d
000003b0: 021c 123d 7d72 b83d f3c8 0cbe 7a7d 85bd
000003c0: ee55 02bd 7fdc a13d 2060 86bc e6fd 973d
000003d0: 3309 8ebd 38cb 5eba 1fb5 a7bd a9bf c3bd
000003e0: 788f 463d 3383 fdbd 4659 9c3d 9f9c cb3d
000003f0: 28ed ccbd 75e5 113d 77e6 aebd 9388 b7bd
-0.0018221977 -0.06125795 0.051161576 0.046609607 0.0072338507 0.009381978 -0.05443489 -0.11328715
-0.05384977 0.09591665 0.06249322 -0.068507284 0.10359224 -0.08718377 -0.05346134 -0.036720548
-0.09706916 0.15361775 -0.032835763 -0.092950255 0.07404492 -0.027270753 -0.03762083 0.050283566
-0.011364246 -0.07388517 -0.054707013 0.042431466 -0.07693073 0.04289773 0.027089467 -0.047033753
0.020639246 -0.10864933 0.10646996 -0.10972103 -0.09694406 0.026986005 -0.030317709 -0.0228975
-0.009884452 0.1103521 0.025012735 -0.06439515 0.123707056 -0.08181538 -0.04442256 -0.04851363
0.05619872 0.08976697 0.09086479 -0.091311745 0.046009123 -0.11573696 -0.043064013 0.0002513345
0.14416225 -0.109938204 0.060606718 -0.11505107 0.10605654 0.06900548 -0.0173984 -0.08362838
-0.02789485 0.026351519 0.082185924 0.044599604 -0.11832747 -0.09555787 0.030066788 0.034504294
-0.043740474 0.03265426 -0.055014823 0.06064386 -0.03288676 0.047531012 0.049853057 -0.020008262
0.098796144 -0.025168698 -0.011677089 -0.066601515 -0.055302575 0.0042322744 -0.10796098 -0.011086438
-0.095242634 0.0964223 0.061605938 0.001925884 0.085244745 -0.052152224 0.02348132 -0.027383968
-0.0047484343 0.0040601995 -0.09446595 -0.017254997 0.01951863 -0.009959057 -0.06006795 -0.07990486
0.0056557846 -0.08871227 0.06363566 0.105956346 -0.010940529 0.06751456 0.016572906 -0.051581927
0.0044022347 0.0051138857 0.04245934 -0.015506089 0.107040286 0.027372612 -0.10500737 0.03160707
0.04472359 -0.0608203 0.05989602 0.02627519 -0.12658243 -0.06668034 0.00714133 -0.10844949
0.12611942 0.07014148 -0.120047115 -0.10356071 0.050877467 -0.028042033 0.0028422638 -0.03973181
-0.056744393 -0.0707239 -0.044787224 0.056750283 0.026381817 -0.009960489 -0.08515036 0.09423159
-0.0544471 0.034548476 -0.077369325 -0.0030477587 0.075236365 0.11768264 0.13116716 -0.056322556
0.04103065 0.07753948 0.07064876 -0.000729115 -0.04521858 0.09900847 0.16442885 0.039760403
-0.07729343 -0.03950107 -0.03802812 0.017060203 0.019954525 0.0196726 -0.0527207 -0.021838315
-0.011654241 0.010403944 0.074588396 -0.1424921 -0.024320815 -0.08146017 -0.13638662 0.010944574
0.0013411653 0.01632819 -0.0446322 0.0096217515 -0.045240115 0.06299342 0.044683356 0.15861891
-0.057043668 0.056693524 -2.8314244e-05 -0.08458639 -0.00077337667 -0.1054563 -0.004614215 0.016322302
-0.09952301 -0.06346836 -0.08855565 0.11904809 -0.0139420815 -0.04528385 -0.088015795 0.056779448
0.10942618 0.01586451 -0.055571295 0.064246766 0.0015920075 0.015778843 0.007609926 -0.030541789
-0.09413392 -0.024937572 0.050563242 0.07915595 -0.002409671 -0.020741865 -0.004176771 0.049773585
0.060838357 -0.083803736 0.06895683 0.058854327 -0.088553876 0.045230303 0.1094723 -0.0980242
-0.034798652 0.017688707 -0.08301902 -0.06368528 -0.038521048 -0.06685701 -0.09941862 0.03623206
-0.1113757 -0.11533415 -0.08476898 0.052959464 0.03567124 0.09006212 -0.13748531 -0.065180734
-0.03182023 0.079033844 -0.016403258 0.07421474 -0.06935348 -0.000849891 -0.08188843 -0.09558041
0.048476666 -0.1237854 0.07634215 0.099419825 -0.100061715 0.035619218 -0.085400514 -0.08961596

_module.conv3.bias f4 [128]
00000000: a56b 373c 93ac 3fbb a5ef 2cbd b6af 37bd
00000010: 9ca8 3c3b e2ba 8bbc 1a6b 483c 978c be3c
00000020: 8fd5 e53b 330b 19bd ea3f c1ba b7ac 28bb
00000030: 6605 dbbc 3355 c73b 3dc9 11bc 0779 5bbb
00000040: f9fa c4bc 1bd3 8d3c 3948 02bd 6cdc 1c3d
00000050: 0bc8 083c d67e 673c 4cdb 273b 7a0c dd3b
00000060: 2955 e43a bdc9 b2bc a6ce 483d 1e18 443d
00000070: 845e 903c 32a6 84bc e8b4 153c a248 b43c
00000080: 5ee9 1e3d b4a0 583d e9f0 063d 872a 2bbc
00000090: 1ea6 253c ad74 623d 769a 393d ccad afbc
000000a0: 51ef 2d3d 6bb4 973c a360 2abc e17d b33c
000000b0: b027 9dbc 0f94 22bb c9f9 6fbd e453 2cbc
000000c0: 3bca a23c a231 32bd b5b0 23bd ba1b 04bc
000000d0: 7311 12bd cb82 6dbc 7021 183c b76a c3bc
000000e0: ca17 bcbc 921f b33c 61b0 d23b e36e d33c
000000f0: 02e6 bbbb ba2a 2a3d 7813 8dbb e854 0abd
00000100: c022 4dbc 330c b13b ddee 58bc c0b8 b1bc
00000110: 4bd7 76bb 72fb a93b 0abd 12bd 4ff4 1dbc
00000120: 8b22 b63c 41b9 85bd ec68 443d f59a 3c3d
00000130: afb8 033c a0c5 96bc f53e 63bd 1a90 e63b
00000140: af2e d53c 9f61 143d cb52 6a3c 68d6 30bc
00000150: 1ea1 28bd f735 983b dd97 033d 4947 31bc
00000160: cf64 30bc 63b5 3ebd 87df d8bc 101a b03c
00000170: a6c6 873c 0add 383a 0476 6d3d b374 60bd
00000180: 50bb 023d 72ea e8b9 e230 d23c 59ed 06bd
00000190: 71a7 263d d256 8dbd bb5b 80bc 98e5 e73c
000001a0: a89b 6bbd 09de c5bc cda5 4f3c 4310 13bd
000001b0: 4411 bc3c 9d1f 403a 6d53 20bd 2d07 123d
000001c0: eb80 f4ba 1b99 f73c cfd9 96bc d9d5 44bc
000001d0: 78a7 173b ea37 1e3c 6a06 4c3c fc82 b8bc
000001e0: e907 ce3c 2ddb 3ebb cc6d e93b ab01 4fbc
000001f0: 0b43 16bd 9150 553a 69c8 6bbd 1af2 a9bc
0.011195098 -0.002924715 -0.04222073 -0.044845305 0.0028787022 -0.017056886 0.012232566 0.023260398
0.0070139836 -0.037364196 -0.0014743779 -0.0025737712 -0.026735973 0.0060831546 -0.008898077 -0.0033488886
-0.024045454 0.017312577 -0.03180716 0.03829615 0.008348475 0.014129361 0.002561289 0.006745872
0.0017420399 -0.021824712 0.0490252 0.047874562 0.017623194 -0.01619253 0.00913737 0.02200729
0.038796775 0.052887633 0.032944594 -0.010447151 0.010110406 0.055287052 0.04531332 -0.021445177
0.042464558 0.018518647 -0.010399017 0.02191061 -0.019183964 -0.0024807488 -0.058587823 -0.010518048
0.019871822 -0.043504365 -0.039963443 -0.008063251 -0.035661172 -0.0144965155 0.009285316 -0.023854597
-0.022960562 0.02186564 0.0064297174 0.02580971 -0.005734206 0.041544653 -0.0043052994 -0.03377238
-0.012520492 0.0054030656 -0.013240543 -0.021694541 -0.0037664946 0.0051874453 -0.035824813 -0.009640767
0.022233268 -0.06529475 0.047951624 0.046046216 0.0080396375 -0.018404782 -0.055479962 0.007036221
0.026023237 0.03622591 0.014301966 -0.010793306 -0.04116928 0.004645105 0.03212725 -0.010820218
-0.010766222 -0.046559703 -0.026473774 0.021496803 0.016574215 0.00070519804 0.057973877 -0.054798793
0.031916916 -0.00044425164 0.025658075 -0.032941196 0.04068703 -0.06901325 -0.01566874 0.028307721
-0.057521492 -0.024153726 0.012673807 -0.03590418 0.022957452 0.00073289295 -0.03914206 0.035651375
-0.0018654143 0.030224374 -0.018414406 -0.012013876 0.002314059 0.009656886 0.012452701 -0.022523396
0.025150256 -0.0029122338 0.0071236845 -0.012634675 -0.03668503 0.00081373105 -0.057564173 -0.020745326

_module.gn3.weight f4 [128]
00000000: 2b6f 853f 31c2 783f 4b69 823f 0695 813f
00000010: dd80 723f d5aa 783f fb57 803f 51b6 783f
00000020: 0797 7c3f bc9d 813f a58c 703f 9ee9 8a3f
00000030: 33e3 773f 17f7 833f a837 723f 5e52 7b3f
00000040: 8895 823f 412b 763f df91 7c3f 6aac 813f
00000050: 44f0 823f 8449 813f 84e5 743f ab97 753f
00000060: af41 813f 27a4 7a3f 8243 7d3f ad53 803f
00000070: 420b 813f 8837 7f3f 0fa5 7c3f 0574 823f
00000080: 9c06 803f f50c 843f fda4 843f aa1c 813f
00000090: 17bd 853f 71d4 813f 067b 7e3f 1b58 803f
000000a0: 1542 783f 1305 813f b8a1 853f 3ade 7b3f
000000b0: ab60 7a3f 99f3 823f 8d8b 7c3f ae3e 843f
000000c0: 75ea 803f 0bc2 823f 04e8 753f afdc 7f3f
000000d0: 15ac 853f 20ad 7c3f dc31 7f3f 94af 7f3f
000000e0: d8cd 703f b59f 733f e010 7e3f 5e19 7a3f
000000f0: 4039 823f 3121 7f3f d7b5 723f 40e3 853f
00000100: 6b56 813f 57a0 7d3f d8e5 803f 7f57 793f
00000110: 39aa 833f 4426 803f e58a 7e3f 2848 7b3f
00000120: f6a4 7f3f 9b6a 7c3f 044f 813f 4315 863f
00000130: 6d0d 7b3f 0088 833f 0238 753f e1db 823f
00000140: d242 803f 3c49 763f bc60 803f 1b13 823f
00000150: d8ab 813f 73e3 7d3f 8224 833f f6b9 853f
00000160: 7510 7b3f 8154 803f 9a10 833f 09b0 863f
00000170: 18cb 6a3f 7439 823f e731 7f3f b057 7d3f
00000180: 5e33 7f3f 1872 833f 3777 743f 3079 7f3f
00000190: c485 823f 323b 893f a36a 773f 219e 773f
000001a0: 0c35 7f3f 68ae 6d3f 9ba9 7a3f 370b 7f3f
000001b0: 94b2 743f 8c64 813f f924 7c3f 78e9 7e3f
000001c0: 06a0 813f 57e6 7b3f 2a46 7e3f ebe2 843f
000001d0: 4f01 833f 70d9 793f 8924 713f a661 793f
000001e0: b3f1 823f 0a31 823f ce97 793f 0c58 7e3f
000001f0: f6d8 793f 1ab5 843f 5d3b 7f3f 5f8a 773f
1.0424551 0.9717131 1.0188383 1.0123603 0.9472788 0.9713567 1.002685 0.9715319
0.9866795 1.0126262 0.93964607 1.0852544 0.96831053 1.0309781 0.94616175 0.9817256
1.0201883 0.9615975 0.9866008 1.0130742 1.0229573 1.010056 0.95662713 0.9593455
1.009817 0.97906727 0.98931134 1.0025536 1.0081561 0.9969411 0.9868936 1.0191656
1.0002017 1.0316454 1.036285 1.0086873 1.0448331 1.0142957 0.9940647 1.0026888
0.96975833 1.0079674 1.0439978 0.98385966 0.97803754 1.023059 0.9865044 1.0331628
1.0071551 1.0215467 0.9605715 0.9994611 1.044314 0.9870167 0.99685454 0.99877286
0.9406409 0.9516557 0.992445 0.9769496 1.0173721 0.9966002 0.94808716 1.0459976
1.0104498 0.99072784 1.0070143 0.97399133 1.0286323 1.0011678 0.99430686 0.98156977
0.99861085 0.9860017 1.0102239 1.0475239 0.9806736 1.0275879 0.95788586 1.0223352
1.0020392 0.96205497 1.0029521 1.016208 1.0130568 0.99175185 1.0245516 1.0447376
0.98071986 1.0025789 1.0239441 1.0522472 0.91716146 1.0173783 0.9968552 0.98961926
0.99687755 1.0269194 0.9549441 0.9979429 1.0197072 1.072119 0.9664709 0.9672566
0.9969032 0.9284425 0.9791505 0.9962649 0.9558499 1.010881 0.98493916 0.99574995
1.012696 0.98398346 0.9932581 1.038175 1.0234774 0.9759741 0.94196373 0.97414625
1.0230011 1.0171216 0.9749726 0.993531 0.9759668 1.0367768 0.99699956 0.9669551

_module.gn3.bias f4 [128]
00000000: ebc1 853b d041 5cbd 2112 f7bb 1043 0e3d
00000010: a631 423d 116a 973c 8afb 763b 8dac 19bc
00000020: 95c0 2abb d8e1 c7bb 0283 d2bb aa64 c63a
00000030: 39ff 70bc ef0e fdbc 992c 6f3c 8f0c 04bd
00000040: 8db6 393c a4b6 1a3c 7b1e 93bc fc61 d7bc
00000050: 244a 6f3d d8a9 b33a ce87 4f3a 7ecc 82bc
00000060: e366 64bc 20f6 b3bc 7acb 2abd c71e 5bbd
00000070: c52f 023d d3ea e8bb 722c 773a b407 88bc
00000080: 91ef b63c 072e 73bd 22f0 00bd 23d6 d1bc
00000090: 0565 003d 3981 c03b 711d 04bd 6ea3 23bd
000000a0: f98c 763c ca52 bbbd 99ed 9b3c be37 403d
000000b0: 993f 073c 0f5e ca3c 94d7 833c c9a2 d33c
000000c0: 6514 86bc 39b1 593c 430f 97bc 554a b9bc
000000d0: cfd3 edbc 8361 24bc 2c83 bbbc 0083 5ebc
000000e0: b7eb bebb c715 88bc ba57 69bc 0381 05ba
000000f0: 265d 92bc e67f 3bbc 98fe e2bc 593b e0bc
00000100: 7407 6d3d 0184 d13a e943 c2bc 3174 1a3d
00000110: 39a3 643c 7ec0 d53c 5ec0 dc3c 3aad 59bc
00000120: faaf 94bc c178 2e3d f8eb 363c d68e a3bc
00000130: 86b1 4ebc ab6e 723c d667 ecbc f07e df3c
00000140: 7273 1d3d 4316 533c 30b0 3a3c 4a8a 463d
00000150: 6516 c33c c0ef 44bc e58d 7d3b b999 043c
00000160: cf04 f8bc 8016 8a3c 1b41 6bbd 179e abbb
00000170: a1f7 aabc b7f8 123d 019c cb3c 8203 663c
00000180: 3e80 973c a1a5 cdbc 5b68 a4bc 1063 c0bc
00000190: 98cd e23b add1 f53c 8b27 1d3c 342f 81bc
000001a0: 537e 953b 5579 453c 8d84 063d ca59 b0bc
000001b0: 651b ba3c 4b6e 37bb 87a5 163d 99ee 7d3d
000001c0: ea42 1ebd ab5a 34bc 68fb ec3c fd39 1a3d
000001d0: da01 093d 8fa8 a53c 4322 37bc 4dcb c53c
000001e0: 32a7 40bc 492b e93c 3909 983c f6c8 4dbc
000001f0: 3ac4 af3c 6902 da3b 7cf2 80bb e4ed 18bc
0.0040819547 -0.0537737 -0.007540003 0.034731925 0.04741063 0.018483194 0.003768655 -0.009379518
-0.002605473 -0.0060999207 -0.0064243088 0.0015136201 -0.014709287 -0.03089091 0.014598035 -0.03223854
0.011335027 0.009442959 -0.01795887 -0.02629184 0.058420315 0.0013707234 0.000791666 -0.01596665
-0.013940546 -0.021967947 -0.041697957 -0.05349615 0.031783838 -0.0071080714 0.0009428925 -0.016605236
0.022331031 -0.059370067 -0.03147901 -0.025614804 0.03134634 0.0058747795 -0.03225464 -0.03995078
0.015048259 -0.0914665 0.019034194 0.04692816 0.008254909 0.024703054 0.016094007 0.025834458
-0.016367147 0.013286882 -0.018439895 -0.022618452 -0.029031662 -0.010033014 -0.022889696 -0.0135810375
-0.0058264392 -0.016611947 -0.014242107 -0.00050927716 -0.017866682 -0.011444068 -0.02770929 -0.02737205
0.057868436 0.0015984775 -0.023714023 0.037708465 0.013954931 0.026092764 0.026947197 -0.013285929
-0.018150318 0.04259563 0.011164658 -0.01996557 -0.012615567 0.014796893 -0.028858107 0.027282208
0.038440175 0.012883726 0.011394545 0.048471726 0.02381439 -0.0120200515 0.0038689312 0.008093291
-0.03027573 0.016856432 -0.057435136 -0.0052373516 -0.020870032 0.035881724 0.024854662 0.014038922
0.018493768 -0.025103392 -0.020069292 -0.023484737 0.0069214813 0.030007208 0.009591947 -0.015769579
0.004562178 0.012052854 0.032841254 -0.02152719 0.02271814 -0.0027989324 0.036778953 0.061995123
-0.038638033 -0.011007945 0.028928474 0.03765296 0.03344903 0.020221977 -0.011177602 0.024144793
-0.0117586125 0.028463023 0.018559085 -0.01256012 0.021455873 0.0066531193 -0.0039351564 -0.009334061

_module.fc1.weight f4 [64, 128]
00000000: 60fe fa3d ffdd 243c a152 a43d 8b02 15be
00000010: 630c 16bd 19b4 eabd 84c5 d8bd 2d48 973d
00000020: c093 63bd 8308 e7bd 0d2f 31be 5031 363e
00000030: 856b 1a3e 1af8 1b3e 80a9 153e 2be2 96bc
00000040: b219 96bd 3767 4abd 1609 313d 047c 3b3d
00000050: e98b 5aba 945c debd 389a 2cbd c966 c13d
00000060: 5f11 d73d a758 4b3b 8c2f 27be 1a2a 243e
00000070: 579d c23d 5029 cdbc 21b0 a3bc e7fc a8bd
00000080: 779a fc3d 1b3e f13d 33eb ddbb f2c5 863c
00000090: d45a 33be c471 a6bc b7cc 2fbe 8f0c 933d
000000a0: e626 363e c345 083c e19b 2bbe 7c6b 8abd
000000b0: d452 9a3d 9e66 93bd e677 83bd c43b f73d
000000c0: ec7b 7c3d 56c8 08be af36 fd3d 4a17 633d
000000d0: 004a 11bd 33f5 6d3d cab3 e13d d003 8f3d
000000e0: b389 28be 7c46 2fbe 8011 203e 0edb 1fbe
000000f0: fcbd 3ebd 6154 093e e20a 8abd b3ba 37be
00000100: 088a aebd be62 f33d c390 a6bd 03d8 dfbd
00000110: b261 503d 3f8f d9bd b068 b43c 0804 053e
00000120: e364 58bd 8ff8 92bd c8a8 c93d 4509 c8bd
00000130: 758c 38be ca9e 10be 9d24 e1bd 9793 95bd
00000140: b691 2a3e da0a 703d d44a 673e eb71 013e
00000150: 6425 0f3d 100a 2c3c 151f 9ebd f1e3 2b3d
00000160: f749 c0bd a384 20be 3d2f 84bd 4981 0e3d
00000170: cc59 db3c e464 9d3c 8623 a43d 2fc9 00be
00000180: be92 77bd e3f4 9fbc c8ca 04be 1dac ad3d
00000190: 7e19 e9bd c871 45bd 9998 5ebd 08b1 cebd
000001a0: 3e9c 7f3d f847 003d 526f 00be 7d88 0dbd
000001b0: 6f00 153e ccc0 8a3c a79b 343d 147a 273c
000001c0: cd8f 03be 8ebf 0ebe 8ea0 37be a1df 6b3d
000001d0: 5124 90bc 75bd 46be 8106 9ebd 3559 b3bb
000001e0: 0498 d9bd 8a52 1f3e 6747 01bb b340 9fbd
000001f0: 4ad2 30be a7c7 83bc f6ab 3bbe 324c 7a3d
00000200: e0b0 e6bd 7212 66bd 35f0 a03d 4fef b33d
00000210: f917 3ebc 8f97 7d3d 6b83 e13b 736f b83d
00000220: 34e7 483d 1f91 aabd 2dc3 8d3d 2a58 15be
00000230: c266 4bbd d78c dcbd ba41 10be b574 263e
00000240: 89e1 023e d802 a4bc 4f16 b2bc 9a7c 4bbd
00000250: 635f e03d 0ab4 d6bd 9616 093e 0eea bebc
00000260: 682a 5abe bdfe 20bd c81a d23d 4365 45be
00000270: dcf3 56be 66b2 85bc f505 2cbd 8a27 ac3c
00000280: 2061 21bd 445f cf3d 81b7 8c3d 19ac 5a3b
00000290: 06c8 73bd 5f56 f5bd 78b7 5fbd 7739 fe3d
000002a0: 8a7a cf3d c3b6 1cbe 91c9 1e3d 9a72 19be
000002b0: 02dc 153e ed74 863d d3e3 163e 4677 fb3d
000002c0: aeb0 233d a563 2e3e 72fa f73d 009e e9bd
000002d0: dca3 213e 8451 963d 1481 4f3d 0c65 6c3d
000002e0: 8693 bc3d 179d b23c abce 14bd b018 8bbd
000002f0: 4afa 5c3e 8f1d 1ebe 69b4 213e 87ac 4b3d
00000300: 9bd6 aabc 48ee dabd 5dc8 f9bd d0f2 02be
00000310: 73c0 bc3d 5bf2 a23d 9865 c3bd c8e1 443d
00000320: e822 503e bb3d aebd ac23 a0bd 2742 093e
00000330: a8a4 183d 785c c0bc 9223 febd cadb eabd
00000340: fe5f f43a da8f b9bc 1cb2 1d3e 2685 043b
00000350: 68cd 32be 96eb f0bd 8eda aebc 77e4 173e
00000360: f23c a6bd e535 85bd 26ab 093e b422 0bbd
00000370: dd25 ffbc fb07 f6bd afa2 4cbd e2dc a0bd
00000380: 2e5f e43d 4bb1 b13d da61 49bd 5552 c43c
00000390: baee ebbd ed03 e4bc bc68 153e dead a4bd
000003a0: d14e ddbd a0b6 b33d 974f e1bd 0496 bc3c
000003b0: be24 11be 2c24 f13c 4db9 8c3d 279a 4d3d
000003c0: 55c5 bd3d f916 f03d 7d6a 4c3e 6665 023e
000003d0: 2852 b3bd 5e85 0b3c 3e8f 9e3c 6402 02bc
000003e0: 8b5b 60bd 1c29 1ebe 5825 823e 8f93 01be
000003f0: 6e5b 34bd 0ed9 a0bd cf2e 773d 6c7f a83d
0.122555494 0.010062694 0.08023573 -0.14551751 -0.036632907 -0.11460132 -0.10584548 0.07386813
-0.055560827 -0.1128092 -0.17303105 0.17792249 0.15080078 0.15231362 0.1461544 -0.018418392
-0.0732912 -0.04941484 0.043221556 0.045772567 -0.0008336888 -0.108575016 -0.042139262 0.09443433
0.1050136 0.0031028183 -0.16326731 0.16031685 0.095026664 -0.025044113 -0.019981446 -0.08251362
0.12334149 0.11779424 -0.0067724227 0.01645181 -0.17515117 -0.02031792 -0.17167936 0.0718013
0.17788276 0.008317414 -0.16758682 -0.06758782 0.075353295 -0.07197307 -0.06419353 0.12071946
0.06164162 -0.13357672 0.12363946 0.055442132 -0.035470963 0.05809517 0.1102062 0.06983149
-0.16458778 -0.17116731 0.15631676 -0.15610906 -0.046567902 0.13411094 -0.06740357 -0.17942314
-0.08522421 0.11884068 -0.0813308 -0.10929873 0.05087442 -0.10623025 0.022022575 0.12989819
-0.052830588 -0.07176315 0.098466456 -0.09767393 -0.1802233 -0.14123073 -0.109933116 -0.07303541
0.16657147 0.0586041 0.22587138 0.12641113 0.034947768 0.010500446 -0.07720772 0.04196543
-0.09389108 -0.15675597 -0.064543225 0.034791265 0.026776217 0.019213147 0.08014588 -0.12576745
-0.06044268 -0.01952595 -0.1296798 0.08480094 -0.113818154 -0.048204213 -0.054344747 -0.1009236
0.062404864 0.031318635 -0.12542465 -0.034553993 0.14550947 0.016937636 0.044093754 0.010221977
-0.12847824 -0.1394026 -0.1793234 0.057586316 -0.017595442 -0.1940821 -0.07716084 -0.005473281
-0.10624698 0.1555883 -0.0019726397 -0.07776012 -0.17267719 -0.016086413 -0.18327317 0.06110782
-0.11264205 -0.056169935 0.07858316 0.08785879 -0.011602395 0.061912116 0.0068821213 0.09005632
0.049048617 -0.08328461 0.069219925 -0.14584413 -0.049658544 -0.107690506 -0.14087573 0.16255458
0.12781347 -0.020020887 -0.021739153 -0.049679376 0.109556936 -0.104835585 0.13387522 -0.023304965
-0.21305239 -0.039305437 0.10259014 -0.1927691 -0.20991462 -0.016320419 -0.04199787 0.021014947
-0.039399266 0.10125592 0.06870938 0.0033366738 -0.05951693 -0.119793646 -0.05461833 0.12413304
0.10130794 -0.15304093 0.038766447 -0.14985123 0.14634708 0.065652706 0.14735346 0.12278609
0.039963417 0.17030199 0.121083155 -0.11407089 0.15785164 0.073397666 0.050660208 0.057713553
0.09207825 0.021803422 -0.036329906 -0.06791818 0.21579853 -0.15440963 0.15791477 0.04972508
-0.020854285 -0.1068998 -0.121964194 -0.12787938 0.09216394 0.07956382 -0.09540862 0.048066884
0.20325816 -0.08507868 -0.07819304 0.13404141 0.037266403 -0.023481593 -0.12409128 -0.11467703
0.001864433 -0.022651602 0.15399975 0.0020220964 -0.17461169 -0.117636845 -0.02134445 0.14833246
-0.08117093 -0.0650442 0.13444194 -0.033968642 -0.031145984 -0.12013241 -0.049959835 -0.0785463
0.111509666 0.08676394 -0.049165584 0.02396504 -0.11520143 -0.027833903 0.14590734 -0.08040975
-0.10806049 0.08775067 -0.11001509 0.023020752 -0.14174172 0.029436193 0.06871281 0.05019584
0.09266154 0.11723132 0.19962497 0.12733993 -0.087559044 0.008515684 0.019355413 -0.00793514
-0.054774802 -0.1544537 0.25419116 -0.12653945 -0.044032507 -0.078539 0.060347375 0.08227429

_module.fc1.bias f4 [64]
00000000: 8fd2 2a3d 67d8 e03a 7f7a 213d fff7 c0bc
00000010: f680 00bc f7e4 92bd 5b93 9b3d e4c9 673c
00000020: 2d49 cf3b 2f93 c83c 5615 7ebc 7bf7 e03b
00000030: 6eff 15bd 7c62 0a3d 171f a53d b7e6 713c
00000040: 3569 a53c 0f8e 32bc 8913 debc 2df5 81bd
00000050: 3ce7 96bc 6488 2c3d 4837 db3c 2fc2 d8bc
00000060: 7c2c 293c acb2 8d3d caa8 2dbc cd59 81bc
00000070: 3668 91bd 4b7a 3a3d 73c0 a83c aeb3 083d
00000080: ff41 9a3c 8823 c6bc 6454 283c 5088 a33c
00000090: e928 743b 9c33 083d 076b 10bd a9cf f4bb
000000a0: dc68 b83c 9172 993c 227c 603b 1b27 5abc
000000b0: 5a13 c4bc 5d2f 4bbc 5801 1fbc 5643 91bc
000000c0: 94f7 6abc 51d7 a1bc b66e 4c3c 3c20 70bc
000000d0: 75d4 c6ba 40e7 c9ba 9e84 843c f540 bcbc
000000e0: c11d 1cbc 8699 0abd 250a e43c bddc 8abd
000000f0: e35c d4bc 7a81 d53c be61 f23b 8ac5 173d
0.04170471 0.0017154337 0.039423462 -0.023555754 -0.007843247 -0.07172578 0.07596465 0.014147256
0.006325862 0.024484245 -0.015508017 0.0068654395 -0.03662055 0.03378533 0.080625705 0.014764479
0.020191768 -0.010898127 -0.027108924 -0.06345592 -0.018420808 0.04212226 0.026759759 -0.026459781
0.010325547 0.069188446 -0.0105993245 -0.01578989 -0.07099955 0.045526784 0.02059958 0.03337448
0.018830298 -0.024186864 0.010274027 0.01996246 0.003725583 0.033252344 -0.03525832 -0.007471044
0.022510938 0.018731387 0.0034253676 -0.0133149875 -0.023935009 -0.012401429 -0.00970491 -0.017732304
-0.014341254 -0.019755991 0.012477567 -0.014656123 -0.0015169518 -0.0015404001 0.016176518 -0.022980193
-0.009528578 -0.033837818 0.027836869 -0.06780384 -0.025923198 0.026062716 0.0073969057 0.037053622

_module.fc2.weight f4 [2, 64]
00000000: df26 703e a193 c23d c092 e33d e09d a73d
00000010: 93f5 82be 8ca2 0bbd 6f13 b43d b587 3dbe
00000020: 3d6c 053e 8be4 283e 0eaf 7fbe f089 48be
00000030: 8781 d6bd 948c c03c 410d 123e 0815 383d
00000040: 4c13 283e 8585 cdbc 3ce6 04bb 8787 7cbe
00000050: 7353 0cbd cebf 91be 4ca8 0a3e 95d1 4a3e
00000060: 40cb 963e 6dc1 903e 484f 6f3e 0c35 9abd
00000070: 4dbf 62be a14c 55be 5ac4 2fbe 410d 7a3d
00000080: 69b1 143e cafd 01be fb3c 063e 9cee abbe
00000090: a5be 26be 70f2 89bd 0b84 663c b5a1 eb3d
000000a0: ff04 b63d c1bc 813d 2b74 f7bd 422f 5d3e
000000b0: acde 853e 78e8 293e ed22 9c3c 5644 943e
000000c0: b706 733e a39c cdbd 79f3 82be 79c8 3ebb
000000d0: f27e d63a 395a c9bd e31a 193e 52ee f9bc
000000e0: afbf 32be 42b0 99be f57d 66be f4a5 57be
000000f0: c733 fcbd d163 80be 0ee0 0d3e bce2 0a3e
00000100: 1d93 02be 88f2 8e3e 1b61 843e 7ed6 02be
00000110: 372d 9dbc 0f5e 83be 56a7 c63d 32d7 abbd
00000120: ced6 a4be d053 163e d260 47bd ca31 83be
00000130: 2531 96be 4b63 693e 005b 8fbd 7955 01be
00000140: 75a2 4b3e c7c3 52be 6420 543e a427 863e
00000150: 3b20 59be 481a 913d dc14 66be 29e4 01bd
00000160: 2b81 843b dd2e 9d3b bd5c c6bd 0054 eabd
00000170: b54a 97bd 6e2c dcbd 61f6 623d 177f b93d
00000180: c4bf 65be 4f91 86ba e705 90be 12b2 8dbe
00000190: 0301 bc3c cc69 933e 219e 6c3e 9e46 343e
000001a0: b189 d63c 5b0b 79be 721c 343e c6db 5f3d
000001b0: d1c6 f4bd bd79 8f3c a3d6 75be 9854 913e
000001c0: c0e7 8bbe 2d4b 383e e4ba b1bc bec2 543e
000001d0: 292f 9e3e fb9d 423e e02e 7dbe d7e9 7e3e
000001e0: 7d73 09be 20ba 31bd b4a8 38be f54d 2d3d
000001f0: e344 983c 48d3 b9bd 765c bc3d 3480 aebd
0.23452328 0.09500814 0.11111975 0.08184409 -0.25577983 -0.034090564 0.08792769 -0.185088
0.13029571 0.16493432 -0.24969122 -0.19583869 -0.10473924 0.023504533 0.14262868 0.044941932
0.16413611 -0.025088081 -0.0020278832 -0.24661075 -0.03425927 -0.28466648 0.13540763 0.19806512
0.29451942 0.28272572 0.23370087 -0.07529649 -0.22143288 -0.20830013 -0.17164746 0.061047796
0.14520802 -0.12694469 0.131092 -0.33580482 -0.16283663 -0.067356944 0.014069567 0.115054525
0.08887672 0.0633483 -0.12082704 0.21600059 0.26146448 0.16592586 0.019059623 0.28958386
0.2373303 -0.10039642 -0.2557638 -0.002911119 0.0016364737 -0.09831662 0.14951663 -0.030509148
-0.17455934 -0.30017287 -0.22508986 -0.210594 -0.12314563 -0.25076154 0.13855001 0.13563055
-0.12751432 0.27919412 0.25855336 -0.12777135 -0.0191866 -0.256577 0.096998855 -0.083906546
-0.32195133 0.1468041 -0.04867632 -0.25623924 -0.2933437 0.22791784 -0.06999779 -0.12630261
0.19886191 -0.20582496 0.20715481 0.26202118 -0.21203701 0.07085091 -0.22468895 -0.03171173
0.0040437183 0.0047968463 -0.09685657 -0.11441803 -0.07387296 -0.10750662 0.055410746 0.090574436
-0.22436434 -0.0010266694 -0.28129503 -0.2767492 0.022949701 0.28791654 0.23107196 0.17605063
0.026188703 -0.24320738 0.17588976 0.05465295 -0.11951984 0.017514104 -0.24007659 0.28384852
-0.2732525 0.17997427 -0.021695562 0.20777413 0.30895355 0.19005577 -0.24724913 0.2489389
-0.13422962 -0.043390393 -0.18033105 0.042310674 0.018587535 -0.09073502 0.09197323 -0.085205466

_module.fc2.bias f4 [2]
00000000: 1f06 f13b edfc 6eba
0.007355466 -0.00091166684
