results/baseline/sleep-edf/seed_44/best_model.pth (torch, 160565 bytes, 30 tensors)

mlp.0.weight f4 [128, 24]
0.025270727 -0.75179106 0.14888804 -0.06463798 0.047738105 0.17479414 -0.30594558 -0.5863205
0.032102447 0.053417098 0.22997533 -0.31216615 1.0094696 0.08573909 -2.7950613 2.63872
0.03178705 0.21622649 0.4847566 -0.3045675 -0.056789435 0.37076262 0.9550479 -0.24650653
-0.0022159237 -0.681542 -0.049815718 0.07365637 -0.7602223 0.07489507 -0.08254294 0.6086116
0.01760151 0.77840316 -0.08850585 0.21564482 -0.45627803 -9.306953 -0.1232002 -4.8013363
0.031696495 0.22293825 -0.1984971 0.2785169 -0.05500263 -0.85953885 0.08843803 0.07632892
-0.15605226 0.0057265735 -0.10640075 0.47727048 0.20381896 -0.7078823 0.33579558 -0.25072077
0.040790897 0.30371943 -0.1112286 0.3843128 0.43215024 -1.240111 -2.9992101 -2.9919443
-0.016383683 -0.9666454 0.50629926 -0.61655957 -0.6784265 -0.62762636 -0.19336414 1.9346437
-0.049482193 -0.09639904 -0.043892555 0.12762453 -0.087663546 0.36965334 -1.586845 0.75085014
0.009454934 0.06829307 -0.025853733 0.35060176 -0.40401345 -1.6576916 3.3745332 3.7467468
0.053853776 -1.053663 -0.037960876 -0.07210777 0.16949624 -0.629627 -1.0718985 0.02248286
-0.05258084 0.76709175 -0.14596154 0.1119309 -0.42403305 -1.0070431 0.010762219 -0.0076631866
1.0664547e-05 0.31561345 -0.48163342 0.030176692 -1.0160779 -2.543554 3.4834156 2.8520966
0.107792825 -0.8450302 -0.6460895 0.38265678 0.4117279 -0.5722352 -1.0429722 0.3141522
-0.08439793 -0.09892763 -0.6547294 0.4027896 -0.025027107 1.3875808 0.44438183 -0.14745386
-0.012228923 0.2756684 -0.6723196 0.22783203 -0.32039708 1.4994693 4.2411866 -1.2743845
-0.06463904 -0.6434653 -0.005447323 -0.2633994 -0.40441573 -0.08288992 -0.441339 -1.3311952
-0.048490543 -0.3737926 -0.73131907 -0.045380365 0.28304198 0.6535775 -0.5189888 -0.13001291
0.011493824 0.014561048 -0.05030302 -0.41263446 0.11996874 -3.350236 -1.8711337 4.04355
-0.102441356 0.05848472 0.03539581 -0.008121477 -0.4658448 0.09555378 0.954442 -1.3248216
0.011685351 1.7627814 0.2656434 -0.027676929 -0.28810474 -1.1230872 -0.91990066 -0.018114941
-0.04296787 0.36496058 -0.077726744 0.39721712 0.83519757 0.3396416 -0.38714892 -1.1747385
0.0044669295 -0.104982264 -0.08526597 0.41670534 0.05132673 0.041318268 -0.048748396 0.084668234
0.006015239 0.079997346 0.17690422 -0.24672967 0.15530343 -0.17923422 1.2175034 0.40189394
0.06507728 0.12154577 -0.32484543 0.0033099772 -0.0006623785 3.8171623 -4.4093556 -0.78579515
0.052287742 -1.3508421 -0.05492432 0.22609362 -0.30911037 -0.7756192 -0.62105465 1.204845
-0.014206414 -0.06133877 -0.07337975 0.13199337 -0.551324 -0.059899528 0.06905369 -0.99494606
0.011668996 0.031996336 -0.07862565 0.04757711 1.2706338 -0.6507079 -1.3618256 -2.7496347
0.033900812 -0.26523888 -0.07210689 0.12316307 0.42019394 -0.1774377 -1.1961406 -2.0964904
0.011672335 0.9011866 -0.16341831 0.77488863 -0.89462477 0.1412272 0.13879636 0.33601102
0.06370225 0.4615191 0.17071818 0.010041999 0.57705784 -0.16360208 -5.7869787 -0.8294407
00000000: 8e04 cf3c 6175 40bf 1b76 183e eb60 84bd
00000010: 0889 433d 3cfd 323e e6a4 9cbe 1a19 16bf
00000020: db7d 033d e3cb 5a3d a77e 6b3e 3ed4 9fbe
00000030: 4d36 813f fa97 af3d 49e2 32c0 cae0 2840
00000040: 2333 023d 7a6a 5d3e 0432 f83e 45f0 9bbe
00000050: 0a9c 68bd 99d4 bd3e 057e 743f 356c 7cbe
00000060: 0839 11bb 8979 2ebf 910b 4cbd 27d9 963d
00000070: ee9d 42bf 9662 993d 460c a9bd f8cd 1b3f
00000080: 0b31 903c 6e45 473f 8e42 b5bd ffd1 5c3e
00000090: 469d e9be 48e9 14c1 6350 fcbd 8ca4 99c0
000000a0: 2fd4 013d ed49 643e d342 4bbe c499 8e3e
000000b0: 704a 61bd bd0a 5cbf ff1e b53d 5652 9c3d
000000c0: 2acc 1fbe fba5 bb3b a3e8 d9bd cc5c f43e
000000d0: ebb5 503e c637 35bf 66ed ab3e 795e 80be
000000e0: 5b14 273d 1d81 9b3e d2cb e3bd a6c4 c43e
000000f0: cc42 dd3e f5bb 9ebf 0ff3 3fc0 047c 3fc0
00000100: 1337 86bc 1376 77bf d49c 013f d9d6 1dbf
00000110: 5cad 2dbf 1fac 20bf 4001 46be 68a2 f73f
00000120: d7ad 4abd dc6c c5bd aec8 33bd 01b0 023e
00000130: f288 b3bd 3443 bd3e bd1d cbbf b737 403f
00000140: dee8 1a3c 3ddd 8b3d 35cb d3bc 1382 b33e
00000150: dada cebe 3d2f d4bf 5af8 5740 b3ca 6f40
00000160: c795 5c3d 6ede 86bf dd7c 1bbd 3dad 93bd
00000170: 6c90 2d3e 3c2f 21bf f833 89bf fa2d b83c
00000180: 025f 57bd 2060 443f f176 15be 073c e53d
00000190: dc1a d9be cae6 80bf 0554 303c 781b fbbb
000001a0: e1eb 3237 1698 a13e a898 f6be 1c35 f73c
000001b0: d70e 82bf 97c9 22c0 48f0 5e40 c088 3640
000001c0: 7cc2 dc3d e653 58bf 1f66 25bf 97eb c33e
000001d0: 00ce d23e 027e 12bf 1d80 85bf 8fd8 a03e
000001e0: d2d8 acbd 929a cabd 599c 27bf 703a ce3e
000001f0: a605 cdbc 3f9c b13f 0486 e33e 25fe 16be
00000200: d25b 48bc 6924 8d3e 231d 2cbf cd4c 693e
00000210: 160b a4be 9cee bf3f cdb7 8740 081f a3bf
00000220: 7961 84bd 24ba 24bf 757f b2bb 49dc 86be
00000230: 940f cfbe 31c2 a9bd 2ff7 e1be 9b64 aabf
00000240: 059e 46bd be61 bfbe ba37 3bbf c3e0 39bd
00000250: e1ea 903e db50 273f 73dc 04bf 1b22 05be
00000260: 9850 3c3c 7691 6e3c 8a0a 4ebd d344 d3be
00000270: 2cb2 f53d 446a 56c0 4f81 efbf c364 8140
00000280: c6cc d1bd ac8d 6f3d 32fb 103d f20f 05bc
00000290: 3683 eebe b3b1 c33d 5056 743f c193 a9bf
000002a0: ea73 3f3c d2a2 e13f 6902 883e baba e2bc
000002b0: 7782 93be 52c1 8fbf 9c7e 6bbf c965 94bc
000002c0: 14ff 2fbd 1ddc ba3e 332f 9fbd 0b60 cb3e
000002d0: 82cf 553f 81e5 ad3e 6238 c6be d55d 96bf
000002e0: 525f 923b f100 d7bd ed9f aebd 675a d53e
000002f0: fa3b 523d 583d 293d 66ac 47bd 8a66 ad3d
00000300: 7b1b c53b a6d5 a33d 6126 353e b4a6 7cbe
00000310: dd07 1f3e 2d89 37be 27d7 9b3f 0bc5 cd3e
00000320: 3d47 853d fdec f83d 2452 a6be 34ec 583b
00000330: 78a3 2dba 634c 7440 7119 8dc0 df29 49bf
00000340: ac2b 563d 65e8 acbf 53f8 60bd 1685 673e
00000350: b743 9ebe fb8e 46bf 70fd 1ebf 5c38 9a3f
00000360: 05c2 68bc 5d3e 7bbd 1f48 96bd 4529 073e
00000370: 9223 0dbf 3559 75bd 056c 8d3d c9b4 7ebf
00000380: 512f 3f3c 970e 033d 7c06 a1bd 37e0 423d
00000390: 21a4 a23f cb94 26bf 4d50 aebf 04fa 2fc0
000003a0: 94db 0a3d 64cd 87be c7ac 93bd eb3c fc3d
000003b0: a923 d73e 3ab2 35be 231b 99bf e62c 06c0
000003c0: 523d 3f3c 2ab4 663f 2157 27be 1a5f 463f
000003d0: 2106 65bf dd9d 103e a220 0e3e a309 ac3e
000003e0: 5376 823d 3b4c ec3e bfd0 2e3e 3287 243c
000003f0: 10ba 133f 4e87 27be ee2e b9c0 3a56 54bf

mlp.0.bias f4 [128]
1.5851358 -0.11396836 0.6788846 0.021318328 -0.68956226 0.8659841 1.1451045 0.0077800895
0.121471636 -0.765774 1.059039 0.406574 -0.12590052 -0.124711715 0.43701357 -0.20976514
0.20838283 0.06263232 -0.036354076 -0.044429064 0.87656474 0.8917073 0.58665067 0.30741483
0.36012805 0.31327203 0.7554031 0.14974576 1.3196824 -0.28159663 -0.36253905 -0.40410563
-0.8312378 0.8871595 -0.13048762 0.0034304026 0.31422713 -0.59303826 -0.39084557 -0.099617444
0.83220303 0.87054133 0.8011131 -0.26467302 -0.28644463 0.031513523 1.1077359 -0.70261735
-0.48128626 0.20593983 0.68855506 0.6523618 0.77786463 -0.7355785 1.2888802 0.18717214
0.44457608 -0.19577454 0.30609283 0.13483888 0.13394511 0.3144953 0.38907704 1.141351
0.06875149 -0.633721 -0.80833197 0.515217 -0.13367386 -0.4756635 -0.55345124 0.58183736
0.46534 -0.046980664 0.47184324 -0.46239883 -0.31318814 0.9683545 0.6838396 0.22755007
-0.43343386 -0.14893772 -1.0102838 -0.70770895 0.5059704 0.9017248 0.6387518 0.68971634
0.8454492 0.50367314 0.69320893 0.5982861 1.2004799 2.2638617 0.48204583 0.22151004
0.035456385 0.83927536 0.6507466 -0.005312331 0.027975341 0.34788355 -0.55972826 0.690096
-0.5988718 0.22163056 1.209063 -0.2756859 -0.4213702 0.13413674 0.3683531 0.6514554
0.6336935 0.87396586 0.037433267 -0.006258495 0.023341099 0.3898298 1.0866566 -0.35129037
0.55686027 0.25839412 0.71460813 1.2150096 -0.7274696 0.6776737 -0.2794292 0.51129043
00000000: bbe5 ca3f 3e68 e9bd 62cb 2d3f c6a3 ae3c
00000010: 2787 30bf 22b1 5d3f c992 923f 1ff0 fe3b
00000020: 1fc6 f83d c409 44bf 978e 873f 782a d03e
00000030: 11ec 00be db68 ffbd 3ec0 df3e accc 56be
00000040: 4f62 553e 6045 803d 03e8 14bd 40fb 35bd
00000050: 8c66 603f ee46 643f bd2e 163f 7a65 9d3e
00000060: b462 b83e 3165 a03e 1962 413f f456 193e
00000070: 5aeb a83f 6f2d 90be b89e b9be efe6 cebe
00000080: 00cc 54bf e31c 633f 8c9e 05be 9bd0 603b
00000090: 61e2 a03e 5bd1 17bf e91c c8be 3b04 ccbd
000000a0: 420b 553f ccdb 5e3f c015 4d3f 3983 87be
000000b0: dfa8 92be 5314 013d 4aca 8d3f bbde 33bf
000000c0: 276b f6be e4e1 523e 2545 303f 2f01 273f
000000d0: 2322 473f df4e 3cbf 07fa a43f 0eaa 3f3e
000000e0: 7a9f e33e 1f79 48be 33b8 9c3e 3413 0a3e
000000f0: e828 093e 8705 a13e 1b35 c73e ca17 923f
00000100: 95cd 8c3d 8a3b 22bf d8ee 4ebf 43e5 033f
00000110: cde1 08be 2b8a f3be fbae 0dbf 4bf3 143f
00000120: 0b41 ee3e cc6e 40bd 7095 f13e 8abf ecbe
00000130: 325a a0be 15e6 773f 1d10 2f3f e302 693e
00000140: 0beb ddbe 2183 18be fb50 81bf 6a2c 35bf
00000150: 4787 013f 70d7 663f 3d85 233f 4091 303f
00000160: 5c6f 583f b9f0 003f 2476 313f 4729 193f
00000170: 53a9 993f 1ce3 1040 b6ce f63e 87d3 623e
00000180: b73a 113d c0da 563f 5497 263f 1013 aebb
00000190: 8b2c e53c cb1d b23e 5a4a 0fbf 22aa 303f
000001a0: aa4f 19bf 1ff3 623e 94c2 9a3f b426 8dbe
000001b0: d6bd d7be 245b 093e c798 bc3e c8c5 263f
000001c0: bd39 223f 3abc 5f3f a053 193d 1014 cdbb
000001d0: d535 bf3c c697 c73e 9017 8b3f 55dc b3be
000001e0: 658e 0e3f 3c4c 843e 8ff0 363f 6f85 9b3f
000001f0: 733b 3abf 067c 2d3f 5811 8fbe eee3 023f

mlp.1.weight f4 [128]
1.012132 1.8369889 0.9645206 1.5220431 1.7919706 0.5396374 1.2051845 1.1060836
0.93294466 1.7262514 1.129617 1.9711382 1.5264162 0.68003756 1.243191 0.8008436
0.7765755 0.8910109 0.6849446 0.7124735 0.58998644 0.39218202 0.9413485 0.7301265
0.47982574 1.2773488 2.236215 1.0876528 0.92236125 0.9104316 1.9212893 2.302738
2.4492826 1.1420197 2.0187893 0.99243003 1.3575714 1.1957923 1.2882917 1.3401402
0.5787199 1.0923828 1.9855194 1.5545571 0.8108193 1.5080881 1.6586716 1.5356704
0.830899 1.442639 0.9426261 1.3637568 0.9047745 1.6147472 0.9548647 1.1167935
1.765567 0.6818731 0.5925542 1.1142521 1.0440713 1.1536491 0.5247694 0.4575639
1.2501296 1.3895708 1.6196322 2.2948623 1.4354167 2.2276497 1.2974191 1.4087728
1.7938992 0.942884 0.6617867 1.1404005 1.150845 1.2601054 1.1833627 1.5616099
1.0591369 0.9569827 1.9824911 1.7234131 0.86907923 2.0468307 1.5998311 0.51262915
0.84997195 0.7204955 1.3892751 1.1346751 0.6744708 0.109893486 1.1152018 1.2112004
0.42632276 0.73005253 1.7461637 1.6844715 1.1141545 0.5710944 1.1597946 1.7792262
1.4233073 0.98962545 1.1260978 1.0146875 1.0206665 1.1276103 0.524186 0.46386233
1.2273307 0.66111857 1.2104851 0.76292515 1.5240939 0.51282215 0.8413638 1.1008123
1.2511925 0.8220991 1.1716617 1.1723732 1.4346261 0.8285676 0.64330256 1.3815596
00000000: 8b8d 813f 7422 eb3f d2ea 763f 4fd2 c23f
00000010: 4b5f e53f ad25 0a3f 7c43 9a3f 2694 8d3f
00000020: 76d5 6e3f cef5 dc3f 4a97 903f 424e fc3f
00000030: 9b61 c33f f116 2e3f e220 9f3f 1604 4d3f
00000040: a7cd 463f 4a19 643f 8858 2f3f aa64 363f
00000050: 5a09 173f 15cc c83e 37fc 703f 92e9 3a3f
00000060: b8ab f53e 2a80 a33f 261e 0f40 3538 8b3f
00000070: de1f 6c3f 0c12 693f cfec f53f 0f60 1340
00000080: 0cc1 1c40 b42d 923f d833 0140 e50f 7e3f
00000090: e6c4 ad3f b90f 993f bee6 a43f b789 ab3f
000000a0: fd26 143f 33d3 8b3f 8025 fe3f bafb c63f
000000b0: db91 4f3f 0809 c13f 5a4f d43f d990 c43f
000000c0: ccb5 543f 65a8 b83f f24f 713f 958f ae3f
000000d0: 4d9f 673f 09b0 ce3f 0372 743f 17f3 8e3f
000000e0: 19fe e13f 3c8f 2e3f a2b1 173f d09f 8e3f
000000f0: 21a4 853f c6aa 933f 4a57 063f d145 ea3e
00000100: 3f04 a03f 75dd b13f 1c50 cf3f 06df 1240
00000110: bcbb b73f d091 0e40 d411 a63f ab52 b43f
00000120: 7d9e e53f d960 713f da6a 293f a5f8 913f
00000130: e44e 933f 224b a13f 6e78 973f d5e2 c73f
00000140: cc91 873f d1fc 743f 45c2 fd3f cd98 dc3f
00000150: fa7b 5e3f 46ff 0240 44c7 cc3f aa3b 033f
00000160: c397 593f 6572 383f c4d3 b13f 093d 913f
00000170: 1eaa 2c3f d60f e13d efbe 8e3f 9d08 9b3f
00000180: fa46 da3e b9e4 3a3f 4b82 df3f c39c d73f
00000190: 9d9c 8e3f 3e33 123f 2674 943f afbd e33f
000001a0: ef2e b63f 1858 7d3f f923 903f 48e1 813f
000001b0: 33a5 823f 8955 903f 0e31 063f 5d7f ed3e
000001c0: 2c19 9d3f 113f 293f 2df1 9a3f 104f 433f
000001d0: 8215 c33f 5048 033f 9e63 573f 6be7 8c3f
000001e0: 1327 a03f 1675 523f 03f9 953f 5310 963f
000001f0: d4a1 b73f 021d 543f 7aaf 243f f2d6 b03f

mlp.1.bias f4 [128]
-0.41746178 -0.4882766 -0.5806034 -0.30905092 -0.36099145 -0.7275691 -0.7249019 -0.25241095
-0.813714 -0.3234012 -0.68658787 -0.36299965 -1.1185141 -0.58903414 -0.5634983 -0.4060928
-0.5072482 -0.49555063 -0.78108454 -0.41989952 -0.60713404 -0.6598347 -0.50718594 -0.40287933
-0.49356097 -0.53810877 -0.5538316 -0.36933815 -0.86739457 -0.56536996 -0.3749006 -0.28443083
-0.07601358 -0.7415518 -0.27975374 -0.5525435 -0.68949026 0.24163759 -1.0804565 -0.65340155
-0.6218634 -0.77090555 -0.45604768 -0.32590684 -0.4561343 -0.7299308 -0.7166242 -0.09007281
-0.8199719 -0.26087973 -0.27467823 -0.4539535 -0.2999821 -0.6025647 -0.6605456 -0.1658487
-0.30690643 -0.40619394 -0.8288567 -0.40608782 -0.61729115 -0.26928282 -0.51281774 -0.24787419
-0.10611043 -0.37199208 -1.3582834 -0.058683474 -0.34273097 -0.4817142 0.13864332 -0.5562646
-0.12677781 -0.69678825 -0.60602814 -0.7841852 -0.6989851 -0.4804708 -0.6993202 -0.1097443
-0.5718886 -0.76330984 -0.32961586 -0.6199861 -0.48070446 -0.23793985 -0.17494923 -0.7234054
-0.16172044 -0.8532699 -0.3274643 -0.4928215 -0.54787856 -0.74670535 -0.44292143 -0.3498326
-0.53679276 -0.5617034 -0.71705186 -0.75129616 -0.43522456 -0.91782117 -0.11386393 -0.27731857
-0.22221774 -0.14370179 -0.57785934 -0.19905376 -0.15827653 -0.5952702 -0.89894074 -0.87944007
-0.41960868 -0.6046709 -0.69480133 -0.7371028 -0.3710806 -0.5804147 -0.4329386 -0.25566038
-0.30824226 -0.55106306 -0.58384657 -0.601406 0.18180034 -0.40348822 -0.38560754 -0.470067
00000000: 8dbd d5be 64ff f9be 6da2 14bf ec3b 9ebe
00000010: dfd3 b8be f841 3abf 2c93 39bf 023c 81be
00000020: 904f 50bf d894 a5be 39c4 2fbf 17db b9be
00000030: 782b 8fbf f1ca 16bf 6d41 10bf 65eb cfbe
00000040: 05db 01bf d0b8 fdbe 28f5 47bf 12fd d6be
00000050: 236d 1bbf edea 28bf f0d6 01bf 3346 cebe
00000060: 06b4 fcbe 7fc1 09bf e8c7 0dbf e419 bdbe
00000070: 920d 5ebf 16bc 10bf f9f2 bfbe eba0 91be
00000080: 02ad 9bbd 57d6 3dbf e23b 8fbe 7e73 0dbf
00000090: 6f82 30bf d86f 773e 664c 8abf 5345 27bf
000000a0: 7132 1fbf 115a 45bf 157f e9be 43dd a6be
000000b0: 6f8a e9be bfdc 3abf af74 37bf 1878 b8bd
000000c0: aee9 51bf 0792 85be a0a2 8cbe 986c e8be
000000d0: 4197 99be ae41 1abf 8419 29bf 3ed4 29be
000000e0: d722 9dbe a7f8 cfbe f42f 54bf beea cfbe
000000f0: cb06 1ebf 70df 89be 0648 03bf bbd2 7dbe
00000100: 6d50 d9bd bf75 bebe 3bdc adbf 155e 70bd
00000110: 6f7a afbe 3ea3 f6be 84f8 0d3e 5b67 0ebf
00000120: 0bd2 01be b760 32bf a924 1bbf 5cc0 48bf
00000130: b0f0 32bf 4500 f6be a606 33bf 9fc1 e0bd
00000140: 4b67 12bf 4668 43bf 69c3 a8be 69b7 1ebf
00000150: e51e f6be 81a6 73be e425 33be 1931 39bf
00000160: 0b9a 25be e56f 5abf 67a9 a7be 1a53 fcbe
00000170: c541 0cbf 1528 3fbf 99c6 e2be 421d b3be
00000180: 406b 09bf cbcb 0fbf b690 37bf f254 40bf
00000190: c1d5 debe 54f6 6abf 7e31 e9bd b3fc 8dbe
000001a0: 0c8d 63be 9026 13be 97ee 13bf c0d4 4bbe
000001b0: 3e13 22be a163 18bf fb20 66bf fc22 61bf
000001c0: f3d6 d6be b6cb 1abf 80de 31bf c5b2 3cbf
000001d0: 47fe bdbe 0f96 14bf 21aa ddbe ebe5 82be
000001e0: eed1 9dbe 7812 0dbf f876 15bf bef5 19bf
000001f0: de29 3a3e 0296 cebe 5a6e c5be 9fac f0be

mlp.4.weight f4 [64, 128]
1.4072002 0.19234544 0.5677028 2.1689599 0.32619336 0.47722346 0.45284548 1.2568785
0.32313445 -0.30026272 0.6219921 -0.016735263 0.40534553 -0.122628525 0.97753435 0.068681344
0.46097857 -1.5860237 0.93519276 -0.3696974 0.0275601 -0.18326327 0.98438203 0.080316015
0.1816702 -1.2929101 1.345308 -1.2154527 0.35925588 0.2050398 0.016467225 0.2864022
1.2871364 1.999558 1.227649 -0.16993436 1.2783438 -0.70255476 -2.568298 1.4565221
1.3916755 -0.21591036 0.83267546 0.4912282 -1.5806241 0.10049274 -1.6174699 0.94999695
1.6653504 1.1613172 -0.47679463 1.5241195 0.13411608 0.58544236 0.64293224 0.27284658
1.0346406 -0.751167 1.0517275 0.109571874 0.53324306 1.2040777 -0.44898602 0.31349456
0.5515699 -0.11561661 1.1995772 1.6469188 0.77977467 2.0846593 -0.35650626 0.304725
1.4718814 1.0446517 0.1546592 -0.18316336 -0.22794953 -0.5662385 0.50326836 0.91887903
0.2362712 0.6753289 1.6561015 1.9287777 -2.219478 1.098009 0.8887482 -0.35380977
1.4189516 0.41209826 0.8300278 -1.9891518 1.1479635 0.03432202 2.0449786 0.18957958
0.1226034 -0.92307675 0.030991029 0.22558543 0.42282298 -0.047736514 -0.12902646 1.6478493
1.2041192 0.09081206 0.5088731 0.57041216 0.99699175 0.8875836 -1.6549728 -0.59884334
0.4389223 0.46287495 0.9178164 -0.2667992 -0.045388613 0.087775744 1.1777676 0.7361493
-2.8563032 0.72143507 -0.12953593 0.04341706 -0.3592516 1.334515 -0.4122471 1.2333405
-1.7684004 -0.91693753 0.07722385 -0.016915794 0.5008705 0.41937092 -0.16298841 0.3196646
0.4585967 0.7973693 0.301799 -1.3657684 0.18991639 0.29136902 -0.09242754 -0.28255743
0.05256544 0.38245434 0.2476904 -0.32839915 0.5389496 0.64394164 0.3629486 -0.3578411
0.3006943 0.5656279 -0.49652466 0.25786194 -2.3903325 -0.41097614 -0.11154775 0.35071263
0.96518844 -0.67258203 0.44958246 0.90761167 -0.360506 0.32548854 -0.6166635 -0.034859706
0.32725257 0.47974837 0.49993223 0.67432 0.19287361 0.70248365 0.41455427 -0.37149012
-0.023025287 -0.23651236 0.08103565 -1.6711333 0.5606651 0.7168897 -0.7880197 0.71508294
-0.62135416 0.358794 0.29980296 0.20685472 -0.70662016 0.34043625 -0.23463576 0.2834202
0.88030535 0.72491914 0.20733112 -0.6091713 -0.07016883 -0.49208885 0.6894105 -0.85097355
-0.5030256 -0.065199986 0.035772983 -0.24318503 -1.0746256 1.1162465 -0.21503581 -1.6317139
0.03400424 0.5513544 0.5932306 1.7106915 0.6318013 -0.59134126 -0.3265096 -0.023473166
0.78731465 -0.9474796 -0.5538817 0.46420798 0.37294438 0.25043288 0.22266465 0.2812435
0.19266917 0.2918134 0.24821353 -1.2587919 -0.39832968 0.0751529 0.35249957 -1.4015057
-0.49904177 -0.12619437 -1.0265386 -0.10080626 0.71337634 -0.2513873 0.69479746 -0.27149057
0.3482756 0.4104298 0.028691115 0.33449766 -0.15905127 -0.19037393 -0.27312765 -0.13105826
0.52090925 -0.3968056 1.1826962 0.9394841 0.96739066 0.73719865 0.43045515 -0.6763365
00000000: 231f b43f 34f6 443e f854 113f 3dd0 0a40
00000010: d102 a73e a256 f43e 5ddb e73e 65e1 a03f
00000020: e171 a53e 09bc 99be e03a 1f3f 6418 89bc
00000030: 7389 cf3e aa24 fbbd b13f 7a3f cea8 8c3d
00000040: 6205 ec3e d302 cbbf cb68 6f3f fa48 bdbe
00000050: b8c5 e13c 5ea9 3bbe 7600 7c3f b97c a43d
00000060: c107 3a3e 147e a5bf 0d33 ac3f f493 9bbf
00000070: 63f0 b73e f4f5 513e 46e6 863c 4fa3 923e
00000080: e3c0 a43f 84f1 ff3f 9a23 9d3f 4603 2ebe
00000090: c5a0 a33f a1da 33bf ff5e 24c0 516f ba3f
000000a0: 6c22 b23f 9b17 5dbe 382a 553f 4382 fb3e
000000b0: e451 cabf 23cf cd3d 4109 cfbf 0033 733f
000000c0: 342a d53f 0ba6 943f 6d1e f4be 5916 c33f
000000d0: ba55 093e 8ddf 153f 3597 243f 8cb2 8b3e
000000e0: 1a6f 843f 7b4c 40bf 029f 863f 3867 e03d
000000f0: 9e82 083f 381f 9a3f 7fe1 e5be 5c82 a03e
00000100: af33 0d3f 67c8 ecbd bf8b 993f 3cce d23f
00000110: 509f 473f 0f6b 0540 fd87 b6be ea04 9c3e
00000120: 9c66 bc3f 26b7 853f fb5e 1e3e 2d8f 3bbe
00000130: 9a6b 69be 02f5 10bf 32d6 003f a83b 6b3f
00000140: 14f1 713e 5be2 2c3f 22fb d33f 30e2 f63f
00000150: ed0b 0ec0 8f8b 8c3f 0185 633f 8e26 b5be
00000160: 35a0 b53f 8bfe d23e b47c 543f 879c febf
00000170: 78f0 923f 3f95 0c3d eee0 0240 2621 423e
00000180: 7e17 fb3d c24e 6cbf e6e0 fd3c deff 663e
00000190: 417c d83e 5d87 43bd 831f 04be baec d23f
000001a0: 9420 9a3f acfb b93d 8245 023f 8806 123f
000001b0: da3a 7f3f ae38 633f 26d6 d3bf cc4d 19bf
000001c0: 6cba e03e f2fd ec3e 04f6 6a3f e899 88be
000001d0: 69e9 39bd c5c3 b33d 17c1 963f 4874 3c3f
000001e0: accd 36c0 f8af 383f 11a5 04be 16d6 313d
000001f0: d3ef b7be 63d1 aa3f 0d12 d3be 1ade 9d3f
00000200: f25a e2bf 6bbc 6abf 8a27 9e3d fe92 8abc
00000210: 0d39 003f c9b7 d63e 6fe6 26be 14ab a33e
00000220: 30cd ea3e 6520 4c3f 6685 9a3e 80d1 aebf
00000230: 7179 423e 522e 953e a64a bdbd 5eab 90be
00000240: dc4e 573d 0ed1 c33e 8da2 7d3e ef23 a8be
00000250: 9af8 093f 5cd9 243f 66d4 b93e f336 b7be
00000260: 9af4 993e fdcc 103f 7b38 febe 7b06 843e
00000270: 35fb 18c0 776b d2be 2673 e4bd 9b90 b33e
00000280: 9716 773f 562e 2cbf ac2f e63e 3d59 683f
00000290: 3e94 b8be 6fa6 a63e a9dd 1dbf 0dc9 0ebd
000002a0: a68d a73e 94a1 f53e 1ef7 ff3e 3ca0 2c3f
000002b0: a980 453e f8d5 333f 7540 d43e f433 bebe
000002c0: 879f bcbc 4c30 72be 05f6 a53d b2e7 d5bf
000002d0: bf87 0f3f 1586 373f a9bb 49bf ad0f 373f
000002e0: 1111 1fbf d9b3 b73e c67f 993e b9d1 533e
000002f0: 0fe5 34bf a94d ae3e 5b44 70be 741c 913e
00000300: b15b 613f 4d94 393f 9c4e 543e a6f2 1bbf
00000310: adb4 8fbd 12f3 fbbe 357d 303f 67d9 59bf
00000320: 49c6 00bf 9287 85bd b186 123d 7f05 79be
00000330: 558d 89bf 2ae1 8e3f 5932 5cbe 00dc d0bf
00000340: 0848 0b3d 9025 0d3f f6dd 173f f0f7 da3f
00000350: bbbd 213f 2462 17bf 442c a7be cc4a c0bc
00000360: 748d 493f 068e 72bf 31cb 0dbf abac ed3e
00000370: 91f2 be3e bd38 803e 3402 643e 26ff 8f3e
00000380: 114b 453e 9168 953e b02b 7e3e 1820 a1bf
00000390: def1 cbbe c3e9 993d d37a b43e 8a64 b3bf
000003a0: 6782 ffbe 1939 01be 9e65 83bf 8373 cebd
000003b0: d59f 363f d6b5 80be 3fde 313f d000 8bbe
000003c0: 2e51 b23e db23 d23e a109 eb3c 4743 ab3e
000003d0: 56de 22be 62f1 42be 63d7 8bbe 2334 06be
000003e0: 4f5a 053f 1b2a cbbe 9762 973f 0882 703f
000003f0: eaa6 773f 0db9 3c3f 9e64 dc3e 6424 2dbf

mlp.4.bias f4 [64]
0.41604683 0.42790157 -0.4481746 0.7261688 0.18875612 0.4447864 -0.09185152 0.024999963
0.68647987 0.37058073 0.92797387 0.6227023 -0.4936242 -0.0008060793 -0.6437644 0.5624466
0.44778275 0.3849612 0.33313292 0.2740974 0.39663765 0.32695097 0.09937816 0.10455871
-0.009993764 -0.14875613 0.4893057 0.7902629 -0.6391424 -0.13066833 -0.5005503 0.3868238
0.92979294 -0.0018627581 -0.13810806 -0.05176037 -0.033326685 0.46112156 0.07949702 -0.22518764
0.56073815 0.046503074 -0.8163936 -0.10066675 0.09668017 -0.019581543 0.8366511 0.7118969
0.34311306 -0.15695812 0.6131221 -0.21571293 -0.18186213 -0.44233105 0.6792439 0.6184757
0.20037931 -0.03303453 0.053139925 -0.34906253 -0.61450213 0.7554087 0.42963654 0.064904116
00000000: 1704 d53e ea15 db3e 2477 e5be 33e6 393f
00000010: 4949 413e 0bbb e33e a61c bcbd b9cc cc3c
00000020: 25bd 2f3f c2bc bd3e b28f 6d3f 6b69 1f3f
00000030: 50bc fcbe 114f 53ba becd 24bf 80fc 0f3f
00000040: c843 e53e a219 c53e 6690 aa3e 7f56 8c3e
00000050: 1714 cb3e 1e66 a73e c786 cb3d e022 d63d
00000060: e2bc 23bc 8753 18be 4786 fa3e ab4e 4a3f
00000070: d69e 23bf ebcd 05be 1124 00bf c50d c63e
00000080: e906 6e3f ca27 f4ba 336c 0dbe af02 54bd
00000090: 9081 08bd 2018 ec3e 55cf a23d 9797 66be
000000a0: 898c 0f3f 027a 3e3d 2cff 50bf 5e2a cebd
000000b0: 4100 c63d 7969 a0bc c42e 563f e03e 363f
000000c0: 84ac af3e a1b9 20be 92f5 1c3f dae3 5cbe
000000d0: 113a 3abe 3779 e2be eee2 2d3f 6c54 1e3f
000000e0: 3c30 4d3e 374f 07bd 40a9 593d 53b8 b2be
000000f0: 0350 1dbf 7762 413f 52f9 db3e 73ec 843d

mlp.5.weight f4 [64]
0.48418877 0.7715082 1.3013979 0.70725125 0.8406446 0.8531714 1.0594317 1.1799847
0.9167261 1.1367335 0.29087323 0.5536842 1.0013875 1.1672418 2.0000477 0.86236197
1.2016826 0.8007897 0.9057241 0.8561186 0.71248573 0.7085927 0.7286462 0.77771074
0.988005 1.0038097 1.1779802 0.8574109 1.6126466 1.7557979 1.4617617 0.6033451
0.55922455 1.3187457 1.104796 0.9799286 1.0134561 0.37260005 1.0782882 1.4617009
1.0843819 1.4513202 1.5397357 0.9560653 1.0180999 0.7825872 0.6603628 0.63906884
0.857615 1.0494361 0.8448802 1.2873757 0.94976884 1.5571028 0.96166253 0.3793458
1.0922016 1.396232 1.1484187 1.6846368 1.3068085 0.742914 0.8958823 0.7548804
00000000: 97e7 f73e 9081 453f 3594 a63f 6b0e 353f
00000010: 7c34 573f 7169 5a3f 759b 873f bd09 973f
00000020: 90ae 6a3f 7c80 913f 56ed 943e 3fbe 0d3f
00000030: 772d 803f 2e68 953f c800 0040 c1c3 5c3f
00000040: bcd0 993f 8e00 4d3f 89dd 673f 972a 5b3f
00000050: 7765 363f 5566 353f 8f88 3a3f 0d18 473f
00000060: e5ed 7c3f d67c 803f 0ec8 963f 487f 5b3f
00000070: 346b ce3f fcbd e03f 021b bb3f d374 1a3f
00000080: 5729 0f3f a9cc a83f f569 8d3f 9adc 7a3f
00000090: eeb8 813f 6fc5 be3e 5905 8a3f 0419 bb3f
000000a0: 07cd 8a3f dcc4 b93f 0f16 c53f b2c0 743f
000000b0: 1951 823f a257 483f 890d 293f 049a 233f
000000c0: a88c 5b3f ec53 863f 124a 583f bac8 a43f
000000d0: 0d24 733f 254f c73f 842f 763f 9d39 c23e
000000e0: 43cd 8b3f bbb7 b23f 62ff 923f 2ea2 d73f
000000f0: 8045 a73f 9d2f 3e3f 8b58 653f d83f 413f

mlp.5.bias f4 [64]
-0.9254418 -0.43518764 -0.39093396 -0.39976725 -0.6557791 -0.38334948 -0.33201095 -0.32965517
-0.4254823 -0.28003138 -0.11966038 -0.70595926 -1.165952 -0.2726745 -0.5085981 -0.45448744
-0.44097447 -0.4254689 -0.18882519 -0.5070913 -0.27529523 -0.35145572 -0.4945931 -0.83662426
-0.56719023 -0.34292123 -0.43980575 -0.38783625 -0.29655015 -0.7624559 -0.62041616 -0.31612548
-0.43612567 -0.28027245 -0.44800022 -0.42673865 -0.40664724 -0.9404183 -0.11355109 -0.70237285
-0.39949185 -0.5799442 -0.3007681 -0.62838095 -0.22938307 -0.83597547 -0.31799284 -0.5034463
-0.42799926 -0.5864035 -0.54536265 -0.55349267 -0.10711962 -0.49744588 -0.5776862 -0.22933996
-0.5814485 -0.5472261 -0.82252365 -0.24393004 -0.17218699 -0.5157585 -0.48036292 -0.35981023
00000000: c1e9 6cbf ead0 debe 7f28 c8be 4bae ccbe
00000010: 24e1 27bf 6246 c4be 57fd a9be 90c8 a8be
00000020: d1d8 d9be 4660 8fbe 8010 f5bd bfb9 34bf
00000030: ea3d 95bf fe9b 8bbe 7c33 02bf 94b2 e8be
00000040: 68c7 e1be 0fd7 d9be 645b 41be bcd0 01bf
00000050: 7ff3 8cbe 01f2 b3be 4f3b fdbe 022d 56bf
00000060: 6133 11bf 5f93 afbe 382e e1be 7992 c6be
00000070: 6cd5 97be 4f30 43bf 98d3 1ebf 33db a1be
00000080: dd4b dfbe df7f 8fbe 4960 e5be 7d7d dabe
00000090: 1134 d0be 41bf 70bf 798d e8bd b5ce 33bf
000000a0: 328a ccbe 3977 14bf 47fe 99be 93dd 20bf
000000b0: 65e3 6abe 7d02 56bf f5cf a2be dbe1 00bf
000000c0: b822 dbbe 8a1e 16bf e39c 0bbf b2b1 0dbf
000000d0: 8861 dbbd 3ab1 febe 3ee3 13bf 18d8 6abe
000000e0: cfd9 14bf 0217 0cbf e990 52bf ccc8 79be
000000f0: c951 30be c008 04bf 21f2 f5be 0c39 b8be

mlp.8.weight f4 [5, 64]
0.5553309 -0.7861547 0.30332413 -0.46879798 0.2941257 -1.0757858 0.48961335 -0.56370795
-0.23395638 -0.8410841 0.1562022 -0.89447314 0.5149363 -1.0793747 -1.9047779 -0.4434837
-0.691556 -0.7431919 0.0950307 0.22261958 -0.5165975 0.11624784 0.23178652 -1.2293847
0.33154163 0.18913068 -0.31312713 -0.77960885 0.8085544 -1.7042075 0.7462378 0.27226192
0.017219452 0.4567819 -0.24326904 0.40939352 0.3778589 -0.5016284 0.24617769 1.1506754
-0.86299646 0.8316032 0.58897275 0.38346857 0.41364244 -0.81288034 0.14368847 -0.35552827
0.05853905 -0.7714839 -0.39593747 0.36186606 -0.49166772 -0.90510714 -1.0360284 0.15166883
-0.7284192 0.959525 0.45066848 -1.0568904 0.6709765 -0.8925508 -1.3463867 0.15131359
-0.7402299 0.25635758 0.113162495 0.22115654 0.31050503 0.10472677 -0.5554982 -0.87819135
0.34112465 -0.776514 0.20047668 -0.2994777 -0.73961526 0.10238962 0.10195428 0.11698363
0.031173818 0.24967226 0.1764053 0.40171233 -0.6926396 -0.20447685 0.16562079 -0.37198657
0.3117169 0.1983793 -0.5596103 0.045655195 -0.04107932 -0.20568062 -0.52537555 -0.42724034
0.14480913 -0.46543965 -0.8075131 0.16433118 -0.18749231 -0.49230513 -0.009333727 -0.988924
0.1283082 -0.36020935 -0.5494994 -0.13232137 -0.3447255 0.45522666 0.21421482 0.262391
0.33496827 -0.24396637 0.32722458 -1.1905428 -0.72836506 -1.0019518 0.2973365 0.24506058
0.22524992 -0.26854074 -0.9119542 -0.38748428 -0.48782352 0.030559389 -0.22086701 -0.04063382
-0.07440074 0.24482757 -0.18797104 0.16262217 -0.18723036 0.21600358 -0.35580263 0.42816636
0.3606788 0.34744328 0.03634965 0.29442576 -0.732911 0.22548127 0.7595556 0.18229526
-0.4425455 0.18191382 -0.93152004 -0.40675426 0.1345662 0.16715251 0.04535656 -0.6745193
0.1405462 -0.4607342 -0.1267892 0.29284877 -0.858043 0.39203936 -1.4448928 0.20506404
0.0468651 0.39842826 0.15637706 -0.7068246 -0.6053279 -0.19930165 -0.91671973 -0.46389335
0.28581482 -0.8535747 0.22332042 -0.50656843 -0.61301005 0.2565636 -0.5027336 0.16158158
-0.94253135 0.37692386 0.53624964 -0.08190141 0.16848367 0.33372885 0.13258843 -0.09384268
-0.66148174 -0.6123201 -0.11237408 -0.8150317 -0.76768297 0.3269301 0.20110431 0.13907619
-0.17685072 0.33907372 0.63231593 -0.6276494 -2.7027333 0.39202726 0.43131733 0.2314025
-1.0614119 0.4524002 -1.241837 0.10562098 0.3249871 0.43526673 0.59582704 -1.7070552
-0.038862113 0.4479291 0.62415576 -0.6171052 0.25754255 0.30638605 -1.8197864 0.7769375
-0.69974774 0.42435712 -1.6732343 -0.24705765 0.04516995 -1.6945182 0.100401744 0.2175409
-2.033523 -0.97502023 0.36860165 -0.24592504 -1.1490415 0.36588132 -0.07609858 -0.39370537
-0.9861006 -1.2179323 -0.7755345 -1.4736849 -0.92345864 -1.3168342 -1.4916431 -1.1553036
-0.5207112 0.96199256 -0.0842094 -0.8768688 0.2785871 0.54980403 -1.0341837 -1.4677957
0.5101424 -1.1238481 0.57824534 0.6599885 0.3273791 -0.2949522 0.34750596 0.20283264
00000000: 2a2a 0e3f 6f41 49bf 4d4d 9b3e 4a06 f0be
00000010: a597 963e 59b3 89bf 9aae fa3e 2a4f 10bf
00000020: 4392 6fbe 4a51 57bf 78f3 1f3e 31fc 64bf
00000030: ded2 033f f328 8abf c3cf f3bf 4c10 e3be
00000040: d009 31bf d341 3ebf 759f c23d 63f6 633e
00000050: bc3f 04bf 5913 ee3d 7259 6d3e 7a5c 9dbf
00000060: d3bf a93e 79ab 413e 3352 a0be 7294 47bf
00000070: 6cfd 4e3f 7923 dabf 7109 3f3f ea65 8b3e
00000080: cf0f 8d3c 51df e93e 851b 79be 079c d13e
00000090: b976 c13e b86a 00bf 0116 7c3e 5549 933f
000000a0: 56ed 5cbf f3e3 543f ebc6 163f fe55 c43e
000000b0: f1c8 d33e ed18 50bf 1223 133e cd07 b6be
000000c0: a5c6 6f3d f87f 45bf 51b8 cabe 8246 b93e
000000d0: dfbb fbbe 1ab5 67bf 949c 84bf 134f 1b3e
000000e0: ae79 3abf 6ea3 753f 05be e63e 2f48 87bf
000000f0: 1ec5 2b3f 367e 64bf 6656 acbf f3f1 1a3e
00000100: b57f 3dbf 4d41 833e bdc1 e73d dc76 623e
00000110: 84fa 9e3e fd7a d63d 2135 0ebf 26d1 60bf
00000120: e4a7 ae3e 9fc9 46bf c249 4d3e 2455 99be
00000130: 6d57 3dbf a6b1 d13d 68cd d03d 1d95 ef3d
00000140: 3c60 ff3c 16aa 7f3e 97a3 343e 3dad cd3e
00000150: d450 31bf 6162 51be 7f98 293e 0675 bebe
00000160: 5c99 9f3e f123 4b3e 9f42 0fbf f100 3b3d
00000170: ca42 28bd f19d 52be 037f 06bf 3fbf dabe
00000180: d848 143e 1b4e eebe 2eb9 4ebf 6f46 283e
00000190: fcfd 3fbe 6b0f fcbe 7dec 18bc 202a 7dbf
000001a0: 3a63 033e 5c6d b8be feab 0cbf 417f 07be
000001b0: dc7f b0be 7813 e93e 215b 5b3e 1d58 863e
000001c0: f680 ab3e 52d2 79be fb89 a73e b563 98bf
000001d0: 2276 3abf f53f 80bf 7d3c 983e 29f1 7a3e
000001e0: eaa7 663e 2c7e 89be d575 69bf 5764 c6be
000001f0: 01c4 f9be af57 fa3c f62a 62be a66f 26bd
00000200: 6a5f 98bd 14b4 7a3e 7b7b 40be 6d86 263e
00000210: 51b9 3fbe 0b30 5d3e c32b b6be 9f38 db3e
00000220: e4aa b83e 16e4 b13e 5fe3 143d f9be 963e
00000230: 0ea0 3bbf 90e4 663e 3c72 423f 9cab 3a3e
00000240: 5395 e2be 9e47 3a3e 1978 6ebf 1842 d0be
00000250: b9cb 093e 072a 2b3e cdc7 393d 4cad 2cbf
00000260: 58eb 0f3e 5ae5 ebbe 07d5 01be 46f0 953e
00000270: b5a8 5bbf 62b9 c83e 3ff2 b8bf 4ffc 513e
00000280: 9ef5 3f3d cafe cb3e 4f21 203e 75f2 34bf
00000290: c5f6 1abf bb15 4cbe 25ae 6abf 6e83 edbe
000002a0: 5256 923e df83 5abf 1cae 643e 78ae 01bf
000002b0: 3aee 1cbf 4e5c 833e 26b3 00bf a475 253e
000002c0: bc49 71bf 2afc c03e a847 093f edbb a7bd
000002d0: fc86 2c3e 82de aa3e 43c5 073e 9730 c0bd
000002e0: de56 29bf 03c1 1cbf 6224 e6bd eba5 50bf
000002f0: df86 44bf 6263 a73e 4aee 4d3e fd69 0e3e
00000300: 5b18 35be 129b ad3e 75df 213f a2ad 20bf
00000310: 95f9 2cc0 ccb7 c83e a0d5 dc3e c7f4 6c3e
00000320: 58dc 87bf 00a1 e73e 84f4 9ebf d04f d83d
00000330: b664 a63e 48db de3e 1f88 183f c980 dabf
00000340: e12d 1fbd f756 e53e acc8 1f3f 9bfa 1dbf
00000350: 9edc 833e a2de 9c3e c3ee e8bf 60e5 463f
00000360: ab22 33bf 5645 d93e 8b2c d6bf aefc 7cbe
00000370: 2004 393d f9e5 d8bf 6e9f cd3d 0bc3 5e3e
00000380: 3e25 02c0 ed9a 79bf 5bb9 bc3e c6d3 7bbe
00000390: cb13 93bf cc54 bb3e 93d9 9bbd c093 c9be
000003a0: 1771 7cbf 35e5 9bbf 6e89 46bf b5a1 bcbf
000003b0: c967 6cbf 068e a8bf 29ee bebf fde0 93bf
000003c0: 544d 05bf 2545 763f fa75 acbd 797a 60bf
000003d0: f8a2 8e3e f5bf 0c3f 2260 84bf bbe0 bbbf
000003e0: b198 023f 41da 8fbf e307 143f 02f5 283f
000003f0: 3c9e a73e fa03 97be 4dec b13e 5cb3 4f3e

mlp.8.bias f4 [5]
0.28981107 -0.3871416 0.34951898 -0.39729175 -0.090855904
00000000: 1e62 943e 6c37 c6be 27f4 b23e d369 cbbe
00000010: a912 babd

exp_avg f4 [128, 24]
0.00048264832 -0.00023992405 -0.00040019085 0.0006081073 3.5066405e-05 -0.00017270363 -0.00029126127 -0.00031383382
0.00022375076 0.0003478782 0.00061917613 -0.00041812772 3.185719e-05 -2.132214e-05 1.5318747e-05 -5.27325e-06
0.00048500823 -0.0008283915 -0.0007883714 0.0010732871 -0.0005480679 -0.00032408236 -0.00024428172 -0.00025441023
0.012146262 -0.002814531 -0.002951203 0.0031621684 -0.00038900558 -0.0001641592 -0.00013795555 0.0011538382
-0.0023593558 -0.0026822991 -0.001791752 0.0024076242 -6.7634144e-05 -4.7568297e-05 0.00015569669 0.00024305015
-0.0019453297 0.0013478486 0.0036450056 -0.0031790289 0.0012965335 0.0013350964 0.0020616576 0.0011626852
0.00026152848 -0.001324378 -0.00041896093 0.0016107615 -0.0008160929 -0.0007498403 -0.0006363868 -0.0005508541
-0.00018447942 -0.00041230864 -0.00037267365 0.00050490623 -1.9542325e-05 -4.571295e-05 -6.0022674e-05 -8.157339e-05
0.00069572584 -0.00029221067 0.0006211854 -0.00091279927 -0.0005335645 -0.0006746433 -0.0005661612 -0.0006537105
-0.0011602661 -0.0038514116 -0.00045755747 0.007295067 -0.0018881947 -0.00199805 -0.0018450583 -0.0014681595
0.005133264 -0.004651447 -0.0035259682 0.0026269688 -0.00013093346 -0.00020075425 -0.00021167626 -0.00026371286
-0.0023043847 -0.003846381 -0.004791633 0.004626645 -0.0024537921 -0.0019272136 -0.0016342335 -0.0016723773
-0.0021521214 -0.0046930024 -0.0053129066 0.0045463904 -0.0033091176 -0.0020504736 5.434836e-05 -0.0017861808
-0.00029965266 -0.0034551786 -0.0027588021 0.0027579858 -0.00014240424 -0.0001621093 -8.938072e-05 -0.00034025311
-0.00063675275 -0.0064106295 -0.0074249944 0.007214349 -0.003930975 -0.0032512003 -0.0025502737 -0.0027804668
0.0009891825 0.00063320727 0.00013381719 0.00060731533 0.00042797218 0.0001339286 0.0001787298 -0.0004005604
0.0009609059 4.86985e-05 -0.0006151883 -0.00017077503 -8.873561e-06 -1.1232474e-05 5.8277715e-06 -5.8370526e-05
-4.1199815e-05 -0.0010680305 -0.0015441278 0.0016124921 -0.0007156049 -0.00046052554 -0.00034919925 -0.00039677252
0.0060880356 0.0017016566 0.0009622284 -0.0025169237 0.0013179 0.0009647647 -8.805765e-05 0.0006777944
-0.004550848 0.00025972934 0.0004197509 -0.00084072445 4.516216e-05 9.944372e-06 -6.2447434e-05 8.946849e-05
-0.0006952103 5.9131482e-05 -0.000758767 0.0008501725 0.001088826 0.0002893193 0.0001980496 0.00041546518
0.0010904608 -0.00035479237 0.00057278917 0.0004995819 -0.00034057157 -0.00070395414 -0.00031349147 -0.00067233643
0.00070987246 0.0005095378 -3.7942933e-05 -0.0008182097 1.8519295e-05 -7.995484e-06 -6.561363e-05 -0.0001470032
-0.00026995366 -0.0023900983 -0.0025364992 0.0026514286 -0.0015420478 -0.0013673941 -0.0011930965 -0.0010841546
-0.0020706567 -0.00083575957 -0.0005083273 0.0006785419 -0.00070042815 -0.0003151236 6.058003e-05 -0.00028527644
0.00024003362 -0.0008588625 -0.0007489108 0.0008938534 -3.733429e-05 -5.037165e-05 -1.816624e-05 -6.752601e-05
-0.00029420212 -0.00064858154 -0.00059084024 0.00067509717 -0.0004964735 -0.00032746384 -0.00034729234 -0.0003493719
-0.00081037014 0.000575976 0.004838719 -0.0037464497 -0.0016846859 0.0005794888 -0.00025436666 -0.0014704753
0.0077254926 0.00338157 0.0041701403 -0.002103217 -2.3464358e-05 0.00012710455 3.8559606e-06 -0.00025851218
-0.00078535336 -0.0062692785 -0.0048472304 0.0063384385 -0.0041033616 -0.0026600768 -0.0026239327 -0.0022667926
-0.0009092345 -0.0015969371 -0.00230643 -0.00044255648 -0.0004659081 -0.0015824344 -0.0007248876 -0.0009907142
-0.0051913816 0.0016134178 0.002674647 -0.0017445469 9.301222e-05 -4.344434e-05 -5.2372463e-05 -7.924064e-05
00000000: f60b fd39 1f94 7bb9 b5d0 d1b9 6469 1f3a
00000010: 4414 1338 c717 35b9 6db4 98b9 108a a4b9
00000020: a39e 6a39 6c63 b639 3550 223a 2738 dbb9
00000030: 669e 0538 f2dc b2b7 c280 8037 dff0 b0b6
00000040: b448 fe39 6a28 59ba b6aa 4eba 8aad 8c3a
00000050: 37ac 0fba 99e9 a9b9 f012 80b9 5d62 85b9
00000060: 1e01 473c ff73 38bb f868 41bb 623c 4f3b
00000070: 72f3 cbb9 2622 2cb9 29a8 10b9 633c 973a
00000080: 6c9f 1abb 83c9 2fbb 38d9 eaba 3bc9 1d3b
00000090: ced6 8db8 1284 47b8 8342 2339 47db 7e39
000000a0: 6ffa feba 4baa b03a 0ce1 6e3b 4157 50bb
000000b0: 72f0 a93a 67fe ae3a e01c 073b 3e65 983a
000000c0: c21d 8939 c096 adba fca7 dbb9 3020 d33a
000000d0: 11ef 55ba ee90 44ba 32d3 26ba 3167 10ba
000000e0: d170 41b9 212b d8b9 6963 c3b9 af5b 043a
000000f0: d3ee a3b7 e8bb 3fb8 dbc0 7bb8 6112 abb8
00000100: 5f61 363a da33 99b9 0cd7 223a ec48 6fba
00000110: e8de 0bba 8cda 30ba 6f6a 14ba c55d 2bba
00000120: 1214 98ba f767 7cbb 53e4 efb9 750b ef3b
00000130: 4d7d f7ba b7f1 02bb e2d5 f1ba 426f c0ba
00000140: f134 a83b 2a6b 98bb ee13 67bb 3929 2c3b
00000150: 2f4b 09b9 8f81 52b9 6af5 5db9 f142 8ab9
00000160: 2905 17bb 9113 7cbb 2203 9dbb 1c9b 973b
00000170: cdcf 20bb 8f9a fcba c733 d6ba ac33 dbba
00000180: 9b0a 0dbb c2c7 99bb e417 aebb e3f9 943b
00000190: c8dd 58bb 3d61 06bb 1bf4 6338 481e eaba
000001a0: b31a 9db9 4770 62bb 05cd 34bb 53bf 343b
000001b0: 5952 15b9 e2fb 29b9 e971 bbb8 0064 b2b9
000001c0: c1eb 26ba 4210 d2bb 5e4d f3bb 5966 ec3b
000001d0: 69cf 80bb 1712 55bb 7e22 27bb 7e38 36bb
000001e0: 75a7 813a d2fd 253a 4751 0c39 3e34 1f3a
000001f0: 7461 e039 2f6f 0c39 6a69 3b39 4f02 d2b9
00000200: 4ee5 7b3a 9e41 4c38 9744 21ba 1312 33b9
00000210: a7df 14b7 1c73 3cb7 2d8c c336 e0d2 74b8
00000220: f7cd 2cb8 28fd 8bba 5564 caba 425a d33a
00000230: 6f97 3bba b172 f1b9 bb14 b7b9 e805 d0b9
00000240: 257e c73b 1f0a df3a 0e3e 7c3a f9f2 24bb
00000250: 63bd ac3a 43e8 7c3a 97ab b8b8 03ae 313a
00000260: 481f 95bb 482c 8839 0312 dc39 1064 5cba
00000270: 806c 3d38 c1d6 2637 36f6 82b8 08a1 bb38
00000280: c63e 36ba f203 7838 fee7 46ba 1cde 5e3a
00000290: f0b6 8e3a c7af 9739 89ab 4f39 cbd2 d939
000002a0: cbed 8e3a 6d03 bab9 3b27 163a 60f6 023a
000002b0: be8e b2b9 9089 38ba 1d5c a4b9 bc3f 30ba
000002c0: bc16 3a3a 8192 053a ea24 1fb8 207d 56ba
000002d0: e259 9b37 5824 06b7 0d9a 89b8 df24 1ab9
000002e0: 9188 8db9 32a3 1cbb 653b 26bb 97c3 2d3b
000002f0: 8a1e caba 223a b3ba ad61 9cba 311a 8eba
00000300: dbb3 07bb e016 5bba 4541 05ba 2de0 313a
00000310: f09c 37ba 2c37 a5b9 5017 7e38 2891 95b9
00000320: 89b1 7b39 4925 61ba 8e52 44ba 7c51 6a3a
00000330: 6397 1cb8 2646 53b8 b463 98b7 c09c 8db8
00000340: 243f 9ab9 9205 2aba 9ee2 1aba 01f9 303a
00000350: c625 02ba 74af abb9 ca14 b6b9 e72b b7b9
00000360: 056f 54ba 18fd 163a 1e8e 9e3b ff86 75bb
00000370: aed0 dcba d6e8 173a 845c 85b9 f7bc c0ba
00000380: 2126 fd3b 559d 5d3b aca5 883b 20d6 09bb
00000390: 53d5 c4b7 5e47 0539 7362 8136 eb88 87b9
000003a0: 2ce0 4dba 856e cdbb 84d5 9ebb adb2 cf3b
000003b0: 7e75 86bb af54 2ebb 49f6 2bbb 788e 14bb
000003c0: b259 6eba 5150 d1ba 7927 17bb ed06 e8b9
000003d0: 2045 f4b9 b069 cfba 6206 3eba dada 81ba
000003e0: 771c aabb 5179 d33a 2149 2f3b 48a9 e4ba
000003f0: 8e0f c338 0138 36b8 81aa 5bb8 ff2d a6b8

exp_avg_sq f4 [128, 24]
2.492685e-05 1.6693364e-05 2.3925102e-05 1.8494893e-05 1.2563762e-05 4.0789523e-06 3.0658348e-06 2.4827366e-06
4.4688277e-05 2.9345863e-05 2.3676963e-05 2.1313746e-05 1.0360115e-07 6.789581e-08 4.1653575e-08 7.639738e-08
1.1870434e-05 1.2128312e-05 1.2387992e-05 1.3869628e-05 9.5979585e-06 6.0220564e-06 4.1409876e-06 3.278266e-06
0.00040909552 0.0019088156 0.0015725675 0.001876429 0.00073791604 0.00038213521 0.0001937255 0.00017078673
0.0009136275 0.00029459616 0.000338308 0.00024868612 5.518366e-07 8.4906463e-07 2.0583848e-06 5.608542e-06
0.00014189487 0.0016393468 0.0020292855 0.0019790428 0.00078132795 0.00053624215 0.00033355205 0.0002614546
3.946228e-05 4.946521e-05 3.839305e-05 5.3261174e-05 2.301518e-05 1.1720546e-05 7.724277e-06 6.733838e-06
2.9329161e-05 1.556705e-05 1.3274491e-05 1.16728725e-05 2.6363777e-08 3.7706755e-08 8.315754e-08 2.2020681e-07
2.236895e-05 2.4548659e-05 2.42905e-05 2.3209795e-05 2.0723224e-05 1.6343167e-05 1.1258277e-05 9.667687e-06
0.00050407543 0.0011035771 0.00094177073 0.00112591 0.0004243888 0.00020764994 0.00014419694 0.00011809792
0.00043281377 0.0003126004 0.00024161478 0.00020591845 4.3607275e-07 6.410112e-07 1.6239273e-06 3.8033304e-06
5.111328e-05 0.0010526764 0.0012728121 0.0012153283 0.00047392983 0.0003351908 0.00023468891 0.00017927407
0.00033000787 0.00016309916 0.00016684912 0.00017435408 9.992594e-05 4.575177e-05 3.060248e-05 2.910379e-05
0.00024298269 7.185571e-05 5.2717493e-05 5.289956e-05 1.7507277e-07 2.3836404e-07 5.619238e-07 9.687725e-07
2.3782466e-05 0.0003861819 0.0004774412 0.00045736163 0.00017244159 0.00011855642 7.628111e-05 5.8811544e-05
4.6013745e-05 0.00021836543 0.00020008354 0.00023214106 7.355473e-05 3.7185564e-05 2.1753393e-05 1.8203302e-05
3.653833e-05 6.01715e-05 4.454487e-05 4.0159117e-05 6.920565e-08 1.1822398e-07 2.529736e-07 6.141799e-07
1.2054559e-05 0.00017282806 0.0002081253 0.00019861445 7.929539e-05 5.3588632e-05 3.4618166e-05 2.7512975e-05
9.5736e-05 0.00014076961 0.00014245762 0.00014091069 6.9119764e-05 3.1439457e-05 1.8690087e-05 1.6871236e-05
0.00011351373 5.0356368e-05 5.773557e-05 5.265121e-05 9.552198e-08 1.0100662e-07 1.9017816e-07 5.23288e-07
5.1812167e-05 0.0001029403 0.00011026989 0.000107680695 6.828131e-05 4.548927e-05 2.8825878e-05 2.3053552e-05
8.931238e-05 2.2074373e-05 3.4875644e-05 2.8008926e-05 1.0026097e-05 6.739634e-06 7.714626e-06 7.0784326e-06
7.403225e-05 3.6262732e-05 1.9460434e-05 1.5756419e-05 1.0972026e-07 5.6199795e-08 7.1313025e-08 2.1627052e-07
8.110521e-06 4.5807297e-05 5.9759845e-05 5.774781e-05 2.7899567e-05 1.8482482e-05 1.3182951e-05 1.117876e-05
7.0773305e-05 1.866186e-05 2.611294e-05 2.04244e-05 1.4825633e-05 5.9621902e-06 4.5408506e-06 4.3442756e-06
4.5372573e-05 1.266162e-05 8.987923e-06 1.02296335e-05 2.1948232e-08 2.757976e-08 4.5329198e-08 1.630368e-07
6.168023e-06 5.3111064e-05 6.069211e-05 6.004264e-05 2.6793934e-05 1.7606868e-05 1.1049529e-05 9.358012e-06
0.00085209945 0.0019220093 0.0017270863 0.001991235 0.0007014583 0.00041072333 0.0002692781 0.00023107896
0.00079249946 0.00057152176 0.00047897038 0.00041983442 7.262765e-07 1.2127375e-06 2.9310077e-06 7.367868e-06
0.0002554066 0.0019397058 0.0023625658 0.002279282 0.00088386214 0.00062903296 0.00044522475 0.00034707133
0.00014003289 3.143226e-05 4.1635834e-05 5.582493e-05 2.493242e-05 1.9500936e-05 1.2828929e-05 1.590386e-05
0.00021675556 6.2426756e-05 5.7326866e-05 3.8755436e-05 1.2368909e-07 1.6384354e-07 1.4541129e-07 4.8190327e-07
00000000: 011a d137 ba08 8c37 c4b2 c837 7b25 9b37
00000010: f2c8 5237 efdd 8836 a4be 4d36 179d 2636
00000020: ac6f 3b38 c32b f637 e49d c637 ecca b237
00000030: 567b de33 1ece 9133 97e6 3233 e70f a433
00000040: 2027 4737 b47a 4b37 05d6 4f37 99b1 6837
00000050: eb06 2137 1211 ca36 d0f2 8a36 2e00 5c36
00000060: df7b d639 3931 fa3a 9c1e ce3a 82f2 f53a
00000070: b570 413a 5259 c839 cb22 4b39 3715 3339
00000080: 8180 6f3a 0774 9a39 ee5e b139 1662 8239
00000090: ec21 1435 47eb 6335 c822 0a36 0231 bc36
000000a0: 9dc9 1439 5adf d63a c3fd 043b d4b2 013b
000000b0: 08d2 4c3a 9a92 0c3a 99e0 ae39 d813 8939
000000c0: 4d84 2538 dd78 4f38 3908 2138 c064 5f38
000000d0: b910 c137 5da3 4437 8497 0137 3af3 e136
000000e0: e507 f637 fc95 8237 81b5 5e37 9bd6 4337
000000f0: 8f76 e232 04f3 2133 5794 b233 fd71 6c34
00000100: f4a4 bb37 d8ed cd37 74c3 cb37 a8b2 c237
00000110: c9d6 ad37 af18 8937 eee1 3c37 6632 2237
00000120: ee23 043a e7a5 903a 2ae1 763a 4593 933a
00000130: 8080 de39 9bbc 5939 9233 1739 57ab f738
00000140: 48eb e239 84e4 a339 f959 7d39 d0eb 5739
00000150: 621d ea34 f411 2c35 b8f5 d935 b83c 7f36
00000160: 7762 5638 f5f9 893a 7dd4 a63a a74b 9f3a
00000170: c979 f839 8cbc af39 d316 7639 84fb 3b39
00000180: e804 ad39 9905 2b39 38f4 2e39 d1d2 3639
00000190: 558f d138 97e5 3f38 2a5b 0038 ea23 f437
000001a0: 2bc9 7e39 3eb1 9638 fa1c 5d38 78e0 5d38
000001b0: a3fb 3b34 02f1 7f34 1cd7 1635 c506 8235
000001c0: 7580 c737 7578 ca39 1351 fa39 0aca ef39
000001d0: 70d1 3439 7ea1 f838 1cf9 9f38 6aac 7638
000001e0: e2fe 4038 06f9 6439 84cd 5139 e46a 7339
000001f0: 6541 9a38 b2f7 1b38 0e7b b637 4bb3 9837
00000200: bc40 1938 a860 7c38 b1d5 3a38 8670 2838
00000210: 359e 9433 52e2 fd33 6dd0 8734 1fde 2435
00000220: f03d 4a37 2e39 3539 363c 5a39 2943 5039
00000230: 634b a638 5bc4 6038 f932 1138 aacb e637
00000240: e0c5 c838 8e9b 1339 ad60 1539 6dc1 1339
00000250: 64f4 9038 dcdd 0338 a8c8 9c37 b486 8d37
00000260: 380e ee38 bd35 5338 1929 7238 ced5 5c38
00000270: c421 cd33 fae8 d833 c633 4c34 1478 0c35
00000280: e450 5938 a7e1 d738 b240 e738 a2d2 e138
00000290: 4032 8f38 bbcb 3e38 1acf f137 2063 c137
000002a0: 384d bb38 5b2c b937 7047 1238 b6f4 ea37
000002b0: c235 2837 0425 e236 116e 0137 4683 ed36
000002c0: c341 9b38 d018 1838 f73e a337 a72c 8437
000002d0: 5a9f eb33 5460 7133 c024 9933 fd37 6834
000002e0: 6c12 0837 3621 4038 a5a6 7a38 3d36 7238
000002f0: dd09 ea37 d40a 9b37 582c 5d37 698c 3b37
00000300: 216c 9438 0a8c 9c37 1d0d db37 1155 ab37
00000310: 9cbb 7837 d30e c836 9c5d 9836 0bc5 9136
00000320: 6e4e 3e38 3e6d 5437 d6ca 1637 f19f 2b37
00000330: ac88 bc32 89e8 ec32 fbaf 4233 370f 2f34
00000340: eaf6 ce36 92c3 5e38 a88f 7e38 4bd6 7b38
00000350: 89c3 e037 76b2 9337 5e61 3937 5b00 1d37
00000360: 6d5f 5f3a eeeb fb3a 665f e23a 617f 023b
00000370: 12e2 373a 5a56 d739 e52d 8d39 c94d 7239
00000380: bdbf 4f3a 2dd2 153a 511e fb39 391d dc39
00000390: 57f5 4235 58c5 a235 54b2 4436 8139 f736
000003a0: 18e8 8539 ba3d fe3a 47d5 1a3b 0260 153b
000003b0: fcb2 673a b0e5 243a 0e6d e939 20f7 b539
000003c0: cbd5 1239 22d6 0338 23a2 2e38 9025 6a38
000003d0: f725 d137 f195 a337 d53b 5737 4769 8537
000003e0: e148 6339 1ceb 8238 4172 7038 558d 2238
000003f0: 66cf 0434 f8ec 2f34 5a22 1c34 245c 0135

exp_avg f4 [128]
0.00043047583 -0.002208993 0.0017201784 0.0039300453 0.006101585 0.0011078636 -0.002768011 0.00292215
0.0009091455 0.0062208045 0.00059794984 -0.005916199 0.0013304949 0.00026408845 -0.0009107393 -0.0013367351
0.0050081937 -0.0006343101 0.004127048 0.00077579514 0.0010615082 0.0017352115 -8.306098e-05 0.006303128
-0.00219829 -0.0030749848 0.006051942 0.0015141763 -0.0010767148 -0.003694108 0.00037382304 -0.0008012135
0.0018282934 0.0014144531 0.00050948514 -0.006840152 0.0021843384 -0.0055981213 0.0023698786 0.0053483304
-0.0038046364 0.00011207164 -0.021706304 -0.0049234307 -0.0010984613 0.002437934 0.003675669 -0.014534142
0.0028591692 0.0020656642 0.0032193824 -0.008620436 -0.0025895885 0.0022507452 -0.0027582555 -0.002129957
0.0032489416 0.0021840888 0.0055092797 -0.0010103419 0.0002257995 -0.00036903832 -0.0011353494 -0.002972314
-0.0065278728 -0.013486726 -0.0033878677 0.011615088 -0.0020009447 0.0006059443 0.00303671 0.0057239966
0.0021577158 0.00019089415 -0.0015833336 -0.0007278947 0.0022547685 0.0009501195 -0.00045382982 -0.0022486374
0.004519619 0.00068634545 0.0017428548 -0.0010540335 0.0031470067 -0.010143418 0.0014663169 -0.0011046989
-0.0021237084 0.0020697166 0.0025839526 -0.0023864494 -0.0001792774 -7.94946e-05 -0.00043961094 0.0024461246
0.0003818491 0.0012361285 0.0013951571 -0.0020222003 0.009856798 0.000457574 0.005246471 0.0022642706
0.003639301 0.0016874344 0.0010811711 -0.0020479786 -0.0026559818 -0.0063930936 0.00018979836 0.001982701
0.014902503 0.0052735666 -0.001476138 -0.00488227 -0.000673972 0.0014182925 -0.0030538274 0.0001880888
0.00052132335 0.004333512 -0.0050950227 -0.0023673135 -0.0076709776 0.002552518 0.003731285 -0.010405588
00000000: 7db1 e139 c1c4 10bb 9c77 e13a 9cc7 803b
00000010: ceef c73b bc35 913a 8567 35bb 8b81 3f3b
00000020: b953 6e3a e4d7 cb3b bcbf 1c3a addc c1bb
00000030: 0064 ae3a 5a75 8a39 aebe 6eba 6335 afba
00000040: c61b a43b d547 26ba 303c 873b bb5e 4b3a
00000050: 4e22 8b3a 0970 e33a 0631 aeb8 788a ce3b
00000060: 3011 10bb af85 49bb 5e4f c63b 5377 c63a
00000070: 8e20 8dba d918 72bb aefd c339 8708 52ba
00000080: 59a3 ef3a 2c65 b93a f88e 053a 5b23 e0bb
00000090: 1e27 0f3b 7270 b7bb f74f 1b3b 0c41 af3b
000000a0: 3557 79bb 0108 eb38 6bd1 b1bc bb54 a1bb
000000b0: 3ffa 8fba bfc5 1f3b 7ee3 703b 9c20 6ebc
000000c0: e660 3b3b 1860 073b 46fc 523b bb3c 0dbc
000000d0: 16b6 29bb 3d81 133b d9c3 34bb c096 0bbb
000000e0: 32ec 543b ee22 0f3b 3087 b43b 736d 84ba
000000f0: 97c4 6c39 7c7b c1b9 01d0 94ba 27cb 42bb
00000100: c4e7 d5bb 6ef7 5cbc fd06 5ebb 364d 3e3c
00000110: 4822 03bb 3cd8 1e3a 8a03 473b 5d90 bb3b
00000120: 7768 0d3b c22a 4839 dc87 cfba 30d0 3eba
00000130: bdc4 133b 7111 793a 02f0 edb9 e05d 13bb
00000140: 5019 943b ddeb 333a 8170 e43a 7f27 8aba
00000150: 033e 4e3b 9430 26bc 6e31 c03a 8bcb 90ba
00000160: ea2d 0bbb 15a4 073b 8857 293b fa65 1cbb
00000170: 69fc 3bb9 57b6 a6b8 957b e6b9 294f 203b
00000180: eb32 c839 9705 a23a b4dd b63a e486 04bb
00000190: 687e 213c 8be6 ef39 97ea ab3b 2864 143b
000001a0: 5781 6e3b e72c dd3a 15b6 8d3a 6137 06bb
000001b0: fb0f 2ebb 287d d1bb 9c04 4739 34f0 013b
000001c0: a129 743c e2cd ac3b f97a c1ba 73fb 9fbb
000001d0: 7fad 30ba 00e6 b93a b922 48bb b439 4539
000001e0: 6ba9 083a 2200 8e3b 26f4 a6bb ee24 1bbb
000001f0: d35c fbbb 2548 273b 9388 743b 337c 2abc
