results/baseline/wesad/seed_43/best_model.pth (torch, 334901 bytes, 30 tensors)

mlp.0.weight f4 [128, 140]
0	0xbc29520c	-0.010334503
1	0xbd62a2da	-0.05533109
2	0x3d9ad858	0.075607955
3	0xbcf59a58	-0.029980823
4	0xbd69b081	-0.057053093
5	0xbd8ed491	-0.069741376
6	0x3c761376	0.015019288
7	0xbd9ee377	-0.07758229
8	0x3d1aebfb	0.037822705
9	0x3c88d231	0.01670179
10	0x3d8eb37f	0.0696783
11	0xbd81a656	-0.06330554
12	0xbaadd9bb	-0.0013263741
13	0x3a904f7e	0.0011010019
14	0x3ae9f28c	0.0017848774
15	0x3cf7ae89	0.030234592
16	0xbc89b675	-0.016810635
17	0xbd20a498	-0.03921947
18	0x3d586b82	0.052836902
19	0xbd77b543	-0.0604756
20	0xbd919f6d	-0.07110486
21	0x3d2cf7f9	0.042228673
22	0xbd0d1748	-0.03444603
23	0x3d7a2b98	0.06107673
24	0xbd891ae0	-0.06694579
25	0x3d5658e5	0.05233087
26	0x3bc003d4	0.0058598313
27	0xbc2e7505	-0.010648017
28	0x3d675f3b	0.056487303
29	0xbd11d541	-0.035603765
30	0x3c412cc8	0.011790462
31	0xbcccd6b8	-0.02500473
32	0x3cd17d28	0.025572374
33	0x3d1edad1	0.0387829
34	0x3d99bb69	0.07506449
35	0xbd44f2d9	-0.04808316
36	0x3cc87f58	0.024474785
37	0xbb053d54	-0.0020330744
38	0x3d869b58	0.06572598
39	0xbd55d394	-0.05220373
40	0xbcdcd5c8	-0.026957408
41	0x3d8670fb	0.06564518
42	0x3ce9b78d	0.028529907
43	0xbc9dee5f	-0.019278703
44	0x3cdaa326	0.026689123
45	0x3cee7c24	0.02911193
46	0xbcb8eac2	-0.022572879
47	0xbd83718f	-0.06418144
48	0xbd7be834	-0.061500743
49	0x3d5dfe78	0.05419776
50	0xbc1c524c	-0.0095411055
51	0x3d478778	0.048713177
52	0xbd8c6e14	-0.06856933
53	0x3da20c89	0.07912547
54	0x3ce721cb	0.028214356
55	0xbc14a38c	-0.009072196
56	0xbd01dcf6	-0.031704865
57	0xbc256015	-0.0100937085
58	0xbd5fa293	-0.054598402
59	0xbd895d56	-0.067072555
60	0xbcf891da	-0.030342985
61	0x3d5bf6bf	0.053702112
62	0xbd96541f	-0.073402636
63	0x3d844891	0.064591534
64	0x3d341f54	0.04397519
65	0xbd7427ac	-0.059608147
66	0x3d913354	0.07089868
67	0x3cd9dc59	0.026594328
68	0xbc488094	-0.012237687
69	0x3c38af1b	0.011272217
70	0x3cb6439f	0.022249041
71	0x3d5b9e11	0.05361754
72	0x3db1a2dc	0.08673641
73	0x3cd065d4	0.02543918
74	0xbb64ee35	-0.0034932022
75	0x3c30ab89	0.010783085
76	0x3cc5ca2b	0.024144253
77	0xbcf84a3b	-0.030308833
78	0xbcee0836	-0.02905665
79	0xbda28189	-0.07934863
80	0x3dad36cd	0.08457718
81	0xbd03363a	-0.032034136
82	0xbc37318a	-0.011181245
83	0xbd8ab5ce	-0.06772958
84	0xbc0fee06	-0.008784777
85	0x3d851f82	0.0650015
86	0xbd8b9ac5	-0.06816629
87	0x3d27bf32	0.040953822
88	0x3dab1e4b	0.08355387
89	0xbd9debbe	-0.0771098
90	0x3bc855b7	0.0061137336
91	0x3d014ce1	0.031567458
92	0x3bfa81cb	0.007644867
93	0x3bd21492	0.0064111436
94	0x3da22697	0.07917517
95	0x3d96c852	0.07362427
96	0x3c04253c	0.008065518
97	0x3d272345	0.04080512
98	0xbcaa16fe	-0.020762917
99	0xbcfa9c37	-0.030592067
100	0xbccbeae9	-0.024892287
101	0x3d798994	0.06092222
102	0x3d8de9f8	0.069293916
103	0x3d7958f1	0.060875837
104	0x3b898731	0.0041970243
105	0x3cc6e5ec	0.024279557
106	0xbd08de17	-0.033414926
107	0xbc195967	-0.009359694
108	0xbd7e7574	-0.06212373
109	0x3d130bda	0.035899974
110	0xbd6265ea	-0.055272974
111	0x3db06707	0.08613401
112	0x3baf8c4f	0.0053573023
113	0x3d40fac8	0.047114164
114	0xbc94fc28	-0.018186644
115	0x3c8b6df6	0.017020207
116	0xbd948fb7	-0.07253974
117	0xbd84513e	-0.06460808
118	0xbd1c70ad	-0.038193393
119	0x3daf235b	0.085516654
120	0x3d3b34ce	0.045704655
121	0x3d4d0b03	0.05005933
122	0x3da0d677	0.07853406
123	0x3d36edbe	0.044660322
124	0x3d113ff1	0.03546137
125	0xbd033d42	-0.032040842
126	0xbce1a41c	-0.027544074
127	0x3d83b5be	0.06431149
128	0x3d9b395a	0.07579298
129	0xbd5db293	-0.05412538
130	0x3d16891c	0.03675185
131	0xbc65a0f7	-0.014015428
132	0x3d9f9784	0.07792571
133	0xbbd04eba	-0.006357041
134	0xbc291a5b	-0.010321225
135	0xbc2abcc6	-0.010420984
136	0xbc041ab0	-0.008063003
137	0x3da1c158	0.078982055
138	0xbce60309	-0.02807762
139	0x3d1b2292	0.037874766
140	0x3be2e9d0	0.0069248453
141	0x3d903393	0.07041087
142	0x3d46b82e	0.04851549
143	0xbd5b5c6a	-0.05355493
144	0xbc28457c	-0.010270473
145	0xbbad1238	-0.005281713
146	0xbca99930	-0.020702928
147	0x3d81937c	0.063269585
148	0x3dac8a70	0.08424842
149	0xbd8babf0	-0.06819904
150	0xbcef0af9	-0.029180037
151	0x3da6695f	0.08125567
152	0x3c876c35	0.01653109
153	0xbca3fbaf	-0.020017473
154	0x3d839adb	0.06426021
155	0xbbb9dc85	-0.00567204
156	0xbcdb4e6a	-0.02677079
157	0xbd97fc40	-0.0742116
158	0x3d7a6590	0.061132014
159	0xbc9b839a	-0.018983651
160	0xbd551e0d	-0.05203061
161	0xbd624bd0	-0.05524808
162	0xbd6d2b86	-0.057902835
163	0x3ce6127c	0.028084986
164	0x3cf9395a	0.030422855
165	0x3c8f99aa	0.017529327
166	0xbd4f537e	-0.050616734
167	0xbd96172d	-0.07328639
168	0xbd3d1e7a	-0.046171643
169	0xbd5ab0de	-0.05339133
170	0x3c9ac226	0.018891405
171	0x3cdc9cdb	0.026930263
172	0xbcdf8954	-0.027287163
173	0xbda69763	-0.081343435
174	0x3d5608eb	0.0522546
175	0x3d243503	0.04008962
176	0xbd1ad250	-0.037798226
177	0xbd11ccc8	-0.035595685
178	0xbbd07cc4	-0.0063625295
179	0xbd270986	-0.040780567
180	0x3d3d80f4	0.046265557
181	0x3c397e96	0.011321684
182	0xbd405e6a	-0.04696504
183	0xbd976e84	-0.07394126
184	0xbcfa3db8	-0.030547008
185	0xbd839b03	-0.064260505
186	0xbc9a7a8e	-0.018857267
187	0xbcac605e	-0.021042045
188	0xbd228e81	-0.039686684
189	0x3c109391	0.008824245
190	0xbd12fc89	-0.035885368
191	0x3d3b2e19	0.04569826
192	0x3d519156	0.051163994
193	0xbcc8cc13	-0.024511373
194	0xbd040cc6	-0.032238744
195	0xbd9d8e21	-0.076931246
196	0xbb63b437	-0.0034744868
197	0xbd8e90e4	-0.069612294
198	0x3d921e1d	0.0713465
199	0x3d2711dc	0.040788516
200	0xbc0a2faa	-0.008434216
201	0xbc2d4674	-0.010575879
202	0xbbdaefcf	-0.0066814194
203	0x3d9d1bb0	0.076712966
204	0xbc30bcc8	-0.010787196
205	0x3c62c36d	0.013840538
206	0x3d39e311	0.045382563
207	0x3d1f6db6	0.038922988
208	0x3b1b53b5	0.0023701016
209	0x3d800cf3	0.0625247
210	0xbd619a97	-0.05507907
211	0x3cdb15f7	0.026743872
212	0xbd9dc0af	-0.07702767
213	0x3d5f192d	0.05446737
214	0x3d878c72	0.06618585
215	0xbc3eb7e0	-0.011640519
216	0xbd88c738	-0.06678623
217	0xbd15c875	-0.036568124
218	0x3cf7dd32	0.030256841
219	0xbd8326d9	-0.06403894
220	0xbca2bf89	-0.019866722
221	0xbcfe31bc	-0.031029575
222	0xbcfc8f27	-0.03082998
223	0x3d4bba09	0.049737964
224	0xbd657fe4	-0.05603017
225	0x3cfd249c	0.030901246
226	0xbd4968d3	-0.049172234
227	0x3b981b7c	0.0046419483
228	0x3d87e7a9	0.066359825
229	0xbd963b24	-0.07335499
230	0xbd725ea1	-0.059172276
231	0x3d415197	0.04719695
232	0x3d4b0f3b	0.04957507
233	0xbd83ccbe	-0.06435536
234	0x3d009ec1	0.0314014
235	0xbd59e067	-0.053192522
236	0xbd986546	-0.074411914
237	0xbd24be12	-0.040220328
238	0x3d570006	0.052490257
239	0x3b564718	0.0032696184
240	0x3d9ef57b	0.077616654
241	0x3d00f51b	0.03148375
242	0xbc481081	-0.012210966
243	0x3d8bb6e6	0.068219945
244	0x3d174042	0.036926515
245	0x3cfc3b12	0.030789886
246	0xbda57da6	-0.08080606
247	0xbd80a281	-0.06280995
248	0x3d715f06	0.058928512
249	0x3d965946	0.07341246
250	0x3cc6d8eb	0.024273356
251	0x3d0f88e4	0.03504266
252	0xbd6df21e	-0.05809223
253	0xbcce163a	-0.025157083
254	0xbc1af4c7	-0.0094577735
255	0xbd165120	-0.03669846

mlp.0.bias f4 [128]
0	0xbd458780	-0.048224926
1	0x3d3627c2	0.04447151
2	0x3ce1c386	0.027559053
3	0xbd21730f	-0.03941637
4	0x3d26f1b1	0.04075784
5	0x3d12e2b7	0.035860743
6	0x3da306a0	0.07960248
7	0xbcd4c15c	-0.025971107
8	0xbdaf0cb2	-0.08547343
9	0x3d9affc5	0.075683154
10	0xbd33a6e0	-0.043860316
11	0xbd23284c	-0.039833352
12	0x3da37bcf	0.07982599
13	0xbd678cea	-0.05653087
14	0xbc581171	-0.013187752
15	0xbd541d1d	-0.051785577
16	0xbd964dd2	-0.07339062
17	0x3d85b449	0.06528527
18	0x3d9e18e0	0.07719588
19	0xbd8510da	-0.06497355
20	0xbb453f73	-0.0030097633
21	0x3d1abfa1	0.037780408
22	0xbd0d63e2	-0.034519084
23	0x3c97118b	0.018440982
24	0x3d682233	0.05667324
25	0xbcc7c4c7	-0.024385823
26	0x3b2e133e	0.0026561762
27	0x3baf75b4	0.0053546075
28	0x3cf68b4e	0.030095723
29	0x3ab6e8f6	0.0013954926
30	0xbb555bdb	-0.003255597
31	0x3d419514	0.047261313
32	0x3d1e87d6	0.038703762
33	0x3d8f8f4a	0.07009752
34	0xbd913bde	-0.07091497
35	0x3da01cec	0.078180164
36	0xbd7cf7c0	-0.06175971
37	0xbd798834	-0.06092091
38	0xbd0fe74f	-0.035132702
39	0xbd823c59	-0.06359167
40	0xbd79a940	-0.060952425
41	0x3cf943be	0.03042781
42	0xbd4ac4a6	-0.049503945
43	0x3d8686df	0.06568693
44	0xbd915f22	-0.07098223
45	0x3cc0ffc3	0.023559457
46	0xbcb35cbc	-0.021894805
47	0x3d4708e8	0.048592478
48	0x3d8702b2	0.06592311
49	0x3da53daa	0.08068402
50	0x3c9c8d59	0.019110369
51	0x3c20d9b5	0.00981753
52	0x3d91eab4	0.07124844
53	0xbd99e850	-0.07515013
54	0xbc80e791	-0.01573542
55	0xbd93001a	-0.07177754
56	0xbcc75e5c	-0.024336986
57	0x3d95942c	0.07303652
58	0xbc9d829a	-0.019227315
59	0xbcbf5ab3	-0.023358678
60	0xbc6c12a4	-0.014408741
61	0x3d52038f	0.051272925
62	0x3bd2b6e2	0.0064304927
63	0x3d8f9353	0.07010522
64	0x3d80e9f7	0.06294625
65	0x3d926dcc	0.07149848
66	0x3da26c2f	0.07930791
67	0x3d9e5993	0.07731929
68	0xbd29f379	-0.04149196
69	0x3da3cd2a	0.07998116
70	0x3c82d5cd	0.015971089
71	0x3d465cdc	0.0484284
72	0x3c97f865	0.01855106
73	0xbac32de4	-0.0014890996
74	0x3da50a26	0.08058576
75	0x3d6622f0	0.056185663
76	0x3c9db3c4	0.019250758
77	0xbcde41be	-0.027130958
78	0x3d9c442b	0.076301895
79	0xbc0dc561	-0.008653016
80	0xbd28b5fc	-0.04118918
81	0xbd87048d	-0.06592665
82	0x3bbd1df5	0.0057713934
83	0xbd0ca980	-0.034341335
84	0x3d888e11	0.06667722
85	0xbda330c2	-0.07968284
86	0xbd4869fc	-0.0489292
87	0xbb615756	-0.0034384332
88	0x3cd00950	0.025395066
89	0xbd00bb92	-0.03142888
90	0xbd01a333	-0.03164978
91	0x3cc03342	0.023461942
92	0x3cb3fb3c	0.021970384
93	0xbcff11b7	-0.031136377
94	0x3b5fb2b1	0.0034133608
95	0x3d823f2b	0.063597046
96	0x3d37b95a	0.0448545
97	0xbd835ac2	-0.06413795
98	0xbd0a69f8	-0.033792466
99	0x3d148055	0.0362552
100	0x3cf8924f	0.030343203
101	0x3ce8a800	0.028400421
102	0x3a16fac6	0.0005759414
103	0xbd852d16	-0.0650274
104	0x3cfdf966	0.031002712
105	0x3d04ac6a	0.03239099
106	0xbd2f316c	-0.04277174
107	0xbcb72d5c	-0.022360496
108	0x3daac0c3	0.08337548
109	0xbd20c505	-0.039250392
110	0xbda5d71e	-0.08097671
111	0x3d22dc55	0.039760906
112	0x3cc306cb	0.02380695
113	0x3c0c9d6e	0.008582456
114	0xbd5e72a9	-0.054308567
115	0x3d0763fc	0.033054337
116	0xbd0a3378	-0.03374049
117	0xbc51500a	-0.01277543
118	0xbcd2621b	-0.025681546
119	0xbbf07139	-0.007337716
120	0xbd87366a	-0.066021755
121	0xbd6e3d8a	-0.058164157
122	0x3d3c3bce	0.04595547
123	0x3d724594	0.059148386
124	0x3d8763df	0.06610846
125	0xbd106c2f	-0.035259422
126	0xbd3fb709	-0.046805415
127	0xbca6c345	-0.020356784

mlp.1.weight f4 [128]
0	0x3f7f9d6f	0.998496
1	0x3f7f0cf4	0.9962914
2	0x3f808069	1.0039188
3	0x3f7f0bc4	0.9962733
4	0x3f807cdc	1.0038104
5	0x3f8046aa	1.0021565
6	0x3f806940	1.003212
7	0x3f809270	1.0044689
8	0x3f7f98bd	0.99842435
9	0x3f7ff906	0.99989355
10	0x3f807d73	1.0038284
11	0x3f7f10f5	0.9963525
12	0x3f7f7cff	0.99800104
13	0x3f80545a	1.0025742
14	0x3f7f5f75	0.9975503
15	0x3f8079fc	1.0037227
16	0x3f807c61	1.0037957
17	0x3f7f4a39	0.9972263
18	0x3f7fb86f	0.998908
19	0x3f8063bb	1.0030435
20	0x3f7f422e	0.9971036
21	0x3f802ba6	1.001332
22	0x3f7f3ebf	0.9970512
23	0x3f807fa2	1.003895
24	0x3f7fd32d	0.99931604
25	0x3f7fbe86	0.9990009
26	0x3f8014f3	1.0006393
27	0x3f7f1ac5	0.9965022
28	0x3f8049d2	1.0022528
29	0x3f7f28fa	0.996719
30	0x3f7ef18d	0.9958733
31	0x3f7f128b	0.9963767
32	0x3f80755f	1.0035819
33	0x3f7fe61b	0.9996049
34	0x3f7f128d	0.9963768
35	0x3f802603	1.00116
36	0x3f7f1900	0.9964752
37	0x3f8002b9	1.0000831
38	0x3f7f5314	0.9973614
39	0x3f7ef66d	0.99594766
40	0x3f805b31	1.002783
41	0x3f7ee69f	0.9957065
42	0x3f7f73db	0.99786156
43	0x3f7f171d	0.99644643
44	0x3f7f22c2	0.9966241
45	0x3f802270	1.001051
46	0x3f807b39	1.0037605
47	0x3f805f78	1.0029135
48	0x3f800995	1.0002924
49	0x3f806ecb	1.0033811
50	0x3f7f6027	0.9975609
51	0x3f7f1904	0.99647546
52	0x3f7f9a2a	0.9984461
53	0x3f7fd98d	0.9994133
54	0x3f7edc9f	0.9955539
55	0x3f7ef077	0.9958567
56	0x3f806db1	1.0033475
57	0x3f7f5e81	0.99753577
58	0x3f805ed6	1.0028942
59	0x3f7f4ffe	0.99731433
60	0x3f801483	1.000626
61	0x3f7ec3cd	0.9951752
62	0x3f801b86	1.00084
63	0x3f7f25dc	0.99667144
64	0x3f7f33aa	0.9968821
65	0x3f7f1992	0.9964839
66	0x3f7f0628	0.9961877
67	0x3f7f3c87	0.9970173
68	0x3f80757f	1.0035857
69	0x3f7f76fe	0.9979094
70	0x3f7eff0d	0.99607927
71	0x3f7efab6	0.99601305
72	0x3f7ed924	0.9955008
73	0x3f8088f2	1.0041792
74	0x3f7fc121	0.99904066
75	0x3f806881	1.0031892
76	0x3f7ee585	0.9956897
77	0x3f803a3d	1.0017773
78	0x3f806a21	1.0032388
79	0x3f8060c7	1.0029534
80	0x3f7f5bcc	0.99749446
81	0x3f8081cc	1.0039611
82	0x3f7f3f30	0.9970579
83	0x3f7f38e7	0.996962
84	0x3f8045e2	1.0021327
85	0x3f7ffa97	0.99991745
86	0x3f7f52fd	0.99736005
87	0x3f7f2c53	0.9967701
88	0x3f7f480b	0.99719304
89	0x3f7ff437	0.9998202
90	0x3f805bc2	1.0028002
91	0x3f8078f4	1.0036912
92	0x3f802a39	1.0012885
93	0x3f7ee065	0.9956115
94	0x3f803b0e	1.0018022
95	0x3f8057d7	1.0026807
96	0x3f804931	1.0022336
97	0x3f7f4ee6	0.99729764
98	0x3f8084fd	1.0040585
99	0x3f800c5f	1.0003775
100	0x3f80609e	1.0029485
101	0x3f7f941b	0.99835366
102	0x3f7eedfc	0.99581885
103	0x3f804f58	1.0024214
104	0x3f7fbe81	0.9990006
105	0x3f800075	1.000014
106	0x3f8038fa	1.0017388
107	0x3f7f0ff0	0.99633694
108	0x3f802f98	1.0014524
109	0x3f8065ea	1.0031102
110	0x3f7f76d5	0.997907
111	0x3f7ede46	0.9955791
112	0x3f80014f	1.0000399
113	0x3f7efc1a	0.99603426
114	0x3f806ec3	1.0033802
115	0x3f7fd303	0.99931353
116	0x3f7fd230	0.99930096
117	0x3f80487b	1.0022119
118	0x3f807f51	1.0038854
119	0x3f80896a	1.0041935
120	0x3f808273	1.003981
121	0x3f7f2e33	0.9967987
122	0x3f7f5008	0.99731493
123	0x3f7f7c64	0.9979918
124	0x3f80296e	1.0012643
125	0x3f808e4f	1.0043429
126	0x3f806cb7	1.0033177
127	0x3f80909d	1.0044132

mlp.1.bias f4 [128]
0	0xba95329e	-0.0011382883
1	0xbb4d023b	-0.0031281847
2	0x399ec38a	0.00030281796
3	0xbb59142d	-0.0033123598
4	0x3b86a94f	0.0041095386
5	0x3b45bcee	0.0030172425
6	0x3b0def60	0.0021657571
7	0x3b870898	0.0041208975
8	0xbab02c8a	-0.0013441008
9	0x3b051e53	0.0020312264
10	0x3b8941f8	0.0041887723
11	0xbb5f237d	-0.0034048252
12	0xbb5437ef	-0.0032381972
13	0x3b8154d2	0.003946879
14	0xbb8d71b2	-0.004316532
15	0x3b208a87	0.0024496631
16	0x3b76a640	0.0037635714
17	0xbb571b13	-0.0032822534
18	0xbabdedb4	-0.0014490397
19	0x3b11e28f	0.0022260284
20	0xbb1bd000	-0.00237751
21	0xb904fa96	-0.00012681852
22	0xbb55546d	-0.0032551542
23	0x3b75da1c	0.0037514037
24	0xba840fc2	-0.0010075497
25	0xb9ca5426	-0.00038591138
26	0xb98f95bc	-0.00027386646
27	0xbb7bb70b	-0.0038408663
28	0x3b35e216	0.0027753166
29	0xbb2ec0a0	-0.0026665106
30	0xbac91212	-0.0015340468
31	0xbb37bf10	-0.0028037466
32	0x3b6a08cc	0.003571081
33	0xba8a3671	-0.0010544789
34	0xbb47c06d	-0.0030479685
35	0x3ad07261	0.0015903228
36	0xbb6d95c3	-0.0036252595
37	0xbaca4681	-0.0015432389
38	0xbb661cbb	-0.003511234
39	0xbb826a1f	-0.003979936
40	0x3b28e794	0.0025772797
41	0xbb721102	-0.0036936407
42	0xbb1a7cc0	-0.0023572892
43	0xbb4b90dc	-0.0031061685
44	0xbb906529	-0.0044065905
45	0xbb3b7103	-0.0028601296
46	0x3b7bec2d	0.0038440332
47	0x3b523d11	0.0032079855
48	0x3a191e9a	0.0005841047
49	0x3b598937	0.0033193359
50	0xbb4a4f2c	-0.0030869944
51	0xbb5256c7	-0.003209518
52	0xbb6721a0	-0.0035267845
53	0xbac8f351	-0.0015331303
54	0xbb8b6917	-0.004254471
55	0xbb8d070f	-0.00430382
56	0x3b84e714	0.004055867
57	0xbb4180d0	-0.002952624
58	0x3b6a207e	0.0035724933
59	0xbb1d340c	-0.0023987321
60	0x3ac6640b	0.0015136016
61	0xbb9b7307	-0.004743937
62	0x3b3dcccf	0.0028961187
63	0xbb5f967e	-0.00341168
64	0xbb2d2bc5	-0.0026423794
65	0xba93abba	-0.0011266388
66	0xbb81538f	-0.0039467285
67	0xbb428180	-0.0029679239
68	0x3b58629b	0.0033017758
69	0xba33483a	-0.00068390707
70	0xbb668a2c	-0.0035177572
71	0xbb503512	-0.0031769914
72	0xbb8ee653	-0.004360953
73	0x3b73081c	0.003708369
74	0x39db49ba	0.00041825866
75	0x3af3df12	0.0018605909
76	0xbb78cd3e	-0.003796413
77	0x3a5fa0f7	0.00085307605
78	0x3b434090	0.002979312
79	0x3b500eb0	0.0031747036
80	0xbb14f26c	-0.0022727503
81	0x3b878917	0.0041362154
82	0xbb2b6980	-0.0026155412
83	0xbb6f7efc	-0.0036544194
84	0xb99f3319	-0.00030364914
85	0xba96a6b9	-0.0011493779
86	0xbae790bc	-0.0017667036
87	0xbaf54fa2	-0.0018715749
88	0xbb73470c	-0.0037121205
89	0x3acb2991	0.0015500059
90	0x3b375929	0.0027976728
91	0x3b53842a	0.003227482
92	0x3b6117ba	0.0034346418
93	0xb9340028	-0.00017166196
94	0x3b1dd655	0.002408405
95	0x3b277da9	0.0025557077
96	0xbb1d45c2	-0.0023997878
97	0xbb468b0d	-0.0030295283
98	0x3b5a89a1	0.0033346193
99	0xba383b04	-0.0007027837
100	0x3990e8ad	0.00027639177
101	0xbac0e34d	-0.0014716178
102	0xbb8cdfe8	-0.0042991526
103	0x3b0ac72d	0.0021175847
104	0xb998c1b2	-0.00029136013
105	0xbb77e153	-0.0037823513
106	0x3aa5360a	0.0012604606
107	0xbb5c5c80	-0.003362447
108	0x3b009998	0.00196228
109	0x3b444c06	0.002995254
110	0xbb1047ef	-0.0022015532
111	0xba1a4098	-0.0005884259
112	0x3b1af569	0.002364481
113	0xbb511b1c	-0.0031907028
114	0x3b58dba8	0.003308991
115	0xb98fd175	-0.00027431143
116	0xbb3dbc13	-0.0028951212
117	0x3aac9f37	0.0013170008
118	0x3b6f6652	0.0036529494
119	0x3b8491dc	0.004045708
120	0x3b601eb0	0.0034197979
121	0xbb603d93	-0.0034216389
122	0xbafb0c7b	-0.00191535
123	0xbb2c46b9	-0.0026287271
124	0x3ac430cc	0.0014968156
125	0x3b85af14	0.004079709
126	0x3b59f4c1	0.0033257457
127	0x3b8add45	0.004237803

mlp.4.weight f4 [64, 128]
0	0x3dab4836	0.083633825
1	0xbd6d17b8	-0.057883948
2	0x3cda7ced	0.026670897
3	0xbd3bb2ab	-0.045824688
4	0x3b77e84a	0.0037827664
5	0x3d309696	0.04311236
6	0xbd644ff9	-0.05574033
7	0x3d89b6ab	0.06724294
8	0x3c6f4520	0.014603883
9	0xbd8446d8	-0.06458825
10	0x3cf420d0	0.029800802
11	0x3c7b4ca1	0.015338094
12	0xbd158e47	-0.03651264
13	0xbcd9b0dd	-0.026573593
14	0xbc3d2101	-0.011543513
15	0x3cc7e05d	0.024398977
16	0x3d6f03c9	0.05835322
17	0x3ca5f117	0.020256562
18	0xbd9eef21	-0.07760454
19	0xbd97318f	-0.073824994
20	0xbd38f783	-0.04515792
21	0x3daa4b2e	0.08315121
22	0x3cd066f3	0.025439715
23	0x3ca91f55	0.020644823
24	0xbda8d423	-0.08243587
25	0xbd7041c6	-0.058656476
26	0x3c14f100	0.009090662
27	0xbda54ea8	-0.08071643
28	0x3d111bd4	0.03542693
29	0xbd6bc416	-0.05756005
30	0x3d70ce3b	0.058790427
31	0xbd2569b8	-0.040384024
32	0xbc37fdd7	-0.011229954
33	0xbd6a72a6	-0.057238244
34	0x3db743f2	0.089485064
35	0xbd4afacb	-0.04955558
36	0xbb2c465f	-0.0026287062
37	0xbd8dc3c2	-0.069221035
38	0xbd6dde34	-0.058073238
39	0xbcdd769f	-0.027034102
40	0xbc9fbafa	-0.019498337
41	0x3d820dbd	0.063502766
42	0xbd96019b	-0.07324525
43	0xbadb591c	-0.0016734931
44	0x3d9c6b99	0.0763771
45	0x3dae6455	0.085152306
46	0x3cf79cb5	0.03022609
47	0x3afb6b84	0.0019181822
48	0x3c658b64	0.014010284
49	0xbda883cd	-0.08228264
50	0xbd9c690a	-0.07637222
51	0x3d688814	0.0567704
52	0xbc179078	-0.009250753
53	0xbd845532	-0.06461562
54	0x3db04ec1	0.08608771
55	0xbd51ed82	-0.051251896
56	0xbc4f0f94	-0.012637991
57	0x3d241d0e	0.04006677
58	0x3c26c70c	0.010179292
59	0x3d8c827e	0.06860827
60	0x3d6678cc	0.056267545
61	0xbd3299c5	-0.043603677
62	0xbd8593fc	-0.065223664
63	0x3d21fb7e	0.039546482
64	0x3c6daa8b	0.014505993
65	0xbd9b6999	-0.075885005
66	0xbda3a1e4	-0.079898626
67	0x3cc22c43	0.023702746
68	0x3c88c2ad	0.016694391
69	0x3ceade2a	0.02867039
70	0x3b244509	0.0025065562
71	0x3c006ad0	0.007837966
72	0xbc7ff337	-0.015621952
73	0x3db4b301	0.08823205
74	0x3d99d70a	0.075117186
75	0x3d34d09e	0.044144265
76	0x3d0f1b85	0.034938354
77	0x3d1cf765	0.03832187
78	0x3c8c265b	0.017108133
79	0xbd98eedd	-0.074674346
80	0x3d9d4560	0.07679248
81	0xbd3cd421	-0.04610074
82	0xbd514738	-0.05109331
83	0xbc266c9a	-0.010157729
84	0xbd7eba8f	-0.062189635
85	0x3d9fa2ea	0.07794745
86	0xbceb3cd5	-0.02871553
87	0xbc92a32f	-0.017900078
88	0x3db98b06	0.0905972
89	0x3c9a1804	0.01881028
90	0x3b5b4e9b	0.00334636
91	0x3ceeaa9d	0.02913409
92	0xbbd99548	-0.00664011
93	0x3da76010	0.08172619
94	0xbbe8deb4	-0.0071066264
95	0xbbb0a51c	-0.0053907763
96	0x3da7c2b0	0.081914306
97	0xbd68f77e	-0.056876652
98	0x3d552754	0.05203946
99	0xbd0b1590	-0.03395611
100	0xbbdd1eb5	-0.0067480453
101	0xbd79313f	-0.06083798
102	0x3bb02619	0.0053756353
103	0x3db90624	0.09034374
104	0x3d919624	0.07108715
105	0x3c804e05	0.015662203
106	0x3d2d1eda	0.04226575
107	0x3d897faa	0.06713803
108	0xbd2d1f3a	-0.042266108
109	0x3dbb1711	0.09135259
110	0xbd09900d	-0.033584643
111	0x3d18365e	0.037161224
112	0xbd23aeaa	-0.039961495
113	0xbd692677	-0.05692145
114	0xbc9ab0af	-0.018883077
115	0x3d00cc74	0.03144498
116	0x3d1d8156	0.038453422
117	0x3ca3176e	0.019908633
118	0xbd9a1620	-0.07523751
119	0x3cf16627	0.029467655
120	0x3b8fcc5e	0.004388376
121	0xbccd52ce	-0.025063898
122	0xbd6ebc7e	-0.05828523
123	0xbd0e4261	-0.034731273
124	0x3d96f4fe	0.07370947
125	0xbc6e2fe7	-0.014537788
126	0xbd663513	-0.05620296
127	0xbcb1125d	-0.021615202
128	0xbcb6c181	-0.022309067
129	0xbc90423c	-0.017609708
130	0x3d77dbc2	0.06051231
131	0xbd3d9b09	-0.04629043
132	0x3d644da7	0.055738118
133	0x3db27fb1	0.087157615
134	0xbd170c05	-0.036876697
135	0xbd466fb7	-0.048446383
136	0xbd8a2f8a	-0.067473486
137	0x3bc79b85	0.0060915374
138	0x3c6e9d2e	0.014563842
139	0xbc234772	-0.009965764
140	0x3b909c40	0.0044131577
141	0x3d7c237e	0.061557285
142	0x3da2fc75	0.079583086
143	0xbdaa20f8	-0.083070695
144	0xbd250cc3	-0.040295374
145	0xbd90e27e	-0.0707445
146	0xbd9bcbd3	-0.07607236
147	0xbc2dc762	-0.010606619
148	0xbd44dec1	-0.048063997
149	0x3d90befb	0.07067677
150	0x3d8e122b	0.06937059
151	0xbda4afee	-0.080413684
152	0x3d1a0713	0.037604403
153	0xbc1325ac	-0.00898115
154	0x3d5878e9	0.052849684
155	0x3d64b686	0.05583813
156	0x3d562cde	0.052288882
157	0x3da09cda	0.07842417
158	0x3d7a8c52	0.061168976
159	0xbd7e0c9c	-0.062023744
160	0xbcdc9f2a	-0.026931364
161	0x3cd9ba0a	0.026577968
162	0x3b15bd9d	0.0022848614
163	0xbd86d212	-0.065830365
164	0xbd9c3c06	-0.07628636
165	0xbb43901d	-0.0029840537
166	0x3d892312	0.06696142
167	0x3d8f168e	0.06986724
168	0x3d4a675f	0.04941499
169	0x3d940958	0.07228345
170	0xbd8c67c4	-0.06855729
171	0x3c0bbd48	0.008529015
172	0x3dae4126	0.0850852
173	0xbd977062	-0.07394482
174	0x3ca3ff11	0.020019086
175	0x3d5a96ef	0.053366598
176	0xbd5f3894	-0.054497316
177	0x3db0fa25	0.08641461
178	0x3d452b66	0.04813709
179	0xbd22bf42	-0.03973318
180	0xbd8f012e	-0.06982647
181	0xbd964341	-0.073370464
182	0x3d9122f1	0.07086743
183	0xbdb5fec8	-0.08886486
184	0xbd047e65	-0.0323471
185	0x3d2b95a5	0.04189076
186	0xbd2937dc	-0.041313037
187	0x3d87d279	0.06631941
188	0xbd68cb12	-0.056834288
189	0x3bda38eb	0.006659617
190	0x3d54f18e	0.051988177
191	0x3dafd706	0.08585934
192	0x3dafcb32	0.08583678
193	0x3ce22705	0.027606497
194	0x3d783106	0.060593627
195	0x3ccad970	0.024761885
196	0xbd4277c3	-0.047477495
197	0xbb6acd11	-0.0035827796
198	0x3c269812	0.010168092
199	0x3d2eb2a1	0.042650823
200	0xbd1f8fa2	-0.03895534
201	0x3d7da541	0.061925177
202	0x3cf3876f	0.029727666
203	0x3d010ad1	0.031504456
204	0xbdb62130	-0.08893049
205	0xbc8d00c4	-0.01721228
206	0xbd8064aa	-0.062692
207	0xbd1cf7f0	-0.03832239
208	0xbd9dfcb5	-0.07714216
209	0xbd7ab5b0	-0.061208427
210	0xbd59e82e	-0.05319994
211	0x3c93cb30	0.018041223
212	0xbd9b650b	-0.07587632
213	0x3cd8bbd3	0.026456749
214	0x3d0ac771	0.03388161
215	0x3d20f70a	0.039298095
216	0xbd56c53e	-0.0524342
217	0xbd834868	-0.06410295
218	0xbce8ec76	-0.028433066
219	0xbd53a5f1	-0.051671926
220	0xbd7f88ae	-0.062386207
221	0x3d63164e	0.055441193
222	0xbd886270	-0.066594005
223	0x3d94214a	0.07232912
224	0x3d8c0367	0.068365864
225	0xbbb70da7	-0.0055863443
226	0xbd84c5c3	-0.064830326
227	0xbd682fe2	-0.05668629
228	0xbd7f4ecc	-0.062331006
229	0x3b28e55c	0.0025771474
230	0xbb85f08e	-0.0040875142
231	0x3d844b21	0.06459642
232	0xbbb662a8	-0.00556596
233	0xbd8530c0	-0.06503439
234	0xbd86163d	-0.0654721
235	0xbbf04023	-0.0073318644
236	0x3d174709	0.03693298
237	0xbd538520	-0.05164063
238	0xbd7cb634	-0.0616972
239	0xbccf5940	-0.025311112
240	0x3d708c26	0.058727406
241	0xbceb035d	-0.028688127
242	0x3c84ff15	0.016234914
243	0xbd0b0e7f	-0.03394937
244	0xbd1723c5	-0.036899347
245	0x3d001e89	0.03127912
246	0xbd409dad	-0.04702537
247	0xbcd1576d	-0.025554383
248	0xbd946210	-0.072452664
249	0xbd1a5e2f	-0.037687477
250	0xbd76572f	-0.06014174
251	0x3d48e1f4	0.04904361
252	0x3d43ceb5	0.047804553
253	0x3da17834	0.07884255
254	0xbd6e6c55	-0.058208782
255	0xbd1f4d9e	-0.03889238

mlp.4.bias f4 [64]
0	0x3cb8b4ba	0.022547115
1	0x3c272280	0.010201097
2	0xbda2d95a	-0.07951613
3	0x3d5d39ac	0.05401008
4	0x3d261ef2	0.040556855
5	0xbd9653d1	-0.073402055
6	0x3d08bb04	0.033381477
7	0xbdafe76b	-0.08589061
8	0xbd557941	-0.05211759
9	0xbd714448	-0.05890301
10	0x3d99bebc	0.07507083
11	0x3d6a0ac7	0.057139184
12	0x3c8fe6e7	0.017566158
13	0xbbe62cd1	-0.0070243855
14	0xbd867e04	-0.06567004
15	0xbd773f38	-0.060363024
16	0xbd52f466	-0.051502608
17	0xbd99586a	-0.07487567
18	0x3da466ee	0.08027445
19	0x3d8bb55c	0.06821701
20	0xbd8030e4	-0.06259325
21	0xbd892bb8	-0.06697792
22	0xbbe74681	-0.0070579653
23	0xbcaaf705	-0.020869741
24	0x3ca37269	0.019952016
25	0xbd8720c0	-0.065980434
26	0xbd83b198	-0.06430358
27	0xbd1e1823	-0.038597237
28	0xbd16628b	-0.03671507
29	0xbb39f934	-0.0028377296
30	0xbd99536a	-0.07486613
31	0xbbb708f1	-0.0055857827
32	0xbc52ddf1	-0.012870298
33	0x3d92ea15	0.07173554
34	0x3ce25f67	0.027633382
35	0x3c3f431c	0.011673715
36	0x3d1f204c	0.03884916
37	0xbda06987	-0.07832628
38	0xbd6919ff	-0.056909557
39	0xbc714616	-0.014726182
40	0xbccfdded	-0.025374377
41	0x3da39c6f	0.07988822
42	0xbd72e9c6	-0.059304975
43	0x3d9e270f	0.077222936
44	0xbda8aa35	-0.082355894
45	0x3d955b43	0.072927974
46	0x3be9754a	0.0071245776
47	0xbd336bf8	-0.04380414
48	0x3d50cd3e	0.050976984
49	0x3cf73cec	0.030180417
50	0x3d0660fa	0.032807328
51	0x3ce449c1	0.0278672
52	0xbc65d9b0	-0.0140289515
53	0xbd460f6d	-0.048354555
54	0xbd92572f	-0.07145535
55	0x3bfa540e	0.0076394146
56	0x3d8df3bb	0.069312535
57	0xbd76a562	-0.060216315
58	0x3b2b3e92	0.0026129824
59	0x3d3326f8	0.043738335
60	0x3da6a569	0.08137018
61	0x3d330d03	0.04371358
62	0xbd365ba4	-0.04452099
63	0x3d58366a	0.05278627

mlp.5.weight f4 [64]
0	0x3f8056bd	1.002647
1	0x3f804adb	1.0022844
2	0x3f80839a	1.0040162
3	0x3f807565	1.0035826
4	0x3f7f635d	0.9976099
5	0x3f7f0bbc	0.9962728
6	0x3f804f32	1.0024168
7	0x3f801c5c	1.0008655
8	0x3f8085aa	1.0040791
9	0x3f7fc9f2	0.9991752
10	0x3f80884f	1.0041598
11	0x3f7f0baf	0.996272
12	0x3f7fc5d7	0.99911255
13	0x3f7f0e6a	0.9963137
14	0x3f80490d	1.0022293
15	0x3f7f285d	0.99670964
16	0x3f7f7660	0.9979
17	0x3f7fb28a	0.99881804
18	0x3f809183	1.0044407
19	0x3f7febe9	0.99969345
20	0x3f806a1a	1.003238
21	0x3f809ac5	1.0047232
22	0x3f808463	1.0040401
23	0x3f7ff333	0.9998047
24	0x3f7f12b7	0.9963793
25	0x3f808fb1	1.0043851
26	0x3f7f8e23	0.9982626
27	0x3f805f4a	1.002908
28	0x3f7f15ea	0.99642813
29	0x3f7f5d0a	0.9975134
30	0x3f801892	1.0007498
31	0x3f808190	1.0039539
32	0x3f8097d4	1.0046334
33	0x3f7f22ba	0.99662364
34	0x3f7fcf3b	0.99925584
35	0x3f807cf2	1.003813
36	0x3f805f75	1.0029131
37	0x3f8069f9	1.003234
38	0x3f7ef7c8	0.99596834
39	0x3f80175b	1.0007128
40	0x3f7fa348	0.9985852
41	0x3f807d89	1.003831
42	0x3f8066a5	1.0031325
43	0x3f7f4984	0.9972155
44	0x3f808169	1.0039493
45	0x3f7f5e85	0.997536
46	0x3f80393a	1.0017464
47	0x3f807dd1	1.0038396
48	0x3f8015ab	1.0006613
49	0x3f8072e0	1.0035057
50	0x3f7f6f33	0.9977905
51	0x3f7fe1db	0.99954003
52	0x3f8066ed	1.003141
53	0x3f7fc72d	0.99913293
54	0x3f7fe264	0.9995482
55	0x3f809603	1.004578
56	0x3f807e67	1.0038575
57	0x3f7f3596	0.9969114
58	0x3f80712b	1.0034536
59	0x3f7f1bd2	0.99651825
60	0x3f7f81f2	0.99807656
61	0x3f805e01	1.0028688
62	0x3f7f934f	0.9983415
63	0x3f807d16	1.0038173

mlp.5.bias f4 [64]
0	0x3b43e16b	0.0029888998
1	0x3b2917f2	0.0025801626
2	0x3b76abdd	0.003763906
3	0x3b6841b5	0.0035439555
4	0xbb3b356a	-0.0028565773
5	0xbb7d2cfb	-0.0038631547
6	0x3b427b15	0.0029675413
7	0x3b22d22a	0.0024844506
8	0x3b7d877c	0.0038685491
9	0x3a06fe76	0.0005149612
10	0x3b6d4cb5	0.003620905
11	0xbb83cea0	-0.0040224344
12	0xbb0b2e8d	-0.0021237463
13	0xbb66fc45	-0.003524558
14	0x3b40990e	0.0029388103
15	0xbb55b85d	-0.003261111
16	0xbb1307be	-0.0022435035
17	0xbae2fbad	-0.0017317437
18	0x3b794aef	0.0038039049
19	0xbaa984ad	-0.0012933217
20	0x3b474d93	0.0030411228
21	0x3b946031	0.0045280685
22	0x3b7f7b3f	0.0038983373
23	0xbacf829d	-0.0015831772
24	0xbb7123a2	-0.003679492
25	0x3b83b06b	0.0040188334
26	0xbad426ad	-0.0016185843
27	0x3b45300e	0.0030088457
28	0xbb5bce4f	-0.0033539718
29	0xbb38ed58	-0.002821764
30	0xb996425b	-0.00028659668
31	0x3b79ead0	0.0038134344
32	0x3b929c34	0.0044741873
33	0xbb5b0dd6	-0.0033424995
34	0xbb34b81c	-0.0027575558
35	0x3b5e5d96	0.0033930293
36	0x3b4a72f4	0.0030891271
37	0x3b3a276d	0.0028404847
38	0xbb7433de	-0.003726236
39	0xba152d17	-0.0005690618
40	0xbaad1552	-0.0013205206
41	0x3b533b2c	0.0032231314
42	0xbad3f662	-0.001617145
43	0xbb45a8f3	-0.0030160516
44	0x3b35e543	0.002775506
45	0xbb233ed0	-0.0024909265
46	0x3b055e2f	0.0020350327
47	0x3b62ec01	0.0034625533
48	0x3ab99101	0.0014157594
49	0x3b53bf89	0.0032310209
50	0xbb19b68b	-0.0023454751
51	0xbb157140	-0.0022803098
52	0x3b3682e9	0.0027849025
53	0x3adda17a	0.0016909086
54	0xbaa80516	-0.0012818899
55	0x3b8ba5cf	0.0042617093
56	0x3b3dc0a9	0.0028953946
57	0xbb519df5	-0.003198502
58	0x3b49dbd8	0.0030801203
59	0xbb63d2f5	-0.0034763191
60	0xbb27e973	-0.0025621324
61	0x3b50eb5b	0.0031878564
62	0xbb14d786	-0.002271147
63	0x3b78a2b2	0.003793877

mlp.8.weight f4 [2, 64]
0	0x3dc53a8a	0.09630306
1	0x3dfef9b4	0.12449971
2	0x3df9c585	0.12195877
3	0x3db5b297	0.08871954
4	0xbddaae5f	-0.1067779
5	0x3d52a7fa	0.051429726
6	0x3d9399f5	0.07207099
7	0x3ddca33f	0.10773324
8	0x3dc0560a	0.09391411
9	0x3d50ea75	0.051004846
10	0x3c7bc11d	0.015365866
11	0xbd1c25d5	-0.038122017
12	0xbd9cb980	-0.07652569
13	0xbdbba41c	-0.09162161
14	0x3bc83fd4	0.0061111245
15	0x3de9e109	0.11419875
16	0xbdc5c13a	-0.09655996
17	0x3c4b3dd5	0.012404879
18	0x3c12a091	0.008949415
19	0xbda2276b	-0.07917675
20	0x3d18e8fb	0.037331562
21	0x3d1655f5	0.03670307
22	0x3d9b9e5e	0.075985655
23	0xbdac3301	-0.08408166
24	0xbdabf238	-0.08395809
25	0x3db1f16b	0.08688625
26	0xbdb10434	-0.0864338
27	0x3ce104f1	0.027468177
28	0xbd9c9353	-0.07645287
29	0xbdbe063d	-0.092785336
30	0x3bc8503c	0.0061130803
31	0x3cf040ab	0.029327711
32	0x3d5cd7f5	0.05391689
33	0xbdac7474	-0.08420649
34	0xbded7f5a	-0.11596556
35	0x3d62bed0	0.055357754
36	0xbcb3e5c5	-0.021960149
37	0x3d904099	0.07043571
38	0x3d772c47	0.06034496
39	0xbdace5c7	-0.08442264
40	0x3d0b9f0d	0.03408723
41	0x3d1ee295	0.038790304
42	0xbcc0435f	-0.023469625
43	0xbd2ea54e	-0.042638116
44	0x3dd5e8e7	0.10444813
45	0xbdd835bf	-0.10557126
46	0x3d947aa4	0.07249954
47	0x3cdb8b2f	0.026799766
48	0x3dff8ef4	0.12478438
49	0x3d70546e	0.05867427
50	0xbdb9ca22	-0.09071757
51	0xbdac8aeb	-0.08424934
52	0xbc24c173	-0.0100558875
53	0x3dbc82e4	0.09204653
54	0xbde40e1a	-0.11135502
55	0xbd5971ed	-0.053087164
56	0x3d8657a0	0.06559682
57	0xbd3fca6c	-0.046823904
58	0x3c927047	0.017875804
59	0xbda75c0e	-0.08171855
60	0xbdecfd8b	-0.11571797
61	0x3dfba506	0.12287335
62	0xbdd28482	-0.1027918
63	0xbd9d8e9b	-0.076932155
64	0x3a14a5a6	0.00056704355
65	0x3dd242cc	0.10266647
66	0xbcee0204	-0.029053695
67	0xbd3c6731	-0.04599685
68	0xbda0de77	-0.07854932
69	0x3da81de7	0.082088284
70	0xbdca46fb	-0.0987682
71	0xbdb083b7	-0.086188726
72	0xbd7a2338	-0.061068743
73	0xbd191c25	-0.037380356
74	0xbddadd28	-0.106867135
75	0x3dc990d1	0.09842075
76	0x3df0703a	0.117401555
77	0xbd26af19	-0.04069433
78	0xbdcd1830	-0.10014379
79	0x3df60d67	0.12014275
80	0xbb3644a4	-0.002781191
81	0x3df4d1e3	0.11954095
82	0xbde102cf	-0.10986864
83	0xbd4050f6	-0.04695221
84	0xbc7656ad	-0.015035314
85	0x3b3e3384	0.0029022405
86	0x3d5f9757	0.05458769
87	0x3de4e531	0.11176527
88	0xbd8af8ea	-0.06785758
89	0x3d2f6c77	0.04282805
90	0xbc39c4c5	-0.011338417
91	0xbd86925a	-0.06570883
92	0x3ddfd6ca	0.1092964
93	0x3de84e93	0.11343112
94	0xbdf5204e	-0.11969052
95	0xbd09ad23	-0.03361238
96	0xbae3f9c9	-0.0017393167
97	0x3dc44254	0.095829636
98	0xbcc2f604	-0.02379895
99	0x3bf94792	0.007607409
100	0xbcf30e46	-0.029669892
101	0x3d0c8245	0.034303922
102	0x3dcc39c5	0.09971956
103	0xbc939735	-0.018016437
104	0x3d9db87b	0.077012025
105	0xbdb39c41	-0.087700374
106	0x3d1cd076	0.03828474
107	0x3b78c596	0.0037959567
108	0x3d8259a7	0.06364756
109	0xbcecb730	-0.028895944
110	0xbda5ff48	-0.08105332
111	0xbb04492c	-0.0020185215
112	0x3d4c29d5	0.04984458
113	0xbd8134d1	-0.06308902
114	0x3dea3dc4	0.11437562
115	0xbdb484c7	-0.08814388
116	0xbd1a0eb0	-0.037611663
117	0xbd80b832	-0.062851325
118	0xbd64f48a	-0.055897273
119	0xbd89ada3	-0.06722572
120	0x3d0de91c	0.03464614
121	0x3cab7325	0.020928929
122	0xbd5ed347	-0.05440071
123	0xbd9a7d98	-0.07543486
124	0xbde44393	-0.11145701
125	0x3de135b2	0.1099657
126	0x3c8444ea	0.016146142
127	0xbdd2f661	-0.10300899

mlp.8.bias f4 [2]
0	0x3d202b11	0.03910357
1	0x3d3545b9	0.044255946

exp_avg f4 [128, 140]
0	0x39ddc4e4	0.000422991
1	0x3b038954	0.0020070868
2	0xbb203119	-0.0024443327
3	0x3acc68c3	0.0015595186
4	0xb97fda16	-0.00024399938
5	0xba986123	-0.0011625629
6	0x3aef8146	0.0018272779
7	0x3b0b2fe9	0.0021238273
8	0x3b03891c	0.0020070737
9	0x3b5df236	0.0033866293
10	0x3b4efad6	0.0031582615
11	0xb7ea2b79	-2.7915217e-05
12	0x3b528dc9	0.0032127968
13	0x3b476600	0.0030425787
14	0x3b4f398e	0.0031619999
15	0x3b5189fe	0.003197312
16	0x3b4d1e4c	0.0031298576
17	0x36c4e6e8	5.868136e-06
18	0x3b4ee8b6	0.0031571812
19	0x38a7c0a7	7.999065e-05
20	0x3b3f4519	0.0029185473
21	0xba79c885	-0.0009528476
22	0x3b41770a	0.0029520416
23	0x3b3dc8f9	0.00289589
24	0x3b3edd87	0.002912374
25	0x3b4018ae	0.0029311585
26	0x3b3de2c2	0.002897427
27	0xba730f47	-0.0009271991
28	0x3b3f4386	0.0029184534
29	0xb9d87482	-0.00041285536
30	0x3a993610	0.0011689086
31	0xbb19426b	-0.0023385535
32	0x3b579879	0.0032897277
33	0xbb2ef303	-0.002669514
34	0xbb094cbe	-0.0020950283
35	0x3a8521a8	0.0010157125
36	0xba933322	-0.0011230449
37	0xbb492cef	-0.0030696949
38	0xbb194274	-0.0023385556
39	0xbadaf7e3	-0.0016705956
40	0x399b7fad	0.0002965903
41	0xba56058a	-0.00081642775
42	0x3ad0e6c6	0.0015937916
43	0xba596c59	-0.0008294038
44	0xb916ac4a	-0.00014369297
45	0xb8b5bd07	-8.665962e-05
46	0xb9638759	-0.00021698828
47	0xbaa1f381	-0.0012355895
48	0xba5590ea	-0.0008146899
49	0xba30f978	-0.0006751041
50	0x37400174	1.144443e-05
51	0xbb049c50	-0.002023477
52	0x3b0118f9	0.0019698723
53	0xbb065d02	-0.0020502214
54	0xb9c67a29	-0.0003785652
55	0x3ac356fc	0.0014903243
56	0xbabb4a61	-0.0014289134
57	0xbb0571f0	-0.0020362101
58	0xbb049c09	-0.0020234606
59	0xbadaa463	-0.0016681071
60	0x393cde48	0.00018011883
61	0xba221661	-0.0006183144
62	0x3985f35e	0.0002554906
63	0x391751e3	0.00014430987
64	0x393ba6fb	0.00017895915
65	0x394b01fe	0.00019360331
66	0x392c4c0a	0.00016431525
67	0xba31ec27	-0.00067872036
68	0x393c0c73	0.00017933715
69	0xb8a235d7	-7.7347904e-05
70	0xba36c2e3	-0.00069717894
71	0xba0bb822	-0.0005329867
72	0xba34495a	-0.00068773853
73	0xba380b9a	-0.0007020772
74	0xba36c1e8	-0.00069716433
75	0xba35919e	-0.00069263007
76	0xba383342	-0.0007026681
77	0xba13937d	-0.00056295824
78	0xba36c318	-0.000697182
79	0xba801070	-0.0009770524
80	0xb97e111f	-0.00024229706
81	0xba8a6fa7	-0.001056184
82	0x3a97af14	0.0011572563
83	0xba953417	-0.0011383322
84	0xb9eb70d5	-0.0004490676
85	0x39a1a53c	0.00030831422
86	0xb9a0b800	-0.0003065467
87	0xbaa1855b	-0.0012323068
88	0xba8a9296	-0.001057225
89	0xb8a2b14b	-7.757785e-05
90	0xb983513a	-0.00025046786
91	0xbb0006e8	-0.0019535366
92	0x3af1c31c	0.0018444988
93	0xbb00134b	-0.001954275
94	0x3984534e	0.0002523907
95	0x3a82271b	0.0009929867
96	0xba87fcf2	-0.0010375066
97	0xbb024ca9	-0.0019882119
98	0xbb000d41	-0.001953915
99	0xb9b4b6fc	-0.0003446861
100	0x39ee4d84	0.0004545265
101	0xba8f49fd	-0.0010932084
102	0x3aabf6f0	0.0013119858
103	0xba890b29	-0.0010455596
104	0x36638bbd	3.3906974e-06
105	0x3a0fd317	0.0005486472
106	0xba2e652a	-0.0006652648
107	0xba9f212e	-0.0012140626
108	0xba8f772e	-0.0010945552
109	0x36cdb94a	6.1310466e-06
110	0x3a8481ef	0.0010109524
111	0xbb231706	-0.002488555
112	0x3b236913	0.0024934455
113	0xbb355e2c	-0.002767454
114	0x398e4693	0.00027136932
115	0x3aa6cc88	0.001272575
116	0xbab29420	-0.0013624467
117	0xbb389b14	-0.0028168606
118	0xbb231c0e	-0.0024888548
119	0xba6d2a95	-0.0009047178
120	0x39066667	0.00012817384
121	0xba379f18	-0.0007004603
122	0x3a2ffc11	0.0006713281
123	0xbabf352e	-0.0014587992
124	0x3a72c65b	0.00092611247
125	0x39646c02	0.0002178401
126	0x3a2499ad	0.0006279003
127	0xba96ef74	-0.0011515454
128	0xba3740a9	-0.0006990531
129	0xb8b50afa	-8.632797e-05
130	0xba40b23e	-0.0007350779
131	0xbb14c745	-0.0022701782
132	0x3b358a4f	0.0027700847
133	0xbabd980d	-0.001446487
134	0xba999cac	-0.0011719665
135	0x3a78cca8	0.00094909454
136	0xbac1a363	-0.0014773424
137	0xbb180f5e	-0.002320252
138	0xbb14bc43	-0.002269522
139	0xba6a0a4b	-0.00089279254
140	0x3a197391	0.00058537076
141	0xba9bc778	-0.0011885008
142	0x3a91e8ef	0.0011132042
143	0xba0967ed	-0.00052416214
144	0xba564255	-0.00081733364
145	0x3ae574ca	0.0017506119
146	0xbaaf2827	-0.0013363407
147	0xba538de4	-0.00080701546
148	0xba9bc7e0	-0.0011885129
149	0xbaac6133	-0.0013151526
150	0xba9ce435	-0.0011969866
151	0xb963bb81	-0.00021718258
152	0xba9eaa8c	-0.001210527
153	0xba9afe42	-0.0011825042
154	0xba9cab5e	-0.0011952927
155	0xba9e4aaa	-0.0012076695
156	0xba9ba62d	-0.0011875086
157	0xb9a74fa1	-0.0003191205
158	0xba9ce166	-0.001196903
159	0xba187ea3	-0.000581721
160	0xba822f55	-0.0009932319
161	0xb9c360ca	-0.00037265412
162	0xba7a4420	-0.00095468946
163	0xba866bab	-0.0010255476
164	0xba827d5f	-0.0009955576
165	0xba7f1d16	-0.0009731812
166	0xba84a9eb	-0.001012144
167	0xb9bbcbf2	-0.0003581937
168	0xba823259	-0.0009933218
169	0xb9428d9a	-0.00018554032
170	0x393d183e	0.00018033475
171	0x3aa7ab3b	0.001279212
172	0xbaafb5dd	-0.001340564
173	0x3a8e0adf	0.001083698
174	0x3a6bc7b5	0.0008994297
175	0xbaa5f0f6	-0.0012660313
176	0x3abf7ddb	0.0014609651
177	0x3aa3b4d5	0.0012489805
178	0x3aa7ab68	0.0012792172
179	0x3aa94c00	0.0012916327
180	0xb9cccca2	-0.00039062375
181	0x3a46104b	0.00075555284
182	0xba155369	-0.0005696328
183	0x3a2f6b3e	0.00066917005
184	0xba6e7ed6	-0.00090978795
185	0xb9d64d97	-0.0004087507
186	0x3a190a76	0.00058380456
187	0x3a2b4ee2	0.0006534887
188	0x3a458634	0.00075349514
189	0x381c7c13	3.730885e-05
190	0xb91c6079	-0.00014913258
191	0x38d273cd	0.0001003515
192	0x3931eda9	0.0001696857
193	0xb918aaea	-0.0001455952
194	0xba442510	-0.00074823294
195	0xb90f3f17	-0.00013661046
196	0x38744fc8	5.8248435e-05
197	0xb92838ea	-0.0001604293
198	0x38d27131	0.00010034664
199	0xb8245453	-3.917918e-05
200	0xb8b8f26c	-8.818958e-05
201	0x37b35d19	2.1381815e-05
202	0xb8dcf6c4	-0.00010536381
203	0xb8afe7eb	-8.387848e-05
204	0xb8bb1018	-8.9198526e-05
205	0xb8b7a270	-8.756376e-05
206	0xb8b8dc2c	-8.814814e-05
207	0x38bb127a	8.9202964e-05
208	0xb8b991ea	-8.848666e-05
209	0x38e06a32	0.00010700933
210	0xb9645d00	-0.0002177842
211	0xb6871084	-4.025236e-06
212	0xb96b346f	-0.0002243088
213	0xb961ab5a	-0.00021521506
214	0xb961e9e2	-0.000215448
215	0xb965f36a	-0.0002192982
216	0xb964d481	-0.00021822938
217	0x39a0f40b	0.00030699404
218	0xb9645cea	-0.00021778388
219	0x39fe6f2d	0.00048529488
220	0xb8685c6e	-5.5399192e-05
221	0x38a43ed2	7.8318306e-05
222	0xb9d1a51f	-0.0003998661
223	0x3936f902	0.00017449635
224	0xb91f601c	-0.00015199225
225	0x3a6b76eb	0.0008982259
226	0xba769538	-0.00094063906
227	0x39a3d9e1	0.00031252115
228	0x38a3c1d4	7.808549e-05
229	0xb93d8c1e	-0.00018076642
230	0x39018887	0.00012353259
231	0x3ab72fdc	0.0013976055
232	0xba83da2b	-0.0010059526
233	0x3a974807	0.0011541852
234	0x39a0e39f	0.0003068717
235	0xba9aaa4a	-0.0011800018
236	0x3a7d2b44	0.0009657631
237	0x3a9465c1	0.0011321829
238	0x3ab746dd	0.0013982911
239	0x3a8e80e7	0.0010872156
240	0xb9f491bc	-0.00046647887
241	0x3a6d333e	0.0009048468
242	0xba6e7a8f	-0.0009097242
243	0x3a57b388	0.00082283514
244	0xb9481375	-0.00019080735
245	0xba0aeed3	-0.000529987
246	0x39a4b307	0.00031413903
247	0x3a6cf298	0.0009038835
248	0x3a6d0f28	0.0009043091
249	0x3a415add	0.00073759054
250	0xb83f1d7f	-4.556542e-05
251	0x3acc0559	0.0015565559
252	0xbab67a9c	-0.0013922038
253	0x3aa6f84c	0.0012738793
254	0x39a58ef2	0.00031577755
255	0xbaa12285	-0.0012293613

exp_avg_sq f4 [128, 140]
0	0x33c1202a	8.9931135e-08
1	0x34129efe	1.365515e-07
2	0x343e3100	1.7712955e-07
3	0x3405089a	1.238972e-07
4	0x33e4a9c2	1.0647956e-07
5	0x33b50d34	8.430871e-08
6	0x3445aafb	1.8409257e-07
7	0x343b72c9	1.7457491e-07
8	0x34129eca	1.3655077e-07
9	0x34a2bc2e	3.031177e-07
10	0x34baf7c2	3.4825467e-07
11	0x32502afe	1.2116969e-08
12	0x34c1bc92	3.6086254e-07
13	0x34ad451e	3.227405e-07
14	0x34bbdbfa	3.4991518e-07
15	0x34bfaaf1	3.57009e-07
16	0x34b77d21	3.417745e-07
17	0x3253d691	1.2330603e-08
18	0x34bad5ac	3.4800667e-07
19	0x32075159	7.8765305e-09
20	0x3488589c	2.5396446e-07
21	0x33305512	4.1055564e-08
22	0x348b5393	2.5951576e-07
23	0x3485d27b	2.4926325e-07
24	0x3487e9b0	2.531574e-07
25	0x348983e5	2.5614204e-07
26	0x34867152	2.5041896e-07
27	0x333211af	4.1459938e-08
28	0x34885756	2.539552e-07
29	0x329c2fb8	1.818249e-08
30	0x33b5c505	8.464307e-08
31	0x34c07254	3.5845972e-07
32	0x34d887e4	4.033201e-07
33	0x34c1bf62	3.60883e-07
34	0x3433151e	1.6678356e-07
35	0x349dbed8	2.9382386e-07
36	0x349f3a2d	2.9658386e-07
37	0x34d3d839	3.9459135e-07
38	0x34c07274	3.5846062e-07
39	0x349c726d	2.914052e-07
40	0x333738d1	4.2659682e-08
41	0x33dee383	1.0379065e-07
42	0x341a4ba3	1.4369884e-07
43	0x340a5332	1.2882518e-07
44	0x332676a3	3.8757786e-08
45	0x330bdfd2	3.2567023e-08
46	0x336bd168	5.4905655e-08
47	0x341581cd	1.3923928e-07
48	0x33df353a	1.03939286e-07
49	0x33c0a00d	8.96981e-08
50	0x3352106e	4.8909378e-08
51	0x34056a2c	1.2425215e-07
52	0x34159b2d	1.3933159e-07
53	0x340d3fbb	1.3154833e-07
54	0x33732537	5.6611693e-08
55	0x33933667	6.855117e-08
56	0x33886c78	6.352724e-08
57	0x34145a15	1.3816346e-07
58	0x340569a9	1.2425029e-07
59	0x33b100ef	8.2423746e-08
60	0x33649591	5.3221417e-08
61	0x33c7401f	9.278323e-08
62	0x336a8be7	5.460961e-08
63	0x33675189	5.3858034e-08
64	0x3362235e	5.265189e-08
65	0x3361e343	5.2593588e-08
66	0x3366c78b	5.373253e-08
67	0x3396ce56	7.0224516e-08
68	0x3364a39e	5.3234196e-08
69	0x338a8455	6.450197e-08
70	0x331578f6	3.480178e-08
71	0x33853474	6.202836e-08
72	0x3313e55b	3.4434702e-08
73	0x33164d1c	3.4994727e-08
74	0x3315ff67	3.4924053e-08
75	0x3314d493	3.465227e-08
76	0x3315edec	3.4908155e-08
77	0x334bceeb	4.745281e-08
78	0x3315790e	3.4801865e-08
79	0x33edc71f	1.10723924e-07
80	0x33527d90	4.9008634e-08
81	0x33a50724	7.68471e-08
82	0x33a186d6	7.521673e-08
83	0x3382a60b	6.0838e-08
84	0x33ba143c	8.6649806e-08
85	0x3385709d	6.2137794e-08
86	0x33b26924	8.307896e-08
87	0x33a16f36	7.517376e-08
88	0x33a4fe9a	7.683157e-08
89	0x338007dd	5.961895e-08
90	0x32bab1a4	2.1734031e-08
91	0x3462171a	2.1056294e-07
92	0x345c5b15	2.0522232e-07
93	0x3452ba26	1.9625494e-07
94	0x33124022	3.4051602e-08
95	0x33cebba7	9.626756e-08
96	0x33ff0139	1.1874585e-07
97	0x3466882b	2.1469957e-07
98	0x3462234b	2.106073e-07
99	0x340863df	1.270232e-07
100	0x3358e523	5.0499818e-08
101	0x339ec54d	7.393337e-08
102	0x33a31446	7.593967e-08
103	0x33a1e955	7.5395896e-08
104	0x33c77440	9.2878054e-08
105	0x335390ff	4.925914e-08
106	0x33578cea	5.018675e-08
107	0x33aa13dd	7.919855e-08
108	0x339ed6d2	7.396524e-08
109	0x33a83016	7.8318564e-08
110	0x33b6fdd8	8.521209e-08
111	0x34adf9d4	3.2405535e-07
112	0x349f3d78	2.9660782e-07
113	0x34dc11a9	4.0991043e-07
114	0x33259d21	3.8559964e-08
115	0x3422a4cc	1.5147378e-07
116	0x340c48af	1.3064958e-07
117	0x34d2e839	3.9284512e-07
118	0x34ae07db	3.241574e-07
119	0x343ff89f	1.7878709e-07
120	0x33155d52	3.477664e-08
121	0x340e2643	1.32387e-07
122	0x340e9415	1.3278652e-07
123	0x3467defa	2.159467e-07
124	0x335230fe	4.8938993e-08
125	0x33134ba9	3.4294917e-08
126	0x33934e06	6.859413e-08
127	0x344d021d	1.9092882e-07
128	0x340e1d2e	1.3235396e-07
129	0x3409e9fa	1.284424e-07
130	0x338cd766	6.558439e-08
131	0x34a3ac30	3.04864e-07
132	0x34c2cd8f	3.628488e-07
133	0x3460210a	2.0873645e-07
134	0x335940ae	5.0583076e-08
135	0x34025076	1.2136465e-07
136	0x341c33d5	1.4547489e-07
137	0x34a7ed84	3.127899e-07
138	0x34a38d26	3.0463815e-07
139	0x3431b86d	1.6551503e-07
140	0x33be4d78	8.861656e-08
141	0x33f32715	1.1322678e-07
142	0x34107879	1.3454873e-07
143	0x3373d7e7	5.677421e-08
144	0x3324bc68	3.835558e-08
145	0x342bd297	1.6002228e-07
146	0x34066996	1.2518134e-07
147	0x33c96b12	9.379268e-08
148	0x33f32754	1.1322723e-07
149	0x34027973	1.2151376e-07
150	0x33626c85	5.2718423e-08
151	0x327c482d	1.4684741e-08
152	0x3363c5d1	5.303247e-08
153	0x335e33c2	5.1735476e-08
154	0x3362d504	5.2813462e-08
155	0x3364000e	5.3085436e-08
156	0x3361182e	5.2408886e-08
157	0x328deec8	1.6523146e-08
158	0x3362764c	5.2727316e-08
159	0x32e3a7e6	2.650263e-08
160	0x33b83ab6	8.578847e-08
161	0x31f0ebb8	7.0117174e-09
162	0x33b443da	8.394245e-08
163	0x33bbdc68	8.747958e-08
164	0x33b7cbe0	8.558686e-08
165	0x33b5a4ee	8.45847e-08
166	0x33ba3bac	8.672154e-08
167	0x31e722ce	6.7269417e-09
168	0x33b8406b	8.579885e-08
169	0x31330d17	2.605537e-09
170	0x3399cc41	7.161771e-08
171	0x339a2f1f	7.179755e-08
172	0x339d9e8c	7.339722e-08
173	0x336f813d	5.5764065e-08
174	0x333f5f1e	4.455716e-08
175	0x33951184	6.941539e-08
176	0x33a6bfd9	7.764874e-08
177	0x338d273c	6.572961e-08
178	0x339a2f5e	7.1798e-08
179	0x338fc5a4	6.694907e-08
180	0x3394c1b3	6.927021e-08
181	0x33a4d454	7.6754674e-08
182	0x33fea479	1.1857714e-07
183	0x33607335	5.2258844e-08
184	0x33548dd8	4.9489103e-08
185	0x332cd1b1	4.0237584e-08
186	0x34001dcb	1.1931768e-07
187	0x33b46209	8.399736e-08
188	0x33a51505	7.687235e-08
189	0x33ad193f	8.0605325e-08
190	0x32c99503	2.3467242e-08
191	0x338268a4	6.072631e-08
192	0x334f3271	4.824182e-08
193	0x338536d5	6.203269e-08
194	0x33ad5bb4	8.072621e-08
195	0x33722377	5.637727e-08
196	0x3352883d	4.9018343e-08
197	0x336fbc90	5.581802e-08
198	0x33826806	6.0725185e-08
199	0x3380f539	6.00507e-08
200	0x32f0f8b0	2.8052767e-08
201	0x32bcf337	2.1996682e-08
202	0x32fcb22e	2.9417688e-08
203	0x32f7809e	2.8813073e-08
204	0x32eed138	2.7801988e-08
205	0x32ed8e88	2.7655247e-08
206	0x32f21076	2.8179993e-08
207	0x32c12a60	2.2487427e-08
208	0x32f0fa6e	2.805356e-08
209	0x32a0059b	1.8629e-08
210	0x3385b8ba	6.226897e-08
211	0x32266d12	9.687271e-09
212	0x33850d9e	6.195772e-08
213	0x3385ef28	6.2367974e-08
214	0x3385eef4	6.2367604e-08
215	0x3385b6c1	6.226538e-08
216	0x33859dd6	6.222005e-08
217	0x3297b779	1.7662147e-08
218	0x3385b8d9	6.226919e-08
219	0x3380d370	5.998925e-08
220	0x32d4ef6f	2.478893e-08
221	0x33839888	6.127908e-08
222	0x339cf359	7.308581e-08
223	0x335f4625	5.198503e-08
224	0x33f2dc26	1.1309048e-07
225	0x33a6921a	7.756553e-08
226	0x339c8723	7.288897e-08
227	0x338e9771	6.639937e-08
228	0x338369f1	6.1194335e-08
229	0x338cdcf4	6.559449e-08
230	0x3308d7ac	3.186112e-08
231	0x33af0223	8.149461e-08
232	0x33b14fe4	8.256737e-08
233	0x3388e691	6.374933e-08
234	0x329a0b0f	1.7932988e-08
235	0x334ccc29	4.7683134e-08
236	0x33543a6b	4.9413227e-08
237	0x33a00aff	7.452581e-08
238	0x33af269c	8.1560955e-08
239	0x336ae5a6	5.4691235e-08
240	0x33076b82	3.1529915e-08
241	0x33dbb13e	1.02302224e-07
242	0x33e5c328	1.0699142e-07
243	0x33cba727	9.483329e-08
244	0x337e6621	5.923187e-08
245	0x338123dc	6.0135534e-08
246	0x33b281d6	8.312388e-08
247	0x33e7c442	1.0792475e-07
248	0x33db943c	1.0224946e-07
249	0x33c9480d	9.372898e-08
250	0x332134be	3.7533702e-08
251	0x33e81724	1.0807551e-07
252	0x33c2987d	9.0615664e-08
253	0x339f61dc	7.421815e-08
254	0x33082512	3.1698683e-08
255	0x339a6b2c	7.190678e-08

exp_avg f4 [128]
0	0x3a335433	0.0006840855
1	0x39e51c84	0.0004369953
2	0xbacc1eb2	-0.0015573113
3	0x3b11ea83	0.0022265024
4	0xbbe19a22	-0.006884829
5	0xbafd0310	-0.0019303281
6	0xba833051	-0.0010008906
7	0xbc1b1815	-0.009466191
8	0x39cd67bb	0.00039177932
9	0xba38b475	-0.0007045933
10	0xbb4d57ae	-0.0031332779
11	0x3b8b3862	0.0042486647
12	0x3b19f4c3	0.0023491837
13	0xbb12d439	-0.0022404327
14	0x3b0ce796	0.002150034
15	0xba765325	-0.0009396545
16	0xbaab327a	-0.0013061308
17	0x39c25957	0.00037069127
18	0x3a360d04	0.00069446885
19	0xb9d7035f	-0.00041010507
20	0x39dd5d01	0.00042221698
21	0xbb0ed7e2	-0.0021796157
22	0x3ad95bee	0.0016583183
23	0xba71a6a8	-0.0009218254
24	0xba96d2de	-0.0011506935
25	0x3a9ea66f	0.0012104044
26	0xb722039c	-9.656793e-06
27	0x3a4b18ec	0.0007747549
28	0xbb0c2126	-0.0021382063
29	0x3b86f44c	0.004118478
30	0x3a23426f	0.0006227856
31	0x3b1ddf91	0.0024089555
32	0xbb8eacac	-0.00435408
33	0xb9ece8c3	-0.0004518685
34	0x3aa95a6b	0.0012920623
35	0x396baca3	0.00022475659
36	0x3b3a0e69	0.0028389937
37	0x3a9649b9	0.0011466063
38	0x3b344bed	0.0027511076
39	0x3b72dadb	0.0037056718
40	0x3a01b6ae	0.0004948181
41	0x3b05a0e0	0.0020390078
42	0x3913cb0f	0.00014094658
43	0x3a3233cb	0.0006797879
44	0x3a6dd1f1	0.0009072116
45	0x39437041	0.00018638467
46	0xbb049bc1	-0.0020234438
47	0xbad7894f	-0.0016444119
48	0x3ab7027c	0.0013962532
49	0xbb4ec460	-0.0031550154
50	0x3b8607b0	0.004090272
51	0x3ac9d737	0.0015399222
52	0x3b4cfd50	0.0031278916
53	0x39105743	0.00013765418
54	0x3b03c30f	0.0020105278
55	0x3b09f13b	0.0021048326
56	0xbb75ebe6	-0.003752464
57	0x3b0ddc52	0.0021646214
58	0xba2d2047	-0.0006604236
59	0x3a89502a	0.0010476161
60	0xb9f79ee1	-0.00047229885
61	0x3af8dd0f	0.0018986779
62	0xba7b64de	-0.00095899205
63	0x3b847096	0.0040417416
64	0xb8862ca1	-6.397931e-05
65	0x381985b5	3.6602567e-05
66	0x3aaba80a	0.0013096344
67	0x3b004134	0.0019570114
68	0xbaca4e9f	-0.0015434808
69	0xba406eca	-0.00073407276
70	0x3ab6a68a	0.001393513
71	0x3a823a10	0.0009935517
72	0x3b14656e	0.0022643465
73	0xbb3cf26c	-0.0028831018
74	0xb9dd441a	-0.00042203144
75	0xba23bc77	-0.000624604
76	0x3a71d83a	0.00092256407
77	0x3a8da25b	0.0010805832
78	0xbb02911c	-0.0019922918
79	0xba27ae80	-0.0006396547
80	0x3a279ce7	0.00063939247
81	0xba49ec6f	-0.0007702773
82	0x398d1235	0.0002690718
83	0x3b3de9a1	0.0028978365
84	0x3aa6b785	0.0012719488
85	0xbabb48fc	-0.0014288719
86	0x39d9d632	0.00041549053
87	0x3a4b6932	0.0007759511
88	0x3a28fe0b	0.0006446547
89	0xbaec4dc2	-0.0018028545
90	0xba905bc7	-0.001101368
91	0xbb59b100	-0.0033217072
92	0xba9b6778	-0.0011856398
93	0x3ad972c9	0.0016589995
94	0xb9647a86	-0.00021789418
95	0xbb1b23b5	-0.0023672406
96	0x3acc65c2	0.0015594291
97	0x3b0ea4de	0.002176575
98	0xba76ab73	-0.0009409703
99	0xbaa2c06d	-0.0012416966
100	0xba1cb79e	-0.0005978289
101	0xbab5fe89	-0.0013885061
102	0x3b2592ed	0.0025264577
103	0xb8ca44e7	-9.644945e-05
104	0xbaa0693f	-0.0012238397
105	0x3a2ac349	0.0006514085
106	0x38097e4e	3.2780976e-05
107	0x3b2d9315	0.0026485373
108	0x38b981eb	8.8456865e-05
109	0xbac80f61	-0.0015263372
110	0x39fc2e82	0.00048099837
111	0x3a83d0d1	0.0010056739
112	0xba62c186	-0.0008650053
113	0x3ae3b602	0.0017372968
114	0xbaecdb2c	-0.0018070689
115	0x3a1b8cc1	0.0005933755
116	0x3a8608e0	0.0010226034
117	0xb919d849	-0.0001467179
118	0xba221050	-0.00061822403
119	0xbb748e8f	-0.0037316417
120	0xbb643327	-0.0034820528
121	0x3a1f2a9b	0.00060717174
122	0xb99f0f13	-0.00030338074
123	0x3aabacdd	0.0013097782
124	0x3a3c7720	0.0007189382
125	0xbb4f5884	-0.0031638453
126	0xbad4800c	-0.0016212477
127	0xbb4cd86e	-0.0031256932
