results/fl/wesad/seed_456/best_model.pth (torch, 112693 bytes, 10 tensors)

mlp.0.weight f4 [128, 140]
0.031646155 -0.08887594 0.04855109 0.04734749 0.009705986 0.035531938 0.07324977 -0.08771518
-0.062349007 0.01096056 0.016749894 0.059037127 0.031901594 -0.0825123 -0.037156373 -0.03938143
-0.032412577 -0.06785191 -0.018706655 0.004345106 0.005401146 0.055464633 0.021677839 -0.012572166
-0.020317148 -0.0054167206 -0.017439164 0.0026623304 0.044936337 -0.08778983 -0.079507515 0.043346975
0.068424694 0.047804818 -0.025207343 0.028961886 -0.058542054 0.04410308 -0.04499781 0.020842953
-0.027979461 -0.052192546 -0.04483569 0.06487347 -0.052286796 0.0036703101 -0.06976357 0.06584432
-0.05621422 0.06939258 -0.018421315 0.0063672275 0.07379167 0.06335662 -0.004702081 -0.02949317
-0.040061537 -0.0463073 -0.0037404401 0.007545309 0.025499467 0.07593187 -0.067900866 -0.024333598
0.0343678 -0.06989392 0.020301314 -0.005590117 -0.052006736 -0.07088163 0.07077987 -0.0022791366
0.050088346 -0.074718915 0.008846999 -0.051918 -0.07471705 -0.04825904 0.04023439 0.07371698
0.010551236 -0.05902965 -0.043605156 0.07226708 -0.029818352 -0.053513244 -0.013004887 -0.03806665
0.013777336 -0.0015890888 -0.06291839 -0.050456602 0.06712003 0.076921836 -0.035971824 -0.010041667
0.06474582 -0.071025416 0.030613929 -0.0031569595 0.041539975 0.07466106 0.07458278 0.06361877
0.051080056 -0.071916774 0.047824405 0.023750657 0.04132444 -0.0016753712 -0.0049086255 -0.06035637
-0.043898772 -0.012310625 -0.0038859535 0.053466983 0.036341492 -0.006627374 -0.009789987 0.02448502
-0.025927767 -0.04214594 -0.055836953 0.0014134928 0.07409621 -0.074278094 0.039098978 -0.0010270161
0.031790495 -0.07361128 -0.041453447 -0.06938914 -0.0018914819 -0.03014985 -0.001632496 0.08118992
-0.0008103875 -0.006136537 -0.019133195 0.049309283 0.0848226 0.0009801943 0.008730027 -0.0090582855
-0.014677494 0.061393302 0.020953268 -0.050793476 0.034909036 0.02670555 -0.07165235 -0.03022895
0.01639442 0.040821645 -0.027232382 -0.059781525 0.07398287 -0.03421513 -0.05491297 -0.013450458
0.059855968 -0.034712434 0.059782058 -0.07366011 0.07837305 -0.05878113 0.07108161 0.04986993
-0.038508635 -0.043558802 0.008164502 0.040910445 0.009922557 -0.014729095 0.0068788626 0.0027388423
0.02445517 -0.006106901 -0.06744547 -0.01483773 0.04402416 -0.070363894 0.054848865 -0.017628623
0.0662376 -0.00042753073 0.044773996 0.0027377042 -0.055325046 0.037679702 -0.06434819 -0.051656455
-0.026419954 -0.0626244 -0.0063346084 0.026765756 -0.031265624 0.061127663 0.060340844 -0.038964286
-0.071572185 0.02029066 -0.06881963 -0.061070427 -0.00482021 -0.022634925 -0.019208077 0.0052190577
0.059162118 0.053375226 0.06453571 -0.0067514256 0.023744084 -0.031614777 -0.052224763 0.040637244
0.029032238 0.0072537614 0.030632462 0.08640984 -0.06257475 0.021553313 -0.06400525 0.047213636
-0.07766256 0.077045284 0.04559086 -0.06256257 -0.012058883 0.045483664 -0.05999604 -0.048161924
0.017663531 0.052930523 -0.052803453 -0.017511647 -0.07753807 0.061408754 0.081581466 0.044884946
-0.034252297 -0.029855818 -0.021087613 -0.027618645 0.062358413 0.032403465 -0.080963664 -0.042076766
0.079246365 -0.015383335 -0.041361444 -0.027869655 0.043815836 0.08249369 -0.041472223 -0.039493177
00000000: 669f 013d 9704 b6bd 82dd 463d 71ef 413d
00000010: db05 1f3c f089 113d fa03 963d 04a4 b3bd
00000020: ac61 7fbd ec93 333c 1337 893c ead0 713d
00000030: 3fab 023d 35fc a8bd 4831 18bd 6c4e 21bd
00000040: 0dc3 04bd f1f5 8abd b33e 99bc 6461 8e3b
00000050: 19fc b03b e22e 633d b995 b13c 7cfb 4dbc
00000060: 2670 a6bc bf7e b1bb 94dc 8ebc 7e7a 2e3b
00000070: 2a0f 383d 28cb b3bd d6d4 a2bd 998c 313d
00000080: 3f22 8c3d fcce 433d a17f cebc 7a41 ed3c
00000090: cbc9 6fbd 6ea5 343d a04f 38bd d7be aa3c
000000a0: 2f35 e5bc dac7 55bd a1a5 37bd 62dc 843d
000000b0: ae2a 56bd 9689 703b 34e0 8ebd 63d9 863d
000000c0: e240 66bd b21d 8e3d 4ce8 96bc 2da4 d03b
000000d0: 1620 973d 1ec1 813d ea13 9abb a99b f1bc
000000e0: 9117 24bd b9ac 3dbd 2c22 75bb a43e f73b
000000f0: 42e4 d03c 2b82 9b3d 9c0f 8bbd 4157 c7bc
00000100: 40c5 0c3d 8b24 8fbd f14e a63c 4d2d b7bb
00000110: 0405 55bd 632a 91bd 09f5 903d 915d 15bb
00000120: 7029 4d3d 3b06 99bd 01f3 103c f8a7 54bd
00000130: 4105 99bd 45ab 45bd d1cc 243d eef8 963d
00000140: 17df 2c3c 13c9 71bd 529b 32bd c300 943d
00000150: 9e45 f4bc b430 5bbd 7312 55bc c7eb 1bbd
00000160: 56ba 613c f948 d0ba 5bdb 80bd 95ab 4ebd
00000170: 3a76 893d 3289 9d3d 3157 13bd ce85 24bc
00000180: 7599 843d c675 91bd 10ca fa3c fee4 4ebb
00000190: d225 2a3d e6e7 983d dbbe 983d 8f4a 823d
000001a0: 5239 513d 1a49 93bd 86e3 433d bd90 c23c
000001b0: d143 293d 2198 dbba 89d8 a0bb 3e38 77bd
000001c0: 33cf 33bd 81b2 49bc 7bab 7ebb 3200 5b3d
000001d0: d1da 143d 712a d9bb 2e66 20bc cf94 c83c
000001e0: 7866 d4bc 39a1 2cbd 4ab5 64bd f344 b93a
000001f0: c1bf 973d 1d1f 98bd 4026 203d f19c 86ba
00000200: c036 023d 83c1 96bd 17cb 29bd e51b 8ebd
00000210: 9aeb f7ba d1fc f6bc 7af9 d5ba e746 a63d
00000220: 2f70 54ba 0115 c9bb 38bd 9cbc 88f8 493d
00000230: 79b7 ad3d dd79 803a 6308 0f3c 3469 14bc
00000240: df79 70bc 8b77 7b3d 30a6 ab3c d20c 50bd
00000250: c7fc 0e3d 99c5 da3c 78be 92bd b4a2 f7bc
00000260: 974d 863c 9934 273d 7216 dfbc 79dd 74bd
00000270: 5584 973d 2a25 0cbd 6cec 60bd 4f5f 5cbc
00000280: 882b 753d a02e 0ebd 08de 743d 1ddb 96bd
00000290: 0d82 a03d 7bc4 70bd 3c93 913d 6944 4c3d
000002a0: 3bbb 1dbd b76a 32bd 67c4 053c b691 273d
000002b0: 3892 223c 4d52 71bc 1568 e13b 267e 333b
000002c0: 3556 c83c 661c c8bb da20 8abd f319 73bc
000002d0: ad52 343d f21a 90bd 34a9 603d e769 90bc
000002e0: 94a7 873d 3426 e0b9 f064 373d 0e6b 333b
000002f0: 849c 62bd 0856 1a3d fcc8 83bd b895 53bd
00000300: a96e d8bc 3941 80bd 8c92 cfbb dc43 db3c
00000310: 6210 00bd 0061 7a3d f627 773d 0499 1fbd
00000320: 7094 92bd 9938 a63c 4ef1 8cbd fc24 7abd
00000330: daf2 9dbb e16c b9bc 425a 9dbc a104 ab3b
00000340: fa53 723d fb9f 5a3d 4c2b 843d 103b ddbb
00000350: f482 c23c 7f7e 01bd a2e9 55bd 3d73 263d
00000360: 04d5 ed3c f6b0 ed3b eef0 fa3c a4f7 b03d
00000370: 3127 80bd 9390 b03c 2f15 83bd 1663 413d
00000380: 8c0d 9fbd ebc9 9d3d 7bbd 3a3d ce20 80bd
00000390: 9f92 45bc 144d 3a3d 68be 75bd 7045 45bd
000003a0: 1cb3 903c adcd 583d 6f48 58bd 9674 8fbc
000003b0: 48cc 9ebd bf87 7b3d 2f14 a73d 47d9 373d
000003c0: 234c 0cbd 3094 f4bc eebf acbc 7f40 e2bc
000003d0: 896b 7f3d 7fb9 043d 47d0 a5bd b058 2cbd
000003e0: eb4b a23d 620a 7cbc 9e6a 29bd e74e e4bc
000003f0: 3c78 333d 74f2 a83d c7de 29bd 99c3 21bd

mlp.0.bias f4 [128]
-0.06330063 0.041484036 -0.008312373 -0.0062070265 0.05811552 -0.027044974 -0.0699913 -0.06629177
-0.038250484 0.038595174 -0.012762565 -0.021798646 0.061656702 -0.06995209 -0.0045616543 -0.07813131
0.03995722 -0.0076559624 -0.012213713 -0.02389898 -0.024450209 -0.024924489 -0.0036674915 -0.019971771
-0.0697879 -0.0019364037 0.06593011 0.06706976 -0.06954723 0.08154185 -0.07358919 -0.03475077
0.037735756 -0.08191745 -0.039971363 -0.07642469 -0.056174543 0.08460323 -0.0066602468 0.03634028
0.030039674 0.069313824 0.013981981 0.058167167 0.037802618 0.019571934 -0.047195036 -0.024017248
0.0062822364 -0.0024730896 -0.051682577 -0.05512924 -0.00016534475 -0.04282068 0.021583261 -0.023621418
-0.06894147 -0.082985036 -0.03325112 0.0428536 -0.049084116 0.017359734 -0.03839532 -0.046181716
0.05507805 0.061824396 -0.005476748 0.002383439 -0.022752116 -0.033129774 0.035154413 -0.026501663
0.047993354 -0.07072508 0.046707958 0.0575904 0.07603618 0.020117553 0.029054862 -0.043959703
-0.03537762 0.0021436852 -0.06317697 -0.024244962 0.054256417 -0.05484982 -0.013825529 0.0872963
-0.007906114 0.07293004 0.05980198 0.037444595 0.030865306 -0.006244246 -0.07449645 -0.08754255
0.032748077 0.016617877 -0.02512433 0.077296585 -0.022714738 0.05777195 -0.08172366 -0.041870356
0.05210876 0.059136666 0.005802263 -0.05681419 0.044839866 -0.045537088 0.030675292 -0.05814888
0.031074684 -0.029029008 0.040138245 0.008355547 -0.0048723845 0.053285733 -0.0780335 0.00751488
-0.017752426 0.036707897 -0.0099993935 -0.06481478 0.04635519 -0.04722938 -0.04816595 0.031150714
00000000: c3a3 81bd 2aeb 293d 9f30 08bc 5064 cbbb
00000010: 8a0a 6e3d 6c8d ddbc 9957 8fbd fbc3 87bd
00000020: 8aac 1cbd f915 1e3d 141a 51bc 1393 b2bc
00000030: bd8b 7c3d 0b43 8fbd ee79 95bb 4f03 a0bd
00000040: 2faa 233d dede fabb 061c 48bc cbc7 c3bc
00000050: ce4b c8bc 712e ccbc 4c5a 70bb d79b a3bc
00000060: f5ec 8ebd edce fdba 5e06 873d df5b 893d
00000070: c76e 8ebd 6aff a63d eeb5 96bd d356 0ebd
00000080: cf90 1a3d 56c4 a7bd 03b9 23bd 8c84 9cbd
00000090: 4717 66bd 7544 ad3d 333e dabb 8cd9 143d
000000a0: c315 f63c 68f4 8d3d ae14 653c b240 6e3d
000000b0: ebd6 1a3d 5255 a03c 954f 41bd d2bf c4bc
000000c0: 38db cd3b 8f13 22bb 1cb1 53bd 33cf 61bd
000000d0: 6560 2db9 bd64 2fbd 61cf b03c b481 c1bc
000000e0: 2f31 8dbd 0ff4 a9bd 5432 08bd 4287 2f3d
000000f0: 6d0c 49bd 0036 8e3c 6944 1dbd 0a29 3dbd
00000100: 8599 613d 943b 7d3d 4b76 b3bb 7933 1c3b
00000110: a562 babc 16b3 07bd 13fe 0f3d 041a d9bc
00000120: ae94 443d 50d8 90bd d850 3f3d e9e3 6b3d
00000130: dbb8 9b3d 91cd a43c 7604 ee3c 170f 34bd
00000140: 20e8 10bd 127d 0c3b ed62 81bd 5f9d c6bc
00000150: fa3b 5e3d 34aa 60bd 7984 62bc 67c8 b23d
00000160: a588 01bc 585c 953d ecf2 743d 815f 193d
00000170: 3dd9 fc3c 889c ccbb 9891 98bd 8249 b3bd
00000180: d922 063d 3722 883c 8ad1 cdbc ac4d 9e3d
00000190: 4214 babc 48a2 6c3d bc5e a7bd 4080 2bbd
000001a0: ff6f 553d 4a39 723d e920 be3b ffb5 68bd
000001b0: 02aa 373d 1985 3abd c04a fb3c 852d 6ebd
000001c0: 5690 fe3c 3ece edbc 0068 243d b4e5 083c
000001d0: 86a8 9fbb 2442 5a3d 07d0 9fbd 623f f63b
000001e0: 896d 91bc 055b 163d 7fd4 23bc 9dbd 84bd
000001f0: f1de 3d3d 9873 41bd a949 45bd c82f ff3c

mlp.1.weight f4 [128]
0.9983445 1.0079608 0.99957395 1.0071951 1.0024745 1.0007408 1.0076715 0.9948018
1.0070168 1.0019569 1.0024047 1.0037094 0.99528193 0.9966916 0.9961507 1.0004349
1.0033253 0.99146724 0.9961605 0.99610573 1.0000257 1.000329 0.9932091 1.0060318
0.9971868 1.0040172 1.0075487 0.9965876 0.99927354 0.9965956 0.9975034 0.99475926
1.0027045 0.99760365 0.99822253 0.99682134 1.0075709 1.0055842 1.0047272 1.0009729
0.99763423 1.0016391 0.9981289 1.0058061 0.9971291 1.0052208 1.0062145 0.9974751
1.0062518 0.99896044 1.0001907 1.0039632 0.99947613 0.9983297 1.0039046 0.9937599
1.0040106 0.9982841 0.9990226 0.98957187 1.0053846 0.99765706 1.0042796 1.0083479
1.0013411 0.9978848 0.99754804 0.99949175 1.0001078 0.9972241 1.0090065 0.994709
1.0064579 0.9985444 1.0035411 0.99244034 1.0031872 1.0070134 0.99279565 0.9971654
0.9983961 1.003894 0.99909234 0.99623847 1.0009744 0.9987217 0.9943894 1.0067621
0.9945565 1.0003661 1.0079172 0.99712276 0.99953574 1.0037376 0.999469 0.9929238
0.9983615 0.9996041 1.0056683 0.9991912 0.9924556 0.9981267 0.99827224 1.0077208
1.0047711 1.0002702 0.99904954 1.0027914 0.9944599 0.99703044 0.99484015 1.0067204
0.99703133 1.0014453 1.0075874 1.0000229 1.0087996 1.0014293 0.9949422 0.99848855
1.0005796 1.0013658 0.9993014 0.99172413 1.0046655 0.99980676 0.9989448 1.0006458
00000000: 8193 7f3f dc04 813f 14e4 7f3f c5eb 803f
00000010: 1651 803f 4618 803f 61fb 803f 55ab 7e3f
00000020: ede5 803f 2040 803f cc4e 803f 8d79 803f
00000030: ccca 7e3f 2e27 7f3f bb03 7f3f 400e 803f
00000040: f76c 803f ccd0 7d3f 6004 7f3f c900 7f3f
00000050: d800 803f c80a 803f f442 7e3f a6c5 803f
00000060: a247 7f3f a383 803f 5bf7 803f 5d20 7f3f
00000070: 64d0 7f3f e420 7f3f 625c 7f3f 8ba8 7e3f
00000080: 9f58 803f f462 7f3f 838b 7f3f af2f 7f3f
00000090: 15f8 803f fcb6 803f e79a 803f e11f 803f
000000a0: f564 7f3f b635 803f 6085 7f3f 41be 803f
000000b0: da43 7f3f 13ab 803f a3cb 803f 875a 7f3f
000000c0: dccc 803f dfbb 7f3f 4006 803f de81 803f
000000d0: abdd 7f3f 8992 7f3f f27f 803f 0c67 7e3f
000000e0: 6b83 803f 8c8f 7f3f f2bf 7f3f 9554 7d3f
000000f0: 71b0 803f 7466 7f3f 3c8c 803f 8b11 813f
00000100: f22b 803f 6175 7f3f 4f5f 7f3f b1de 7f3f
00000110: 8803 803f 144a 7f3f 2027 813f 40a5 7e3f
00000120: 9dd3 803f 9ba0 7f3f 0974 803f 9210 7e3f
00000130: 7068 803f d1e5 803f db27 7e3f 3b46 7f3f
00000140: e396 7f3f 997f 803f 84c4 7f3f 7c09 7f3f
00000150: ee1f 803f 3aac 7f3f 4e90 7e3f 95dd 803f
00000160: 419b 7e3f ff0b 803f 6e03 813f 7043 7f3f
00000170: 93e1 7f3f 797a 803f 33dd 7f3f 4130 7e3f
00000180: 9f94 7f3f 0ee6 7f3f bdb9 803f ffca 7f3f
00000190: 9211 7e3f 3b85 7f3f c58e 7f3f fffc 803f
000001a0: 579c 803f db08 803f b6c1 7f3f 785b 803f
000001b0: ed94 7e3f 633d 7f3f d8ad 7e3f 37dc 803f
000001c0: 723d 7f3f 5c2f 803f a0f8 803f c000 803f
000001d0: 5820 813f d62e 803f 88b4 7e3f f29c 7f3f
000001e0: fe12 803f c12c 803f 37d2 7f3f a2e1 7d3f
000001f0: e198 803f 56f3 7f3f d9ba 7f3f 2915 803f

mlp.1.bias f4 [128]
-0.004562385 0.007433487 -0.0024634688 0.006791322 0.0033436152 -0.00038011832 0.007439345 -0.0058932817
0.006306431 0.0034889 0.0029210863 0.0031658704 -0.00253305 -0.0037393617 -0.003747809 0.0015749364
0.0043434314 -0.008965519 -0.0031716023 -0.0047391434 0.0010741552 0.0024118507 -0.0060939956 0.0048499485
-0.0025045322 0.0036321646 0.0064360723 -0.0027436328 -0.0003458588 -0.0019247546 -0.0016263839 -0.005135957
-0.00020783908 -0.003077445 -0.00033974583 -0.0031915496 0.0061597424 0.0057759457 0.0049618925 -0.000101680766
-0.000678792 0.0017518507 -0.0006944579 0.004288833 -0.0038658404 0.0034686266 0.0036086708 -0.0028813737
0.005483568 0.00024476406 -0.00106112 0.0051385765 0.0010755295 -0.0021189768 0.00242425 -0.0074628126
0.0038116223 0.0014602017 -0.000422386 -0.007571973 0.006409252 -0.002274571 0.0014866933 0.010423063
-0.0024810038 -0.0044324207 -0.0014852541 0.001814281 0.00237728 -0.0031817793 0.00916413 -0.0051126946
0.0043410026 -0.0031054001 0.0034331603 -0.0060530384 0.0051197736 0.0056271376 -0.008194377 -0.0014902905
-0.0011512698 0.00302675 0.00079004467 -0.00207632 0.0006372815 -0.00038319992 -0.0039671645 0.004928065
-0.006773267 0.00083595386 0.0063552754 -0.0029157551 -0.0014069548 0.0040470967 -0.00052669307 -0.0069967853
-0.0011643905 -0.00065959763 0.005587633 -0.00047872716 -0.008436928 -0.002332854 -0.0001754276 0.006032117
0.005337429 0.00064245815 -0.00045479983 0.0014400252 -0.00077768083 -0.0027606315 -0.0044550607 0.006041126
-0.0042448007 0.0013321923 0.003392987 0.001030138 0.0055285846 0.0006418361 -0.0050386 -0.0021811326
0.0024004842 0.0002246031 -0.0031682386 -0.0067089987 0.0018111545 0.0011161464 -0.0022382373 0.00063597
00000000: 0f80 95bb 9c94 f33b 2672 21bb bd89 de3b
00000010: 8e20 5b3b 9e4a c7b9 c0c5 f33b 6e1c c1bb
00000020: 2da6 ce3b 07a6 643b b26f 3f3b 7e7a 4f3b
00000030: 8701 26bb 1410 75bb cd9d 75bb 196e ce3a
00000040: 5853 8e3b 1de4 12bc a8da 4fbb d14a 9bbb
00000050: abca 8c3a 2410 1e3b 24b0 c7bb 51ec 9e3b
00000060: 1423 24bb 9c09 6e3b b0e5 d23b 85ce 33bb
00000070: 6254 b5b9 0c48 fcba 632c d5ba 884b a8bb
00000080: 61ef 59b9 f6ae 49bb ea1f b2b9 5129 51bb
00000090: aad7 c93b 2544 bd3b 5f97 a23b 723d d5b8
000000a0: f6f0 31ba 5b9e e53a 480c 36ba 5789 8c3b
000000b0: 0a5a 7dbb e651 633b 737f 6c3b 6ed5 3cbb
000000c0: 81af b33b ad53 8039 4715 8bba 8161 a83b
000000d0: c8f8 8c3a 88de 0abb 2ae0 1e3b 9c8a f4bb
000000e0: 69cc 793b 3d64 bf3a b073 ddb9 501e f8bb
000000f0: b404 d23b f810 15bb 26dd c23a 7fc5 2a3c
00000100: 5698 22bb d73d 91bb dcac c2ba 2bcd ed3a
00000110: 24cc 1b3b 6685 50bb 2625 163c 6488 a7bb
00000120: f83e 8e3b f883 4bbb dffe 603b 9158 c6bb
00000130: c6c3 a73b da63 b83b b541 06bc da55 c3ba
00000140: 34e6 96ba 705c 463b 001b 4f3a de12 08bb
00000150: 3d0f 273a 39e8 c8b9 fdfe 81bb 9b7b a13b
00000160: 48f2 ddbb ea23 5b3a ea3f d03b 4116 3fbb
00000170: 9269 b8ba 829d 843b c611 0aba 4a45 e5bb
00000180: 769e 98ba d9e8 2cba 7618 b73b acfd fab9
00000190: 0a3b 0abc cce2 18bb fdf2 37b9 11a9 c53b
000001a0: 99e5 ae3b a36a 283a 3372 eeb9 3abf bc3a
000001b0: 47dd 4bba b6eb 34bb c2fb 91bb a3f4 c53b
000001c0: f817 8bbb f59c ae3a e05c 5e3b b205 873a
000001d0: 2129 b53b e440 283a d71a a5bb 55f1 0ebb
000001e0: 7151 1d3b 7083 6b39 39a2 4fbb 29d7 dbbb
000001f0: 4364 ed3a a94b 923a 64af 12bb 39b7 263a

mlp.4.weight f4 [64, 128]
0.011912508 0.07225223 0.044123057 -0.048236508 -0.055475246 0.031584337 0.047034252 -0.010592231
-0.0034806752 -0.054737926 -0.09315188 -0.05494966 -0.05036007 0.08274903 -0.03390577 0.006920756
-0.02496141 -0.069117785 0.07645588 0.08483802 -0.016238801 -0.08886096 -0.029550627 0.005964696
-0.06263847 -0.07424591 -0.026020309 0.0677516 -0.024533685 -0.010265022 0.007125169 0.05496505
0.021562062 -0.039420035 -0.015080972 0.028045462 0.05227571 -0.06637116 0.049404807 0.038528316
-0.014581277 -0.07149022 0.029719703 -0.021269286 0.04397675 0.008480457 -0.07329381 -0.049295034
-0.0525105 0.045982238 0.049464006 0.02893938 -0.047940955 -0.009112603 -0.031656496 0.019337777
0.00878852 0.058509994 0.03370962 0.048944574 0.0098574 -0.08305654 0.06151602 0.054914005
-0.0049701347 -0.019089572 -0.014260616 -0.02834225 -0.039349083 -0.06014349 -0.02103514 0.034119766
-0.055973314 -0.001678996 0.07342815 -0.012983769 -0.04287514 0.0015744257 0.040477928 -0.060848422
0.029817432 0.01177675 -0.023737185 -0.021931197 -0.08890493 0.069183215 0.0694295 -0.09288992
0.05152444 0.022893101 0.0008416984 0.03142716 0.019729592 -0.018944405 0.020245248 -0.031704746
-0.058622185 0.07462611 -0.014617346 0.0097092185 -0.0035113648 -0.016302288 -0.07247855 0.062511675
-0.082469344 0.011631522 -0.03250391 0.041266985 0.017457834 0.01998932 -0.05004434 0.06999178
-0.02241565 0.053784456 0.0044290586 -0.008486378 0.043086056 0.00017570425 0.0061740875 0.079783574
-0.06374729 0.045633927 0.021357495 0.05369495 0.08014046 0.05268468 -0.020202711 -0.025999743
0.05530786 0.013523479 -0.038391545 -0.034359574 0.047105134 0.055680916 0.08740465 0.021797867
0.07193366 -0.075100996 -0.011929684 0.07778163 -0.044798154 0.06473635 0.029005295 -0.06964948
-0.059672408 0.027220557 -0.0698822 0.081346884 0.018654197 0.0054830634 0.023789 -0.07440885
0.02275625 0.04747665 0.08862071 0.007613304 0.072285324 -0.049291596 -0.01494008 0.040599834
0.06742754 0.048084408 0.016680608 0.057589464 -0.029691398 0.0855102 -0.03806154 0.056375567
0.09146693 -0.018812943 0.05743685 -0.024019398 -0.057157524 -0.015635606 0.08342632 0.0849822
0.072103046 -0.039576948 -0.079851 -0.028991701 -0.02739196 -0.033356655 0.075156674 0.06073454
-0.049523327 0.030796465 -0.0071322876 -0.060149312 0.03813475 0.031382278 0.028806869 0.0015717819
0.031740155 0.020397244 -0.011681307 0.011545461 0.054410186 -0.07546035 -0.02388031 -0.034519713
0.019559667 -0.020434234 -0.01900541 -0.06988249 0.026034292 -0.031673424 -0.03127465 0.061756752
0.02336204 -0.00916209 0.025398668 0.08224524 -0.032526843 0.08073301 0.0433106 0.06978619
0.02181274 -0.08478523 -0.005915614 -0.028269326 0.08304094 0.049021345 -0.012050743 0.07673032
-0.071176834 -0.05939504 0.018931286 -0.00886882 0.016855607 0.018219905 0.039585784 0.0715517
-0.03189458 0.04525671 0.071402505 0.069874495 0.04620395 -0.07335903 0.019556377 -0.0032633275
0.0702226 -0.053508464 0.084624425 0.011510018 0.011364279 0.04209445 0.0042857844 0.06906541
-0.04891672 -0.074682884 -0.03660594 -0.0673144 -0.06391801 -0.08062022 -0.040412605 0.07896714
00000000: ae2c 433c faf8 933d 61ba 343d a593 45bd
00000010: 033a 63bd 945e 013d fda6 403d 098b 2dbc
00000020: 0a1c 64bb e034 60bd 6ac6 bebd e512 61bd
00000030: 5c46 4ebd 5378 a93d c7e0 0abd 82c7 e23b
00000040: df7b ccbc a08d 8dbd e794 9c3d 8ebf ad3d
00000050: 3c07 85bc bcfc b5bd 2814 f2bc 7f73 c33b
00000060: 9948 80bd 3d0e 98bd 8b28 d5bc 5ac1 8a3d
00000070: defa c8bc 9f2e 28bc 407a e93b 0823 613d
00000080: eca2 b03c e776 21bd 2e16 77bc 99bf e53c
00000090: 0e1f 563d 9aed 87bd b25c 4a3d decf 1d3d
000000a0: 4fe6 6ebc 7769 92bd bc76 f33c ed3c aebc
000000b0: f720 343d 9df1 0a3c 111b 96bd 97e9 49bd
000000c0: 4015 57bd df57 3c3d c59a 4a3d 4712 ed3c
000000d0: bc5d 44bd 074d 15bc 3eaa 01bd 426a 9e3c
000000e0: b9fd 0f3c 2da8 6f3d 1913 0a3d 1b7a 483d
000000f0: ef80 213c 8c19 aabd 39f8 7b3d 82ed 603d
00000100: 83dc a2bb bc61 9cbc 5ca5 69bc 022e e8bc
00000110: 812c 21bd 0559 76bd e351 acbc 2bc1 0b3d
00000120: 4644 65bd c211 dcba 7f61 963d e0b9 54bc
00000130: d89d 2fbd f65c ce3a 2fcc 253d 323c 79bd
00000140: b043 f43c 45f3 403c 7c74 c2bc 0ea9 b3bc
00000150: ca13 b6bd eeaf 8d3d 0e31 8e3d 123d bebd
00000160: 4b0b 533d 508a bb3c 6ca5 5c3a c4b9 003d
00000170: f49f a13c 4c31 9bbc 5dd9 a53c d6dc 01bd
00000180: d11d 70bd 93d5 983d 987d 6fbc 6a13 1f3c
00000190: ed1e 66bb 608c 85bc a26f 94bd 1f06 803d
000001a0: b0e5 a8bd 2492 3e3c d222 05bd 9207 293d
000001b0: bb03 8f3c a4c0 a33c 4bfb 4cbd da57 8f3d
000001c0: 06a1 b7bc 174d 5c3d a321 913b 730a 0bbc
000001d0: 017b 303d 403d 3839 0050 ca3b 9265 a33d
000001e0: f08d 82bd a4ea 3a3d eaf5 ae3c 3cef 5b3d
000001f0: ae20 a43d e4cb 573d 2880 a5bc 6afd d4bc
00000200: 7f8a 623d 9591 5d3c 7440 1dbd a0bc 0cbd
00000210: 50f1 403d ac11 643d 3601 b33d 7191 b23c
00000220: f451 933d 8dce 99bd b974 43bc fa4b 9f3d
00000230: 457e 37bd 7e94 843d 839c ed3c 63a4 8ebd
00000240: 0e6b 74bd a5fd de3c 661e 8fbd 3299 a63d
00000250: b0d0 983c 45ab b33b 26e1 c23c ab63 98bd
00000260: 516b ba3c e076 423d c67e b53d 0679 f93b
00000270: 540a 943d fce5 49bd 3dc7 74bc 034c 263d
00000280: 7317 8a3d 28f4 443d c5a5 883c eee2 6b3d
00000290: 603b f3bc f91f af3d 6be6 1bbd 11ea 663d
000002a0: 0453 bb3d 9a1d 9abc e742 6b3d 54c4 c4bc
000002b0: 021e 6abd 3e16 80bc 6bdb aa3d 260b ae3d
000002c0: c3aa 933d 701b 22bd ec88 a3bd 0180 edbc
000002d0: 1b65 e0bc fda0 08bd beeb 993d c8c4 783d
000002e0: f9d8 4abd de48 fc3c f7b5 e9bb 205f 76bd
000002f0: 2f33 1c3d b48a 003d 62fc eb3c 4004 ce3a
00000300: f701 023d 1f18 a73c f462 3fbc 2c29 3d3c
00000310: 37dd 5e3d f58a 9abd a4a0 c3bc 8b64 0dbd
00000320: 983b a03c b265 a7bc 3cb1 9bbc 8d1e 8fbd
00000330: de45 d53c febb 01bd d919 00bd a6f4 7c3d
00000340: c061 bf3c 971c 16bc de10 d03c 3170 a83d
00000350: de3a 05bd 5957 a53d 7566 313d 10ec 8e3d
00000360: a2b0 b23c e1a3 adbd c4d7 c1bb 1395 e7bc
00000370: 5e11 aa3d 9bca 483d 7b70 45bc c924 9d3d
00000380: 29c5 91bd 3748 73bd c915 9b3c 874e 11bc
00000390: c514 8a3c e941 953c b424 223d b389 923d
000003a0: e4a3 02bd 1a5f 393d 7a3b 923d 5c1a 8f3d
000003b0: 5a40 3d3d 423d 96bd b234 a03c 8ddd 55bb
000003c0: ded0 8f3d b12b 5bbd 924f ad3d 8494 3c3c
000003d0: 3e31 3a3c 3b6b 2c3d c46f 8c3b 2a72 8d3d
000003e0: e65c 48bd 57f3 98bd 1cf0 15bd 22dc 89bd
000003f0: 72e7 82bd 371c a5bd b087 25bd 86b9 a13d

mlp.4.bias f4 [64]
0.008584365 0.058459934 0.024848238 -0.014405435 0.083927795 -0.08049705 -0.044500694 0.084873915
-0.065746725 0.05968117 -0.08368281 -0.01771749 -0.007153928 -0.018945497 0.046510343 -0.029682107
-0.057704456 -0.073294185 -0.03606421 0.06853768 -0.04588376 -0.077642225 0.022021933 0.0075087077
-0.027013926 -0.08345804 -0.034257118 -0.07018574 0.06264129 0.018369861 -0.031231858 0.03021384
0.078661785 0.071343504 0.06304659 0.010896237 -0.010354135 -0.013752164 0.0691783 0.00094026676
-0.024126107 -0.074613415 -0.02643875 0.036164258 -0.052417994 -0.040095616 0.03750887 -0.02355012
0.030767519 -0.082436435 0.043697108 -0.032067508 -0.053239785 -0.054016266 0.039868984 0.025038006
0.03483571 0.024138017 0.009073549 -0.010157107 -0.0489984 -0.013892 0.080094986 -0.025156373
00000000: 70a5 0c3c af73 6f3d 888e cb3c c604 6cbc
00000010: 56e2 ab3d a3db a4bd 5c46 36bd 60d2 ad3d
00000020: 38a6 86bd 3e74 743d e561 abbd 4524 91bc
00000030: 7f6b eabb 9633 9bbc a181 3e3d e427 f3bc
00000040: 825b 6cbd 431b 96bd 11b8 13bd 7c5d 8c3d
00000050: 9cf0 3bbd e302 9fbd 5767 b43c 9b0b f63b
00000060: 4f4c ddbc 0dec aabd 3151 0cbd 8bbd 8fbd
00000070: 144a 803d 647c 963c f4d9 ffbc 0483 f73c
00000080: 6e19 a13d 8b1c 923d 921e 813d 2186 323c
00000090: 64a4 29bc c250 61bc 5aad 8d3d 3c7c 763a
000000a0: 1da4 c5bc ebce 98bd 1496 d8bc f920 143d
000000b0: 40b4 56bd 4d3b 24bd e7a2 193d 2eec c0bc
000000c0: 2a0c fc3c 6fd4 a8bd bdfb 323d 3859 03bd
000000d0: f611 5abd 2940 5dbd a94d 233d 811c cd3c
000000e0: e4af 0e3d 17bd c53c 39a9 143c ff69 26bc
000000f0: 8cb2 48bd 459b 63bc d708 a43d bd14 cebc

mlp.5.weight f4 [64]
0.996704 0.99602956 1.0050124 1.0050956 1.0050056 0.996525 0.9994489 0.9985161
0.9991651 1.0015658 0.9982181 1.0005838 1.003852 0.99742943 1.0055492 0.9975595
1.0026921 1.0094522 1.0016327 1.0048436 1.0065453 0.99771047 1.0007397 1.0013218
1.0073253 1.0015715 0.99961835 1.0080538 1.0036111 1.0054431 1.0076555 0.9987866
1.0045373 0.99946815 1.0016568 0.9984485 1.0030929 1.0046194 0.997437 0.992134
1.0027771 0.99822146 1.0080786 1.0013059 1.0041256 0.99741584 0.9980648 0.99329805
0.99715143 1.0059552 1.0033624 0.99109566 1.009008 1.0061793 0.99352705 0.9970971
0.99913275 1.0016837 1.0007647 0.99980724 0.99956554 1.0065526 0.9934155 0.9967336
00000000: fe27 7f3f cbfb 7e3f 3fa4 803f f9a6 803f
00000010: 06a4 803f 431c 7f3f e2db 7f3f c09e 7f3f
00000020: 49c9 7f3f 4f33 803f 398b 7f3f 2113 803f
00000030: 397e 803f 8957 7f3f d6b5 803f 0f60 7f3f
00000040: 3758 803f bb35 813f 8035 803f b79e 803f
00000050: 7ad6 803f f469 7f3f 3d18 803f 502b 803f
00000060: 09f0 803f 7f33 803f fde6 7f3f e807 813f
00000070: 5476 803f 5cb2 803f dbfa 803f 7bb0 7f3f
00000080: ae94 803f 25dd 7f3f 4a36 803f 529a 7f3f
00000090: 5965 803f 5e97 803f 0858 7f3f 7efc 7d3f
000000a0: 005b 803f 718b 7f3f b808 813f cb2a 803f
000000b0: 3087 803f a556 7f3f 2d81 7f3f c848 7e3f
000000c0: 5145 7f3f 24c3 803f 2e6e 803f 72b8 7d3f
000000d0: 2d27 813f 7cca 803f ca57 7e3f c141 7f3f
000000e0: 2ac7 7f3f 2c37 803f 0f19 803f 5ef3 7f3f
000000f0: 87e3 7f3f b7d6 803f 7a50 7e3f ef29 7f3f

mlp.5.bias f4 [64]
-0.0040401295 -0.0005396152 0.005905422 0.005748271 -2.3738161e-05 -0.0040260763 0.00036536815 -0.0028561202
-0.00121126 0.0029042563 -0.0026215154 -0.00027945713 0.0028427865 -0.0021615126 0.0037724955 -0.0013512177
-9.7295706e-05 0.008725609 0.0012078369 0.002617485 0.0047125127 -0.0020666714 0.001931034 -0.00052356854
0.0058665276 -0.0008025279 -0.0025712592 0.006681451 0.005487134 0.0019085875 0.006450797 -0.0025203358
0.005326883 8.547162e-05 0.00066308794 -0.00012781215 0.0027656555 0.0037473585 -0.0023394206 -0.007103606
0.002844611 -0.00087627897 0.0055917343 0.0008319891 0.0028031063 -0.0030315982 -0.0008832495 -0.006727238
-0.00038218693 0.0047897245 0.0016284795 -0.0091509065 0.006335666 0.0041417726 -0.0059576184 -0.0028171898
-0.0010896567 0.0011005636 0.0015054126 0.00085702166 -0.0003741163 0.0053723194 -0.00582694 -0.0020601596
00000000: 1063 84bb f774 0dba 4582 c13b fe5b bc3b
00000010: 5021 c7b7 2ded 83bb e28e bf39 bf2d 3bbb
00000020: 24c3 9eba 5655 3e3b bbcd 2bbb 1a84 92b9
00000030: 0b4e 3a3b 2aa8 0dbb f93b 773b 581b b1ba
00000040: 3c0b ccb8 dbf5 0e3c 4850 9e3a 1c8a 2b3b
00000050: 6c6b 9a3b fe70 07bb c01a fd3a 1740 09ba
00000060: 003c c03b bc60 52ba 9282 28bb 13f0 da3b
00000070: 6bcd b33b 9229 fa3a 3561 d33b 382c 25bb
00000080: 228d ae3b 3a3f b338 14d3 2d3a 5005 06b9
00000090: 0040 353b 3e96 753b f750 19bb 5ec5 e8bb
000000a0: a76c 3a3b 16b6 65ba de3a b73b d819 5a3a
000000b0: 52b4 373b c7ad 46bb df89 67ba 2a70 dcbb
000000c0: 4360 c8b9 1ff3 9c3b b472 d53a afed 15bc
000000d0: 6b9b cf3b b5b7 873b 2038 c3bb 9aa0 38bb
000000e0: d0d2 8eba c940 903a 4451 c53a c0a9 603a
000000f0: 0a25 c4b9 480a b03b eaef bebb be03 07bb

mlp.8.weight f4 [2, 64]
-0.006627478 -0.06350033 0.008244507 -0.028937321 -0.10847342 -0.00746355 0.09625359 -0.028664714
0.0633896 0.069671266 0.04724212 -0.019307943 0.053111926 0.007446216 0.039006017 0.11564939
0.030863378 0.09438286 0.014861894 -0.0017220152 0.024355566 -0.07820612 0.057642926 0.005516007
0.123937234 -0.09839338 -0.08574199 -0.01795796 0.10073344 0.08210685 -0.020769043 -0.07358551
-0.08600955 -0.1098283 -0.12454456 0.10253828 -0.0642795 0.11194532 -0.084986374 0.03050428
0.09799904 -0.07732672 0.06766661 0.11881368 -0.10490481 -0.10157272 -0.02621233 -0.06926064
0.11874833 0.124384694 -0.11554358 -0.029141326 -0.013332492 -0.015166388 -0.08475702 -0.042648707
-0.103782244 -0.013047837 0.12233059 0.11289527 -0.0074007967 0.115456074 0.080649994 0.095664
0.008045888 -0.11638634 0.06360279 0.053508133 -0.044722244 0.0014507917 0.037184052 0.034330517
0.07083886 -0.023779765 0.08823923 0.10001555 -0.0072504934 0.06807417 -0.061404847 -0.09583576
-0.013480496 0.063170806 -0.09723352 -0.112117656 -0.05625306 0.055637825 -0.022330396 0.1115882
-0.022083422 -0.044383314 -0.08198158 -0.11946013 -0.07251689 -0.12394054 -0.114259064 -0.025836065
-0.108537935 0.096121065 -0.0596687 0.035388365 0.04827706 0.09392968 -0.11285243 0.08275638
-0.10695821 0.03830989 0.120212756 -0.06433286 -0.01703174 0.056692563 0.028054666 0.06929007
-0.0027866394 -0.036415678 0.11102519 0.0760379 -0.101224735 -0.0954491 0.048726626 0.04169381
-0.12211844 0.10862809 -0.05844654 -0.017480055 -0.02030148 0.071837194 -0.039405216 0.04419073
00000000: 512b d9bb 760c 82bd f813 073c f60d edbc
00000010: 5027 debd cc90 f4bb 9a20 c53d 43d2 eabc
00000020: 68d2 813d cfaf 8e3d f480 413d b12b 9ebc
00000030: e48b 593d 63ff f33b c6c4 1f3d 96d9 ec3d
00000040: 32d5 fc3c cd4b c13d 4d7f 733c 3eb5 e1ba
00000050: 5385 c73c 882a a0bd fd1a 6c3d 9fbf b43b
00000060: ced2 fd3d 7882 c9bd 7f99 afbd 921c 93bc
00000070: 554d ce3d a327 a83d d723 aabc 00b4 96bd
00000080: c625 b0bd a9ed e0bd 3811 ffbd 97ff d13d
00000090: f8a4 83bd 9743 e53d 560d aebd 1de4 f93c
000000a0: b8b3 c83d 795d 9ebd cb94 8a3d 9654 f33d
000000b0: 55d8 d6bd 5c05 d0bd 3ebb d6bc 86d8 8dbd
000000c0: 5332 f33d 67bd fe3d 1da2 ecbd cab9 eebc
000000d0: 8670 5abc 717c 78bc 1795 adbd 69b0 2ebd
000000e0: c98b d4bd 98c6 55bc 7688 fa3d a335 e73d
000000f0: 6282 f2bb 3c74 ec3d d32b a53d 7deb c33d
00000100: e6d2 033c f65b eebd 2e42 823d 582b 5b3d
00000110: ac2e 37bd 7e28 be3a 4e4e 183d 289e 0c3d
00000120: f713 913d c8cd c2bc c5b6 b43d f4d4 cc3d
00000130: 8c95 edbb 786a 8b3d a683 7bbd 8a45 c4bd
00000140: 4cdd 5cbc b25f 813d 5e22 c7bd f19d e5bd
00000150: 9c69 66bd 7de4 633d 3cee b6bc 5b88 e43d
00000160: 4be8 b4bc 47cb 35bd f5e5 a7bd 83a7 f4bd
00000170: bc83 94bd 8ad4 fdbd a800 eabd 28a6 d3bc
00000180: 2349 debd 1fdb c43d 2b67 74bd 64f3 103d
00000190: 2bbe 453d 345e c03d 2d1f e7bd 2d7c a93d
000001a0: e80c dbbd d5ea 1c3d 1b32 f63d f2c0 83bd
000001b0: 2686 8bbc 7636 683d e6d2 e53c f4e7 8d3d
000001c0: 0da0 36bb 9b28 15bd 2d61 e33d c2b9 9b3d
000001d0: ea4e cfbd d17a c3bd 9295 473d 21c7 2a3d
000001e0: 3c19 fabd 6778 de3d a465 6fbd 5532 8fbc
000001f0: 4a4f a6bc 611f 933d 5d67 21bd 5701 353d

mlp.8.bias f4 [2]
-0.100890994 0.11836593
00000000: f09f cebd d669 f23d
