results/dp/wesad/seed_123/best_model.pth (torch, 335925 bytes, 30 tensors)

_module.mlp.0.weight f4 [128, 140]
0	0xbcd50130	-0.026001543
1	0xba18e8b5	-0.0005833016
2	0xbce934fc	-0.028467648
3	0x3d370cb7	0.04468986
4	0xbd97d8a5	-0.074143685
5	0x3d95c74c	0.073134035
6	0xbd8d2f9b	-0.06893846
7	0xbda286a4	-0.07935837
8	0xbd329d6b	-0.043607157
9	0x3d198edf	0.037489768
10	0xbd045133	-0.032304
11	0x3c92a3bd	0.017900342
12	0xbd96e328	-0.07367545
13	0xbd47d4dd	-0.048786987
14	0xbcf6eaa1	-0.030141177
15	0xbc92958b	-0.017893573
16	0xbd597632	-0.053091235
17	0x3d3caad0	0.046061337
18	0xbcd68e6c	-0.026190959
19	0x3d21dfc7	0.03952005
20	0x3d86a591	0.06574548
21	0x3ccce21a	0.025010157
22	0x3ca6eb7a	0.020375956
23	0x3d9e46f9	0.07728381
24	0xbd828cbd	-0.063745
25	0x3c98d247	0.018654956
26	0xbd4c1402	-0.04982377
27	0x3d52d7ae	0.05147522
28	0x3d8cf4c7	0.06882625
29	0xbd953661	-0.072857626
30	0x3d892dbd	0.06698177
31	0x3d21709b	0.03941403
32	0x3d2e851c	0.04260741
33	0x3d109536	0.03529855
34	0x3dbb2b3b	0.09139105
35	0xbc881e0f	-0.016615896
36	0xbd88f61d	-0.066875674
37	0xbc8cf5c8	-0.017207041
38	0xbd7bce2d	-0.06147592
39	0x3c481ab8	0.0122134015
40	0xbcd78681	-0.026309254
41	0xbd5e9a48	-0.054346353
42	0xbbce5116	-0.0062962873
43	0x3d951647	0.0727964
44	0x3b7ec7ac	0.0038876338
45	0xbbcfd572	-0.0063425833
46	0xbc50ecc6	-0.012751764
47	0x3c5ee22d	0.013603729
48	0x3d999301	0.07498742
49	0x3d30de8e	0.043180995
50	0x3c3f329e	0.011669783
51	0x3d005827	0.03133407
52	0x3ca72ebe	0.02040803
53	0x3d104e2e	0.035230808
54	0xbb30a7b1	-0.002695542
55	0xbd93156c	-0.0718182
56	0xbd64d0b3	-0.055863094
57	0x3d6aec9e	0.057354562
58	0xbb8c5796	-0.004282902
59	0xbdb37ee6	-0.08764438
60	0x3c3ca7d3	0.011514622
61	0x3da3c215	0.079960026
62	0xbd95dbfa	-0.07317348
63	0xbd87101e	-0.06594871
64	0xbd220b38	-0.03956148
65	0x3bf9cb98	0.007623147
66	0xbce595af	-0.028025476
67	0xbb2a77f8	-0.0026011448
68	0xbda6120e	-0.081089124
69	0x3d66ad96	0.05631789
70	0x3db6c08c	0.08923444
71	0x3d3f9e87	0.046782043
72	0xbd4da392	-0.05020482
73	0xbda0a589	-0.07844073
74	0x3cc3cd78	0.023901686
75	0x3ba8db03	0.0051530614
76	0x3d153ada	0.03643308
77	0xbdac4a0b	-0.0841256
78	0xbc3b771e	-0.011441974
79	0x3d86e666	0.06586914
80	0x3d2291b5	0.03968974
81	0x3c672e74	0.014110196
82	0x3cdbedda	0.026846815
83	0x3ba27747	0.0049580666
84	0xbd53f252	-0.051744767
85	0xbd438712	-0.047736235
86	0xbd9a8251	-0.07544387
87	0x3d94a8c4	0.07258752
88	0x3d6b7386	0.05748322
89	0x3ca50e0a	0.020148296
90	0xbd612b41	-0.05497289
91	0x3d11d60a	0.035604514
92	0x3d352127	0.04422107
93	0x3d66a157	0.05630621
94	0xbc960981	-0.018315079
95	0x3cc4b5e9	0.024012523
96	0x3d927898	0.07151908
97	0x3d902538	0.07038349
98	0x3d71eb9f	0.059062596
99	0xbcb2f3e5	-0.021844814
100	0x3d843afd	0.064565636
101	0xbd80ee2f	-0.0629543
102	0xba8eae57	-0.0010885698
103	0xbd5f4323	-0.054507386
104	0xbc07fe86	-0.008300429
105	0xbc2e7a78	-0.010649316
106	0x3c566395	0.013085266
107	0x3da8463d	0.08216522
108	0x3d2635dd	0.04057871
109	0xb94c00f9	-0.00019455318
110	0x3d8061eb	0.06268676
111	0xbd5091d4	-0.050920323
112	0x3d42f6f2	0.047598787
113	0xbb25848d	-0.0025256008
114	0xbc689553	-0.014195758
115	0x3b911dfb	0.004428623
116	0xbdadd09e	-0.08487056
117	0x3cca3e62	0.02468795
118	0x3d3f710d	0.046738673
119	0x3d828c3d	0.063744046
120	0xbd130885	-0.035896797
121	0x3d0b5063	0.03401221
122	0x3d95e6a9	0.073193856
123	0xbd426a31	-0.047464553
124	0x3d792ef5	0.060835797
125	0xbd4e7980	-0.05040884
126	0x3d10698c	0.035256907
127	0x3c7f4959	0.015581452
128	0x3bc32d08	0.005956296
129	0x3d5c714a	0.05381898
130	0xbd0b8606	-0.03406336
131	0x3ba201f0	0.0049440786
132	0x3be5c39d	0.0070118443
133	0xbd51f7d7	-0.05126175
134	0xbc3753b1	-0.011189387
135	0xbd61eeaa	-0.05515925
136	0x3d2fbd3f	0.04290509
137	0x3ba06664	0.0048950184
138	0xba982aff	-0.0011609494
139	0xbca80c91	-0.020513805
140	0xbc6a6196	-0.014305493
141	0xbc2b574d	-0.010457826
142	0x3cc3f7cb	0.023921868
143	0x3d971362	0.07376744
144	0x3c8b6308	0.017014995
145	0xbcbbdcd8	-0.022932455
146	0xbcea6e7e	-0.02861714
147	0xba1753a7	-0.0005772658
148	0xbd557c1f	-0.052120324
149	0xbd647ffb	-0.055786114
150	0xbd70f603	-0.058828365
151	0xbbac80a8	-0.0052643605
152	0x3c67bab8	0.014143638
153	0x3d6fe0ab	0.05856387
154	0x3d4a789b	0.049431425
155	0x3d7a63c2	0.061130293
156	0xbd07a2e4	-0.03311433
157	0x3cbf1c2c	0.023328863
158	0xbd85370f	-0.06504642
159	0x3d83aeac	0.064298004
160	0x3c570ce4	0.013125632
161	0x3d97693d	0.073931195
162	0xbd8b67e0	-0.06806922
163	0x3da408a2	0.08009459
164	0x3d95304e	0.07284604
165	0x3d81a972	0.06331147
166	0x3cc5d3fc	0.024148934
167	0x3d8cbfaf	0.06872498
168	0x3d882fe9	0.06649763
169	0x3d7240ba	0.05914376
170	0xbc574c85	-0.013140802
171	0xbd1eebff	-0.038799282
172	0xbc1e3a3e	-0.009657441
173	0x3be4801d	0.00697328
174	0xbd8be85d	-0.06831429
175	0xbd5e2b14	-0.0542403
176	0xbd9edec6	-0.077573344
177	0xbd0a17e7	-0.0337142
178	0x3db1c68d	0.08680449
179	0x3c94c78a	0.018161554
180	0xbb2665b3	-0.0025390207
181	0x3ccabcff	0.024748323
182	0x3d4dd5d3	0.050252747
183	0xbd69604b	-0.056976598
184	0xbdb0cad5	-0.08632437
185	0xbd45430f	-0.048159655
186	0xbd005f00	-0.0313406
187	0x3d55535f	0.052081462
188	0x3d7b82ff	0.061404224
189	0xbd8ab86a	-0.067734554
190	0xbd579ed8	-0.05264172
191	0xbd7c1ea9	-0.061552677
192	0x3d102212	0.035188742
193	0x3d7f8ae1	0.062388305
194	0xbda3d0c1	-0.07998801
195	0xbd60ca38	-0.05488035
196	0x3d1a17ef	0.03762048
197	0xbd67316c	-0.056443617
198	0x3db21432	0.08695258
199	0x3c5ee36a	0.013604024
200	0xbcaf8eed	-0.021430457
201	0x3cc341e9	0.02383514
202	0x3c9f0350	0.01941076
203	0xbcb83bfc	-0.02248954
204	0xbd42a50c	-0.047520682
205	0xbc230d20	-0.00995186
206	0x3ccfd2b8	0.025369033
207	0x3c1430c6	0.009044832
208	0x3b518af6	0.0031973696
209	0x3d79ccfe	0.06098651
210	0xbce8e537	-0.02842961
211	0xbc6f335b	-0.014599646
212	0x3d4c000f	0.049804743
213	0xbd9e0e5b	-0.07717582
214	0x3aeb6379	0.0017958722
215	0xbcb338da	-0.021877695
216	0x3cd7998f	0.02631834
217	0xbd63e8ed	-0.055642057
218	0x3b9f106b	0.004854252
219	0x3c5bbb17	0.013411305
220	0xbd870f27	-0.06594687
221	0xbd928b6d	-0.071554996
222	0x3cfacd6a	0.030615527
223	0xbcafb3e8	-0.02144809
224	0x3d31de49	0.04342488
225	0xbdcdc032	-0.10046424
226	0xbc0ddb3a	-0.008658225
227	0xbd60f5f2	-0.05492205
228	0x3d3dd725	0.046347756
229	0x3c06188d	0.008184564
230	0xbca8b6ab	-0.020594915
231	0x3b3533af	0.0027649214
232	0xbda6ea21	-0.08150125
233	0x3cb82e3f	0.02248299
234	0xbc16eeed	-0.009212238
235	0xbd8db4ab	-0.06919225
236	0x3d4a8a98	0.04944858
237	0x3c497c96	0.01229777
238	0xbdb6228c	-0.08893308
239	0x3d687752	0.056754418
240	0x3d53a0dd	0.051667083
241	0xbc6da760	-0.014505237
242	0xbd6b4f43	-0.057448637
243	0x3c4678cc	0.012113761
244	0x3d602c44	0.054729715
245	0x3d9f4765	0.07777289
246	0xbd506f41	-0.05088735
247	0xbcdcb9ec	-0.026944123
248	0x3d3b548c	0.045734927
249	0x3d7910d4	0.060807064
250	0x3d1bcce8	0.03803721
251	0xbcaa1489	-0.020761745
252	0x3d86a290	0.06573975
253	0xbdae25b3	-0.08503284
254	0xbb9fe276	-0.004879291
255	0x3c0b94cb	0.008519362

_module.mlp.0.bias f4 [128]
0	0x3c63de58	0.013907991
1	0xbd38b1f5	-0.045091588
2	0xbd868628	-0.06568557
3	0x3c64d3fe	0.0139665585
4	0x3c5c66ae	0.013452215
5	0x3cb7b15d	0.02242344
6	0xbd819ebe	-0.06329106
7	0x3d3f03ea	0.046634592
8	0xbca229f5	-0.019795397
9	0x3d845954	0.064623505
10	0xbda10bf8	-0.07863611
11	0xbd3ffe8a	-0.046873607
12	0x3d4e03a0	0.050296426
13	0x3d8f83a8	0.07007533
14	0x3d879a38	0.06621212
15	0xbaecaa1c	-0.0018056068
16	0xbb870bd6	-0.004121284
17	0xbd768d39	-0.060193274
18	0x3ca2d390	0.019876271
19	0xbdac920a	-0.08426292
20	0xbb38c744	-0.0028194943
21	0xbc813dd3	-0.01577655
22	0x3ade036d	0.0016938277
23	0xbbd3f519	-0.006468427
24	0x3d96524f	0.07339918
25	0x3dc34b76	0.095358774
26	0x3d760fa5	0.060073514
27	0x3d74228d	0.059603263
28	0x3db156a0	0.086591005
29	0x3d8cb930	0.06871259
30	0xbd67aaee	-0.056559496
31	0xbdbd57ac	-0.09245238
32	0xbc3f3d91	-0.011672393
33	0x3d916d47	0.07100921
34	0x3dca92c8	0.098912776
35	0xbd2fb320	-0.042895436
36	0xbd712d6e	-0.058881216
37	0xbc36a34e	-0.011147333
38	0x3d8275f5	0.06370155
39	0xbd81afa8	-0.06332332
40	0x3d08962b	0.033346336
41	0xbda346ee	-0.07972513
42	0x3d2c1756	0.042014442
43	0xbd2619dd	-0.04055201
44	0x3d9520b7	0.072816305
45	0x3c90221e	0.017594393
46	0x3d8f570e	0.06999026
47	0x3d5f270f	0.05448061
48	0x3cb102d8	0.021607801
49	0xbd34e2a6	-0.04416146
50	0xbd798116	-0.06091412
51	0x3d8362ef	0.064153545
52	0x3d4e37db	0.050346237
53	0x3d541d5a	0.051785804
54	0x3dacdf42	0.084410205
55	0x3d7b193e	0.06130337
56	0x3d160315	0.036624033
57	0xbca97f5b	-0.02069061
58	0xbc686154	-0.014183361
59	0x3d63b72d	0.055594612
60	0x3dbc370a	0.09190185
61	0x3d427043	0.047470342
62	0x3d692e75	0.05692907
63	0xbd83916d	-0.06424222
64	0x3bf12402	0.007359029
65	0x3d8b692a	0.06807168
66	0x3d79c7ad	0.06098144
67	0x3a0b15ec	0.0005305696
68	0xbc737583	-0.01485956
69	0x3daa14f4	0.08304778
70	0x3cb17aee	0.021665063
71	0xbd52490b	-0.05133919
72	0xbd500197	-0.050782766
73	0xbd171fb6	-0.036895476
74	0xbd5c3b80	-0.05376768
75	0x3c5024af	0.012704059
76	0x3d368382	0.04455901
77	0x3dad3ce3	0.08458879
78	0xbd9b1f04	-0.07574275
79	0xbc4fbd91	-0.0126794735
80	0x3d3984f7	0.04529282
81	0x3d1e62bf	0.03866839
82	0xbd8e5c39	-0.06951184
83	0xbd2fae5f	-0.042890903
84	0xbc83cc37	-0.016088588
85	0x3d981dba	0.07427545
86	0x3bf3c4f2	0.007439249
87	0x3c337f8f	0.010955705
88	0xbd976436	-0.073921606
89	0x3d2a1387	0.04152253
90	0x3d556091	0.052094046
91	0xbc7b564e	-0.015340401
92	0xbae00b56	-0.0017093222
93	0x3d49bed9	0.049254272
94	0xbd5a4da7	-0.05329671
95	0x3d3940b3	0.045227718
96	0xbd6f46e5	-0.05841722
97	0x3ccb9ab7	0.024854047
98	0x3ca0df79	0.01963781
99	0xbd0739d3	-0.03301413
100	0x3cccf76b	0.025020322
101	0xbca49ba8	-0.020093754
102	0xbda4d28c	-0.08047971
103	0xbd099b13	-0.033595156
104	0xbd2f0e0f	-0.042738017
105	0xbbaabad6	-0.005210261
106	0x3c36c9c8	0.011156507
107	0xbdcc50e4	-0.09976366
108	0x3d01b6f7	0.03166863
109	0x3d151248	0.036394387
110	0xbb4dd5de	-0.0031407992
111	0xbd4013c7	-0.04689386
112	0xbcf96d82	-0.030447725
113	0x3cc2136a	0.023690898
114	0xbd484778	-0.048896283
115	0x3d28f3f5	0.04124828
116	0x3c197488	0.009366162
117	0x3ccaac9e	0.024740513
118	0xbcfb3abc	-0.030667655
119	0x3d9e43ae	0.077277526
120	0x3d554f74	0.052077726
121	0x3d98020c	0.074222654
122	0x3d3995a5	0.045308728
123	0xba71c5d5	-0.00092228997
124	0x3d5f9573	0.054585885
125	0x3d6478df	0.055779334
126	0xbd282ac0	-0.041056395
127	0x3d2423ae	0.04007309

_module.mlp.1.weight f4 [128]
0	0x3f80e1cd	1.0068909
1	0x3f814441	1.0098954
2	0x3f7b3dec	0.9814136
3	0x3f80e672	1.0070326
4	0x3f8157cc	1.0104918
5	0x3f81f048	1.0151453
6	0x3f7fac3f	0.998722
7	0x3f7ce42f	0.9878568
8	0x3f806c1c	1.0032992
9	0x3f7fb249	0.99881417
10	0x3f7c9583	0.98665637
11	0x3f7b4575	0.9815286
12	0x3f811f9b	1.008777
13	0x3f823c9b	1.0174745
14	0x3f7e82b4	0.9941819
15	0x3f7c8cd3	0.9865238
16	0x3f80046f	1.0001353
17	0x3f7ca984	0.9869616
18	0x3f809eed	1.00485
19	0x3f8069f1	1.0032331
20	0x3f7dab38	0.99089384
21	0x3f806835	1.0031801
22	0x3f812ced	1.0091835
23	0x3f7faf5f	0.9987697
24	0x3f81e46f	1.0147837
25	0x3f8099fd	1.0046993
26	0x3f80a68b	1.0050825
27	0x3f800eb0	1.0004482
28	0x3f8102e9	1.0079013
29	0x3f7d40f6	0.9892725
30	0x3f805707	1.0026559
31	0x3f7e5727	0.99351734
32	0x3f7dfd85	0.99214965
33	0x3f7f2f85	0.99681884
34	0x3f7e1a43	0.9925882
35	0x3f802eed	1.0014321
36	0x3f7dcc86	0.99140203
37	0x3f80a60f	1.0050677
38	0x3f81fe65	1.015576
39	0x3f82f813	1.0231956
40	0x3f7fdf60	0.9995022
41	0x3f7d0abb	0.988445
42	0x3f807ed8	1.003871
43	0x3f806ac6	1.0032585
44	0x3f81a56d	1.0128609
45	0x3f825268	1.0181398
46	0x3f7d9acc	0.99064326
47	0x3f7db88e	0.99109733
48	0x3f7f6d07	0.9977574
49	0x3f7e71b5	0.99392253
50	0x3f813767	1.0095032
51	0x3f7a4b71	0.97771364
52	0x3f7a4c02	0.9777223
53	0x3f7c3f45	0.9853404
54	0x3f7fa5d8	0.9986243
55	0x3f7e96a5	0.99448615
56	0x3f808d00	1.004303
57	0x3f7f87e8	0.9981675
58	0x3f81a4c9	1.0128413
59	0x3f80df33	1.0068115
60	0x3f7c1925	0.9847587
61	0x3f7e1bab	0.9926097
62	0x3f7e17cf	0.9925508
63	0x3f80bf7e	1.0058439
64	0x3f7cab14	0.98698545
65	0x3f81190a	1.0085766
66	0x3f8163a9	1.0108539
67	0x3f7d4df8	0.98947096
68	0x3f7e6ffd	0.9938963
69	0x3f7cbbe7	0.98724216
70	0x3f7e2a09	0.9928289
71	0x3f8151cb	1.0103086
72	0x3f80a314	1.0049767
73	0x3f7c9613	0.98666495
74	0x3f818bf4	1.0120835
75	0x3f7d08c0	0.98841476
76	0x3f808f73	1.0043777
77	0x3f7fbcb9	0.9989734
78	0x3f7d574a	0.9896132
79	0x3f8143d4	1.0098825
80	0x3f8001cc	1.0000548
81	0x3f8029f0	1.0012798
82	0x3f7cf9f0	0.98818874
83	0x3f8183b9	1.0118324
84	0x3f7f1328	0.99638605
85	0x3f818f2f	1.0121821
86	0x3f7c9055	0.98657733
87	0x3f80d12c	1.0063834
88	0x3f807021	1.0034219
89	0x3f7f592a	0.9974543
90	0x3f7c026a	0.98441184
91	0x3f82891b	1.0198091
92	0x3f7f8e13	0.99826163
93	0x3f7c263f	0.9849586
94	0x3f8085c1	1.0040818
95	0x3f7dde09	0.99166924
96	0x3f7f0ab3	0.996257
97	0x3f7bd15f	0.9836635
98	0x3f7dd7fd	0.99157697
99	0x3f7f04f3	0.99616927
100	0x3f80f5c5	1.0075003
101	0x3f7e56bb	0.9935109
102	0x3f7d8419	0.9902969
103	0x3f7ec0ea	0.99513113
104	0x3f8056a8	1.0026445
105	0x3f7f8fba	0.99828684
106	0x3f810cae	1.0081995
107	0x3f840d70	1.0316601
108	0x3f8060b1	1.0029508
109	0x3f7b0a78	0.9806285
110	0x3f804ce1	1.0023462
111	0x3f7c7caa	0.9862772
112	0x3f7f3576	0.9969095
113	0x3f7ec359	0.99516827
114	0x3f7ae1e7	0.9800095
115	0x3f7fa288	0.9985738
116	0x3f7fb0a5	0.99878913
117	0x3f80e5cf	1.0070132
118	0x3f7d245c	0.98883605
119	0x3f7da610	0.99081516
120	0x3f814a07	1.0100716
121	0x3f80329c	1.0015445
122	0x3f7f30e6	0.9968399
123	0x3f7accdd	0.97968847
124	0x3f7f9e93	0.9985134
125	0x3f813c1b	1.0096468
126	0x3f7fb374	0.998832
127	0x3f7e62ba	0.99369395

_module.mlp.1.bias f4 [128]
0	0x3b658ac7	0.0035025345
1	0x3ae4bc7c	0.0017451192
2	0x3c16f2c4	0.009213153
3	0xbb4aea83	-0.0030962534
4	0x3c51bf17	0.012801907
5	0xbc95fc9c	-0.01830893
6	0xbbddc531	-0.006767892
7	0x3c8410c4	0.016121276
8	0x3b563a57	0.0032688582
9	0x3b590701	0.0033115747
10	0x3b127171	0.0022345448
11	0x3c5a6467	0.013329602
12	0x38b536a8	8.640933e-05
13	0x3bd71b9f	0.006564572
14	0x3c8bf271	0.017083379
15	0xbb30d731	-0.0026983733
16	0x3b96d846	0.0046034185
17	0x3caca1fb	0.021073332
18	0x3c3a8951	0.011385278
19	0xbb9ab572	-0.004721337
20	0xb9e4a5db	-0.0004361112
21	0xbc08efb2	-0.008357929
22	0xb9e1fc65	-0.00043103393
23	0xbbc182d4	-0.0059054885
24	0x3b1222d0	0.0022298582
25	0x3bde0e0c	0.006776577
26	0xbc501198	-0.012699507
27	0x3c201e2e	0.00977282
28	0x3bd7d5a2	0.0065867463
29	0xbb1a161b	-0.002351171
30	0xbbff51f5	-0.0077917525
31	0x3b35b64f	0.0027727073
32	0xbb9ab6b6	-0.004721488
33	0x3c1e5865	0.00966463
34	0xbbca3b13	-0.006171593
35	0xbc3341ac	-0.01094095
36	0xbbfdeef4	-0.0077494327
37	0x3bdcd10e	0.0067387884
38	0x3ad5ff3b	0.0016326675
39	0x3c00e2a0	0.007866532
40	0x3b7c539a	0.003850198
41	0xb9bf53be	-0.00036492752
42	0xbaccf73a	-0.0015637644
43	0xbba5501f	-0.0050449516
44	0xbc934a92	-0.017979894
45	0x3c8efcc6	0.017454516
46	0x3c7f11b1	0.015568183
47	0x3c0b7734	0.008512307
48	0x3c05ab35	0.008158495
49	0xbc24008f	-0.010009899
50	0x3bc5baaf	0.0060342173
51	0xbc0cbe8c	-0.008590352
52	0x3bd68e9f	0.0065477635
53	0xbc4ced4b	-0.012507747
54	0xbb91483a	-0.004433659
55	0x3c16529f	0.009174972
56	0xbbca5f15	-0.0061758854
57	0xbb89dbf9	-0.004207131
58	0x3c6cb20f	0.014446749
59	0xbb890b99	-0.0041822908
60	0x3b129697	0.002236759
61	0x3c744b1d	0.0149104865
62	0xbc5f4e8a	-0.013629565
63	0xbc8403a7	-0.016115023
64	0xbc887c9b	-0.016660979
65	0xbc144057	-0.009048543
66	0x3c711fe9	0.014717081
67	0xbbbfaab8	-0.0058492087
68	0xbb3aedd9	-0.0028523116
69	0xbcd4821d	-0.02594095
70	0x3c2cde02	0.010550978
71	0x3c73154e	0.014836622
72	0x3beca75a	0.0072220983
73	0xbc0c8bc2	-0.008578243
74	0xbad44fbc	-0.0016198079
75	0x3b535cd2	0.003225137
76	0x3ba2a873	0.0049639284
77	0xbc3d98f2	-0.01157211
78	0xbba4b8b0	-0.0050268993
79	0xbb968622	-0.0045936266
80	0xbc1ce757	-0.00957664
81	0x3bc0d28f	0.0058844755
82	0x3c489017	0.012241385
83	0x3bad3955	0.0052863755
84	0xbb44fb91	-0.0030057172
85	0x3b943f1d	0.0045241253
86	0xbc271295	-0.010197301
87	0xbb46d055	-0.0030336578
88	0xbc25d362	-0.010121198
89	0xbb875e9c	-0.0041311514
90	0x3ae28ad6	0.0017283808
91	0xbbe07760	-0.006850168
92	0xbc1bc3b8	-0.009507112
93	0x3b710634	0.003677738
94	0x3c27e7dc	0.010248151
95	0xba248c06	-0.00062769686
96	0x3b6c0905	0.0036016118
97	0xbcce4f23	-0.02518422
98	0xbc2173f6	-0.009854307
99	0xbb89562c	-0.0041911807
100	0xbb0b4b3f	-0.0021254567
101	0xbb945eeb	-0.0045279167
102	0xbbbf67a0	-0.0058412105
103	0xbc08a267	-0.008339501
104	0x3b9a1d13	0.004703173
105	0x3c9e116c	0.019295417
106	0xbc69d2c3	-0.014271441
107	0xb823b859	-3.9033916e-05
108	0xb85a0162	-5.1976538e-05
109	0x3bea7292	0.007154771
110	0xbb06c24a	-0.0020562583
111	0xbc484c43	-0.012225213
112	0xbb3821e4	-0.0028096372
113	0x3befc523	0.0073172017
114	0xbbc14fd7	-0.00589941
115	0x3b9ac60e	0.004723317
116	0xbc68d9e9	-0.01421211
117	0xbc49a8da	-0.012308324
118	0x3c19da02	0.009390356
119	0x3b7d3551	0.0038636515
120	0xbb43526a	-0.0029803761
121	0x3a34c3e9	0.0006895648
122	0xbbb967e9	-0.005658139
123	0xbad9a7b3	-0.0016605764
124	0xbb8a20b7	-0.0042153257
125	0xbac95016	-0.001535895
126	0x3bf4c962	0.0074702958
127	0xbbe9ad9e	-0.0071312925

_module.mlp.4.weight f4 [64, 128]
0	0xbd86ae0a	-0.06576164
1	0x3dd39c24	0.10332516
2	0xbd9f4c97	-0.0777828
3	0x3d0d4def	0.03449815
4	0xbd425e90	-0.047453463
5	0xbd30ff53	-0.043212246
6	0xbdb87f3d	-0.09008644
7	0xbd01db5a	-0.03170333
8	0xbd5f6ded	-0.054548193
9	0x3d1a12a7	0.037615445
10	0x3dee9076	0.116486475
11	0xbd5a0b39	-0.05323336
12	0xbc864239	-0.016389
13	0xbd2a821a	-0.04162798
14	0xbc594249	-0.0132604325
15	0x3d2aab94	0.041667536
16	0xbb9dd1e2	-0.0048162797
17	0xbd817330	-0.063207984
18	0xbcca019c	-0.02465897
19	0xbd5c7d2f	-0.053830322
20	0xbd21c2d9	-0.03949246
21	0xbd9189f3	-0.0710639
22	0xbd0c9eec	-0.034331247
23	0x3d3d323c	0.046190485
24	0xbdc4e7fa	-0.096145585
25	0xbc1d2f40	-0.009593785
26	0x3d07cece	0.03315621
27	0x3c908286	0.017640363
28	0x3d971be6	0.07378368
29	0xbd842279	-0.06451888
30	0x3d397cf8	0.045285195
31	0x3ba8e38e	0.0051540798
32	0x3cc08c63	0.023504442
33	0xbd255bed	-0.04037087
34	0xbdbc7aa1	-0.09203077
35	0x3c5fcb25	0.013659273
36	0xbc1d60f2	-0.009605633
37	0x3be0e480	0.006863177
38	0x3d2ee37e	0.042697422
39	0x3b24ede9	0.002516622
40	0x3d9003d4	0.0703198
41	0x3d194b6f	0.037425455
42	0xbd8fdee6	-0.070249364
43	0x3c91dbae	0.017804947
44	0xbd536d27	-0.051617768
45	0xbbf57ba1	-0.0074915444
46	0x3db584a0	0.08863187
47	0x3ce24a9e	0.02762347
48	0x3d1d28e2	0.038369067
49	0x3d44f6b8	0.04808685
50	0xbd5fb6f1	-0.054617826
51	0xbc1ca0ca	-0.0095598195
52	0xbbdd0294	-0.006744692
53	0xbd07cfbc	-0.033157095
54	0x3d867840	0.065659046
55	0x3ca2a009	0.019851701
56	0x3bfe434b	0.007759487
57	0xbc70a1e5	-0.014687036
58	0xbb765ddd	-0.0037592568
59	0xbc223d21	-0.00990227
60	0xbcadd74c	-0.021220826
61	0xbd64e854	-0.055885628
62	0x3d828588	0.06373125
63	0x3d733ec1	0.05938602
64	0x3d27e96a	0.040994085
65	0x3db08c70	0.08620536
66	0x3c8cef5a	0.017203975
67	0x3b65da68	0.0035072807
68	0x3d76fabf	0.060297724
69	0xbcc8b12d	-0.024498546
70	0x3c8b6feb	0.01702114
71	0x3d425e85	0.047453422
72	0x3dabb664	0.083843976
73	0xbd796757	-0.06088957
74	0x3ce7aabc	0.028279655
75	0x3d89493d	0.06703422
76	0x3d05ef86	0.03269913
77	0xbc9000dd	-0.017578537
78	0x3a8b855b	0.0010644601
79	0xbc0e6b80	-0.008692622
80	0x3d03f53f	0.032216307
81	0xbd949685	-0.07255272
82	0xbd7cfe36	-0.061765872
83	0x3d7326ee	0.059363298
84	0xbc1c3943	-0.009535137
85	0x3d147875	0.03624769
86	0xbd4f6a10	-0.05063826
87	0xbd8229cd	-0.06355629
88	0x3bf7de8c	0.0075643715
89	0xbd6bbe42	-0.05755449
90	0xbcac8fc7	-0.021064652
91	0xbd9469d9	-0.07246751
92	0xbd8bfb50	-0.068350434
93	0xbbc7c3d0	-0.0060963407
94	0x3d492568	0.04910794
95	0x3d232a9c	0.039835557
96	0xbc9f78a5	-0.019466707
97	0xbc76ebe3	-0.015070888
98	0xbd570678	-0.052496403
99	0xbd90a243	-0.07062199
100	0x3d735149	0.05940369
101	0x3d6efa22	0.058344014
102	0x3d8fc837	0.0702061
103	0xbcfb2302	-0.030656341
104	0xbda87279	-0.08224959
105	0xbb8d8fcb	-0.00432012
106	0xbcbb1f9a	-0.022842217
107	0xbd2e9023	-0.04261793
108	0xbc99a39f	-0.018754778
109	0xbd673bbb	-0.056453448
110	0x3dd2517b	0.102694474
111	0x3d329e78	0.04360816
112	0x3ae3bbdf	0.0017374716
113	0x3ab4b13e	0.0013785732
114	0xbc182305	-0.009285693
115	0x3d532f80	0.05155897
116	0x3c7a509c	0.015278008
117	0xbd1610e4	-0.036637202
118	0xbd98a271	-0.07452858
119	0xb8b3bee0	-8.5709384e-05
120	0x3dc0faab	0.09422811
121	0xbbc1b6eb	-0.005911698
122	0xbdacaf7c	-0.084319085
123	0x3d1ecb79	0.038768265
124	0x3dab9896	0.08378713
125	0xbd9092f5	-0.0705928
126	0xbd8cc904	-0.06874278
127	0xbd954c32	-0.07289924
128	0x3d13e8c5	0.03611066
129	0xbdb9b597	-0.09067839
130	0xbca934eb	-0.020655116
131	0xbd8e0d9e	-0.06936191
132	0x3d0b6b5d	0.034037936
133	0x3c13f72e	0.0090311
134	0xbd8b1f6d	-0.06793103
135	0xbd6b8d6c	-0.057507917
136	0x3d2dc74e	0.0424264
137	0xbd5acff1	-0.053420965
138	0xbd9e2d2d	-0.0772346
139	0xbb94345c	-0.0045228433
140	0xbd301432	-0.04298801
141	0xbcd9db54	-0.026593842
142	0x3ce30774	0.027713515
143	0x3da46d8d	0.08028708
144	0xbbadfe48	-0.0053098537
145	0x3d6b7332	0.057482906
146	0x3c62fb61	0.013853879
147	0x3d397245	0.04527499
148	0xbd28b4a1	-0.041187886
149	0xbdded2e9	-0.10880072
150	0x3d0036af	0.03130215
151	0xbd51b25f	-0.0511955
152	0xbd409bd2	-0.0470236
153	0xbd19a900	-0.037514687
154	0x3d3fb72c	0.046805546
155	0x3d9d9066	0.076935574
156	0x3d07dfaf	0.033172306
157	0xbccbd55b	-0.02488201
158	0xbda5dc40	-0.0809865
159	0xbcb23de4	-0.021758027
160	0x3c8aa484	0.01692415
161	0xbbec2c77	-0.007207449
162	0xbc93ce36	-0.018042665
163	0x3c6390df	0.01388952
164	0xbc5e060f	-0.013551249
165	0x3dbccc1c	0.09218618
166	0x3d2fc3f4	0.042911485
167	0x3d115004	0.0354767
168	0x3d803654	0.06260362
169	0x3ce22fcd	0.027610684
170	0x3da83f3c	0.08215186
171	0x3d6c4055	0.05767854
172	0x3d626dc1	0.05528045
173	0xbdbfe073	-0.09368982
174	0x3c602f23	0.013683113
175	0xbd4cb203	-0.049974453
176	0xbcee5c2c	-0.029096685
177	0xbd547f4f	-0.051879223
178	0xbc64b950	-0.013960198
179	0x3db67392	0.08908762
180	0x3d766ba4	0.060161248
181	0x3d86d11b	0.065828525
182	0xbcd1d33d	-0.025613422
183	0xbcc72ef4	-0.024314381
184	0xbd0207f1	-0.031745855
185	0x3a324947	0.00068010803
186	0xbb9903b3	-0.0046696304
187	0xbd108452	-0.03528244
188	0x3d902e00	0.07040024
189	0xbde5474e	-0.11195241
190	0xbda7c10a	-0.08191116
191	0xbd72c6cb	-0.059271615
192	0x3da32008	0.07965094
193	0xbda03042	-0.078217044
194	0x3cf323a6	0.029680084
195	0xbc89cfc1	-0.016822698
196	0x3c44f272	0.012020694
197	0x3cea9204	0.028634079
198	0xbda1b767	-0.07896309
199	0x3d3c677a	0.04599712
200	0x3b0f1159	0.0021830408
201	0x3d7caa0d	0.06168561
202	0xbd8706f9	-0.06593127
203	0x3d7af2be	0.061266653
204	0x3dadee15	0.08492676
205	0x3d48641c	0.048923597
206	0xbdb6498d	-0.089007474
207	0x3db4573d	0.08805702
208	0xbd342c92	-0.043987818
209	0xbd399965	-0.045312304
210	0xbd73fcc7	-0.05956724
211	0x3c067160	0.008205742
212	0x3d9e4f5a	0.07729979
213	0x3d3cea19	0.04612169
214	0xb97bdc94	-0.00024019397
215	0x3c01fedd	0.007934299
216	0x3c9b3185	0.018944511
217	0xbd0ffa07	-0.035150554
218	0xbd84fb78	-0.06493276
219	0xbda77911	-0.081773885
220	0xbdcdfd67	-0.10058098
221	0x3d731e9a	0.059355356
222	0xbccade0b	-0.024764081
223	0xbd674eb2	-0.056471534
224	0xbd19da25	-0.037561554
225	0xbdace4a8	-0.0844205
226	0x3c9b7d1b	0.018980553
227	0xbbe2f392	-0.0069260085
228	0x3d29651b	0.041356187
229	0xbcf4d965	-0.029888818
230	0x3ca7147c	0.02039551
231	0xbd38003b	-0.044922095
232	0x3d26b2a7	0.04069772
233	0x3d4bf3ca	0.049793042
234	0x3dc5903a	0.0964665
235	0x3d860b76	0.06545155
236	0xbd9dcf92	-0.077056065
237	0xbdadf668	-0.08494264
238	0x3c9fd41a	0.019510318
239	0xbd998892	-0.07496752
240	0xbd2cefe0	-0.04222095
241	0x3d9b40e7	0.075807385
242	0x3c9e9c88	0.01936175
243	0xbd54d993	-0.051965307
244	0x3cbd0c9e	0.023077305
245	0xbdaef3d0	-0.08542597
246	0x3d4bd8b0	0.049767196
247	0x3bb1be44	0.0054242928
248	0xbc6e61cc	-0.014549684
249	0xbd26e0b1	-0.040741626
250	0xbdadbe4c	-0.08483562
251	0xbcb37a82	-0.021909002
252	0x3c0d32c8	0.008618064
253	0xbcad4883	-0.02115274
254	0xbdbc5410	-0.09195721
255	0xbccf7b60	-0.025327384

_module.mlp.4.bias f4 [64]
0	0x3d317921	0.04332841
1	0xbd151138	-0.036393374
2	0x3be9092e	0.00711169
3	0x3d910021	0.07080103
4	0xbcb907ba	-0.022586692
5	0xbc137856	-0.009000858
6	0xbc638ff6	-0.013889303
7	0x3d2059f1	0.039148275
8	0x3d3f6062	0.046722777
9	0x3c04d4ee	0.008107407
10	0xbd965d0b	-0.07341965
11	0xbdc79005	-0.097442664
12	0x3d2ba2b9	0.04190323
13	0xbcbba4ef	-0.022905795
14	0x3d4564b1	0.04819173
15	0x3ccf79b7	0.025326593
16	0xbd73fed8	-0.05956921
17	0xbdc6baeb	-0.097036205
18	0x3d6cfdd1	0.057859246
19	0x3d732dbe	0.059369795
20	0x3dacf0ba	0.084443524
21	0x3c1011b1	0.00879328
22	0x3c372519	0.011178278
23	0x3d3fa05d	0.046783794
24	0xbd88b0bd	-0.06674335
25	0xbda85662	-0.08219601
26	0x3d5888a2	0.05286468
27	0xbcc2ef4b	-0.023795744
28	0x3d3675ae	0.04454582
29	0xbd17c51c	-0.037053213
30	0xbc237277	-0.009976021
31	0x3a21813b	0.00061609194
32	0x3d94e9cd	0.072711565
33	0x3bb88523	0.0056311055
34	0x39d0c5e9	0.00039820306
35	0xbd3ce371	-0.046115343
36	0x3c613847	0.013746328
37	0x3c2e3445	0.010632579
38	0xbd5e36f9	-0.054251645
39	0xbb8240c6	-0.0039750068
40	0xbd8e004b	-0.0693365
41	0x3d40ee71	0.047102395
42	0xbcfbaa29	-0.030720787
43	0x3d89c935	0.0672783
44	0x3da17c41	0.07885028
45	0x3dacd2d5	0.084386505
46	0xbdabf9b7	-0.08397239
47	0x3db4ba8e	0.08824645
48	0xbd909b19	-0.070608325
49	0xbdb10cb7	-0.08645003
50	0xbc1fee44	-0.009761397
51	0xbd431df9	-0.047636006
52	0xbd00e099	-0.031464193
53	0x3d73fb40	0.059565783
54	0x3dab2881	0.08357335
55	0xbcbd8be4	-0.023137994
56	0xbd717adc	-0.05895506
57	0x3d0b0357	0.033938732
58	0x3d22a8b3	0.039711665
59	0xbccd208d	-0.025039935
60	0xbc038f5d	-0.008029786
61	0xbd163daa	-0.0366799
62	0x3d843ad9	0.06456537
63	0xbcedd26c	-0.029031001

_module.mlp.5.weight f4 [64]
0	0x3f7d99b9	0.9906269
1	0x3f7d869c	0.9903352
2	0x3f82105c	1.0161242
3	0x3f801254	1.0005593
4	0x3f7c7963	0.9862272
5	0x3f8157b0	1.0104885
6	0x3f80d9e6	1.0066497
7	0x3f81c200	1.0137329
8	0x3f838903	1.0276188
9	0x3f810ad4	1.008143
10	0x3f7cf9ca	0.9881865
11	0x3f8088db	1.0041765
12	0x3f80aada	1.005214
13	0x3f8169dd	1.0110432
14	0x3f7f5a8b	0.9974753
15	0x3f8177da	1.0114701
16	0x3f7b3690	0.9813013
17	0x3f81c3e7	1.013791
18	0x3f809224	1.0044599
19	0x3f7cc81c	0.9874284
20	0x3f7f5fa0	0.9975529
21	0x3f7df4f6	0.99201906
22	0x3f803edb	1.0019182
23	0x3f825db6	1.0184848
24	0x3f85596f	1.0417918
25	0x3f8008a9	1.0002643
26	0x3f7e6ff5	0.9938958
27	0x3f813d17	1.0096768
28	0x3f7c8b3a	0.9864994
29	0x3f805322	1.002537
30	0x3f7ebf0a	0.9951025
31	0x3f80eb6f	1.0071849
32	0x3f80e50b	1.0069898
33	0x3f81b5dd	1.0133625
34	0x3f85060e	1.0392473
35	0x3f800812	1.0002463
36	0x3f7fded8	0.9994941
37	0x3f809ca2	1.00478
38	0x3f83275b	1.0246385
39	0x3f80a243	1.0049518
40	0x3f7f6e3e	0.9977759
41	0x3f7fe756	0.99962366
42	0x3f804a71	1.0022718
43	0x3f815a81	1.0105745
44	0x3f7f03c0	0.996151
45	0x3f805996	1.002734
46	0x3f80c024	1.0058637
47	0x3f7f5262	0.9973508
48	0x3f82499c	1.0178714
49	0x3f8029da	1.0012772
50	0x3f807823	1.0036663
51	0x3f820dca	1.0160458
52	0x3f846d6c	1.0345893
53	0x3f81e191	1.0146962
54	0x3f7eab7a	0.994804
55	0x3f8370aa	1.0268757
56	0x3f79f06a	0.9763247
57	0x3f818e5d	1.0121571
58	0x3f806361	1.0030328
59	0x3f80249e	1.0011175
60	0x3f82a39c	1.020618
61	0x3f8199c1	1.0125047
62	0x3f80a04a	1.0048916
63	0x3f835d3b	1.0262827

_module.mlp.5.bias f4 [64]
0	0x3c4aef6d	0.012386185
1	0xbab45db2	-0.0013760834
2	0xbb9ca163	-0.004779981
3	0xbb980ed7	-0.004640441
4	0xbb9b5b9d	-0.0047411458
5	0xbc41a02d	-0.011817974
6	0x3c58aba5	0.013224517
7	0x3baa58be	0.005198567
8	0x3c39b91e	0.011335639
9	0x3b6dd307	0.0036289112
10	0x3c472bad	0.012156409
11	0x3ce6ef69	0.028190332
12	0x3c836344	0.016038544
13	0xbb8d499f	-0.004311755
14	0x380f7043	3.419841e-05
15	0x3af96763	0.0019028004
16	0x3c75517f	0.014973043
17	0x3c0b8c4b	0.008517335
18	0xbc745088	-0.014911778
19	0xbb9052d5	-0.0044044056
20	0x3bd0d46a	0.006372978
21	0x3bc0b27f	0.0058806534
22	0x3c6e4bb3	0.014544415
23	0x3bef9fec	0.0073127653
24	0x3cceda19	0.025250481
25	0xbb67e0d7	-0.0035381818
26	0xbb31b27f	-0.0027114449
27	0x3c3fc745	0.011705224
28	0xbc3f2a93	-0.011667865
29	0xbb525adb	-0.003209761
30	0x3bf5da79	0.0075028506
31	0xbc955273	-0.018227791
32	0x3c5abc6e	0.013350589
33	0x3b0b2fd2	0.002123822
34	0x3cc8f0a9	0.024528818
35	0xbc6eea6d	-0.014582259
36	0x3b4baacc	0.0031077145
37	0x3b506897	0.0031800622
38	0xbcad4932	-0.021153066
39	0x3b8c0891	0.004273482
40	0xba935a11	-0.0011242052
41	0xbc29e053	-0.0103684245
42	0xbc157f99	-0.00912466
43	0x3ad11d51	0.0015954172
44	0x3c32c2fd	0.010910747
45	0xbb768d32	-0.003762078
46	0x3c8d9786	0.017284166
47	0x3ce936e8	0.028468564
48	0x3be3cc87	0.006951872
49	0x3c26da7c	0.010183927
50	0xbc60c6bb	-0.013719256
51	0x3c21800a	0.009857187
52	0x3c9d9c00	0.019239426
53	0x3c5f13cf	0.013615563
54	0xbbc9f90a	-0.006163721
55	0x3c9bfdb5	0.019041875
56	0x3a8775a5	0.0010334743
57	0x3c450789	0.012025722
58	0xbc300986	-0.010744458
59	0xbc5c6a7e	-0.013453124
60	0x3c598488	0.013276227
61	0xbcce1bae	-0.025159683
62	0xbc05519c	-0.008137133
63	0x3c850d1a	0.016241599

_module.mlp.8.weight f4 [2, 64]
0	0x3dcd33fd	0.100196816
1	0xbd8b4eab	-0.06802114
2	0xbdbc803d	-0.09204147
3	0x3caeea60	0.021351993
4	0x3d7e1f4f	0.062041577
5	0x3d9979e0	0.07493949
6	0x3e1cd375	0.1531504
7	0x3d8ea76a	0.069655254
8	0x3e32ad56	0.17448935
9	0xbde8119f	-0.11331486
10	0x3c61f817	0.013792059
11	0x3e31d1bc	0.17365164
12	0x3d33c345	0.043887395
13	0xbe02d682	-0.1277714
14	0xbd52e3be	-0.051486723
15	0xbd845891	-0.06462205
16	0x3cd421b2	0.025894973
17	0x3c6f8edd	0.014621464
18	0xbd71e751	-0.05905849
19	0xbd914e5d	-0.07095025
20	0x3c91b9d7	0.01778881
21	0xbc7c81db	-0.015411819
22	0x3df6d7ef	0.12052905
23	0x3dabe192	0.083926335
24	0x3e19448a	0.14967552
25	0xbdac260c	-0.08405694
26	0xbdc6d5c8	-0.09708744
27	0x3d498bdd	0.04920565
28	0x3da092f4	0.07840529
29	0x3cca33a3	0.024682825
30	0x3dbc5174	0.091952235
31	0xbdbf6795	-0.093459286
32	0x3d4418df	0.04787528
33	0x3e28088e	0.16409513
34	0x3e2f3e13	0.17113523
35	0xbdc9e72e	-0.09858547
36	0x3bd53b75	0.006507332
37	0x3d536f60	0.051619887
38	0xbd60afe2	-0.054855235
39	0x3d3fa4da	0.046788074
40	0xbe0144f9	-0.12623967
41	0xbdd3e5f2	-0.10346593
42	0xbcc188e7	-0.02362485
43	0xbdcaa0be	-0.098939404
44	0x3ca00eeb	0.019538363
45	0x3e0a572d	0.13509817
46	0x3e0c8f9e	0.1372666
47	0x3d5d5e91	0.054045264
48	0x3d3cc522	0.046086438
49	0x3b9eee16	0.0048501594
50	0x3dcbe3c2	0.09955551
51	0x3e1496f2	0.14510706
52	0x3e2bb834	0.16769487
53	0x3e172427	0.14759885
54	0x3d16b8c0	0.036797285
55	0x3de339c4	0.11095002
56	0xbdd12559	-0.102122016
57	0x3ddc8c40	0.10768938
58	0x3d76f2fd	0.060290325
59	0xbde6613c	-0.11249015
60	0xbdec3214	-0.11532989
61	0xbbdcfd84	-0.0067440886
62	0x3a934d55	0.0011238257
63	0x3e25eace	0.16202852
64	0xbd7b87cb	-0.0614088
65	0x3c76c7ec	0.0150623135
66	0xbd373834	-0.044731334
67	0xbd275a85	-0.04085781
68	0x3c6a68a2	0.014307173
69	0xbe3ad140	-0.18243885
70	0xbd831580	-0.06400585
71	0xbb0a16af	-0.002107065
72	0xbe460506	-0.19337854
73	0xbcaf7298	-0.021416947
74	0xbe0bd4ed	-0.13655443
75	0xbd74d493	-0.05977304
76	0xbd4acc89	-0.049511466
77	0x3da96c5d	0.08272622
78	0xbd879f0e	-0.06622134
79	0xbe0ec782	-0.13943294
80	0x3d5adfca	0.053436078
81	0xbcc8614e	-0.024460461
82	0x3dfee988	0.12446886
83	0xbe190a65	-0.14945371
84	0xbde7f040	-0.11325121
85	0xbe12da90	-0.14341187
86	0x3c6bbe53	0.014388639
87	0x3dc4f22d	0.09616504
88	0xbe08a295	-0.1334327
89	0x3baf8899	0.00535686
90	0xbe1ab572	-0.15108278
91	0xbd3447a4	-0.044013634
92	0x3d332621	0.043737534
93	0xbcc6b813	-0.024257695
94	0x3d321c80	0.04348421
95	0x3cbfdcaf	0.02342066
96	0xbd57c941	-0.052682165
97	0xbd6cd713	-0.0578223
98	0xbe384db4	-0.17998391
99	0xbda35b29	-0.07976372
100	0xbda63e4d	-0.08117352
101	0x3d76b610	0.060232222
102	0x3d2f8994	0.042855814
103	0xbd6752a1	-0.056475285
104	0x3c3e7244	0.011623923
105	0x3dca572f	0.0987991
106	0xbdb7f99d	-0.08983157
107	0x3e0a5000	0.1350708
108	0xbd1ea34f	-0.038729962
109	0x3d8c098c	0.068377584
110	0x3c836875	0.01604102
111	0xbe3182b3	-0.17335014
112	0x3d4e35b3	0.05034418
113	0xbd256613	-0.04038055
114	0x3da68225	0.08130292
115	0xbd1ecbaf	-0.038768467
116	0xbde1bd21	-0.110224016
117	0x3c759cc4	0.014990989
118	0x3de7d086	0.113190696
119	0xbe3075d6	-0.17232451
120	0xbde4172f	-0.111372344
121	0xbdd10579	-0.10206122
122	0x3c86bd6a	0.016447742
123	0x3d809851	0.06279052
124	0x3e139a89	0.14414419
125	0x3dc28ed3	0.09499898
126	0x3dffeb02	0.12495996
127	0xbe3231f8	-0.17401874

_module.mlp.8.bias f4 [2]
0	0x3c16daad	0.00920741
1	0xbdceaf41	-0.10092021

exp_avg f4 [128, 140]
0	0x3ae457ff	0.0017421244
1	0x3af3ec33	0.0018609822
2	0xbb13d7ac	-0.002255897
3	0xbaf5dd32	-0.0018757938
4	0x3b7c4187	0.0038491206
5	0x3b242793	0.0025048002
6	0xbacae075	-0.001547827
7	0xb8ba43aa	-8.8817746e-05
8	0xbb3f0b3e	-0.0029150988
9	0x3b07fc3e	0.0020749713
10	0xbb3518c3	-0.0027633167
11	0xb8a98227	-8.082791e-05
12	0x3b7fc4e0	0.0039027259
13	0x3a57b4e1	0.0008228552
14	0x3b2e11b1	0.0026560838
15	0xb97d3a4d	-0.00024149679
16	0x3afdbebb	0.001935921
17	0x3aa2b103	0.0012412373
18	0x3aa8a46e	0.0012866387
19	0xbacb2509	-0.0015498708
20	0x3a8e079e	0.001083601
21	0xba527a8c	-0.0008029125
22	0x3a5f307f	0.00085140014
23	0x390e4766	0.00013568773
24	0x3a937d2a	0.0011252512
25	0x390227b1	0.00012412552
26	0x3aba36d4	0.0014207014
27	0xbb343404	-0.0027496824
28	0xba65791e	-0.00087537046
29	0xb90cf6cb	-0.00013443378
30	0xbb3d8641	-0.0028919133
31	0xbb0dd13a	-0.0021639601
32	0xbacdc6f2	-0.0015699549
33	0x39494167	0.00019193218
34	0x3b82640f	0.003979213
35	0xbb3973e6	-0.002829784
36	0x3b6d7eee	0.0036238986
37	0xbab03dc9	-0.0013446148
38	0xba91b008	-0.0011115083
39	0xba35b5d8	-0.0006931699
40	0x3925bef1	0.00015806757
41	0x39e5f0b3	0.0004385762
42	0x3aafd90a	0.0013416123
43	0xbb2da365	-0.0026495096
44	0xba7aa2cf	-0.00095610035
45	0x3a8da915	0.0010807837
46	0x3afdc869	0.0019362095
47	0x3a1c8176	0.0005970219
48	0x3a0ad1ab	0.0005295525
49	0x3a7ed77e	0.0009721442
50	0x39ee4527	0.0004544642
51	0x3ad5d3a2	0.0016313682
52	0x3892a197	6.991921e-05
53	0xbb7cfdc6	-0.003860341
54	0xba517d85	-0.0007991421
55	0x3b5cbdaa	0.0033682385
56	0xbac8b275	-0.0015311973
57	0x3af4df45	0.0018682262
58	0x3af548a7	0.0018713669
59	0xba8287c3	-0.0009958673
60	0xbb11fd5e	-0.0022276263
61	0x39d809e2	0.00041206094
62	0x3ab401aa	0.0013733406
63	0xbaacdbc0	-0.0013188049
64	0x39838776	0.00025087193
65	0xba878ea5	-0.0010342194
66	0x39434eaa	0.00018625954
67	0xb9b1a8cd	-0.00033885837
68	0xba071040	-0.0005152263
69	0x3ab3f5c8	0.0013729865
70	0x3b8184a8	0.0039525814
71	0x3a8c4975	0.0010703044
72	0xbab24cff	-0.0013603269
73	0xbad79168	-0.0016446533
74	0xba39beff	-0.00070856506
75	0xbb0e9cf3	-0.002176103
76	0x3a465c93	0.0007566895
77	0x399dddda	0.00030110666
78	0xb8e886fe	-0.00011087766
79	0xbb88a560	-0.004170105
80	0x3ac1397d	0.0014741864
81	0xba726e9b	-0.0009248049
82	0xbae9adc4	-0.0017828275
83	0x3b765f6c	0.0037593497
84	0xba205126	-0.00061156077
85	0x3b422fdb	0.0029630575
86	0xbb0ec4eb	-0.0021784853
87	0xbaba23f2	-0.0014201386
88	0xbb00b9b8	-0.0019641947
89	0xb9c0fb31	-0.00036808246
90	0xb87619c8	-5.867498e-05
91	0x3ac689e1	0.0015147292
92	0x399929e9	0.0002921366
93	0xba0e25b5	-0.0005422489
94	0xb964125f	-0.00021750618
95	0xbaadafa5	-0.0013251199
96	0x3b019d82	0.001977772
97	0x3a4fec5d	0.0007931644
98	0x3a378f30	0.00070022326
99	0x389fc238	7.617887e-05
100	0xbb05b3bb	-0.0020401317
101	0xba4b9363	-0.0007765798
102	0xbac043f7	-0.0014668693
103	0xb9b7db75	-0.00035067988
104	0x3ae824d8	0.0017711176
105	0xbb0290fb	-0.001992284
106	0x3a8e9f33	0.0010881185
107	0xba853610	-0.0010163207
108	0x3a2bcc07	0.0006553535
109	0xbb065c82	-0.0020501916
110	0x3aa5e512	0.0012656769
111	0xba8909c8	-0.0010455186
112	0x3a0ed28a	0.0005448243
113	0x3a8deea8	0.0010828571
114	0x3b5224ac	0.0032065315
115	0xba7c8e6e	-0.0009634261
116	0xbacff4e1	-0.0015865826
117	0x3a9cdde9	0.001196799
118	0xbaf07e36	-0.0018348161
119	0x39930a77	0.00028045822
120	0xba8fa3a9	-0.0010958809
121	0xbaae370a	-0.0013291549
122	0x3b202e76	0.0024441755
123	0xba9f29a0	-0.0012143143
124	0xbb2acea0	-0.00260631
125	0xbb75d8e5	-0.0037513312
126	0x3a5b14f9	0.0008357312
127	0x39de6529	0.0004241851
128	0x3b2651c8	0.0025378335
129	0x3a6bfd57	0.0009002289
130	0xba7986cb	-0.0009518682
131	0x3ac168c0	0.0014755949
132	0x3a83afaa	0.0010046859
133	0xba982ffd	-0.0011610981
134	0xba26df20	-0.00063656457
135	0x3a9ef555	0.0012127558
136	0x3a844ded	0.0010094024
137	0x39e5affb	0.000438094
138	0x39a5bc2d	0.00031611454
139	0x3a1b5609	0.0005925601
140	0xbb19a4a0	-0.0023444071
141	0x3a8a45c4	0.0010549356
142	0xbb370b85	-0.002793045
143	0x397832eb	0.00023670091
144	0xb9ce0ec7	-0.00039302392
145	0xbb341396	-0.0027477494
146	0x3b4c9678	0.0031217616
147	0x3b63ea37	0.0034777054
148	0x3a3d9fba	0.0007233579
149	0xba2dadb5	-0.00066253106
150	0x3a46463d	0.0007563567
151	0xbada83fb	-0.0016671413
152	0x3aa25cbf	0.001238726
153	0x3a179904	0.0005782994
154	0xb9ce34b9	-0.00039330663
155	0xbb2bf957	-0.0026241147
156	0xbb5fce05	-0.0034149897
157	0xbacaae39	-0.0015463299
158	0x3bae674d	0.005322373
159	0xba083525	-0.00051959074
160	0xbad7225b	-0.0016413437
161	0x3a8b3f74	0.0010623769
162	0x3a2c84e0	0.0006581079
163	0xbb2a2320	-0.0025960878
164	0xbab3fb99	-0.0013731598
165	0x3a032af6	0.0005003655
166	0x394bf456	0.00019450611
167	0xbb020964	-0.0019842023
168	0xb9885b2a	-0.00026007864
169	0x3a8a42cd	0.0010548473
170	0xba56b2dc	-0.0008190104
171	0xbb323350	-0.002719123
172	0x3a4cd1e4	0.00078132586
173	0x3aa15c63	0.0012310859
174	0xbabf3add	-0.0014589686
175	0x3b2442fc	0.002506434
176	0xbb113ac3	-0.002216027
177	0xb81331ef	-3.5094035e-05
178	0x3af4134d	0.0018621475
179	0x3a5a9df2	0.0008339576
180	0xbb058a76	-0.0020376719
181	0x3ae2b341	0.0017295853
182	0x3b311745	0.0027021926
183	0xbacd7398	-0.0015674708
184	0x3b0c1e69	0.002138043
185	0x3bb1c080	0.005424559
186	0xba8c3f54	-0.0010700026
187	0xbaccafa5	-0.0015616311
188	0xbae7e578	-0.0017692288
189	0xba2d58b8	-0.00066126464
190	0x3a64c518	0.0008726879
191	0xbb00bf07	-0.0019645111
192	0x3b19916c	0.0023432625
193	0xbb0a5299	-0.002110636
194	0xba888cce	-0.001041794
195	0x3bd84a88	0.0066006817
196	0xba853a43	-0.0010164458
197	0xbac8b61a	-0.001531306
198	0x3ab6b520	0.0013939478
199	0x3b555721	0.0032553154
200	0x3b339bb8	0.0027406048
201	0xb927a808	-0.00015988958
202	0xbadc0835	-0.0016787114
203	0x39e9a276	0.00044562266
204	0xbb3527c3	-0.0027642108
205	0x38f995eb	0.0001190117
206	0x3a6e0d7c	0.0009080989
207	0x3983f7b5	0.00025170823
208	0x3afd36d7	0.0019318712
209	0xbb611293	-0.0034343346
210	0x3a395304	0.000706956
211	0x3b630a41	0.0034643563
212	0xb9f2410b	-0.00046206298
213	0xbb1b7613	-0.00237215
214	0x3b1d6830	0.00240184
215	0x3b0d4406	0.0021555438
216	0x3b618f9a	0.0034417869
217	0xbb144d29	-0.0022629
218	0x3a9424f8	0.0011302521
219	0xbb55582e	-0.003255378
220	0x39990d48	0.0002919233
221	0x3a1ce446	0.0005984943
222	0xba81dcd2	-0.0009907729
223	0x39262c70	0.00015847548
224	0x3b61d0f5	0.0034456823
225	0x3ab4f373	0.0013805464
226	0xb96a7914	-0.00022361084
227	0xbaae705c	-0.0013308632
228	0xb92e2518	-0.00016607752
229	0xbb299718	-0.0025877412
230	0x3a989108	0.0011639902
231	0x3b23b046	0.0024976893
232	0xba77bf4a	-0.00094508065
233	0xba080411	-0.0005188594
234	0xba1117b3	-0.00055348425
235	0xbb28437d	-0.0025674992
236	0x397a39f0	0.00023863441
237	0x3b70e1ff	0.0036755798
238	0x3b1028a5	0.0021996882
239	0xbb2c05cc	-0.0026248572
240	0xbb930681	-0.0044868593
241	0xbaae2fca	-0.0013289389
242	0xba796bf1	-0.0009514681
243	0xba751d4d	-0.00093503745
244	0xb9d8f130	-0.0004137843
245	0x39349e25	0.00017225051
246	0xba6e81a2	-0.0009098296
247	0xbaaadb41	-0.0013035313
248	0x3a61e70e	0.00086174987
249	0xbb0c9825	-0.002145299
250	0xba6f1073	-0.00091195776
251	0xba4def1b	-0.0007855759
252	0x397eb95d	0.00024292381
253	0x3a804c71	0.0009788406
254	0x3a3c22ba	0.00071768055
255	0xbb676638	-0.003530873

exp_avg_sq f4 [128, 140]
0	0x374bc356	1.2145223e-05
1	0x37452f87	1.1753181e-05
2	0x3726b2ca	9.935999e-06
3	0x3759b7a3	1.2976964e-05
4	0x375c4faa	1.313157e-05
5	0x373328a0	1.067869e-05
6	0x3748257a	1.1929655e-05
7	0x372f353c	1.0443207e-05
8	0x3720c751	9.58315e-06
9	0x373a3690	1.1099168e-05
10	0x372cbaa5	1.02954555e-05
11	0x37395890	1.1047479e-05
12	0x3769569f	1.390805e-05
13	0x376b687c	1.4031419e-05
14	0x37335fe8	1.0691561e-05
15	0x3740933a	1.1478371e-05
16	0x372b41ef	1.0207746e-05
17	0x375c5d4a	1.3134742e-05
18	0x37330977	1.0671435e-05
19	0x374ec9e8	1.2325567e-05
20	0x37359b2d	1.082457e-05
21	0x372a7fe1	1.0162564e-05
22	0x37367d10	1.0877164e-05
23	0x374451fa	1.1701597e-05
24	0x3754a78d	1.2675196e-05
25	0x37574bf2	1.2832681e-05
26	0x373fbc32	1.1428305e-05
27	0x373a6031	1.110886e-05
28	0x375d1e0c	1.3179622e-05
29	0x375720e0	1.2822653e-05
30	0x373f7b95	1.1413261e-05
31	0x374daa9e	1.2258677e-05
32	0x37478d16	1.1894173e-05
33	0x376e517c	1.42048775e-05
34	0x3747160a	1.1866456e-05
35	0x3738376b	1.0980158e-05
36	0x3732dd38	1.0661133e-05
37	0x3730ee51	1.0545905e-05
38	0x371bf6d4	9.296189e-06
39	0x374bf6d0	1.2157208e-05
40	0x37489199	1.1954829e-05
41	0x372dcc83	1.035922e-05
42	0x37469496	1.1836315e-05
43	0x373ea1e7	1.1362578e-05
44	0x373d2629	1.1274163e-05
45	0x374e122c	1.2282788e-05
46	0x373e359b	1.13373635e-05
47	0x373e0d8e	1.1328038e-05
48	0x3737e16d	1.0960136e-05
49	0x37236bd8	9.740666e-06
50	0x375c44c3	1.3129032e-05
51	0x372f8587	1.0461902e-05
52	0x3733c048	1.0714e-05
53	0x374f124b	1.2342421e-05
54	0x3720895f	9.568727e-06
55	0x373c77dd	1.1233581e-05
56	0x37362ba9	1.0858211e-05
57	0x374ec28d	1.2323854e-05
58	0x37863eb0	1.6003236e-05
59	0x374375ef	1.1650364e-05
60	0x3739d361	1.1076075e-05
61	0x371aaafa	9.218924e-06
62	0x372dba1e	1.0354937e-05
63	0x37452a1a	1.1751918e-05
64	0x3738ec00	1.1022203e-05
65	0x37181ab7	9.066126e-06
66	0x373aab20	1.1126307e-05
67	0x3735ef5a	1.0844169e-05
68	0x372f8f31	1.0464152e-05
69	0x3723f36d	9.772234e-06
70	0x37316469	1.0573401e-05
71	0x3741a556	1.1542192e-05
72	0x373f531d	1.14038385e-05
73	0x3734d178	1.0777607e-05
74	0x37448fa1	1.1715952e-05
75	0x37437e7e	1.1652357e-05
76	0x375e41ea	1.3247578e-05
77	0x374a7745	1.2067908e-05
78	0x374b2ea7	1.2110605e-05
79	0x375c3161	1.3124519e-05
80	0x3763e963	1.3584594e-05
81	0x37385e0b	1.0989151e-05
82	0x375b427d	1.3068898e-05
83	0x376fc562	1.4291467e-05
84	0x3749c44b	1.2026237e-05
85	0x3747a32f	1.1899318e-05
86	0x376c4712	1.40832435e-05
87	0x37518803	1.2489038e-05
88	0x375d275c	1.3181791e-05
89	0x373666a2	1.0871941e-05
90	0x372f5690	1.0450967e-05
91	0x374951d6	1.19995875e-05
92	0x3744d346	1.1731701e-05
93	0x374f2166	1.2345938e-05
94	0x37274fe9	9.972581e-06
95	0x371aaf5f	9.219947e-06
96	0x37307ec7	1.0519935e-05
97	0x373bcdf4	1.1194021e-05
98	0x373e399f	1.13382985e-05
99	0x375ad496	1.3043309e-05
100	0x37391e0a	1.1033853e-05
101	0x375b2a4e	1.3063267e-05
102	0x3731442f	1.0565897e-05
103	0x3757c256	1.2860246e-05
104	0x3738b192	1.1008598e-05
105	0x37541054	1.2639986e-05
106	0x37353717	1.0801267e-05
107	0x374c9e37	1.2196185e-05
108	0x3757b268	1.2856537e-05
109	0x372f5855	1.0451379e-05
110	0x3753142a	1.2581275e-05
111	0x373bbbc6	1.1189788e-05
112	0x373f23e8	1.1392847e-05
113	0x374c9e63	1.2196225e-05
114	0x371eed18	9.472737e-06
115	0x3730111e	1.0494403e-05
116	0x375d1544	1.3177578e-05
117	0x3726f085	9.950371e-06
118	0x37312efc	1.05609615e-05
119	0x37240c28	9.777992e-06
120	0x3761ef18	1.3466713e-05
121	0x374aad66	1.2080511e-05
122	0x37581e78	1.2881697e-05
123	0x37351c1d	1.0794986e-05
124	0x372c05a3	1.0253311e-05
125	0x3754c20a	1.2681363e-05
126	0x373df467	1.1322182e-05
127	0x3733da3b	1.0720042e-05
128	0x374acc78	1.2087745e-05
129	0x373244ef	1.0625677e-05
130	0x37340eef	1.0732313e-05
131	0x373a24ff	1.1095078e-05
132	0x37508774	1.2429304e-05
133	0x3751c793	1.2503838e-05
134	0x374ab57f	1.2082396e-05
135	0x372cc222	1.0297199e-05
136	0x375134b7	1.2469644e-05
137	0x372eefa9	1.0427008e-05
138	0x37469318	1.1835968e-05
139	0x375f2ae1	1.3301819e-05
140	0x37611567	1.3416028e-05
141	0x3722a471	9.694239e-06
142	0x3740f845	1.1501897e-05
143	0x374d6c1e	1.2244125e-05
144	0x374aafea	1.2081096e-05
145	0x37522d16	1.2527473e-05
146	0x3754fd5e	1.2695176e-05
147	0x374547c9	1.1758829e-05
148	0x3763e1ce	1.3582829e-05
149	0x3723d93a	9.766134e-06
150	0x3730742d	1.0517467e-05
151	0x374adfaa	1.2092214e-05
152	0x3756849f	1.2786272e-05
153	0x37352808	1.0797761e-05
154	0x371700cb	9.000486e-06
155	0x3749ef29	1.2036217e-05
156	0x3760c4a7	1.3397227e-05
157	0x373013e8	1.0495052e-05
158	0x37509dd3	1.2434512e-05
159	0x3735cd4b	1.0836239e-05
160	0x3749221e	1.1988477e-05
161	0x377f5882	1.5219792e-05
162	0x37412312	1.1511862e-05
163	0x37591b7b	1.2940606e-05
164	0x3727d301	1.0003104e-05
165	0x374acb6f	1.2087504e-05
166	0x37456d8a	1.1767619e-05
167	0x373af891	1.1144338e-05
168	0x3725aad2	9.874539e-06
169	0x373aa537	1.1124931e-05
170	0x375a206d	1.3001362e-05
171	0x37226ef0	9.681782e-06
172	0x3743bc4e	1.1666749e-05
173	0x37460cab	1.1804669e-05
174	0x3731cfe0	1.0598422e-05
175	0x3769aa35	1.3927512e-05
176	0x373fef6a	1.144023e-05
177	0x375637bc	1.2768371e-05
178	0x37675546	1.3788527e-05
179	0x37516156	1.2480034e-05
180	0x375cb9d7	1.3156291e-05
181	0x3760a3d2	1.3389583e-05
182	0x37390322	1.1027589e-05
183	0x374b282d	1.2109097e-05
184	0x3756a551	1.2793885e-05
185	0x3734279f	1.0738061e-05
186	0x3763d1bd	1.3579088e-05
187	0x37667105	1.3735383e-05
188	0x37638ac9	1.3562568e-05
189	0x373949a8	1.1044009e-05
190	0x371e608b	9.440012e-06
191	0x3738c946	1.1014117e-05
192	0x3745aaf8	1.1781922e-05
193	0x3747b298	1.1902906e-05
194	0x3749dc36	1.2031805e-05
195	0x375cfed6	1.31723555e-05
196	0x377e1b8f	1.5145996e-05
197	0x3762900a	1.3504186e-05
198	0x3748ef49	1.1976642e-05
199	0x37553d13	1.2710009e-05
200	0x3735c26c	1.0833708e-05
201	0x37364b68	1.0865602e-05
202	0x374dbfcd	1.2263609e-05
203	0x3768372f	1.3841126e-05
204	0x374b8229	1.2130048e-05
205	0x372c75af	1.0279399e-05
206	0x374807ee	1.1922775e-05
207	0x37392f5c	1.1037886e-05
208	0x374ed443	1.2327978e-05
209	0x374b5350	1.2119141e-05
210	0x373c7f77	1.1235351e-05
211	0x3764d255	1.3638831e-05
212	0x371bffb4	9.2982555e-06
213	0x374dd706	1.2269016e-05
214	0x3747cd71	1.1909157e-05
215	0x3759638b	1.2957385e-05
216	0x372abb24	1.0176362e-05
217	0x374c5b10	1.218055e-05
218	0x3748e2a1	1.1973695e-05
219	0x374e6264	1.2301465e-05
220	0x374ad967	1.2090756e-05
221	0x37433eb7	1.1637508e-05
222	0x373d0775	1.1267014e-05
223	0x37412540	1.1512369e-05
224	0x3747a965	1.1900765e-05
225	0x3735c889	1.0835131e-05
226	0x378861e0	1.625804e-05
227	0x373dc28f	1.1310577e-05
228	0x374d3e55	1.2233465e-05
229	0x373dc531	1.131119e-05
230	0x37471fb7	1.18687085e-05
231	0x3769ee10	1.39433105e-05
232	0x375a6468	1.301719e-05
233	0x37440ec1	1.16859455e-05
234	0x374505e8	1.174349e-05
235	0x37696cd7	1.39132235e-05
236	0x3740db0a	1.1495091e-05
237	0x3741a617	1.1542367e-05
238	0x373c597b	1.1226507e-05
239	0x373d809b	1.1295221e-05
240	0x3746bea3	1.1846106e-05
241	0x372c4beb	1.0269675e-05
242	0x37574aaf	1.2832387e-05
243	0x3743613b	1.1645544e-05
244	0x3742a3a6	1.16014035e-05
245	0x375b9ac2	1.308945e-05
246	0x3756fc02	1.2814069e-05
247	0x3725c042	9.87953e-06
248	0x3750802e	1.242761e-05
249	0x373dfc1c	1.1323977e-05
250	0x3727c365	9.9994695e-06
251	0x373c378d	1.1218607e-05
252	0x37527905	1.25451525e-05
253	0x37530d42	1.2579667e-05
254	0x3748ec6b	1.1975974e-05
255	0x373eb895	1.1367859e-05

exp_avg f4 [128]
0	0xba8b0459	-0.0010606154
1	0xbba98657	-0.0051734853
2	0xbb1f053a	-0.002426459
3	0xbb656e01	-0.0035008194
4	0x3adba221	0.0016756692
5	0xbb1ce3ab	-0.0023939412
6	0xbaeabf03	-0.0017909709
7	0x3b23146f	0.0024884006
8	0x394462cd	0.00018728823
9	0xbafb55f8	-0.0019175401
10	0x3b519de4	0.003198498
11	0xba6cff59	-0.00090407353
12	0x39d46549	0.00040511254
13	0xbb3b497b	-0.0028577733
14	0x38c27eee	9.2742834e-05
15	0xbb17d1de	-0.0023165862
16	0xbb405b55	-0.0029351313
17	0xbb269e4c	-0.0025423942
18	0x3b2f30f7	0.0026732066
19	0x3968559d	0.00022157138
20	0x3a95bfe0	0.0011424981
21	0xb96971b7	-0.00022262974
22	0xbad82ee9	-0.0016493473
23	0xbab29309	-0.0013624142
24	0x3afe962c	0.0019423417
25	0xbb2e9661	-0.0026639926
26	0x3936d38d	0.00017435681
27	0x3ab21767	0.0013587297
28	0xba02209b	-0.0004963965
29	0xbb265e2d	-0.0025385723
30	0x3a0c4114	0.00053502736
31	0x3b1a3851	0.0023532102
32	0x38c10871	9.2045295e-05
33	0x3b1aa267	0.0023595334
34	0xbae44bb4	-0.0017417581
35	0xb776f1f5	-1.4719078e-05
36	0x3a763426	0.0009391926
37	0x39260760	0.00015833741
38	0xbb0996d4	-0.0020994442
39	0x3b1f9b86	0.0024354174
40	0x39b07b98	0.0003366142
41	0x3a44b62d	0.0007503953
42	0xba8e715b	-0.0010867523
43	0xb980ceda	-0.0002456818
44	0xb6d7d0e9	-6.4318197e-06
45	0x3b141c1c	0.0022599762
46	0x3a9f3b9a	0.00121485
47	0x38cb13f1	9.683509e-05
48	0x3b29a4d9	0.002588561
49	0x3ae7e1c2	0.0017691182
50	0xb9cf62db	-0.0003955577
51	0xb9c6d68a	-0.00037925347
52	0x3b23fcbc	0.0025022468
53	0xba887a36	-0.0010412398
54	0xba1c0a3d	-0.00059524534
55	0x3bab80c2	0.005233855
56	0x3b01294b	0.001970845
57	0x3a1f95ea	0.00060877076
58	0x3a99d459	0.0011736258
59	0x3b626fa3	0.0034551404
60	0x387c4513	6.0145812e-05
61	0x38172c05	3.6042202e-05
62	0xbb13ce89	-0.0022553524
63	0x3a9553d7	0.0011392784
64	0x3ab98727	0.0014154658
65	0x3a74a6ff	0.00093327457
66	0x3a9d2eb2	0.0011992066
67	0x3aabc704	0.0013105576
68	0xbb00e524	-0.0019667828
69	0x3ad3f562	0.0016171152
70	0x3a9543b8	0.001138798
71	0xbac4f92f	-0.0015027876
72	0xba0592e2	-0.00050954346
73	0xba834ec5	-0.0010017982
74	0x3b009dc1	0.0019625279
75	0xbb295682	-0.0025838916
76	0xba8ce81f	-0.001075033
77	0xb991fe83	-0.0002784618
78	0xb953aaa0	-0.00020186091
79	0xbaed71bc	-0.001811556
80	0x39958908	0.0002852159
81	0xb8ff8d9f	-0.000121857265
82	0x3b0e81c7	0.0021744834
83	0xbb62cf98	-0.0034608599
84	0x3b4bb0b4	0.0031080665
85	0x3a50188c	0.0007938228
86	0x3a7423a1	0.00093131704
87	0xbab8960a	-0.0014082801
88	0x3a2a894d	0.0006505445
89	0xbaa21c5e	-0.0012368073
90	0xba9cae5d	-0.001195382
91	0xb995c121	-0.00028563387
92	0x3b05b446	0.002040164
93	0xbac90733	-0.0015337229
94	0x3ae061c3	0.0017118979
95	0x3a94f350	0.0011364017
96	0x3a8dfa2d	0.0010832004
97	0xba9a6442	-0.0011779147
98	0xbb0b7449	-0.0021279028
99	0x3b9176bc	0.004439203
100	0xba2fd4bb	-0.00067074195
101	0xba901318	-0.0010992019
102	0xbaa93c60	-0.001291167
103	0xbb8de7ee	-0.0043306267
104	0xbafde51b	-0.0019370647
105	0x3b0bdbd4	0.0021340745
106	0x3ad2c0c1	0.0016079174
107	0xbb5191ee	-0.003197785
108	0x3a34565c	0.00068793236
109	0xbabe0049	-0.0014495935
110	0x3a51e78f	0.0008007222
111	0x3ba24945	0.004952582
112	0xbafc9a10	-0.0019271988
113	0x3a3b3f76	0.00071429403
114	0x3a2ba29b	0.00065473624
115	0xb9aa6d85	-0.00032506525
116	0x3a90992e	0.0011031979
117	0x3a9eb5d4	0.0012108632
118	0x3b5118e4	0.0031905705
119	0xb9f143ae	-0.00046017527
120	0xbb388594	-0.002815579
121	0x3a7621a2	0.0009389167
122	0xba80557a	-0.0009791099
123	0xbaaae8ec	-0.0013039387
124	0x3a2ad9ac	0.0006517421
125	0x398e1265	0.00027098056
126	0xba63448e	-0.0008669578
127	0xba96d30b	-0.0011506988
