models/wesad/dp/model_wesad_dp.pth (torch, 859013 bytes, 46 tensors)

_module.input_proj.weight f4 [128, 14]
0	0x3e4fad82	0.20281032
1	0x3e5df15f	0.21674107
2	0xbd83111e	-0.06399749
3	0x3e7c4e0d	0.24639149
4	0xbd5758dc	-0.052574977
5	0x3d5eb215	0.05436905
6	0xbdf73900	-0.12071419
7	0x3e1f70a0	0.15570307
8	0x3e70e7ef	0.23525976
9	0xbe4abf33	-0.19799499
10	0x3e6666fa	0.2250022
11	0x3d68faa0	0.05687964
12	0x3e4ab9b4	0.19797403
13	0x3d1559e9	0.036462698
14	0x3dfe6713	0.124220036
15	0xbd183ed3	-0.03716929
16	0x3e59079d	0.2119431
17	0x3d14a5eb	0.036291044
18	0xbe042830	-0.12905955
19	0x3d7e9ef9	0.062163327
20	0xbdeb2764	-0.114821225
21	0xbceaba83	-0.028653389
22	0xbddc5fc4	-0.10760453
23	0x3e3a8fac	0.18218869
24	0xbe5f7388	-0.21821415
25	0xbe044ce5	-0.12919958
26	0xbd902960	-0.07039142
27	0xbe2292bc	-0.15876287
28	0x3cf1b867	0.029506875
29	0xbe8a591b	-0.27021107
30	0x3e78f47e	0.24312016
31	0xbe6a2935	-0.22867282
32	0x3e587a16	0.21140322
33	0x3d569d2f	0.052395996
34	0xbdab7cff	-0.083734505
35	0x3e2f6fe8	0.17132533
36	0x3d233751	0.039847676
37	0x3e601cfa	0.21886054
38	0x3d0efacd	0.03490715
39	0xbda15913	-0.07878318
40	0x3d9691d3	0.073520325
41	0xbda16afd	-0.078817345
42	0x3ded2e81	0.115811355
43	0x3e75813c	0.2397508
44	0x3e201601	0.15633394
45	0xbdf18c5b	-0.11794349
46	0x3e235963	0.15952067
47	0x3d24cfea	0.040237345
48	0x3e0cc282	0.13746074
49	0xbe2b0fcd	-0.16705246
50	0xbe8997f9	-0.26873758
51	0xbdd2c47e	-0.10291384
52	0xbe4e9f2e	-0.2017791
53	0x3e61c774	0.22048742
54	0x3d985d1f	0.074396364
55	0x3de4d5a2	0.1117356
56	0x3da541c7	0.08069187
57	0xb9f4a4cc	-0.0004666209
58	0x3e5158af	0.20443986
59	0xbe40042d	-0.18751593
60	0x3c806d0b	0.015676996
61	0xbe3ab937	-0.18234716
62	0x3daa52ab	0.08316549
63	0xbdbe5185	-0.09292892
64	0x3da501b3	0.08056965
65	0xbd6704b5	-0.056400973
66	0x3e613240	0.21991825
67	0xbe2650c2	-0.16241744
68	0xbe24da91	-0.16099001
69	0xbe1a9097	-0.15094219
70	0x3e6e9eed	0.23302813
71	0x3da1b4c7	0.07895809
72	0x3e846d1b	0.2586449
73	0xbe5f96e2	-0.21834901
74	0xbe8a7613	-0.27043208
75	0xbe51a476	-0.20472893
76	0xbe315dff	-0.17321013
77	0x3de865a3	0.11347511
78	0x3dceb1ae	0.100924835
79	0x3e5f522d	0.21808691
80	0xbe0ce9e6	-0.137611
81	0xbe2f4103	-0.17114644
82	0x3e12f732	0.1435211
83	0xbdd686ff	-0.10474967
84	0x3e25979b	0.16171114
85	0xbd6d0285	-0.05786373
86	0x3e1da58b	0.15395181
87	0xbe4cb4c7	-0.19990836
88	0xbe0e4744	-0.13894373
89	0x3d9a7f3f	0.075438015
90	0x3d7bf285	0.06151058
91	0xbd6e52a8	-0.058184296
92	0x3e20d417	0.15705906
93	0x3e383a23	0.17990927
94	0xbe3cb1b9	-0.18427171
95	0xbe16fe2f	-0.14745401
96	0x3e700dd6	0.23442778
97	0xbdaefcb4	-0.08544293
98	0xbdb952e0	-0.0904901
99	0xbe81563a	-0.25261098
100	0xbe1b54f2	-0.15169123
101	0x3d887d23	0.06664493
102	0xbd12ea0f	-0.035867747
103	0xbe465886	-0.19369707
104	0x3b68695b	0.0035463187
105	0xbe32d75e	-0.17464969
106	0xbe70bff2	-0.23510721
107	0xbe126fa9	-0.14300407
108	0xbe6f17b0	-0.2334888
109	0xbe2c07b6	-0.16799816
110	0x3e887f35	0.2665955
111	0x3d520a7b	0.051279526
112	0x3d9b51d3	0.07583966
113	0xbe7b44c2	-0.24537948
114	0xbe2be1cb	-0.16785352
115	0xbdaa029a	-0.083012775
116	0x3d2a4027	0.041565087
117	0xbe6e64ff	-0.23280714
118	0xbde124a4	-0.10993317
119	0xbe23e0a2	-0.1600366
120	0xbbefced6	-0.007318358
121	0xbdc4b0db	-0.09604045
122	0xbc1bbc4a	-0.009505341
123	0xbe309ac7	-0.17246543
124	0xbe438bcd	-0.19096299
125	0xbe2152ba	-0.15754214
126	0xbdcc3c48	-0.09972435
127	0xbe541210	-0.20710015
128	0x3e6db23a	0.2321252
129	0xbd587192	-0.052842684
130	0x3e687ef9	0.22704686
131	0x3da0a253	0.07843461
132	0xbe67774b	-0.226041
133	0x3e410757	0.18850456
134	0xbd967a23	-0.073475145
135	0xbdcff962	-0.10154988
136	0xbe66b286	-0.22529039
137	0xbe86b4ea	-0.263099
138	0x3d93fe0d	0.07226191
139	0xbd5ff6bc	-0.054678664
140	0x3dcdee99	0.100552745
141	0xbe5e2602	-0.21694186
142	0x3e4824fe	0.19545361
143	0xbe4ef0e9	-0.20209087
144	0xbd46bed0	-0.048521817
145	0x3d52e120	0.051484227
146	0x3e09320d	0.13397999
147	0x3e61e09a	0.22058335
148	0x3e78a759	0.24282588
149	0xbe54bba0	-0.20774698
150	0x3d84d0fb	0.06485172
151	0xbde25f5c	-0.110533446
152	0xbcfbd0e7	-0.03073926
153	0xbe478441	-0.19484045
154	0x3e79f71b	0.2441067
155	0xbe4693bc	-0.19392294
156	0x3e0e0f71	0.13873078
157	0x3dc2794c	0.09495792
158	0x3dc2372c	0.094831795
159	0xbe18bb40	-0.1491518
160	0x3e7b3033	0.24530105
161	0x3d6e3a29	0.058160935
162	0x3d11cfa2	0.035598405
163	0xbe74d93e	-0.23910996
164	0x3de1ed42	0.110315815
165	0xbd31c9f0	-0.043405473
166	0xbe011385	-0.12605102
167	0x3e647482	0.22310069
168	0x3d6af853	0.057365727
169	0xbe18a22e	-0.14905617
170	0xbe12379e	-0.14279029
171	0xbc4ab068	-0.01237116
172	0x3e19a2f1	0.15003563
173	0xbd8fd9c0	-0.070239544
174	0xbe17bec9	-0.14818873
175	0xbdc39aec	-0.095510334
176	0xbe4ac08e	-0.19800016
177	0x3dc88c24	0.09792355
178	0x3e5130ff	0.20428847
179	0xbe80cdfd	-0.25157157
180	0x3d8a5e8c	0.06756315
181	0x3e0dcbe0	0.13847303
182	0x3d47e881	0.048805717
183	0xbdc2b6b1	-0.09507502
184	0x3e10b9d5	0.1413339
185	0x3e12be5e	0.14330432
186	0x3dcebaeb	0.100942455
187	0xbd2a8335	-0.041629035
188	0xbd95cfd3	-0.0731503
189	0x3d04c12e	0.032410793
190	0xbd3a57e9	-0.045493994
191	0xbd9bb4de	-0.07602857
192	0x3e2f5f86	0.17126283
193	0x3e65e946	0.22452268
194	0xbc9b8b88	-0.018987432
195	0xbd75f633	-0.060049247
196	0x3bcac24b	0.0061877123
197	0xbcbc6a4d	-0.022999907
198	0x3d710ddf	0.05885112
199	0x3daaf520	0.08347535
200	0xbe73c79e	-0.23806617
201	0xbdd06c98	-0.101769626
202	0x3e66e65e	0.22548816
203	0x3dd17f9e	0.10229419
204	0xbc87a352	-0.01655737
205	0xbe1cccca	-0.15312496
206	0xbe327b33	-0.1742981
207	0xbe78d9a5	-0.24301775
208	0xbda6bfd8	-0.0814206
209	0x3dae579b	0.08512803
210	0x3e361cf8	0.17784488
211	0x3e041024	0.12896782
212	0xbe6df419	-0.23237647
213	0xbe297d2f	-0.1655166
214	0xbd479c60	-0.048733115
215	0x3e8255ea	0.25456172
216	0x3d32e0d2	0.043671437
217	0xbd8d5eb5	-0.069028296
218	0x3de039b2	0.109485045
219	0xbdd81979	-0.105517335
220	0xbe3540ae	-0.17700455
221	0x3e434204	0.19068152
222	0xbe03aa13	-0.12857847
223	0xbd4b86fd	-0.04968928
224	0xbe8b2c1d	-0.27182093
225	0x3e3abcd7	0.18236099
226	0x3e4da3a6	0.20081958
227	0x3dc2fba6	0.095206544
228	0xbe45ce7d	-0.1931705
229	0xbe83023f	-0.2558765
230	0xbe5dd00e	-0.21661398
231	0x3e51ec8a	0.20500389
232	0x3e03e9d6	0.1288217
233	0x3e6ed4b1	0.23323323
234	0x3e153cf4	0.14574033
235	0x3d9b9699	0.075970836
236	0xba998dbb	-0.0011715213
237	0xbe56fc4d	-0.20994683
238	0xbe6846ba	-0.2268323
239	0xbe835639	-0.2565172
240	0x3dd96202	0.10614397
241	0xbdfb7b28	-0.122793496
242	0xbd47e36c	-0.04880087
243	0xbe2770a9	-0.1635157
244	0xbd1c41e7	-0.038148787
245	0xbe371e87	-0.17882739
246	0xbe2cb220	-0.16864824
247	0x3dbf3c26	0.09337644
248	0xbda4a2af	-0.08038842
249	0x3e239738	0.15975654
250	0xbda08ce9	-0.078393765
251	0xbe51400d	-0.2043459
252	0xbd6d57da	-0.05794511
253	0xbdff6227	-0.12469893
254	0xbda31c66	-0.07964401
255	0xbe82a234	-0.25514376

_module.input_proj.bias f4 [128]
0	0xbe7bb7f4	-0.24581891
1	0x3e6bd24c	0.2302944
2	0xbce2b911	-0.027676137
3	0xbdfe9956	-0.1243159
4	0xbdb5d096	-0.08877675
5	0xbe50b326	-0.2038084
6	0x3e53baa3	0.20676665
7	0xbd6df85f	-0.058098193
8	0xbe11787a	-0.14206114
9	0xbe58230f	-0.21107124
10	0x3e28862c	0.16457433
11	0xbd06bd05	-0.032895107
12	0xbca7b957	-0.02047412
13	0xbd84852a	-0.064707115
14	0xbe00304f	-0.12518428
15	0x3d44ec86	0.04807713
16	0x3e5a5c21	0.21324207
17	0xbe179ba3	-0.14805464
18	0x3c390e22	0.011294873
19	0xbe4fc74d	-0.20290871
20	0xbe02699d	-0.12735601
21	0x3e6d8d32	0.23198393
22	0xbb82671a	-0.003979576
23	0x3e859ccb	0.26096186
24	0xbd45a344	-0.048251405
25	0xbe11124f	-0.1416714
26	0xbe245484	-0.16047865
27	0x3e7737dd	0.24142404
28	0xbe4df2f6	-0.20112213
29	0x3e08e777	0.13369547
30	0x3d817390	0.0632087
31	0x3da5d4d1	0.08097232
32	0x3e14e9ec	0.14542359
33	0xbd932747	-0.07185226
34	0x3e24efcd	0.16107102
35	0xbe51d652	-0.20491913
36	0xbdb506ff	-0.08839225
37	0x3e49b147	0.19696532
38	0x3da08763	0.07838323
39	0xbd096cfd	-0.033551205
40	0xbd79cb63	-0.06098498
41	0xbe1fcc5e	-0.15605304
42	0x3e25443c	0.1613931
43	0xbc3c097f	-0.011476873
44	0xbb9c0805	-0.004761698
45	0x3d8823c8	0.0664745
46	0x3e4ceedd	0.20012994
47	0xbe0be427	-0.13661252
48	0xbdbe1880	-0.09282017
49	0x3e3bf4b1	0.18355061
50	0x3e1b9d1b	0.1519665
51	0xbe028fe1	-0.12750198
52	0xbe88b04d	-0.26697007
53	0x3d33c63f	0.043890234
54	0x3e14e737	0.14541326
55	0x3d7d5201	0.061845783
56	0x3e44f038	0.19232261
57	0xbe5afae1	-0.21384765
58	0x3e03cb28	0.12870467
59	0xbe29a1f5	-0.16565688
60	0x3e1a7e16	0.1508716
61	0x3e44473f	0.19167803
62	0x3db5f333	0.08884277
63	0x3e650011	0.22363307
64	0xbe2ee6f0	-0.17080283
65	0xbe726e8e	-0.23674986
66	0xbe836da3	-0.25669584
67	0x3e2b1abb	0.16709416
68	0x3db370eb	0.08761772
69	0xbe46e1cc	-0.19422072
70	0x3e06a14b	0.13147466
71	0x3e80463c	0.25053585
72	0xbe866b06	-0.26253527
73	0x3e430345	0.19044216
74	0x3d24af75	0.04020639
75	0x3d075e19	0.033048723
76	0x3e72cf05	0.23711784
77	0x3e77eaf4	0.24210721
78	0x3df89e33	0.12139549
79	0x3e4f870f	0.20266365
80	0x3de331c5	0.11093477
81	0x3d3d3f5e	0.04620301
82	0xbe74a982	-0.23892787
83	0x3d4f7cb5	0.05065604
84	0xbe3d9cff	-0.1851692
85	0x3d9a88d0	0.07545626
86	0x3d3af284	0.045641437
87	0x3bda42d6	0.0066607995
88	0xbe3afaa6	-0.18259677
89	0xbe2848f6	-0.16434082
90	0x3e427ddc	0.18993324
91	0x3e095106	0.13409814
92	0x3e0e7751	0.13912703
93	0xbd9cce08	-0.07656485
94	0xbd3e7846	-0.04650142
95	0xbd9fb5e8	-0.07798368
96	0x3e434514	0.1906932
97	0xbde99bca	-0.114066675
98	0x3e270d79	0.16313733
99	0x3e42143f	0.18953036
100	0xbe797f56	-0.24364981
101	0x3abf4c51	0.0014594888
102	0xbd752c6c	-0.059856817
103	0xbe13e57f	-0.14443015
104	0x3de9281c	0.113846034
105	0xbd0d47ef	-0.03449243
106	0x3e71fe0a	0.23632064
107	0xbe33e80f	-0.17568992
108	0x3e028f5f	0.12750004
109	0xbe6aa4e5	-0.22914465
110	0xbe0a6a89	-0.13517202
111	0x3c9437d8	0.018093035
112	0x3e5a123e	0.21296021
113	0x3e0de606	0.13857278
114	0xbe5f7e46	-0.21825513
115	0x3d11aa91	0.035563055
116	0xbe26f8a4	-0.16305786
117	0x3ca6145e	0.020273384
118	0xbe689b28	-0.22715437
119	0xbd96a193	-0.073550366
120	0x3e355c47	0.17710982
121	0xbe78de85	-0.24303634
122	0xbe85dfe4	-0.26147377
123	0x3d59fd30	0.053219974
124	0x3d14cd56	0.036328636
125	0xbd3c0049	-0.04589871
126	0x3e69c5ba	0.22829333
127	0xbe1f3cb5	-0.15550502

_module.input_norm.weight f4 [128]
0	0x3f7ecdc7	0.9953274
1	0x3f7fcc62	0.9992124
2	0x3f813233	1.0093445
3	0x3f7f49f2	0.99722207
4	0x3f7faac6	0.99869955
5	0x3f7eec08	0.99578905
6	0x3f80b265	1.0054442
7	0x3f7dfe76	0.992164
8	0x3f7ed538	0.99544096
9	0x3f7e96ce	0.9944886
10	0x3f8069d8	1.0032301
11	0x3f7e4749	0.9932752
12	0x3f7dc32e	0.99125946
13	0x3f800fc4	1.0004811
14	0x3f7f0f19	0.9963241
15	0x3f7e3b8c	0.9930961
16	0x3f805d58	1.0028486
17	0x3f8016aa	1.0006917
18	0x3f7fa40f	0.9985971
19	0x3f7d5e0a	0.9897162
20	0x3f8009e7	1.0003022
21	0x3f7fa5f0	0.99862576
22	0x3f804515	1.0021082
23	0x3f802d2a	1.0013783
24	0x3f7fb604	0.9988711
25	0x3f7f60d3	0.9975712
26	0x3f7e1c70	0.9926214
27	0x3f7d49a5	0.989405
28	0x3f813194	1.0093255
29	0x3f808809	1.0041515
30	0x3f7ffe83	0.9999773
31	0x3f7e3d06	0.99311864
32	0x3f80073e	1.000221
33	0x3f80c86f	1.0061167
34	0x3f7ff997	0.9999022
35	0x3f80ca65	1.0061766
36	0x3f7e4c7b	0.9933545
37	0x3f7fa98a	0.9986807
38	0x3f80cb35	1.0062014
39	0x3f7f4ea0	0.9972935
40	0x3f7e0950	0.9923296
41	0x3f80e6cf	1.0070437
42	0x3f804b12	1.002291
43	0x3f7fd3d7	0.99932617
44	0x3f7f8bfb	0.9982297
45	0x3f80059c	1.0001712
46	0x3f802dd5	1.0013987
47	0x3f80200d	1.0009781
48	0x3f80d120	1.006382
49	0x3f7e4086	0.99317205
50	0x3f8002ff	1.0000914
51	0x3f8085ae	1.0040796
52	0x3f801d90	1.0009022
53	0x3f80abb3	1.0052398
54	0x3f7f4cb6	0.99726427
55	0x3f7f789e	0.9979342
56	0x3f805fa8	1.0029192
57	0x3f7f0d38	0.99629545
58	0x3f7e9111	0.99440104
59	0x3f7f43e1	0.9971295
60	0x3f7ed3c2	0.99541867
61	0x3f7f6d86	0.99776495
62	0x3f7f1813	0.9964611
63	0x3f7fd02f	0.9992704
64	0x3f80b6f3	1.0055832
65	0x3f807374	1.0035233
66	0x3f802da9	1.0013934
67	0x3f7f0dbb	0.99630326
68	0x3f802295	1.0010554
69	0x3f7e6861	0.9937802
70	0x3f810f2e	1.0082757
71	0x3f7dfe80	0.9921646
72	0x3f7fb4dc	0.99885345
73	0x3f815aec	1.0105872
74	0x3f805f39	1.002906
75	0x3f8014d5	1.0006357
76	0x3f7f6e1b	0.9977738
77	0x3f809405	1.0045172
78	0x3f7f2340	0.9966316
79	0x3f7eeb70	0.99578
80	0x3f7f3555	0.99690753
81	0x3f7ff57a	0.9998394
82	0x3f80bba8	1.0057268
83	0x3f7ddf98	0.991693
84	0x3f801517	1.0006436
85	0x3f7faa48	0.99869204
86	0x3f7f4e39	0.99728733
87	0x3f801d43	1.000893
88	0x3f80303b	1.0014719
89	0x3f80da5e	1.006664
90	0x3f80922a	1.0044606
91	0x3f804f35	1.0024172
92	0x3f8067d2	1.0031683
93	0x3f80451f	1.0021094
94	0x3f7da530	0.9908018
95	0x3f7f1a6b	0.99649686
96	0x3f7ef73b	0.99595994
97	0x3f810023	1.0078167
98	0x3f7f9c28	0.9984765
99	0x3f809d6d	1.0048043
100	0x3f7f2b32	0.99675286
101	0x3f7dfa8b	0.99210423
102	0x3f7ebf5e	0.99510753
103	0x3f7f9167	0.9983124
104	0x3f7f4722	0.99717915
105	0x3f812c34	1.0091615
106	0x3f7f57b8	0.99743223
107	0x3f803e7f	1.0019072
108	0x3f80666e	1.0031259
109	0x3f804d53	1.0023597
110	0x3f7fae73	0.99875563
111	0x3f809200	1.0044556
112	0x3f8007b6	1.0002353
113	0x3f7f6ef0	0.9977865
114	0x3f7fea38	0.99966764
115	0x3f7ed56a	0.99544394
116	0x3f7e8bd6	0.9943212
117	0x3f80fbd2	1.007685
118	0x3f7f4606	0.9971622
119	0x3f809916	1.0046718
120	0x3f7ebf1c	0.9951036
121	0x3f7ee7a9	0.99572235
122	0x3f7fe54f	0.9995927
123	0x3f8038d0	1.0017338
124	0x3f7f81b3	0.9980728
125	0x3f814a21	1.0100747
126	0x3f7f6129	0.9975763
127	0x3f804883	1.0022129

_module.input_norm.bias f4 [128]
0	0xbbcc9202	-0.0062429914
1	0xbc176a33	-0.009241628
2	0x3ba35ac6	0.0049851863
3	0xb993453f	-0.00028089617
4	0xbbb9bd46	-0.005668315
5	0xbb72cad8	-0.0037047174
6	0x38f5fbdb	0.00011729422
7	0x3bd5b8e6	0.0065222858
8	0xbb48ab58	-0.0030619707
9	0x3b46e307	0.0030347721
10	0xbc3afbde	-0.011412589
11	0xbb3d124f	-0.0028850024
12	0xba0e80ea	-0.000543608
13	0xba98089b	-0.0011599244
14	0x3b1e6a3f	0.0024172214
15	0x3ade3810	0.0016953964
16	0x3baac707	0.005211714
17	0x3a767001	0.0009400845
18	0x3bb5858c	0.0055396017
19	0x3aa97991	0.0012929906
20	0x3b55597e	0.0032554562
21	0x39c08930	0.00036723306
22	0xbb9b8544	-0.004746111
23	0x3bc4a28d	0.006000823
24	0x3ac22ea8	0.001481493
25	0xbb4d6368	-0.0031339768
26	0xbbaa6f04	-0.0052012224
27	0x3afb5b57	0.0019177002
28	0x39fb64cf	0.0004794956
29	0x3b19f59c	0.0023492342
30	0xba6fe0b7	-0.00091506116
31	0x3a535488	0.00080616074
32	0xbb84bf7a	-0.004051146
33	0x38039b40	3.137742e-05
34	0xbb9dbb98	-0.0048136227
35	0x3bbf6a73	0.005841547
36	0x3b16dc40	0.0023019463
37	0xbb630673	-0.0034641295
38	0xbb4b4de0	-0.003102176
39	0x3b41f8f9	0.0029597862
40	0x3b675b27	0.0035302134
41	0xba974c6c	-0.0011543161
42	0x3bf90ba8	0.0076002665
43	0x3c183c5e	0.009291736
44	0x3b13c7b2	0.0022549448
45	0x3a40026c	0.00073245796
46	0x3ba2b4fb	0.004965422
47	0x3942a98e	0.00018564446
48	0x3b28675f	0.002569638
49	0xbb430e91	-0.002976332
50	0xbbca4428	-0.0061726756
51	0x3bcb35e5	0.006201493
52	0x3b4a2b69	0.0030848628
53	0xbbbe9bef	-0.0058169286
54	0xbbb83ebe	-0.005622714
55	0xba495d73	-0.00076814665
56	0xbae2c149	-0.0017300035
57	0xbb391a8a	-0.0028244578
58	0xbb951a1a	-0.0045502307
59	0xb9efcbe0	-0.0004573753
60	0x3bc29859	0.0059385714
61	0xbb7f5a31	-0.003896367
62	0x3b823ec7	0.003974769
63	0x3bab2cd1	0.0052238484
64	0xbc00e826	-0.0078678485
65	0x3a80775d	0.0009801198
66	0x3a59a624	0.000830265
67	0x3bdc9dd3	0.0067326813
68	0x3baf0055	0.0053406158
69	0x3bd38c13	0.006455907
70	0x3c3f3046	0.011669224
71	0xbb0c0c19	-0.0021369515
72	0xbbcea305	-0.0063060545
73	0x3b268daf	0.002541404
74	0x3b33bcf3	0.0027425855
75	0xbafaa348	-0.0019122148
76	0xbb17f9b6	-0.002318961
77	0xbbaf68a6	-0.0053530512
78	0xba4b3445	-0.0007751624
79	0x3b0101d5	0.001968493
80	0xb64cb780	-3.050518e-06
81	0xbb8b7e98	-0.0042570345
82	0x3ac33142	0.0014891999
83	0xba2605cd	-0.0006333262
84	0x3bdd82b7	0.006759967
85	0xba37904e	-0.0007002399
86	0x3a80a10c	0.0009813621
87	0x3b2ae080	0.0026073754
88	0x38a808e6	8.012522e-05
89	0xbbf729d8	-0.00754283
90	0x3affd4da	0.0019518391
91	0x3b3b9db1	0.0028627927
92	0x3bc64636	0.0060508503
93	0xba829cc3	-0.0009964932
94	0x3a15daf5	0.0005716526
95	0xbb54976e	-0.0032438892
96	0xbbeec1d6	-0.0072862906
97	0x3b989b17	0.00465716
98	0xbb9c00b3	-0.0047608255
99	0x3b560407	0.003265621
100	0xbb92c7f5	-0.004479403
101	0xbbd44944	-0.0064784605
102	0xbbf4a2b5	-0.0074656853
103	0x3b9503ce	0.0045475727
104	0xbbd20c6b	-0.0064101717
105	0x3afdb5d6	0.001935656
106	0x3c07fc8b	0.008299957
107	0x3b94bb4b	0.0045389286
108	0x3bca55eb	0.006174793
109	0xbbf9c8fc	-0.007622836
110	0x3bc91774	0.006136829
111	0xbbbb2ac5	-0.0057118856
112	0x3b92ea6c	0.0044835117
113	0x3bb247b6	0.0054406775
114	0xbbbeeb98	-0.005826425
115	0xbb1a0b85	-0.0023505401
116	0xbb9dd785	-0.0048169517
117	0xbc1e3433	-0.009656
118	0xba2df7d3	-0.0006636355
119	0x3b2fb745	0.0026812118
120	0x3bead34a	0.007166301
121	0x384c9128	4.8772577e-05
122	0x3ba2ceea	0.0049685137
123	0x3a00a3b0	0.0004907204
124	0x3ba2e7f6	0.0049714996
125	0xb9ebed2d	-0.00044999403
126	0x3be6fd03	0.0070492043
127	0x3bb031e1	0.00537704

_module.lstm.weight_ih_l0 f4 [256, 128]
0	0x3d84b088	0.06478983
1	0xbb800826	-0.0039072214
2	0x3c9b2acd	0.018941307
3	0x3dd903b7	0.10596412
4	0xbcdda713	-0.027057206
5	0x3da3d420	0.07999444
6	0x3dd1b1b5	0.10238973
7	0xbd1dd9d1	-0.038537804
8	0x3d88b964	0.066759855
9	0x3d406087	0.046967056
10	0xbd2fce9e	-0.042921655
11	0xbdb6da98	-0.08928412
12	0xbcac0ebb	-0.021003118
13	0x3ddc026a	0.10742648
14	0x3d70bcdc	0.05877386
15	0x3db693fe	0.08914946
16	0xbdaa0af9	-0.08302874
17	0xbdfc3436	-0.12314646
18	0xbd1656ee	-0.036703996
19	0xbdf9280d	-0.12165842
20	0x3daf40c4	0.08557275
21	0xbcf775cf	-0.030207543
22	0xbd9cfd41	-0.07665492
23	0xbc015e07	-0.007895953
24	0xbcfed650	-0.031108052
25	0x3b3acaf4	0.0028502317
26	0x3d850428	0.06494933
27	0xbd8e7757	-0.06956356
28	0x3d43128f	0.04762512
29	0x3c3a2db1	0.011363433
30	0x3d868d92	0.06569971
31	0x3c3e5c25	0.011618649
32	0x3d862a04	0.065509826
33	0xbde8ccc1	-0.11367179
34	0x3d91f3e5	0.07126597
35	0x3db0e9e9	0.08638365
36	0x3dda7a0e	0.10667811
37	0x3b417dd4	0.0029524462
38	0x3be7487c	0.0070582014
39	0x3dde7032	0.10861243
40	0xbdd381a4	-0.10327461
41	0xbc2cffc8	-0.01055903
42	0x3d17cb3c	0.037059054
43	0xbd71f483	-0.059071075
44	0x3dddcc1f	0.10829949
45	0x3dbf4010	0.09338391
46	0x3dd43dbe	0.10363339
47	0x3d832075	0.06402675
48	0x3d2b5b23	0.04183496
49	0x3d102f0d	0.03520112
50	0x3d9c50db	0.076326095
51	0x3c4eb800	0.012617111
52	0xbbd8d019	-0.006616604
53	0xba1dce54	-0.000601982
54	0x3c78c8c5	0.015184586
55	0xbdec9031	-0.1155094
56	0x3d90a9e6	0.070636556
57	0x3dd27c79	0.102776475
58	0x3cb7eb5d	0.022451097
59	0x3c4c1e5a	0.012458408
60	0xbc9a446a	-0.01883145
61	0xbdd2ce73	-0.10293283
62	0xbddfd9ac	-0.109301895
63	0xbdb9893d	-0.09059379
64	0xbdb03ff1	-0.08605946
65	0xbdd0baed	-0.10191903
66	0x3d217d31	0.039426032
67	0x3df6785f	0.12034678
68	0xbd082ca6	-0.033245705
69	0x3db4a1fe	0.0881996
70	0x3d871316	0.06595437
71	0x3dc2123b	0.094761334
72	0x3d36488c	0.04450278
73	0x3dd559f1	0.104175456
74	0x3dbfdc15	0.09368149
75	0xbd72f01d	-0.05931102
76	0x3cdcf691	0.02697304
77	0x3da2119f	0.07913517
78	0xbde0feb3	-0.1098608
79	0xbd98c077	-0.07458585
80	0x3d932fb5	0.07186834
81	0xbd5ce2b3	-0.053927135
82	0xbdaa52f5	-0.08316604
83	0xbca37a30	-0.019955724
84	0xbbd2a6c4	-0.0064285714
85	0xbd76e0ae	-0.060272865
86	0xbdaf4afd	-0.08559225
87	0xbdd53f75	-0.10412494
88	0xbd8a5124	-0.067537576
89	0x3df8503a	0.12124677
90	0x3cee4864	0.029087253
91	0xbd877400	-0.06613922
92	0x3dfb57d4	0.12272611
93	0x3d894694	0.06702915
94	0xbaea1d64	-0.0017861542
95	0xbc83f040	-0.016105771
96	0xbdc199f3	-0.094531916
97	0xbd44efab	-0.048080128
98	0x3dda9e83	0.10674765
99	0xbd95a52c	-0.07306895
100	0x3c98d799	0.018657492
101	0x3dc95e92	0.09832491
102	0xbda995f7	-0.08280557
103	0x3c97a04d	0.018509055
104	0x3d129dbf	0.03579497
105	0x3ded3a11	0.11583341
106	0xbd8aed13	-0.067834996
107	0xbd63ed70	-0.05564636
108	0x3d0c1cfd	0.034207333
109	0x3d3e417c	0.04644917
110	0x3de20e0f	0.11037838
111	0x3d67886e	0.056526594
112	0x3ddb30cc	0.10702667
113	0x3e035e8f	0.1282904
114	0xbd1fec79	-0.039043877
115	0x3d8846bf	0.06654119
116	0x3da80dd8	0.082057655
117	0xbd607d46	-0.05480697
118	0xbd12702e	-0.035751514
119	0x3d3cf535	0.046132285
120	0x3d9bffdf	0.07617163
121	0x3cc228ea	0.02370115
122	0xbdaf4806	-0.08558659
123	0xbdcee47d	-0.101021744
124	0x3d30871d	0.043097604
125	0xbd9c3bb9	-0.07628579
126	0x3d0162b1	0.03158826
127	0x3bb7550b	0.0055948547
128	0x3deaaf3f	0.11459207
129	0x3db9fd4d	0.090815164
130	0x3de37399	0.11106033
131	0x3db8f348	0.09030777
132	0xbdccf9b9	-0.10008568
133	0x3dbda551	0.09260047
134	0x3de33d29	0.1109565
135	0x3d9c9dc8	0.07647282
136	0xbc4931b5	-0.0122799175
137	0xbd9b73b3	-0.07590427
138	0xbdd59c95	-0.10430256
139	0x3ddec892	0.108780995
140	0x3cff7a4b	0.031186244
141	0xbdc6ab05	-0.09700588
142	0x3da58de0	0.08083701
143	0x3dee5760	0.11637759
144	0x3c9070e7	0.017631961
145	0x3d946902	0.07246591
146	0xbdf40551	-0.119150765
147	0xbda14b4c	-0.0787569
148	0xbdfb01ae	-0.1225618
149	0xbde780b5	-0.11303846
150	0x3b7f9d32	0.0039003608
151	0xbcb85561	-0.02250165
152	0xbd27f7c9	-0.04100779
153	0x3c274944	0.010210339
154	0x3d8657b1	0.065596946
155	0x3dc081bd	0.093997456
156	0xbd54154e	-0.05177813
157	0x3dae1541	0.085001476
158	0xbd20be11	-0.03924376
159	0x3d8a36b2	0.067487136
160	0xbd9325b9	-0.071849294
161	0xbdb8349c	-0.089944094
162	0x3cb75df0	0.02238366
163	0xbcfdd3a4	-0.030984707
164	0x3b84ec00	0.0040564537
165	0xbcc377d0	-0.023860842
166	0xbd05adb9	-0.032636378
167	0xbda96872	-0.082718745
168	0x3de77ea7	0.11303454
169	0xbda19a71	-0.078907855
170	0x3de3cee1	0.111234434
171	0xbd85e238	-0.065372884
172	0x3dac2b8c	0.084067434
173	0xbdd5c1da	-0.10437365
174	0x3de48ac3	0.11159279
175	0x3dfdd8fd	0.12394903
176	0x3dfdfa9c	0.124013156
177	0x3de3e5fd	0.11127851
178	0x3e04458b	0.12917154
179	0xbda3d5f6	-0.07999794
180	0xbcccb28c	-0.024987482
181	0x3d696f44	0.056990877
182	0x3bde48f5	0.0067835995
183	0xbdd9ad66	-0.10628776
184	0xbdd6ccb2	-0.10488261
185	0x3dffbea8	0.12487537
186	0x3df76cd5	0.12081305
187	0x3c715e38	0.014731936
188	0x3d89381f	0.067001574
189	0x3df1b1c4	0.11801484
190	0xbdb456d7	-0.08805626
191	0xbdd491f0	-0.10379398
192	0x3dc43290	0.095799565
193	0x3df23870	0.11827171
194	0xbda81b98	-0.08208388
195	0xbde868cb	-0.11348113
196	0x3ccac52a	0.024752218
197	0xbd261942	-0.04055143
198	0xbdf4140d	-0.11917887
199	0xbd93e2b9	-0.07220978
200	0xbde31570	-0.11088073
201	0x3d9bead9	0.07613153
202	0xbd8a0488	-0.067391455
203	0x3db4900c	0.08816537
204	0xbc63505e	-0.0138741415
205	0xbd657d7d	-0.056027878
206	0x3aed0bcd	0.0018085182
207	0x3df2f1ee	0.11862551
208	0x3de6cc4d	0.11269436
209	0xbd80654a	-0.06269319
210	0x3bd4737a	0.0064834924
211	0x3d9e21f0	0.07721317
212	0x3de7341f	0.11289238
213	0x3da0ab6a	0.07845195
214	0xbd56ca50	-0.052439034
215	0x3d977e77	0.07397168
216	0x3ca424a4	0.020037003
217	0x3d96121d	0.073276736
218	0xbc3f8190	-0.011688605
219	0x3c985a95	0.01859788
220	0xbdfb326e	-0.12265478
221	0xbdc0c584	-0.09412673
222	0x3db48ba3	0.08815696
223	0xbdaec855	-0.08534304
224	0xbdce08fe	-0.10060309
225	0xbdc1f65b	-0.09470817
226	0x3cf4da2f	0.029889194
227	0x3c4ca462	0.012490364
228	0x3d7fbc02	0.062435158
229	0x3dbef219	0.0932352
230	0xbd3d9b3f	-0.046290632
231	0x3cdd3573	0.027003026
232	0x3df002d5	0.1171929
233	0xbb0ad4ed	-0.0021184043
234	0xbc49d233	-0.012318182
235	0x3da925c0	0.08259153
236	0xbcc8ffae	-0.02453598
237	0xbd4ac063	-0.04949988
238	0xbe03a549	-0.1285602
239	0x3c31bed5	0.010848721
240	0x3d1d04da	0.038334705
241	0xbd99ceb8	-0.075101316
242	0xbc84d124	-0.016213007
243	0xbd12e017	-0.03585824
244	0x3d71083f	0.058845755
245	0x3b7eda31	0.0038887376
246	0xbdbda615	-0.09260193
247	0x3de0d18a	0.109774664
248	0x3d9ef967	0.077624135
249	0xbdabd959	-0.08391065
250	0x3dc7b624	0.097515374
251	0xbcc21dd1	-0.023695858
252	0x3cc57f8f	0.024108676
253	0x3d3b7ada	0.045771457
254	0xbdbd5619	-0.092449374
255	0xbdc4f745	-0.096174754

_module.lstm.bias_ih_l0 f4 [256]
0	0x3d8a4023	0.06750514
1	0x3da7a199	0.08185119
2	0xbdddfaa8	-0.108388245
3	0x3d972ae0	0.07381225
4	0xbd2b2d37	-0.041791167
5	0x3dac9b0d	0.08428011
6	0xbe01fc01	-0.12693788
7	0x3cb28168	0.021790221
8	0x3dc11074	0.09426966
9	0x3db8d872	0.09025659
10	0x3dd6bf7a	0.1048574
11	0xbd95c22a	-0.073124245
12	0xbdadcd6d	-0.084864475
13	0xbd913750	-0.07090628
14	0x3daff67e	0.085919365
15	0xbd19ca4b	-0.037546437
16	0xbd896fb6	-0.0671076
17	0xbd83be5b	-0.06432792
18	0xbdb54738	-0.088514745
19	0x3d988fc6	0.074492976
20	0xbddf7997	-0.10911863
21	0x3dd67213	0.10470977
22	0xbdb8bb99	-0.090201564
23	0x3dd17e4f	0.102291696
24	0x3ca8d761	0.020610513
25	0xbc94c9e4	-0.018162675
26	0xbdb65f7c	-0.08904931
27	0xbca83d95	-0.020537177
28	0x3d2be96b	0.04197065
29	0x3d494268	0.049135596
30	0x3d2add2a	0.041714825
31	0xbdb65510	-0.08902943
32	0x3d842001	0.06451417
33	0x3c5550a3	0.013019714
34	0xbc1f4c44	-0.009722773
35	0xbdcb31e1	-0.09921623
36	0xbbd4529e	-0.0064795753
37	0xbd9285a4	-0.07154396
38	0x3db7c60c	0.08973321
39	0x3b3b883b	0.0028615135
40	0x3c2d3176	0.010570874
41	0x3c215968	0.009847976
42	0xbd1c970a	-0.03822998
43	0x3dc2c8f0	0.09510982
44	0x3dc9c81f	0.09852623
45	0x3d816b72	0.06319322
46	0xbcf546b5	-0.029940942
47	0x3d4d7b01	0.050166134
48	0xbdda0cc2	-0.106469646
49	0x3dd50828	0.10401946
50	0xbd92722a	-0.07150681
51	0x3d851c75	0.064995684
52	0xbaf7da3e	-0.0018909646
53	0x3de965ee	0.11396395
54	0x3dfb3f5d	0.12267945
55	0xbda552e2	-0.08072449
56	0xbdcc0e0e	-0.09963618
57	0x3c8be9e6	0.017079305
58	0xbdcf7aac	-0.1013082
59	0x3dc842e6	0.09778385
60	0xba2a759c	-0.00065025105
61	0x3d00dd47	0.031461027
62	0x3df5a316	0.11993997
63	0x3d03256d	0.032018114
64	0xbde3dbd7	-0.111259155
65	0x3df6033c	0.12012336
66	0xbcf457fb	-0.029827109
67	0xbd6240a0	-0.055237412
68	0xbbb94305	-0.0056537413
69	0x3be515f5	0.006991143
70	0xbd0600f5	-0.032715756
71	0xbd826f80	-0.06368923
72	0xbd49cafa	-0.04926584
73	0xbdc48000	-0.095947266
74	0xbdda396a	-0.10655482
75	0x3c8502fe	0.016236778
76	0xbd1152f7	-0.035479512
77	0x3d74d591	0.059773985
78	0xbdc2f0d1	-0.09518588
79	0x3db10ced	0.086450435
80	0xbd98054c	-0.07422885
81	0xbd90f5e0	-0.07078147
82	0xbd81361b	-0.06309148
83	0x3dcf46ba	0.10120912
84	0x3da7a091	0.081849225
85	0xbdc6e69e	-0.097119555
86	0xbb4dc531	-0.0031398053
87	0x3d901a3b	0.07036253
88	0xbdfdf6be	-0.12400578
89	0xbc4d2f4c	-0.0125234835
90	0x3b4d6a9e	0.0031344066
91	0xbdf5d05c	-0.12002632
92	0xbb749824	-0.0037322128
93	0x3ca56720	0.020190775
94	0xbb79a682	-0.003809363
95	0xbdd80acf	-0.105489366
96	0xbde46176	-0.11151402
97	0xbdd0da69	-0.101979084
98	0xbca13fba	-0.019683708
99	0x3da1ccdf	0.07900404
100	0xbdbb3588	-0.0914107
101	0xbd969dd2	-0.073543206
102	0x3d963192	0.073336735
103	0x3d91b605	0.071147956
104	0xbdf36928	-0.11885291
105	0x3d2bb3c1	0.041919474
106	0xbd8743da	-0.066047385
107	0xbd641df5	-0.05569263
108	0xbdb519db	-0.08842822
109	0x3dab2cff	0.08358192
110	0xbd7db454	-0.061939552
111	0x3d677601	0.05650902
112	0xbc94f361	-0.018182458
113	0xbdf267fc	-0.1183624
114	0x3dd0b93c	0.10191581
115	0x3d5ef77b	0.054435235
116	0xbbb93fe5	-0.005653369
117	0xbd18fd55	-0.03735097
118	0x3a9611c9	0.0011449392
119	0xbca155c7	-0.019694222
120	0xbddef3f3	-0.10886373
121	0x3df2b53f	0.11850976
122	0xbd458144	-0.04821898
123	0xbc267497	-0.010159633
124	0xbd9503ec	-0.07276139
125	0x3dc60daa	0.09670575
126	0xbdfef3d2	-0.12448849
127	0x3df121d8	0.11774033
128	0x3d28f042	0.041244753
129	0x3d476a30	0.048685253
130	0xbdd14b7d	-0.10219476
131	0x3d59282b	0.053016823
132	0xbcd49f27	-0.025954796
133	0x3db1b2f4	0.08676711
134	0xbbc51c90	-0.006015368
135	0xbd99ec10	-0.075157285
136	0xbc9081eb	-0.017640075
137	0x3d91e75e	0.07124208
138	0x3dde9ee1	0.108701475
139	0xbdefebc1	-0.11714888
140	0x3df285f9	0.118419595
141	0x3d7015bc	0.058614478
142	0xbba3635a	-0.004986209
143	0xbdcd174b	-0.100142084
144	0xbdf1a70e	-0.11799441
145	0x3dc7989b	0.09745904
146	0x3d15be7b	0.03655861
147	0x3dcf1217	0.10110872
148	0xbdc00b42	-0.09377147
149	0xbda45501	-0.08024026
150	0xbd83c40a	-0.06433876
151	0x3dfd3a9e	0.12364696
152	0xbdfab650	-0.122418046
153	0xbde98931	-0.1140312
154	0x3c8ea5a9	0.017412977
155	0x3b622185	0.0034504842
156	0xbdc4ecbc	-0.09615466
157	0x3d0b9da3	0.03408588
158	0xbd87c947	-0.066301875
159	0xbd0c6dff	-0.034284588
160	0x3c9cb4af	0.019129125
161	0x3dee867d	0.11646745
162	0x3da4f923	0.080553316
163	0xbbc48064	-0.0059967507
164	0x3d941b70	0.07231796
165	0xbdac5538	-0.08414692
166	0xbbdc48e7	-0.006722558
167	0xbd89600c	-0.067077726
168	0xbda1ed2e	-0.079065666
169	0x3d6cd86f	0.057823595
170	0xbd6dbf07	-0.058043506
171	0xbdd52226	-0.10406904
172	0xbe00030a	-0.1250116
173	0x3dc31c98	0.09526938
174	0x3db80525	0.08985356
175	0x3dc79a68	0.097462475
176	0x3dcba8b8	0.0994429
177	0xbc222588	-0.009896643
178	0xbd0a29f4	-0.033731416
179	0xbbc714c6	-0.0060754744
180	0x3bee2aad	0.007268271
181	0x3d628022	0.05529798
182	0x3bcb7c04	0.006209852
183	0xbdf266b2	-0.11835994
184	0xbd3c7eaa	-0.046019234
185	0x3dbb391f	0.09141754
186	0x3dcd9b19	0.10039348
187	0xbc5beb11	-0.013422743
188	0xbdd28e56	-0.10281055
189	0x3dd33be9	0.10314161
190	0x3d374a6c	0.04474871
191	0xbc89d9ad	-0.016827429
192	0xbcb7cdf8	-0.02243708
193	0xbd8fe754	-0.07026544
194	0x3d905431	0.07047308
195	0x3db4259a	0.087962344
196	0x39fc6856	0.00048142922
197	0x3c031657	0.008000932
198	0xbde1e289	-0.11029536
199	0xbb95691b	-0.0045596487
200	0xbe079f9c	-0.1324448
201	0x3d5f4a09	0.054513965
202	0x3ddf0c1a	0.1089098
203	0x3c0983d4	0.008393247
204	0xbe004280	-0.12525368
205	0xbc49db34	-0.0123203285
206	0x3d2710c3	0.04078747
207	0xbd549d75	-0.051907975
208	0xbd2b2ca1	-0.04179061
209	0x3da2cc7c	0.079491585
210	0x3d802645	0.06257299
211	0xbdc6c08c	-0.09704694
212	0x3d968429	0.07349426
213	0x3d58dc65	0.05294456
214	0xbcd38054	-0.025818028
215	0x3d81d8ae	0.063401565
216	0x3da78dbf	0.08181333
217	0x3d43f110	0.047837317
218	0xbdd38755	-0.10328547
219	0xbdf562b6	-0.11981718
220	0x3ddd59d7	0.10808151
221	0xbdf3c1b6	-0.11902182
222	0xbd8cf816	-0.06883256
223	0x3d8130a2	0.06308104
224	0xbd33b724	-0.04387583
225	0xbdec6d95	-0.115443386
226	0xbd6b9efe	-0.057524674
227	0x3db78a27	0.08961897
228	0xbd9c0cba	-0.07619615
229	0xbdcc60c4	-0.09979394
230	0x3d516156	0.051118217
231	0xbd90f652	-0.07078232
232	0x3cfba27a	0.030717123
233	0x3d9bdc28	0.07610351
234	0xbd4f4313	-0.050601076
235	0xbd7ff2a2	-0.062487252
236	0x3da50f1e	0.08059524
237	0xbdacabe5	-0.08431224
238	0xbdd619b4	-0.10454121
239	0xbdc4d606	-0.09611134
240	0xbd7ede9c	-0.062224016
241	0xbd4f795f	-0.050652858
242	0x3dc116e7	0.094281964
243	0x3d6e79da	0.058221675
244	0x3dfdb72a	0.123884514
245	0x3d9f0003	0.07763674
246	0x3ac8d8dd	0.0015323419
247	0xbb20fd04	-0.0024564872
248	0xbd6ef0cc	-0.05833511
249	0x3d2bdda8	0.041959435
250	0xbdb33dcc	-0.08752021
251	0xbdf83cc0	-0.12120962
252	0xbd20d3f0	-0.03926462
253	0x3cebba27	0.028775288
254	0x3c77fb95	0.015135665
255	0x3d0d88bd	0.034554232

_module.lstm.weight_hh_l0 f4 [256, 64]
0	0x3d0105f8	0.031499833
1	0xbdde772f	-0.10862576
2	0xbd6f473a	-0.058417536
3	0xbc531209	-0.012882718
4	0xbda46094	-0.08026233
5	0x3d646085	0.05575611
6	0xbcf01e0a	-0.029311199
7	0xbd66cc06	-0.056346916
8	0xbd1fc5c6	-0.03900697
9	0xbd99bd76	-0.0750684
10	0x3d0f2e0c	0.034956023
11	0x3bb82cd6	0.0056205792
12	0xbd40f00c	-0.047103927
13	0xbd180b94	-0.037120417
14	0x3df0c799	0.1175682
15	0xbbf24214	-0.007393131
16	0x3c6e2ebb	0.014537509
17	0x3c23b3b8	0.009991579
18	0xbd883f29	-0.06652672
19	0xbdb1dff0	-0.08685291
20	0xbdea7c3c	-0.11449477
21	0x3cc51c20	0.024061263
22	0xbace12f6	-0.0015722204
23	0xbdc25022	-0.0948794
24	0xbd93a1b7	-0.07208579
25	0xbd1a07ab	-0.03760497
26	0xbd987c4e	-0.07445584
27	0x3dde8a6e	0.10866247
28	0xbca5ff94	-0.02026347
29	0xbd486020	-0.048919797
30	0xbdb29101	-0.087190636
31	0x3c7f253b	0.015572841
32	0xbde40e33	-0.11135521
33	0x3d58cab7	0.0529277
34	0xbd6af80d	-0.057365466
35	0xbd3c17cf	-0.045921143
36	0x3dba3b5c	0.09093353
37	0x3d4125ef	0.047155317
38	0xbc540374	-0.012940276
39	0x3d612b7f	0.05497312
40	0xbd154a2d	-0.036447693
41	0x3d33d878	0.043907613
42	0x3d51b105	0.05119421
43	0xbd84d796	-0.06486432
44	0x3d429c47	0.04751232
45	0xbdbeaddd	-0.093105055
46	0xbcf86a87	-0.030324234
47	0xbdd8faf3	-0.1059474
48	0xbdc36bdb	-0.09542056
49	0x3dc77b5a	0.09740324
50	0x3dccfa62	0.10008694
51	0xbbb933ad	-0.005651912
52	0xbc97fb97	-0.018552585
53	0xbcd6e69f	-0.026233016
54	0x3d8e1831	0.06938208
55	0xbd4f4129	-0.05059925
56	0x3daee165	0.08539084
57	0xbd68d828	-0.056846768
58	0xbde9941a	-0.11405201
59	0xbd4f7fb0	-0.05065888
60	0x3ddbfac5	0.1074119
61	0xbe005040	-0.12530613
62	0xbe053799	-0.1300949
63	0x3ced9a94	0.029004373
64	0xbd15211f	-0.03640854
65	0x3d03c6c7	0.03217199
66	0xba18d944	-0.0005830715
67	0x3d91bf33	0.071165465
68	0x3d3db477	0.046314683
69	0xbcb64ad7	-0.022252483
70	0xbd097fb7	-0.033569064
71	0xbdc306af	-0.09522759
72	0xbd6dbe2b	-0.058042686
73	0x3dc27903	0.094957374
74	0x3d857b93	0.065177105
75	0xbdba75fe	-0.091045365
76	0x3c2b1c6b	0.010443787
77	0xbde60e69	-0.11233217
78	0x3db74570	0.08948791
79	0x3db5bd32	0.08873977
80	0x3d9a12d9	0.07523126
81	0x3dc205de	0.09473775
82	0x3d116810	0.035499632
83	0x3dbb1e45	0.09136633
84	0x3dcf7236	0.10129206
85	0xbdabf51b	-0.083963595
86	0x3db071f2	0.08615483
87	0x3d64b269	0.055834208
88	0x3d1b2681	0.037878517
89	0x3d3c3f28	0.045958668
90	0x3da51146	0.08059935
91	0x3b68f792	0.0035547954
92	0xbd1c67a8	-0.03818479
93	0xbd4180f0	-0.047242105
94	0x3dcef6d7	0.10105675
95	0xbdc4cde3	-0.09609582
96	0x3d92edeb	0.071742855
97	0x3d321d96	0.043485247
98	0xbcdb54ac	-0.026773773
99	0xbde43f41	-0.11144877
100	0xbd8c04f0	-0.06836879
101	0xbdcb7cd8	-0.099359214
102	0x3d37665b	0.04477535
103	0x3d5e797c	0.054315075
104	0xbd32650e	-0.043553405
105	0x3d1d443e	0.03839516
106	0x3dffd21e	0.124912485
107	0xbd1b76c7	-0.03795507
108	0xbd3c62c8	-0.045992643
109	0x3dd53f34	0.10412446
110	0x3cc1143f	0.023569224
111	0xbd18aa07	-0.037271526
112	0xbd85656c	-0.06513485
113	0xbd2926c0	-0.04129672
114	0x38f971e8	0.00011894462
115	0xbabc24b5	-0.0014354201
116	0x3d871266	0.06595306
117	0x3b6750e2	0.0035296013
118	0xbddbfa60	-0.107411146
119	0xbdb1a7f2	-0.08674611
120	0xbc684e67	-0.014178849
121	0x3db128b8	0.086503446
122	0xbd5bdf0e	-0.05367952
123	0xbd4f5a0f	-0.050622996
124	0x3d95baa8	0.073109925
125	0xb9f840f5	-0.00047350643
126	0xbc3e9ad6	-0.011633595
127	0xbdb29444	-0.08719686
128	0xbd12b70e	-0.035819106
129	0x3ba9fef9	0.005187866
130	0x3daba470	0.08380973
131	0x3d8da255	0.06915728
132	0xbd7b37b6	-0.061332427
133	0xbc28a1b0	-0.010292456
134	0xbd428bd3	-0.047496628
135	0xbd48a380	-0.04898405
136	0x3db124bc	0.08649585
137	0xbd423693	-0.047415327
138	0xbdd26de4	-0.10274866
139	0x3d537bdc	0.051631793
140	0xbdaed58c	-0.085368246
141	0xbc2936c9	-0.010328003
142	0xbd7fe81b	-0.062477212
143	0x3cd82a26	0.026387285
144	0x3cc6afa1	0.024253668
145	0x3d13e643	0.036108267
146	0x3dcdd7c2	0.10050918
147	0x3db07db2	0.086177245
148	0x3e022155	0.12708028
149	0x3ddafa20	0.10692239
150	0xbd9d6954	-0.07686105
151	0xbc83c37c	-0.016084425
152	0xbc86e43b	-0.01646625
153	0xba41ec0c	-0.00073975394
154	0xbd1cab5f	-0.03824937
155	0xbde490c9	-0.11160428
156	0x3deab133	0.11459579
157	0xbdb34650	-0.087536454
158	0xbad247f5	-0.0016043173
159	0xbd8f0a76	-0.06984417
160	0x3cc79255	0.024361769
161	0x3d26c68e	0.0407167
162	0x3c134176	0.008987775
163	0x3d5c0989	0.05372003
164	0xbd91afda	-0.07113619
165	0x3c25f252	0.010128574
166	0xbdfbde94	-0.12298313
167	0xbde598e3	-0.112108015
168	0x3d088542	0.03333021
169	0x3d1c80b7	0.03820869
170	0xbd9c9343	-0.076452754
171	0x3dd7474c	0.10511646
172	0x3dc5948b	0.09647473
173	0x3d8899e4	0.06669977
174	0xbd8af533	-0.06785049
175	0xbda3fd70	-0.08007324
176	0x3df326a0	0.118726015
177	0xbddb6928	-0.10713416
178	0xbd1a6fa5	-0.03770413
179	0x3dbc61d5	0.091983475
180	0x3abd6cc0	0.0014451966
181	0xbdb5dd1b	-0.08880063
182	0xbdafa704	-0.085767776
183	0xbdcd7b20	-0.1003325
184	0xbda597ef	-0.0808562
185	0x3ddf116e	0.10891996
186	0x3c815e66	0.015792083
187	0x3dc89913	0.097948216
188	0xbdce4fd6	-0.10073821
189	0xbce74899	-0.02823286
190	0xbdaad3fd	-0.08341215
191	0x3dbbfcaf	0.09179055
192	0xbcc4c8ce	-0.024021532
193	0x3cc32d8e	0.023825433
194	0x3d6a38bb	0.05718301
195	0x3cdd9e14	0.027052917
196	0xbd961752	-0.07328667
197	0xbde94880	-0.113907814
198	0xbb2394cb	-0.0024960514
199	0x3dff2161	0.124575384
200	0x3d6c8f33	0.057753753
201	0x3dcd7047	0.10031181
202	0xbde82b67	-0.11336403
203	0xbdedd53d	-0.116129376
204	0x3dd6dad5	0.10490958
205	0xbd81ee32	-0.0634426
206	0xbd865b9d	-0.065604426
207	0x3d3248d1	0.043526474
208	0xbd8831e0	-0.06650138
209	0xbd1a8fff	-0.03773498
210	0x3dc6a32f	0.096990936
211	0xbdf3bd01	-0.11901284
212	0xbda37a21	-0.079822786
213	0xbda53fe0	-0.08068824
214	0xbd03fd5a	-0.032224037
215	0x3bc94142	0.0061418125
216	0xbc088339	-0.008332067
217	0x3d2ab789	0.04167894
218	0xbdad72d0	-0.08469164
219	0xbd3fba44	-0.046808496
220	0xbdd385bf	-0.103282444
221	0x3d105595	0.035237867
222	0xbd6b4430	-0.057438076
223	0x3d5d8fa3	0.05409206
224	0xbcdae1ad	-0.026718939
225	0xbde69e2b	-0.11260637
226	0x3bd281d4	0.006424168
227	0xbc6bacbc	-0.014384445
228	0x3e0517fd	0.12997432
229	0x3d9e1362	0.07718541
230	0xbcfeac8b	-0.031088134
231	0x3dc3fbb6	0.095694944
232	0x3cbf1950	0.0233275
233	0x38b218b4	8.492303e-05
234	0xbdbf2012	-0.09332289
235	0xbdba36b8	-0.09092468
236	0xbd3a2793	-0.045447897
237	0xbd5ed7b9	-0.054404948
238	0xbca45a29	-0.020062523
239	0xbde15b7a	-0.11003776
240	0x3cd6ccdb	0.02622073
241	0x3d8fad7f	0.07015514
242	0xbd7f3432	-0.062305637
243	0xbc5a2a6a	-0.013315776
244	0xbdf46134	-0.119326025
245	0x3d2f3706	0.042777084
246	0x3dd0f66c	0.10203251
247	0xbddcc349	-0.10779435
248	0xbdf1a68d	-0.11799345
249	0x3dcc8055	0.09985415
250	0x3d0d3ff7	0.03448483
251	0xbda084be	-0.078378186
252	0xbdc16879	-0.09443755
253	0xbd8e3bc4	-0.06944993
254	0xbd181ed8	-0.03713879
255	0x3db55c43	0.08855488

_module.lstm.bias_hh_l0 f4 [256]
0	0xbdc17fdc	-0.09448215
1	0x3d35c54c	0.04437761
2	0xbde84495	-0.11341206
3	0xbddeb17d	-0.10873697
4	0xbd1986f5	-0.03748222
5	0xbc325607	-0.010884768
6	0xbd7793f8	-0.06044385
7	0xbd998aac	-0.07497153
8	0xbd945c98	-0.07244223
9	0x3de96d53	0.11397805
10	0x3d9c4872	0.07631005
11	0x3c4a7e37	0.0123591935
12	0x3d298025	0.041381974
13	0xbdd36cbf	-0.10323476
14	0xbd9e9f2e	-0.07745205
15	0xbdd2681f	-0.10273766
16	0x3dd63bce	0.104606256
17	0xbdb1b8a6	-0.08677797
18	0xbd5d8e83	-0.054090988
19	0xbccb28c1	-0.024799706
20	0xb869e018	-5.5760232e-05
21	0xbdb6ca5d	-0.089253165
22	0xbd4d00c2	-0.05004955
23	0x3d34f484	0.0441785
24	0x3d90982b	0.07060274
25	0x3d167ace	0.03673821
26	0x3c5ec42d	0.013596577
27	0xbcbf0f86	-0.023322832
28	0x3d437082	0.047714718
29	0xbd6a567a	-0.057211377
30	0xbdacb3f7	-0.08432763
31	0xbe03f825	-0.12887628
32	0x3dd61357	0.104529075
33	0x3d41806d	0.047241617
34	0x3de95828	0.113937676
35	0xbd088c02	-0.033336647
36	0xbd11d22a	-0.03560082
37	0x3daa2e1c	0.08309576
38	0xbdd6935c	-0.10477325
39	0xbd7e87d0	-0.06214124
40	0x3d894a51	0.06703628
41	0x3d3ec301	0.04657269
42	0xbde7014a	-0.11279543
43	0x3d2ccdce	0.04218846
44	0xbdd7d57a	-0.10538764
45	0xbd5bde4b	-0.053678792
46	0x3d4a58aa	0.049400963
47	0xbc6cca8e	-0.01445259
48	0x3d8621bd	0.06549404
49	0xbd0c6995	-0.03428038
50	0x3d6a07c8	0.057136327
51	0xbd99d7fc	-0.07511899
52	0x3d73d74f	0.059531506
53	0x3c465bac	0.012106817
54	0xbdec72fd	-0.1154537
55	0xbd893c37	-0.06700938
56	0xbc688c34	-0.014193583
57	0x3dbcc60e	0.092174634
58	0x3d9ad56a	0.07560237
59	0xbc1fecd2	-0.009761052
60	0x3d47698e	0.04868465
61	0xbdf0cd81	-0.11757947
62	0xbc309c2e	-0.010779424
63	0xbd83f1b9	-0.06442589
64	0xbdb3a9ca	-0.08772619
65	0xbd8c682e	-0.06855808
66	0xbd27828c	-0.040895984
67	0xbd09964c	-0.0335906
68	0xbdae7e8e	-0.08520232
69	0x3d45e103	0.04831029
70	0x3dabe7bb	0.083938085
71	0xbc77b7cf	-0.015119507
72	0x3d476ac9	0.048685823
73	0x3d0f1e0a	0.034940757
74	0xbdf77b4b	-0.12084063
75	0x3afe0d19	0.0019382566
76	0xbc4a3759	-0.0123422975
77	0xbdc443f5	-0.09583274
78	0xbdf15adf	-0.117849104
79	0x3d987a1a	0.07445164
80	0xbd5fa2e3	-0.0545987
81	0x3d68a0fe	0.05679416
82	0xbdebe4ea	-0.11518271
83	0x3cbadbed	0.022809947
84	0xbde23725	-0.11045674
85	0x3d0d0f3d	0.03443836
86	0xbd081f18	-0.03323278
87	0xbd77c49f	-0.060490247
88	0x3d19ae49	0.037519727
89	0xbd8b09df	-0.06788992
90	0xbca02e42	-0.019553307
91	0x3dba72f3	0.09103956
92	0xbcde9113	-0.027168786
93	0xbcf1530f	-0.02945855
94	0xbdefa391	-0.1170112
95	0xbc06b423	-0.008221659
96	0xbd40effb	-0.047103863
97	0xbda323e1	-0.07965828
98	0x3d4ea20f	0.05044752
99	0xbdb2bbbf	-0.08727216
100	0x3ca21f8e	0.019790437
101	0xbb516de9	-0.003195638
102	0x3d7e9610	0.06215483
103	0x3d100518	0.035161108
104	0x3d83d309	0.06436736
105	0xbdc25036	-0.09487955
106	0x3dd0e26f	0.10199439
107	0x3d318da3	0.043347966
108	0xbdf30f95	-0.118682064
109	0x3c7c7c64	0.015410516
110	0xbd499aa5	-0.049219746
111	0xbd3a7a00	-0.045526505
112	0x3d331aee	0.043726854
113	0xbd24ce1f	-0.040235635
114	0xbc3c2047	-0.011482305
115	0x3cbc9c58	0.02302377
116	0xbdb3c21a	-0.08777256
117	0x3dc35247	0.095371775
118	0x3ba5425c	0.005043311
119	0x3d7b44c2	0.06134487
120	0xbce273a6	-0.027643036
121	0xbd8b586c	-0.068039745
122	0xbdd182c2	-0.10230018
123	0xbd35240c	-0.04422383
124	0x3d191387	0.03737214
125	0xbdb6ab94	-0.08919445
126	0x3dcec26f	0.10095679
127	0xbced51da	-0.028969694
128	0x3b871480	0.004122317
129	0x3bf5151e	0.007479324
130	0x3df67c82	0.12035467
131	0xbe00d8b9	-0.12582673
132	0xbc92a536	-0.017901044
133	0x3dededaf	0.116176
134	0xbd3fbe9e	-0.046812646
135	0xbdfcd4b0	-0.123452544
136	0xbdeccb48	-0.1156221
137	0xbd85de35	-0.06536523
138	0xbd9d3440	-0.076759815
139	0x3d24e9bb	0.040261965
140	0xbdba3e6e	-0.09093939
141	0x3d6e8ff7	0.058242764
142	0x3dbc5736	0.09196322
143	0xbd3a7d0a	-0.045529403
144	0xbc99029e	-0.018678006
145	0xbcb3cecc	-0.021949194
146	0x3d78251e	0.060582273
147	0xbd8dc353	-0.06922021
148	0x3cc00019	0.023437547
149	0xbcb81fa8	-0.022476032
150	0xbdc3e57c	-0.09565255
151	0x3d9a762c	0.07542071
152	0xbda4cd02	-0.08046915
153	0xbd218341	-0.039431814
154	0x3c7caf63	0.015422675
155	0xbd0655f9	-0.032796834
156	0x3da02add	0.078206755
157	0x3dc6b41f	0.09702324
158	0x3d394a58	0.045236915
159	0x3d1685d1	0.03674871
160	0xbdd8e6dc	-0.10590908
161	0xbdb37787	-0.087630324
162	0xbddf2285	-0.10895256
163	0x3d5e4c67	0.05427208
164	0x3d8cf201	0.06882096
165	0xbd92d29a	-0.07169075
166	0x3b1b6c5a	0.0023715706
167	0x3c3b426d	0.011429411
168	0xbd12d3ff	-0.035846706
169	0xbd01b703	-0.031668674
170	0x3d403c59	0.046932552
171	0x3d923647	0.07139259
172	0xbd5d437b	-0.054019433
173	0xbd814149	-0.0631128
174	0xbc8c30a8	-0.017113045
175	0xbce51a58	-0.027966663
176	0x3d234386	0.039859317
177	0x3db309fa	0.08742137
178	0xbdc3e3f0	-0.0956496
179	0xbd616aa3	-0.055033337
180	0xbc375c79	-0.011191481
181	0xbc5ffd7d	-0.013671276
182	0x3be52343	0.006992729
183	0xbda3a58e	-0.079905614
184	0x3d093339	0.033496115
185	0x3dcff65f	0.101544134
186	0x3dedb3f8	0.11606592
187	0x3daf61ed	0.085636
188	0xbd69761b	-0.0569974
189	0x3ab6b038	0.0013938015
190	0x3ce3fc3b	0.027830234
191	0xbd9cce17	-0.07656496
192	0xbdcc8cb7	-0.09987777
193	0x3d980427	0.07422667
194	0xbd0aa3cf	-0.033847626
195	0x3de63549	0.11240632
196	0xbcf8d97d	-0.030377144
197	0x3d7b01c9	0.061281
198	0xbdb90df3	-0.09035864
199	0x3dbbef1f	0.09176468
200	0x3deb7817	0.11497515
201	0xbd9e2fe1	-0.07723976
202	0xbd84cf86	-0.064848945
203	0x3d89d4cf	0.06730043
204	0xb8ed8f82	-0.00011327771
205	0x3df43848	0.11924797
206	0x3d8e48bf	0.06947469
207	0xbd936eac	-0.07198843
208	0x3d1f40b6	0.038880073
209	0xbdb15501	-0.08658791
210	0xbcf3b9dc	-0.02975171
211	0x3da1e150	0.07904303
212	0x3def5d23	0.11687686
213	0xbd331063	-0.0437168
214	0x3deb6fec	0.11495957
215	0x3c3b6082	0.0114365835
216	0x3da5c3cc	0.08093986
217	0xbce2b255	-0.027672926
218	0xbd9d58ab	-0.07682928
219	0xbd585d81	-0.052823547
220	0x3c3fefc2	0.011714878
221	0xbdcc1711	-0.09965337
222	0x3d7304f7	0.059330907
223	0xbc77ce64	-0.015124891
224	0xbdbc5037	-0.09194987
225	0xbdaf4963	-0.08558919
226	0xbe035452	-0.12825134
227	0xbd2c7160	-0.04210031
228	0xbdcdbac5	-0.10045389
229	0xbd6cfe63	-0.05785979
230	0x3dc45641	0.09586764
231	0xbd9913c0	-0.0747447
232	0xbd22e45c	-0.03976856
233	0x3db52dc4	0.0884662
234	0x3d8ccc51	0.06874908
235	0x3d37d325	0.044879097
236	0xbdcd5cfb	-0.100275
237	0xbd1fd098	-0.03901729
238	0x3d268449	0.0406535
239	0x3d9db519	0.07700557
240	0x3ce041dd	0.027375156
241	0x3df3efa4	0.11910942
242	0xbd3c277b	-0.04593609
243	0x3dd672e2	0.10471131
244	0xbd7b6dc5	-0.06138398
245	0x3cc1e311	0.023667844
246	0x3dea27c6	0.114333674
247	0xbdc62990	-0.09675896
248	0xbd996fa3	-0.07491996
249	0xbd7717b3	-0.060325336
250	0xbdc4f1c3	-0.09616425
251	0x3d8df437	0.06931346
252	0xbde9224d	-0.113834955
253	0x3df042bd	0.11731479
254	0x3d57cc7e	0.052685253
255	0xbc9fb7b5	-0.019496778
