models/wesad/dp/model_wesad_dp.pth (torch, 859013 bytes, 46 tensors)

_module.input_proj.weight f4 [128, 14]
0.2060314 0.22294432 -0.056984 0.24938254 -0.054203637 0.049578313 -0.12395182 0.1612285
0.23335072 -0.20054545 0.23696578 0.053312585 0.19645417 0.03840538 0.13472432 -0.030178308
0.20806594 0.03499334 -0.13734427 0.06902655 -0.12744647 -0.030231778 -0.10435638 0.17371075
-0.2150221 -0.11738579 -0.06983471 -0.15428719 0.018559726 -0.26633933 0.23622681 -0.23165935
0.21042944 0.045576613 -0.09313235 0.16536655 0.042626776 0.2174366 0.023086017 -0.08075249
0.07185377 -0.07600522 0.11333014 0.23407468 0.14581378 -0.112812094 0.15511769 0.04730194
0.1352388 -0.1604783 -0.26422182 -0.109661505 -0.19824526 0.21951713 0.07561124 0.1027351
0.080160275 -0.0047549587 0.2158291 -0.1939591 0.0073166857 -0.18272363 0.09040596 -0.09537183
0.07407067 -0.06239274 0.23182131 -0.15434293 -0.15955918 -0.15291783 0.23556183 0.09011345
0.26352906 -0.22515422 -0.26845494 -0.21351832 -0.17528829 0.1004928 0.09044255 0.22397384
-0.14099662 -0.17846584 0.13591655 -0.112503394 0.16291581 -0.06079825 0.14775433 -0.200316
-0.1389592 0.081456065 0.05635058 -0.07314181 0.16030589 0.18522373 -0.1862025 -0.14600864
0.24680418 -0.08166469 -0.10273351 -0.25292924 -0.15304656 0.06642056 -0.039040197 -0.1924568
0.0042768186 -0.17497346 -0.22771731 -0.14250408 -0.23199056 -0.16419247 0.2685102 0.056697447
0.08223818 -0.24474072 -0.17747253 -0.08007406 0.028914927 -0.23206462 -0.11959826 -0.16175237
0.0013758554 -0.098230556 -0.01867746 -0.1716792 -0.18932301 -0.15731356 -0.0812463 -0.21500586
0.22637904 -0.050064504 0.2334945 0.07888893 -0.22607397 0.1881078 -0.06680675 -0.099473745
-0.22273016 -0.2674521 0.06656002 -0.057395373 0.09967125 -0.2267187 0.19288321 -0.20085631
-0.04590042 0.054987863 0.14381951 0.21943483 0.24585143 -0.2122452 0.066564836 -0.123278536
-0.027618771 -0.20059438 0.23237132 -0.19233523 0.13774039 0.09060691 0.08275296 -0.15362762
0.2426839 0.066012345 0.032462575 -0.2332326 0.117233075 -0.046681724 -0.11598383 0.2366235
0.06291163 -0.14593574 -0.13722079 -0.00976227 0.14887454 -0.073242195 -0.15405151 -0.10013064
-0.19589482 0.10134222 0.2029109 -0.24896863 0.068346605 0.13475649 0.048344653 -0.08937214
0.14293511 0.12963758 0.098975025 -0.050324958 -0.067240074 0.03084981 -0.045665797 -0.08265553
0.18134868 0.23532505 -0.024356568 -0.06257708 0.007961296 -0.012284908 0.07015308 0.077640094
-0.24594148 -0.0968097 0.22261517 0.10692822 -0.017925248 -0.15267609 -0.16224623 -0.24164139
-0.08688226 0.09148817 0.17142071 0.11929204 -0.24158749 -0.15048425 -0.044543117 0.25590122
0.039392874 -0.071115814 0.10458686 -0.09613608 -0.17480032 0.19172306 -0.116664335 -0.050349016
-0.25847188 0.18487164 0.1933107 0.10143184 -0.18887429 -0.25934613 -0.21241112 0.19944516
0.12329136 0.22377336 0.14300157 0.06985543 -0.0062177023 -0.20861815 -0.22723943 -0.2562032
0.1075184 -0.1383832 -0.058656532 -0.1565491 -0.046841715 -0.18902093 -0.18030445 0.08280228
-0.077739544 0.16045654 -0.08657202 -0.19631574 -0.045897044 -0.1360448 -0.07697354 -0.2511554
00000000: e5f9 523e 844b 643e 0e68 69bd 235e 7f3e
00000010: a204 5ebd a112 4b3d 74da fdbd 1519 253e
00000020: 7ef3 6e3e c95b 4dbe 28a7 723e 4c5e 5a3d
00000030: 482b 493e f64e 1d3d 2cf5 093e 8038 f7bc
00000040: 3d0f 553e 2d55 0f3d faa3 0cbe cb5d 8d3d
00000050: 5481 02be a2a8 f7bc ccb8 d5bd 3be1 313e
00000060: c12e 5cbe f667 f0bd 8005 8fbd 76fd 1dbe
00000070: 910a 983c a15d 88be 71e5 713e 1c38 6dbe
00000080: d17a 573e 8bae 3a3d 2cbc bebd d955 293e
00000090: 6a99 2e3d b3a7 5e3e e31e bd3c 9061 a5bd
000000a0: 1228 933d a0a8 9bbd a219 e83d 46b1 6f3e
000000b0: 3550 153e 070a e7bd 2cd7 1e3e aebf 413d
000000c0: 0a7c 0a3e 6c54 24be 1548 87be 3696 e0bd
000000d0: ce00 4bbe 19c9 603e 11da 9a3d c866 d23d
000000e0: 122b a43d 7ccf 9bbb 4e02 5d3e 379d 46be
000000f0: cfc0 ef3b e71b 3bbe c326 b93d 4e52 c3bd
00000100: 5db2 973d 888f 7fbd 9162 6d3e 130c 1ebe
00000110: 7b63 23be 7e96 1cbe 1f37 713e 678d b83d
00000120: 48ed 863e d48e 66be ed72 89be 8ca4 5abe
00000130: c67e 33be 2bcf cd3d f239 b93d 6659 653e
00000140: 6b61 10be c0bf 36be b52d 0b3e 2e68 e6bd
00000150: 67d3 263e 9607 79bd e94c 173e a31f 4dbe
00000160: 524b 0ebe 70d2 a63d decf 663d 60cb 95bd
00000170: 3a27 243e 4aab 3d3e deab 3ebe 4a83 15be
00000180: 3cba 7c3e d13f a7bd f265 d2bd f17f 81be
00000190: 3db8 1cbe 8107 883d 9de8 1fbd 6513 45be
000001a0: 8e24 8c3b 3e2c 33be ba2e 69be 97ec 11be
000001b0: ef8e 6dbe 1222 28be 2b7a 893e 953b 683d
000001c0: 7e6c a83d 509d 7abe 5cbb 35be defd a3bd
000001d0: ffde ec3c 59a2 6dbe efef f4bd 6aa2 25be
000001e0: 0c56 b43a 1a2d c9bd 7901 99bc accc 2fbe
000001f0: e4dd 41be ce16 21be 7664 a6bd 7f2a 5cbe
00000200: e8cf 673e 7010 4dbd 2f19 6f3e 8590 a13d
00000210: ef7f 67be 559f 403e fad1 88bd e4b8 cbbd
00000220: 6013 64be 7bef 88be 9f50 883d 6917 6bbd
00000230: 7120 cc3d f228 68be 2d83 453e 47ad 4dbe
00000240: 1402 3cbd f43a 613d 6c45 133e 86b3 603e
00000250: 7ac0 7b3e ce56 59be 2553 883d 7579 fcbd
00000260: c340 e2bc 9d68 4dbe bff2 6d3e 87f3 44be
00000270: d10b 0d3e 1e90 b93d 627a a93d 8f50 1dbe
00000280: 2182 783e 7b31 873d 7af7 043d 87d4 6ebe
00000290: e517 f03d 5635 3fbd ee88 edbd 6e4d 723e
000002a0: d0d7 803d 2e70 15be 9b83 0cbe eef1 1fbc
000002b0: 9172 183e 0100 96bd aebf 1dbe 4b11 cdbd
000002c0: a798 48be 838c cf3d e0c7 4f3e a2f1 7ebe
000002d0: 4ef9 8b3d 9bfd 093e 0b05 463d be08 b7bd
000002e0: 955d 123e b7bf 043e 6bb3 ca3d 8b21 4ebd
000002f0: 2ab5 89bd beb8 fc3c 0f0c 3bbd 4d47 a9bd
00000300: 78b3 393e 0df9 703e 6d87 c7bc 6a28 80bd
00000310: 1870 023c a446 49bc 6bac 8f3d c501 9f3d
00000320: 15d8 7bbe 2a44 c6bd 3bf5 633e 2ffd da3d
00000330: f8d7 92bc 1f57 1cbe e023 26be d770 77be
00000340: 54ef b1bd 265e bb3d e988 2f3e 634f f43d
00000350: b662 77be 8b18 1abe d872 36bd 7c05 833e
00000360: 6c5a 213d 2ba5 91bd a331 d63d fee2 c4bd
00000370: dbfe 32be 0d53 443e b6ed eebd c53a 4ebd
00000380: 6d56 84be fe4e 3d3e 3df3 453e 7fbb cf3d
00000390: 4368 41be 04c9 84be 4d82 59be 5a3b 4c3e
000003a0: 2e80 fc3d d824 653e 016f 123e 5d10 8f3d
000003b0: debd cbbb ff9f 55be 74b1 68be 112d 83be
000003c0: 9b32 dc3d 53b4 0dbe d541 70bd 684e 20be
000003d0: 19dd 3fbd b48e 41be bba1 38be 3e94 a93d
000003e0: e935 9fbd b84e 243e ac4c b1bd fe06 49be
000003f0: 8afe 3bbd 544f 0bbe 4ea4 9dbd 7197 80be

_module.input_proj.bias f4 [128]
-0.23951343 0.2306931 -0.025787253 -0.13124329 -0.08735357 -0.20113309 0.20599447 -0.053203586
-0.14410086 -0.20345086 0.1524468 -0.0332134 -0.025126 -0.06286633 -0.1320692 0.049788374
0.20857139 -0.15671286 0.006706744 -0.20322172 -0.121844746 0.2402119 0.0056487136 0.25245368
-0.047003932 -0.14937231 -0.15833715 0.23197556 -0.2048539 0.13618995 0.0745166 0.07075442
0.15382442 -0.081180684 0.17082226 -0.21234329 -0.09074658 0.19192655 0.08177398 -0.029107764
-0.057724793 -0.15503755 0.16195251 -0.009470429 -0.012700741 0.0642189 0.1930041 -0.13899694
-0.08706187 0.1886876 0.14294676 -0.12912105 -0.26511568 0.058028676 0.14210768 0.068395585
0.1904978 -0.2097064 0.13659422 -0.15674637 0.14852782 0.20399018 0.08626677 0.21465755
-0.17621982 -0.23866189 -0.25410473 0.1613128 0.100461446 -0.1943966 0.12762025 0.23875633
-0.25857168 0.194437 0.0444111 0.022791412 0.24140687 0.24035835 0.1171812 0.2074502
0.102088325 0.041890617 -0.24055952 0.049862064 -0.18462823 0.07918373 0.041383814 0.013628257
-0.1827547 -0.16267076 0.1943834 0.12594031 0.14409627 -0.07172059 -0.04329681 -0.058473043
0.18559511 -0.10915628 0.16726784 0.1817683 -0.24376231 0.006864905 -0.049779367 -0.1449915
0.122407705 -0.032400202 0.2319482 -0.1579838 0.121988505 -0.21857959 -0.13969934 0.023624301
0.21121773 0.14388864 -0.22738162 0.025984025 -0.16651055 0.010227323 -0.2288781 -0.07761495
0.17974095 -0.25443366 -0.24879012 0.045893434 0.041408103 -0.053785898 0.23733258 -0.15611567
00000000: 0243 75be d03a 6c3e ca3f d3bc a464 06be
00000010: 6ee6 b2bd d5f5 4dbe 37f0 523e 01ec 59bd
00000020: 2d8f 13be 6c55 50be 041b 1c3e c60a 08bd
00000030: 0bd5 cdbc 10c0 80bd 263d 07be e5ee 4b3d
00000040: bd93 553e 5679 20be 3fc4 db3b 5b19 50be
00000050: bd89 f9bd 1cfa 753e d818 b93b 9c41 813e
00000060: 3287 40bd 0ef5 18be 2223 22be 008b 6d3e
00000070: 39c5 51be 6175 0b3e 299c 983d b1e7 903d
00000080: 2684 1d3e 0f42 a6bd 08ec 2e3e 8570 59be
00000090: 58d9 b9bd 6588 443e 1e79 a73d 6873 eebc
000000a0: d570 6cbd 2ac2 1ebe e1d6 253e dc29 1bbc
000000b0: c516 50bc 3385 833d dea2 453e 3755 0ebe
000000c0: 7e4d b2bd 5237 413e a360 123e 4f38 04be
000000d0: 3ebd 87be 7aaf 6d3d ad84 113e fc12 8c3d
000000e0: db11 433e 46bd 56be 5bdf 0b3e 1f82 20be
000000f0: ad17 183e cde2 503e a2ac b03d 30cf 5b3e
00000100: f872 34be c863 74be 041a 82be 2f2f 253e
00000110: bbbe cd3d e70f 47be e2ae 023e 8a7c 743e
00000120: 8263 84be 7e1a 473e 6ae8 353d 0eb5 ba3c
00000130: 5d33 773e 8020 763e b2fc ef3d d36d 543e
00000140: af13 d13d 7f95 2b3d 3c55 76be 2a3c 4c3d
00000150: 2f0f 3dbe 142b a23d 1382 293d 0e49 5f3c
00000160: 0c24 3bbe 2a93 26be 710c 473e 7ff6 003e
00000170: f98d 133e 3fe2 92bd ff57 31bd 6e81 6fbd
00000180: a50c 3e3e 548d dfbd 4348 2b3e 7821 3a3e
00000190: d49c 79be fff2 e03b 73e5 4bbd a778 14be
000001a0: e4b0 fa3d 13b6 04bd d483 6d3e 81c6 21be
000001b0: 1cd5 f93d 54d3 5fbe 580d 0fbe c087 c13c
000001c0: 7649 583e 8b57 133e bad6 68be 73dc d43c
000001d0: be81 2abe 8090 273c 055f 6abe 96f4 9ebd
000001e0: 030e 383e 2145 82be d6c2 7ebe c1fa 3b3d
000001f0: 8b9b 293d 9a4e 5cbd 5007 733e c9dc 1fbe

_module.input_norm.weight f4 [128]
0.9939623 1.0000384 1.0013591 0.9985385 1.0025157 0.9993438 1.0012774 1.0078295
1.0037996 0.99641716 1.0025051 0.99277425 1.002846 1.001177 0.99492025 1.0039525
1.0035851 0.9988352 1.0005674 1.0021409 1.0048159 0.9966573 0.9979195 1.0003889
1.0051979 0.9981293 0.9976044 0.9925287 1.0062429 1.0029464 0.996191 1.0030211
0.99990547 1.0021785 1.0076075 0.9984693 0.99512535 0.9983102 0.99712074 1.0004128
1.0032201 1.0084368 0.9963703 1.0058563 0.99954873 1.0013386 0.9973033 0.9925691
0.99869317 0.99398494 1.0064523 1.000692 1.0032971 1.0026814 1.0061121 1.0063645
1.0040545 0.9964378 0.99776477 0.99843174 0.99386865 1.0002433 0.99371356 1.0020261
0.9908162 0.9987142 0.9993894 0.99753314 0.99863 1.0054017 1.0029762 1.0074959
0.9942871 0.9985267 0.99221987 0.995118 1.00756 0.9997768 1.0021685 0.9976682
1.0027323 0.99416184 1.0055481 1.0057696 1.0057454 1.001116 0.99876344 0.9945092
1.0052886 0.99839187 0.99269104 0.99706024 1.002613 0.99774903 0.99996275 1.0092316
0.997673 1.0008125 1.0003282 0.9940942 0.99008644 0.9990104 0.99926525 0.9994902
0.99477327 1.008797 1.0021737 0.9949716 0.9922002 0.99628377 1.0057392 0.994548
1.0015495 0.9969705 0.99461377 1.0012088 1.0035309 0.9994224 0.9999294 1.0018924
1.0020278 0.9945508 1.006619 0.99505454 0.9951602 1.0055013 0.99575293 0.9944295
00000000: 5074 7e3f 4201 803f 892c 803f 38a0 7f3f
00000010: 6f52 803f ffd4 7f3f dc29 803f 8f00 813f
00000020: 817c 803f 3215 7f3f 1652 803f 7426 7e3f
00000030: 425d 803f 9126 803f 18b3 7e3f 8481 803f
00000040: 7a75 803f aab3 7f3f 9812 803f 2746 803f
00000050: cf9d 803f ef24 7f3f a777 7f3f be0c 803f
00000060: 53aa 803f 6785 7f3f 0163 7f3f 5c16 7e3f
00000070: 91cc 803f 8c60 803f 6006 7f3f ff62 803f
00000080: cef9 7f3f 6347 803f 48f9 803f af9b 7f3f
00000090: 89c0 7e3f 4291 7f3f 4e43 7f3f 870d 803f
000000a0: 8469 803f 7514 813f 2012 7f3f e6bf 803f
000000b0: 6de2 7f3f dd2b 803f 454f 7f3f 0219 7e3f
000000c0: 5baa 7f3f cc75 7e3f 6ed3 803f ad16 803f
000000d0: 0a6c 803f dd57 803f 48c8 803f 8dd0 803f
000000e0: dc84 803f 8c16 7f3f 836d 7f3f 3999 7f3f
000000f0: 2d6e 7e3f f907 803f 0364 7e3f 6442 803f
00000100: 21a6 7d3f bcab 7f3f fcd7 7f3f 555e 7f3f
00000110: 37a6 7f3f 01b1 803f 8661 803f a0f5 803f
00000120: 9989 7e3f 729f 7f3f 1f02 7e3f 0ec0 7e3f
00000130: baf7 803f 5ff1 7f3f 0f47 803f 2f67 7f3f
00000140: 8859 803f 6481 7e3f cdb5 803f 0fbd 803f
00000150: 44bc 803f 9224 803f f6ae 7f3f 2898 7e3f
00000160: 4cad 803f 9c96 7f3f 0021 7e3f 573f 7f3f
00000170: 9f55 803f 7b6c 7f3f 8ffd 7f3f 802e 813f
00000180: 7f67 7f3f a01a 803f c10a 803f f57c 7e3f
00000190: 4e76 7d3f 25bf 7f3f d9cf 7f3f 97de 7f3f
000001a0: 76a9 7e3f 4320 813f 3a47 803f 75b6 7e3f
000001b0: d500 7e3f 740c 7f3f 10bc 803f b39a 7e3f
000001c0: c632 803f 7539 7f3f 029f 7e3f 9c27 803f
000001d0: b373 803f 25da 7f3f 60fb 7f3f 033e 803f
000001e0: 7242 803f e29a 7e3f e4d8 803f e5bb 7e3f
000001f0: d2c2 7e3f 44b4 803f aae9 7e3f ef92 7e3f

_module.input_norm.bias f4 [128]
0.00048135052 -0.0013386147 -0.0048376555 -0.00720326 -0.0018274417 0.006698928 0.0044876984 0.0039893
-0.0018563335 -0.0005184784 0.002033488 -0.007414782 0.0006203946 0.004743343 -0.0023602657 -0.0018091893
-0.008032605 0.0058568334 0.0013835205 -0.0024372323 0.0031019365 0.0009083513 0.0040888567 -0.0005207114
-0.004151767 -0.0056261388 -0.0064473385 0.007333962 0.0051362873 -0.008896425 -0.00469659 0.003842499
-0.0041354564 0.0018884616 -0.007523553 -0.0021224066 -0.0010328699 -0.0071376343 0.0022460935 -0.0066399258
-0.0039066896 -0.0040271073 -0.002886966 0.0016984222 -0.0052493517 -0.0038833772 -0.0015384747 0.0027408286
0.008361695 -0.0036853899 0.0009881154 -4.042071e-06 0.0069644335 -0.002034278 0.0077212467 0.001405381
-0.008810457 0.0007086081 -0.0025729677 -0.0032987506 0.0015693151 0.005205147 0.0055340873 0.0012449475
0.0026668506 -0.004265984 -0.00095128734 0.004363172 -0.0030474535 0.004879104 0.0035759548 -0.0018030654
0.0017622361 -0.0033954831 0.0039042516 -0.010902103 -0.00068714493 -0.0018302738 -0.011201089 0.0065318267
-0.005625465 0.0044251466 -0.003711224 0.0016236396 -0.003216311 -0.0020107792 -0.0016639848 -0.0021191284
-0.0016799569 0.0023998672 -0.0056437226 -0.0010919025 0.003449789 0.0029244302 0.0025361753 0.0033298517
-0.00069289224 -0.0002803987 -0.004964278 -0.00336273 -0.0012916292 0.0049804887 0.0054208986 -0.0043238383
0.0016826041 -0.0073771207 -0.0021667078 0.0033637313 -0.005417868 -0.004013405 -0.0044719484 -0.00084786356
-0.003260211 0.0071077268 -0.0031958725 0.0057224105 0.007060065 -0.0016311056 0.0029578162 0.0044466136
-0.0045455424 0.0040248367 -9.340586e-05 -0.006109579 0.0048627085 0.0081713 -0.007740792 -0.0021974344
00000000: c65d fc39 7574 afba 3285 9ebb 5309 ecbb
00000010: c586 efba ae82 db3b 8b0d 933b adb8 823b
00000020: 3750 f3ba 7fea 07ba 4444 053b b3f7 f2bb
00000030: faa1 223a 0c6e 9b3b b0ae 1abb 5222 edba
00000040: 309b 03bc aeea bf3b 3f57 b53a f9b9 1fbb
00000050: dc49 4b3b 6d1e 6e3a d1fb 853b 5a80 08ba
00000060: 8c0b 88bb 795b b8bb 3244 d3bb bb51 f03b
00000070: 4d4e a83b 50c2 11bc dae5 99bb 70d2 7b3b
00000080: b982 87bb 4286 f73a 2388 f6bb 1318 0bbb
00000090: 5d61 87ba d1e2 e9bb 3233 133b bc93 d9bb
000000a0: b003 80bb d3f5 83bb 4133 3dbb 989d de3a
000000b0: c102 acbb 4280 7ebb a5a6 c9ba 799f 333b
000000c0: 7eff 083c 9586 71bb a783 813a 20a1 87b6
000000d0: e735 e43b 8551 05bb 8302 fd3b c334 b83a
000000e0: bc59 10bc e2c1 393a 3c9f 28bb da2f 58bb
000000f0: 7ab1 cd3a f08f aa3b 4a57 b53b 822d a33a
00000100: 54c6 2e3b abc9 8bbb d05f 79ba f1f8 8e3b
00000110: c9b7 47bb e4e0 9f3b 915a 6a3b d654 ecba
00000120: d5fa e63a c186 5ebb 79de 7f3b bc9e 32bc
00000130: 8421 34ba cce5 efba c684 37bc ef08 d63b
00000140: d255 b8bb d200 913b 0238 73bb 4ed0 d43a
00000150: bfc8 52bb 47c7 03bb 111a daba 13e1 0abb
00000160: 0032 dcba 1747 1d3b faee b8bb 2b1e 8fba
00000170: db15 623b cca7 3f3b f635 263b a439 5a3b
00000180: 36a3 35ba 7a02 93b9 62ab a2bb 3f61 5cbb
00000190: e24b a9ba 5e33 a33b cba1 b13b fcae 8dbb
000001a0: d38a dc3a c6bb f1bb 53ff 0dbb 0c72 5c3b
000001b0: 5f88 b1bb e282 83bb 6c89 92bb 2943 5eba
000001c0: 44a9 55bb efe7 e83b d871 51bb 0f83 bb3b
000001d0: 1e58 e73b d2ca d5ba ecd7 413b e6b4 913b
000001e0: c6f2 94bb c7e2 833b e4e2 c3b8 dd32 c8bb
000001f0: 5b57 9f3b ebe0 053c 78a6 fdbb d502 10bb

_module.lstm.weight_ih_l0 f4 [256, 128]
0.059371464 0.004438192 0.024027392 0.10815477 -0.025937645 0.07398095 0.09809666 -0.03255179
0.07067314 0.041152764 -0.048136577 -0.09841028 -0.032472547 0.10560682 0.0676362 0.09788271
-0.08846461 -0.12078699 -0.03512661 -0.1205383 0.078359485 -0.02298057 -0.068778366 -0.016098477
-0.025354255 0.003118609 0.062478766 -0.08580768 0.047163416 0.00058139715 0.074468024 0.003359311
0.05906545 -0.10795356 0.0642936 0.08432907 0.09898701 0.013936825 0.0017076036 0.1062758
-0.09297505 -0.01742647 0.038692236 -0.063056074 0.10967662 0.098053366 0.09326144 0.054915626
0.042631485 0.030867092 0.08374697 0.012990356 0.00028594962 -0.0012345295 0.0010941774 -0.109386556
0.060674936 0.10304951 0.018770158 0.01616793 -0.023646176 -0.094593756 -0.11217227 -0.08645222
-0.078091346 -0.09986731 0.033676818 0.12849163 -0.03177342 0.083751395 0.07171597 0.09190515
0.040496524 0.09263952 0.09079187 -0.060887326 0.04169314 0.077005096 -0.09940699 -0.082210004
0.06295437 -0.049964465 -0.077645145 -0.008973805 -9.995885e-05 -0.047922358 -0.090553895 -0.103443086
-0.076460846 0.114456885 0.03315762 -0.071088925 0.123165905 0.07359622 0.0020689953 -0.007968676
-0.09244302 -0.053573847 0.10106914 -0.076771855 0.012395732 0.095804654 -0.082610145 0.014090634
0.03820331 0.11975945 -0.07074843 -0.055621188 0.041783664 0.03999441 0.110121116 0.048946854
0.111284226 0.122773625 -0.028950723 0.06219672 0.08192383 -0.058836017 -0.04714481 0.040826894
0.07469398 0.027310666 -0.077775314 -0.10588288 0.045231175 -0.083841525 0.024468295 0.0149076255
0.10717035 0.08883388 0.11402253 0.0907131 -0.086093836 0.097204275 0.10461535 0.08143949
-0.000786812 -0.07537495 -0.11567875 0.10517409 0.026469838 -0.09855157 0.0827209 0.11819223
0.030467598 0.06427042 -0.11641634 -0.0761014 -0.116159365 -0.11031531 0.0070379535 -0.015395528
-0.038755655 0.008473174 0.06509268 0.10486692 -0.0574069 0.0675984 -0.041174427 0.0662351
-0.0614439 -0.08754284 0.018865554 -0.028760228 0.00889093 -0.020659529 -0.021169584 -0.09491951
0.11264044 -0.08089716 0.1223652 -0.069867834 0.08547031 -0.106169105 0.104755804 0.12250138
0.12981805 0.10164259 0.11942087 -0.08769321 -0.028427552 0.056690708 -0.001455048 -0.10328545
-0.10896711 0.111814424 0.13265948 0.023083083 0.06792218 0.12860031 -0.08615571 -0.09874378
0.09416822 0.11717416 -0.09183224 -0.120686494 0.02701886 -0.033281524 -0.10776455 -0.07384677
-0.11542602 0.07490411 -0.057081796 0.078506716 -0.011293248 -0.054760072 1.8218852e-05 0.12247591
0.1139213 -0.06346965 -0.0079193255 0.08161874 0.11227565 0.07266778 -0.058604006 0.076693505
0.015625821 0.07637312 -0.013580299 0.021214394 -0.10747976 -0.087344326 0.087856 -0.08907627
-0.08908478 -0.08526643 0.024354242 0.010185944 0.05662714 0.09610773 -0.04526373 0.041435927
0.115865454 -0.0013585323 -0.0067670597 0.085741 -0.01310992 -0.053743143 -0.11870912 0.010336607
0.04085072 -0.087533765 -0.020034093 -0.038665075 0.06385133 0.008516389 -0.10312931 0.121533886
0.08619303 -0.08181463 0.09408447 -0.022541447 0.021080434 0.044824194 -0.09610828 -0.09939492
00000000: 7e2f 733d 416e 913b 18d5 c43c 4080 dd3d
00000010: 2f7b d4bc 5383 973d e7e6 c83d 0755 05bd
00000020: 14bd 903d cd8f 283d dc2a 45bd 548b c9bd
00000030: ef01 05bd 6348 d83d d984 8a3d bb76 c83d
00000040: ef2c b5bd 2b5f f7bd ece0 0fbd c9dc f6bd
00000050: f07a a03d c041 bcbc acdb 8cbd f4e0 83bc
00000060: bab3 cfbc 9461 4c3b bce9 7f3d f0bb afbd
00000070: 6d2e 413d e768 183a b182 983d e327 5c3b
00000080: 9dee 713d c216 ddbd 5dac 833d b8b4 ac3d
00000090: b4b9 ca3d 4857 643c abd1 df3a 20a7 d93d
000000a0: b469 bebd f5c1 8ebc c07b 1e3d 8b23 81bd
000000b0: 239e e03d 34d0 c83d dbff be3d 35ef 603d
000000c0: 5a9e 2e3d fcdc fc3c 8883 ab3d 81d5 543c
000000d0: 82eb 9539 f0cf a1ba 806a 8f3a 0f06 e0bd
000000e0: 4886 783d 9f0b d33d e0c3 993c 9b72 843c
000000f0: a0b5 c1bc 5fba c1bd 93ba e5bd dd0d b1bd
00000100: 5bee 9fbd 3b87 ccbd b4f0 093d 4f93 033e
00000110: d824 02bd da85 ab3d d3df 923d c438 bc3d
00000120: afdf 253d cab9 bd3d 17f1 b93d fd64 79bd
00000130: 6dc6 2a3d d9b4 9d3d e495 cbbd b85d a8bd
00000140: 39ee 803d 8aa7 4cbd 6b04 9fbd de06 13bc
00000150: 00a1 d1b8 3c4a 44bd 5274 b9bd f8d9 d3bd
00000160: 8197 9cbd 5f68 ea3d 49d0 073d 1297 91bd
00000170: 683e fc3d 9db9 963d fb97 073b 0d8f 02bc
00000180: c452 bdbd 4070 5bbd 56fd ce3d 903a 9dbd
00000190: 7817 4b3c 3b35 c43d 822f a9bd 67dc 663c
000001a0: 137b 1c3d 7144 f53d 8ee4 90bd 0bd3 63bd
000001b0: 5925 2b3d 2ed1 233d 2e87 e13d 7f7c 483d
000001c0: fce8 e33d bd70 fb3d 112a edbc fdc1 7e3d
000001d0: aec7 a73d 09fe 70bd eb1a 41bd 1a3a 273d
000001e0: 28f9 983d 9eba df3c aa48 9fbd 20d9 d8bd
000001f0: 5344 393d 1bb5 abbd bc71 c83c 1d3f 743c
00000200: 217c db3d 8aee b53d a584 e93d cac7 b93d
00000210: f751 b0bd 0913 c73d 9340 d63d bfc9 a63d
00000220: 0f42 4eba 2f5e 9abd fbe8 ecbd 8365 d73d
00000230: 46d7 d83c 68d5 c9bd 9369 a93d c50e f23d
00000240: 2f97 f93c 36a0 833d b16b eebd 0ddb 9bbd
00000250: f6e4 edbd feec e1bd a29e e63b 863d 7cbc
00000260: 40be 1ebd 11d3 0a3c 504f 853d 78c4 d63d
00000270: 7f23 6bbd 0871 8a3d 84a6 28bd 45a6 873d
00000280: 99ac 7bbd a949 b3bd ef8b 9a3c 929a ebbc
00000290: 43ab 113c 2c3e a9bc d66b adbc 2965 c2bd
000002a0: 08b0 e63d 69ad a5bd 9b9a fa3d de16 8fbd
000002b0: 0f0b af3d 306f d9bd 368a d63d 01e2 fa3d
000002c0: 06ef 043e fd29 d03d ee92 f43d 7f98 b3bd
000002d0: e6e0 e8bc 8434 683d 4fb7 beba 5287 d3bd
000002e0: 262a dfbd f6fe e43d e3d7 073e bc18 bd3c
000002f0: c91a 8b3d cdaf 033e 6872 b0bd 2e3a cabd
00000300: 45db c03d 02f9 ef3d 8b12 bcbd 7b2a f7bd
00000310: a856 dd3c 3552 08bd a9b3 dcbd fa3c 97bd
00000320: 7a64 ecbd 5367 993d 9ace 69bd 21c8 a03d
00000330: 5107 39bc 194c 60bd b0d4 9837 a6d4 fa3d
00000340: 924f e93d 60fc 81bd 0fc0 01bc ba27 a73d
00000350: c7f0 e53d d8d2 943d c10a 70bd 7c11 9d3d
00000360: b901 803c 8369 9c3d e77f 5ebc cfc9 ad3c
00000370: 591e dcbd 95e1 b2bd d9ed b33d 9f6d b6bd
00000380: 1572 b6bd 2ba0 aebd 8c82 c73c f2e2 263c
00000390: dcf1 673d 21d4 c43d 7666 39bd b8b8 293d
000003a0: de4a ed3d c810 b2ba 36be ddbb fa98 af3d
000003b0: fdca 56bc c521 5cbd c41d f3bd df5a 293c
000003c0: 1653 273d e744 b3bd 8a1e a4bc 455f 1ebd
000003d0: 7cc4 823d 5388 0b3c 7635 d3bd c2e6 f83d
000003e0: f985 b03d 6e8e a7bd 5caf c03d d7a8 b8bc
000003f0: e0b0 ac3c 9399 373d 6bd4 c4bd 908f cbbd

_module.lstm.bias_ih_l0 f4 [256]
0.0695309 0.087284446 -0.09815781 0.084462106 -0.04137692 0.08418926 -0.1277543 0.019553017
0.09519874 0.08835506 0.10220363 -0.058259018 -0.08279941 -0.085195936 0.080429934 -0.040384173
-0.061428364 -0.058657743 -0.08642722 0.07802096 -0.10005291 0.09318228 -0.08489147 0.0972382
0.020146776 -0.020934625 -0.08698995 -0.0193327 0.051830612 0.05137796 0.030839697 -0.08656624
0.0637147 0.011232447 -0.008326522 -0.09817814 -0.010495857 -0.07075405 0.08993057 -0.004929605
-0.00018116296 -0.0021185568 -0.048757296 0.09975227 0.095647745 0.060754463 -0.019230518 0.060769483
-0.10788154 0.09804881 -0.07196198 0.072276495 -0.0021638651 0.114539556 0.12007605 -0.08559427
-0.102718905 0.020732427 -0.09553902 0.09323398 -0.0029820101 0.032144897 0.11399008 0.017352622
-0.11274933 0.12191703 -0.02922502 -0.06426312 -0.011990663 0.009383082 -0.034321878 -0.07081196
-0.051159296 -0.087429635 -0.111204356 0.015643463 -0.026853513 0.06343182 -0.095563866 0.08637124
-0.08416015 -0.057370853 -0.070474066 0.095297545 0.08029476 -0.092524104 -0.01517642 0.06996141
-0.12294175 -0.018322932 0.012935538 -0.11690887 0.0019731792 0.015008992 0.010725573 -0.098789126
-0.10769599 -0.09162967 -0.02305148 0.07403035 -0.09376552 -0.07226891 0.07627622 0.05467244
-0.11749483 0.03883366 -0.059903033 -0.063710384 -0.08820451 0.082085595 -0.05667758 0.047558792
-0.019818781 -0.113970235 0.1000822 0.057174757 -0.003426377 -0.03826245 0.0046173837 -0.021178054
-0.11740407 0.12226465 -0.042590912 -0.012073751 -0.062711634 0.09728334 -0.117379956 0.11441951
0.032908216 0.059677716 -0.10657054 0.057759117 -0.026095932 0.081362724 -0.014938787 -0.07547834
-0.016748914 0.070610814 0.1272214 -0.13059236 0.11836314 0.059189577 -0.0017345065 -0.10564409
-0.122971214 0.10769083 0.02602372 0.10214972 -0.093683645 -0.07486876 -0.07008516 0.12285796
-0.121683784 -0.12248686 0.026060468 0.00905753 -0.112948775 0.037589125 -0.08037623 -0.034861982
0.029375521 0.1212964 0.08097295 -0.007663045 0.06806029 -0.08064048 -0.007889811 -0.07632802
-0.0781828 0.063282765 -0.052017793 -0.0936793 -0.12378742 0.09553491 0.093413696 0.097418144
0.08607109 -0.0029525291 -0.030993365 -0.0038406677 0.013054113 0.048589528 0.014286329 -0.11604312
-0.043456513 0.08457584 0.10453641 -0.02179018 -0.09766938 0.10229225 0.04898036 -0.016241733
-0.024731742 -0.07503097 0.06128808 0.08553105 -0.005884754 0.016669033 -0.110437565 -0.0073498026
-0.1221852 0.058237072 0.12184789 0.015960567 -0.12253777 -0.0085531445 0.038548842 -0.05202696
-0.04440509 0.08927892 0.06336041 -0.10324118 0.07618641 0.051822267 -0.024707636 0.06798699
0.08932554 0.04538851 -0.100491405 -0.119327605 0.10852853 -0.116871215 -0.06137758 0.06581332
-0.042107936 -0.11699703 -0.06554935 0.08762022 -0.07072016 -0.09700169 0.053192478 -0.070237726
0.027776044 0.067521475 -0.051013295 -0.07245378 0.07818227 -0.084697396 -0.103979066 -0.090810314
-0.05160277 -0.05092221 0.098937824 0.06029801 0.11820934 0.07287475 -0.00025052176 0.0031329733
-0.053263128 0.049746316 -0.084651195 -0.12019069 -0.045384273 0.021864103 0.01835794 0.031363387
00000000: 3766 8e3d 30c2 b23d f606 c9bd 78fa ac3d
00000010: d87a 29bd 6b6b ac3d 06d2 02be a62d a03c
00000020: 8ff7 c23d 7ff3 b43d 2350 d13d 02a1 6ebd
00000030: bd92 a9bd 357b aebd 73b8 a43d e069 25bd
00000040: 4f9c 7bbd 1a43 70bd c100 b1bd 74c9 9f3d
00000050: 8ae8 ccbd 5ad6 be3d 94db adbd d224 c73d
00000060: da0a a53c 177f abbc c927 b2bd 9c5f 9ebc
00000070: 564c 543d b271 523d 88a3 fc3c a449 b1bd
00000080: da7c 823d 4c08 383c f76b 08bc 9f11 c9bd
00000090: d1f6 2bbc 80e7 90bd 852d b83d 8688 a1bb
000000a0: 90f6 3db9 7cd7 0abb bbb5 47bd eb4a cc3d
000000b0: f7e2 c33d acd9 783d 5289 9dbc 6ce9 783d
000000c0: fff0 dcbd d1cd c83d cd60 93bd b305 943d
000000d0: a2cf 0dbb b793 ea3d 6fea f53d 0c4c afbd
000000e0: 4a5e d2bd 0dd7 a93c f6a9 c3bd 75f1 be3d
000000f0: d46d 43bb 5eaa 033d a273 e93d 1627 8e3c
00000100: 1fe9 e6bd a3af f93d 4f69 efbc 629c 83bd
00000110: 7c74 44bc 80bb 193c 1995 0cbd dc05 91bd
00000120: 698c 51bd 4f0e b3bd 1cbf e3bd b826 803c
00000130: e6fb dbbc 8be8 813d fdb6 c3bd 68e3 b03d
00000140: 285c acbd b3fd 6abd b554 90bd 5c2b c33d
00000150: 9471 a43d 477d bdbd 85a6 78bc ed47 8f3d
00000160: e2c8 fbbd f919 96bc 94ef 533c eb6d efbd
00000170: 7450 013b 46e8 753c 50ba 2f3c f451 cabd
00000180: b78f dcbd 56a8 bbbd 75d6 bcbc 399d 973d
00000190: 2308 c0bd b901 94bd b536 9c3d 35f0 5f3d
000001a0: 21a1 f0bd 0b10 1f3d e25c 75bd 977a 82bd
000001b0: 91a4 b4bd 7e1c a83d c026 68bd 02cd 423d
000001c0: ff5a a2bc 3a69 e9bd e5f7 cc3d 1430 6a3d
000001d0: 118d 60bb 16b9 1cbd 6c4d 973b 997d adbc
000001e0: 8c71 f0bd e465 fa3d cf73 2ebd fbd0 45bc
000001f0: f56e 80bd 7d3c c73d e764 f0bd c754 ea3d
00000200: c4ca 063d 9f70 743d a841 dabd d394 6c3d
00000210: 23c7 d5bc 80a1 a63d d0c1 74bc 6394 9abd
00000220: 0535 89bc 679c 903d 5446 023e 01ba 05be
00000230: 6068 f23d c570 723d 6158 e3ba ee5b d8bd
00000240: 55d8 fbbd 038d dc3d b22f d53c df33 d13d
00000250: 36dd bfbd cb54 99bd cf88 8fbd f49c fb3d
00000260: 5935 f9bd 64da fabd c37c d53c 0966 143c
00000270: b051 e7bd 0ef7 193d 4b9c a4bd 70cb 0ebd
00000280: efa4 f03c 3f6a f83d 25d5 a53d 481a fbbb
00000290: 3163 8b3d d626 a5bd 4444 01bc dd51 9cbd
000002a0: 4e1e a0bd 659a 813d 9c10 55bd efda bfbd
000002b0: 4284 fdbd cfa7 c33d ae4f bf3d 2a83 c73d
000002c0: 0a46 b03d 387f 41bb cce5 fdbc b6b3 7bbb
000002d0: ebe0 553c d005 473d 3511 6a3c 04a8 edbd
000002e0: 75ff 31bd 1936 ad3d 2f17 d63d 5281 b2bc
000002f0: e206 c8bd 997e d13d a19f 483d 620d 85bc
00000300: 399a cabc d6a9 99bd 3609 7b3d e72a af3d
00000310: e5d4 c0bb 7f8d 883c 172d e2bd 9dd6 f0bb
00000320: 3c3c fabd ff89 6e3d 638b f93d bcbf 823c
00000330: 15f5 fabd 7d22 0cbc 64e5 1d3d 391a 55bd
00000340: 1de2 35bd ded7 b63d 1ac3 813d 1d70 d3bd
00000350: 9f07 9c3d 9643 543d ab67 cabc c33c 8b3d
00000360: 4ff0 b63d 4de9 393d 70ce cdbd 0862 f4bd
00000370: 3544 de3d 2d5a efbd 0f67 7bbd 22c9 863d
00000380: 5f79 2cbd 249c efbd bd3e 86bd 3b72 b33d
00000390: bbd5 90bd d2a8 c6bd 5be0 593d ccd8 8fbd
000003a0: 968a e33c b348 8a3d 51f3 50bd a662 94bd
000003b0: 071e a03d d475 adbd faf2 d4bd c2fa b9bd
000003c0: 6d5d 53bd cf93 50bd ea9f ca3d 0cfb 763d
000003d0: bd17 f23d 5b3f 953d 7658 83b9 9252 4d3b
000003e0: 702a 5abd cbc2 4b3d 9b5d adbd 8926 f6bd
000003f0: dce4 39bd 591c b33c 6463 963c e576 003d

_module.lstm.weight_hh_l0 f4 [256, 64]
0.02637963 -0.09231095 -0.061550092 -0.022854652 -0.07307154 0.04656454 -0.027270582 -0.04794435
-0.037257373 -0.0784305 0.048782755 0.012387113 -0.0428425 -0.04016077 0.111701444 -0.012497789
0.02488641 0.010452893 -0.06024349 -0.09151606 -0.114654645 0.021115862 0.001258967 -0.10202278
-0.06986477 -0.033477083 -0.07842092 0.11490863 -0.010619798 -0.051846698 -0.09230253 0.01798341
-0.10629879 0.04792531 -0.053800922 -0.0550104 0.09541138 0.05093085 -0.015552966 0.042813912
-0.032599445 0.052394852 0.057166785 -0.06854479 0.046971716 -0.0951652 -0.029792074 -0.1001693
-0.100684874 0.099467814 0.106848046 -0.010980381 -0.025582964 -0.032068245 0.07476176 -0.052508775
0.07154743 -0.05548522 -0.118886836 -0.045983512 0.092154846 -0.111030735 -0.12654264 0.023596251
-0.028957104 0.034357153 -0.010461333 0.065548256 0.039075676 -0.023115093 -0.036267035 -0.08954104
-0.056598857 0.089875974 0.05398546 -0.09172058 0.022281198 -0.11988079 0.07419582 0.09697731
0.087302975 0.0982187 0.04631522 0.08737825 0.10470426 -0.09062456 0.09592638 0.060887326
0.03992169 0.05067338 0.08054852 0.00040042328 -0.03472511 -0.059113152 0.120701835 -0.099808276
0.074602105 0.040750574 -0.0160326 -0.12330547 -0.056960423 -0.10939633 0.03256432 0.041657478
-0.040409062 0.051444616 0.12295322 -0.046027143 -0.034233853 0.106431276 0.015879191 -0.038988914
-0.064903125 -0.03219917 0.0009191822 0.014114061 0.065572985 -0.0013885791 -0.11137791 -0.09028821
-0.019424142 0.08140467 -0.053964693 -0.04949389 0.072699286 0.0011303473 -0.0203497 -0.087089285
-0.025233362 0.0103828255 0.08413635 0.07214116 -0.047981363 -0.016826164 -0.04949559 -0.039282013
0.09463596 -0.043116033 -0.10246069 0.05173707 -0.08625456 -0.015011124 -0.068569764 0.03630053
0.02174075 0.042754393 0.10742192 0.08324534 0.11525507 0.094041996 -0.065122366 -0.01437783
-0.0046555176 0.0053042285 -0.03595392 -0.10156022 0.11270438 -0.08548463 -0.010132885 -0.06467397
0.030513737 0.055458996 0.014667298 0.052124795 -0.076745674 0.015065816 -0.11210973 -0.10684813
0.038350835 0.026094396 -0.07971571 0.10288617 0.09002168 0.06288086 -0.07677286 -0.08688299
0.105205275 -0.10352102 -0.038293686 0.08726881 0.0054384684 -0.08821495 -0.08801021 -0.0945271
-0.09675256 0.10924698 0.014828542 0.09471531 -0.10764458 -0.023541432 -0.08847892 0.095293015
-0.028187955 0.021173956 0.05538972 0.03231367 -0.0725726 -0.11280172 -0.016103845 0.12247352
0.058331564 0.09772924 -0.12461026 -0.10410127 0.10846816 -0.058192685 -0.06988438 0.044476952
-0.059348505 -0.037150156 0.10204619 -0.11795083 -0.08545552 -0.08741877 -0.038068097 6.862727e-05
-0.015906014 0.040453248 -0.087342925 -0.045479603 -0.10630851 0.026835684 -0.05027405 0.050284114
-0.023417171 -0.11409615 0.0022872568 -0.004963067 0.11818506 0.07531428 -0.027895307 0.09812443
0.029644817 -0.0072905445 -0.09120261 -0.08011744 -0.047542118 -0.06043451 -0.020595253 -0.11450054
0.02011237 0.072375216 -0.06110322 -0.013230275 -0.10783028 0.04542116 0.105140485 -0.108935274
-0.12018836 0.10950675 0.038209353 -0.07867047 -0.09342111 -0.069670945 -0.04367124 0.077124566
00000000: 181a d83c 860d bdbd f31b 7cbd ae39 bbbc
00000010: 88a6 95bd 76ba 3e3d 8e66 dfbc 4b61 44bd
00000020: 309b 18bd 2ca0 a0bd 6dd0 473d 51f3 4a3c
00000030: 9e7b 2fbd 9f7f 24bd bac3 e43d 87c3 4cbc
00000040: 96de cb3c 9c42 2b3c e1c1 76bd c66c bbbd
00000050: 0ed0 eabd 2cfb ac3c ec03 a53a 52f1 d0bd
00000060: 4315 8fbd 441f 09bd 269b a0bd 3755 eb3d
00000070: a9fe 2dbc 345d 54bd 1c09 bdbd f251 933c
00000080: 2eb3 d9bd 544d 443d 5b5e 5cbd 9652 61bd
00000090: 0b67 c33d de9c 503d ded1 7ebc a45d 2f3d
000000a0: ff86 05bd fc9b 563d b827 6a3d 3661 8cbd
000000b0: 6a65 403d f9e5 c2bd 820e f4bc 9025 cdbd
000000c0: df33 cebd c8b5 cb3d 26d3 da3d 0ee7 33bc
000000d0: 5d93 d1bc fe59 03bd b21c 993d 7113 57bd
000000e0: 7587 923d 7844 63bd f17a f3bd 3559 3cbd
000000f0: aebb bc3d 1564 e3bd 6594 01be ed4c c13c
00000100: 7337 edbc 16ba 0c3d 0366 2bbc 2a3e 863d
00000110: d10d 203d dd5b bdbc be8c 14bd 4b61 b7bd
00000120: 34d4 67bd e510 b83d dc1f 5d3d 00d8 bbbd
00000130: 0f87 b63c 0f84 f5bd faf3 973d 0a9c c63d
00000140: e7cb b23d e326 c93d 07b5 3d3d 5ef3 b23d
00000150: 306f d63d 5f99 b9bd 0d75 c43d fd64 793d
00000160: ed84 233d e48e 4f3d 9ff6 a43d e7ef d139
00000170: eb3b 0ebd a220 72bd 8632 f73d 4868 ccbd
00000180: fdc8 983d 13ea 263d cd56 83bc 9487 fcbd
00000190: 554f 69bd 2f0b e0bd 2a62 053d 08a1 2a3d
000001a0: f983 25bd 97b7 523d e6ce fb3d f586 3cbd
000001b0: cc38 0cbd a4f8 d93d 1415 823c d7b2 1fbd
000001c0: eeeb 84bd 47e3 03bd 46f5 703a aa3e 673c
000001d0: 214b 863d fc00 b6ba 1a1a e4bd 06e9 b8bd
000001e0: 611f 9fbc 7eb7 a63d 150a 5dbd 1bba 4abd
000001f0: 5de3 943d 2928 943a 6ab4 a6bc de5b b2bd
00000200: 32b6 cebc ba1c 2a3c ae4f ac3d bfbe 933d
00000210: 1b88 44bd 06d7 89bc e3bb 4abd 2de6 20bd
00000220: 80d0 c13d 709a 30bd e9d6 d1bd 40ea 533d
00000230: 3ba6 b0bd 38f1 75bc 4e6e 8cbd ddaf 143d
00000240: a819 b23c 3b1f 2f3d 0600 dc3d 887c aa3d
00000250: da0a ec3d 1799 c03d e05e 85bd fd90 6bbc
00000260: 508d 98bb 18cf ad3b 6b44 13bd cefe cfbd
00000270: 8ed1 e63d 9112 afbd 6604 26bc c973 84bd
00000280: f2f7 f93c f928 633d 1b4f 703c cf80 553d
00000290: d62c 9dbd 9dd6 763c c999 e5bd 31d3 dabd
000002a0: c415 1d3d eac3 d53c fd41 a3bd fcb5 d23d
000002b0: 495d b83d aec7 803d 173b 9dbd b6ef b1bd
000002c0: dd75 d73d d402 d4bd d7d9 1cbd fdb9 b23d
000002d0: 2e35 b23b 0aaa b4bd b23e b4bd 6d97 c1bd
000002e0: 3526 c6bd e1bc df3d 6af3 723c 1afa c13d
000002f0: c374 dcbd f6d9 c0bc 7034 b5bd fc28 c33d
00000300: 6dea e6bc 0175 ad3c 55e0 623d 575b 043d
00000310: f1a0 94bd 9704 e7bd 36ec 83bc 66d3 fa3d
00000320: 14ed 6e3d 4526 c83d aa33 ffbd 0c33 d5bd
00000330: 8e24 de3d 745b 6ebd 8b1f 8fbd 772d 363d
00000340: 6b17 73bd c32a 18bd 98fd d03d 3490 f1bd
00000350: 4e03 afbd 9d08 b3bd 4bed 1bbd fceb 8f38
00000360: 544d 82bc 4eb2 253d d9e0 b2bd d248 3abd
00000370: 47b8 d9bd 82d6 db3c 2aec 4dbd b7f6 4d3d
00000380: 5ed5 bfbc 3eab e9bd cde5 153b 39a1 a2bb
00000390: 020b f23d 603e 9a3d b384 e4bc 76f5 c83d
000003a0: b0d9 f23c 85e5 eebb 6fc8 babd 9d14 a4bd
000003b0: 86bb 42bd 2d8a 77bd 60b7 a8bc 427f eabd
000003c0: b2c2 a43c 7539 943d 5f47 7abd ccc3 58bc
000003d0: 1fd6 dcbd 8a0b 3a3d e553 d73d 7519 dfbd
000003e0: 5125 f6bd 1345 e03d 6981 1c3d fc1d a1bd
000003f0: 9153 bfbd a4af 8ebd 9de0 32bd 7cf3 9d3d

_module.lstm.bias_hh_l0 f4 [256]
-0.08485951 0.04869628 -0.11919428 -0.11065499 -0.033875108 -0.016489755 -0.06184338 -0.07967003
-0.07333838 0.10452524 0.06970598 0.020850927 0.04573239 -0.09718639 -0.07481715 -0.09649039
0.09570144 -0.09374363 -0.04968986 -0.038424585 -0.0011929985 -0.10157055 -0.06311723 0.050083365
0.062151995 0.037104968 0.018344738 -0.023606487 0.044858184 -0.06582703 -0.087730214 -0.11553365
0.11593836 0.036952462 0.11212607 -0.03811589 -0.043471377 0.09242941 -0.10839446 -0.06552127
0.07374905 0.046788093 -0.11086195 0.04604557 -0.10140182 -0.05186452 0.05773126 -0.0018383374
0.06143499 -0.033897 0.06353604 -0.08005749 0.06261861 0.015004077 -0.105511375 -0.05930879
-0.015347013 0.08166117 0.0704788 -0.02301963 0.0342178 -0.11865201 -0.020196637 -0.06883609
-0.08841525 -0.06749083 -0.03330346 -0.030186003 -0.09306183 0.05410776 0.08213237 -0.014964611
0.05116468 0.039457805 -0.12832497 -0.0070906673 -0.023865411 -0.08829136 -0.118014574 0.06899129
-0.053485163 0.043533977 -0.10950147 0.011631248 -0.11081454 0.036101747 -0.024517076 -0.057902373
0.0412008 -0.073889144 -0.017964277 0.08814493 -0.019098805 -0.019804254 -0.11317727 0.008249248
-0.046122145 -0.079854324 0.04358764 -0.098463625 0.020343844 -0.015645217 0.06611807 0.041494716
0.06234605 -0.09093276 0.09346431 0.04627131 -0.115970254 0.020786026 -0.056439824 -0.043002184
0.036149368 -0.054584023 -0.013845278 0.022545235 -0.08315048 0.09816076 0.0042562243 0.06560088
-0.023261381 -0.064029224 -0.110129125 -0.045601413 0.041003138 -0.08195302 0.10310229 -0.03739937
0.008135234 0.0046877875 0.12442938 -0.12204769 -0.013382916 0.11506313 -0.05481042 -0.12681977
-0.11646718 -0.057181675 -0.076742426 0.036237147 -0.086917646 0.060467314 0.09360283 -0.049519077
-0.007184009 -0.017456127 0.058122676 -0.07749565 0.02727509 -0.026396347 -0.09646853 0.07056891
-0.08513632 -0.03746893 0.009924387 -0.034944374 0.07138059 0.10202809 0.044131458 0.04213807
-0.10481891 -0.08034239 -0.11208059 0.057914443 0.06376344 -0.0655726 0.0030351721 0.011050056
-0.03954934 -0.03312364 0.048658587 0.06462586 -0.05078859 -0.059710555 -0.015238923 -0.022565164
0.048933543 0.07653033 -0.09529316 -0.05158151 -0.01612002 -0.01685315 -0.0011511968 -0.07390459
0.03395709 0.104791105 0.1124416 0.09964106 -0.0627954 0.007892139 0.037214793 -0.07275743
-0.10847152 0.076919176 -0.041852485 0.11093396 -0.031105837 0.062079553 -0.08979825 0.10119314
0.118454546 -0.08285291 -0.06510491 0.05770679 -0.0035429308 0.11118524 0.07016991 -0.07762846
0.041058544 -0.09601315 -0.024129255 0.07566255 0.11050197 -0.0349834 0.1072094 0.007751192
0.08616661 -0.021647062 -0.082157135 -0.045631938 0.015259709 -0.103620976 0.060104202 -0.015720053
-0.09899237 -0.08803557 -0.11617591 -0.029850826 -0.09977142 -0.06466541 0.08839174 -0.07905224
-0.041830502 0.08736997 0.07216872 0.05164418 -0.09021046 -0.040916394 0.038192715 0.07612242
0.030005561 0.11308902 -0.04070845 0.11585186 -0.061586227 0.025267439 0.1146465 -0.09557956
-0.08076587 -0.044116333 -0.09801801 0.07165167 -0.11121548 0.11110519 0.05319132 -0.01470147
00000000: d3ca adbd c075 473d 211c f4bd 159f e2bd
00000010: a0c0 0abd 8615 87bc 7c4f 7dbd 0a2a a3bd
00000020: 6f32 96bd 5411 d63d 02c2 8e3d 90cf aa3c
00000030: e351 3b3d a809 c7bd bc39 99bd c19c c5bd
00000040: 1eff c33d a9fc bfbd 9887 4bbd 1963 1dbd
00000050: 635e 9cba 3804 d0bd 9b43 81bd 3724 4d3d
00000060: 1793 7e3d 61fb 173d b447 963c 6462 c1bc
00000070: 37bd 373d 52d0 86bd e6ab b3bd e89c ecbd
00000080: 1771 ed3d 775b 173d 5aa2 e53d 681f 1cbd
00000090: 0b0f 32bd a14b bd3d eafd ddbd 0430 86bd
000000a0: be09 973d dfa4 3f3d 970b e3bd 489a 3c3d
000000b0: c2ab cfbd e46f 54bd 9d77 6c3d 5ef4 f0ba
000000c0: 42a3 7b3d 95d7 0abd 2f1f 823d 2ef5 a3bd
000000d0: 303e 803d a9d3 753c 5916 d8bd c6ed 72bd
000000e0: 0a72 7bbc f93d a73d 3057 903d aa93 bcbc
000000f0: f727 0c3d d3ff f2bd 6b73 a5bc f0f9 8cbd
00000100: 0e13 b5bd a238 8abd 3569 08bd a348 f7bc
00000110: 3397 bebd 19a0 5d3d 0435 a83d 212e 75bc
00000120: 0e92 513d 829e 213d 9f67 03be d458 e8bb
00000130: 6581 c3bc 1ad2 b4bd a0b1 f1bd 4e4b 8d3d
00000140: 4213 5bbd af50 323d 4f42 e0bd fd90 3e3c
00000150: bcf2 e2bd 6ddf 133d 09d8 c8bc 0a2b 6dbd
00000160: 2cc2 283d 3153 97bd d229 93bc 5485 b43d
00000170: 1975 9cbc 883c a2bc 7cc9 e7bd db27 073c
00000180: 93ea 3cbd aa8a a3bd f488 323d 4ca7 c9bd
00000190: 22a8 a63c 662a 80bc e968 873d 5df6 293d
000001a0: 925e 7f3d f43a babd 376a bf3d fc86 3d3d
000001b0: d081 edbd 7547 aa3c 722d 67bd 0f23 30bd
000001c0: 5c11 143d 7f93 5fbd 4ed7 62bc c9b0 b83c
000001d0: cd4a aabd 8208 c93d cc77 8b3b c159 863d
000001e0: a78e bebc c121 83bd 618b e1bd 8cc8 3abd
000001f0: e8f2 273d fcd6 a7bd 4b27 d33d 1530 19bd
00000200: a549 053c 039c 993b d5d4 fe3d 24f4 f9bd
00000210: 0544 5bbc 38a6 eb3d e480 60bd 0bdd 01be
00000220: 5886 eebd 5537 6abd 222b 9dbd 676d 143d
00000230: e101 b2bd 93ac 773d d7b2 bf3d 84d4 4abd
00000240: d667 ebbb 2700 8fbc 0b12 6e3d 0ab6 9ebd
00000250: 0270 df3c 273d d8bc 4b91 c5bd 6f86 903d
00000260: f35b aebd 0579 19bd e599 223c d521 0fbd
00000270: fd2f 923d 1af4 d03d 30c3 343d f898 2c3d
00000280: 4cab d6bd 8d8a a4bd 828a e5bd b237 6d3d
00000290: 6896 823d ed4a 86bd bde9 463b 4b0b 353c
000002a0: 7dfe 21bd a7ac 07bd 3a4e 473d 905a 843d
000002b0: b207 50bd 0e93 74bd adac 79bc 94da b8bc
000002c0: 8a6e 483d efbb 9c3d 0f29 c3bd 2247 53bd
000002d0: 220e 84bc 9e0f 8abc c1e3 96ba 4a5b 97bd
000002e0: 9716 0b3d b89c d63d c847 e63d 9d10 cc3d
000002f0: e09a 80bd 084e 013c 8a6e 183d d901 95bd
00000300: 5126 debd cd87 9d3d 836d 2bbd 5831 e33d
00000310: abd1 febc 2147 7e3d 25e8 b7bd 593e cf3d
00000320: 4c98 f23d c9ae a9bd b955 85bd f45d 6c3d
00000330: 8430 68bb 16b5 e33d 3eb5 8f3d acfb 9ebd
00000340: 012d 283d 8ba2 c4bd b7aa c5bc f8f4 9a3d
00000350: db4e e23d c14a 0fbd 9a90 db3d b6fd fd3b
00000360: 1f78 b03d 2e55 b1bc 0042 a8bd 8ee8 3abd
00000370: dc03 7a3c 3c37 d4bd d32f 763d 57c7 80bc
00000380: 83bc cabd fe4b b4bd a3ed edbd b889 f4bc
00000390: f554 ccbd 4c6f 84bd bb06 b53d 24e6 a1bd
000003a0: 7656 2bbd 07ef b23d 32cd 933d d988 533d
000003b0: 43c0 b8bd f397 27bd f76f 1c3d 12e6 9b3d
000003c0: 39ce f53c 379b e73d e7bd 26bd bd43 ed3d
000003d0: d741 7cbd a9fd ce3c c9cb ea3d 37bf c3bd
000003e0: 9468 a5bd 54b3 34bd abbd c8bd 1cbe 923d
000003f0: f1c4 e3bd 1e8b e33d 24df 593d 6fde 70bc

_module.lstm.weight_ih_l0_reverse f4 [256, 128]
-0.008021983 -0.11742993 0.07896119 -0.040034037 -0.007942513 0.013684894 -0.10018742 -0.0570864
0.009571526 0.016283147 -0.041600667 0.08258074 0.0798884 0.10960031 -0.011509937 -0.042927142
-0.025288638 0.017144151 -0.00881888 0.043699343 0.06072014 -0.019967213 0.0747311 -0.13004677
0.018722368 0.031228952 0.10052475 -0.0948185 0.0037634913 0.06978787 0.008159376 -0.0141465105
0.069582716 -0.06288007 0.030681279 0.012288523 -0.1095852 -0.111109234 0.11464386 -0.08227467
-0.013626524 0.088200055 -0.07224564 -0.018025465 0.10559868 0.0440918 -0.081225984 -0.122785464
0.04560974 -0.049554907 -0.0525345 0.10281211 0.10765669 -0.11029767 -0.0453859 0.09113686
-0.10497394 -0.1027679 0.058825202 0.10800088 -0.00034815926 -0.11353555 0.0076011973 -0.05463338
0.026505547 -0.055847477 -0.05629168 0.06192005 -0.0810564 0.04084922 0.055489823 0.09965662
0.027613714 -0.041512594 0.096016265 0.06843223 0.07954822 0.07016562 -0.08204149 0.03771455
0.12122364 -0.06395286 0.12041221 -0.014658029 -0.07608457 0.074598394 0.0834631 -0.089447245
0.12066431 -0.1082657 0.027935669 -0.089709625 0.037732948 0.082428485 -0.013747578 -0.11124254
-0.078024946 0.10923065 -0.0031227348 -0.079139136 -0.013654767 0.034996256 0.076536156 -0.0192403
0.03402787 -0.090514325 -0.08665729 -0.041596945 0.08940989 0.01905615 -0.09930664 0.10171666
0.0877217 -0.014046847 -0.10206701 0.023877196 -0.030672664 -0.006279406 -0.06294886 -0.025572903
-0.10866073 -0.08040386 0.110814765 0.03383979 0.069743015 0.067931026 0.016099688 -0.0037193724
-0.102099165 -0.096117735 0.049254313 -0.061676867 -0.0497906 0.004714988 -0.12045986 0.06647786
0.088023536 -0.08610093 0.072693825 -0.092134036 -0.07573294 0.09598983 -0.0042207665 -0.006655105
0.018958757 0.066116 -0.028467948 -0.023412423 -0.024203792 0.077945314 0.06412801 0.01682654
0.052823886 -0.062265582 0.11425414 -0.06241893 -0.1213146 0.039497163 -0.1258057 0.064011425
-0.11864713 0.11990984 0.011841813 -0.057102863 -0.026144532 0.0065341257 0.028643327 0.0030270093
-0.029942758 0.046753425 -0.1253579 0.07563999 0.0060031926 0.11082944 -0.0024751269 -0.09411163
-0.04048149 -0.026802078 -0.03775702 0.07395212 -0.015974812 0.04279132 -0.122180365 -0.08139701
-0.004661983 0.040938918 -0.006887043 -0.033320367 -0.06405157 0.025345422 0.08708247 -0.037679307
0.06510505 0.12212185 -0.048080992 0.019056417 -0.05292191 -0.06460805 -0.06408677 0.048548095
0.088853806 -0.116777934 -0.045166105 -0.06774249 -0.020046359 0.08361401 0.031449564 0.09004299
0.062323622 0.027572256 0.104665324 -0.09029536 -0.048961867 6.914555e-05 -0.063099355 0.014183261
0.115809575 0.01719991 0.09663751 -0.03051838 -0.008574266 0.009597626 0.06653987 0.10501867
0.0569193 0.116143666 -0.06737317 -0.026729275 -0.09371777 0.03108801 0.043501087 0.083188646
0.073741026 -0.07972928 -0.012262394 -0.024885753 -0.0948548 -0.0014829999 0.0047949557 0.017579893
0.085308254 -0.062232215 0.0069584395 -0.06842123 0.04174943 -0.059692178 -0.03206326 -0.10004742
-0.09100699 0.01036885 -0.0030549397 -0.05940816 -0.007483574 -0.014658579 -0.05820578 0.0028412542
00000000: a36e 03bc 1a7f f0bd 68b6 a13d bbfa 23bd
00000010: 5021 02bc 9b36 603c 102f cdbd 6ed3 69bd
00000020: e4d1 1c3c 3c64 853c 7665 2abd 1720 a93d
00000030: 889c a33d 2176 e03d 2d94 3cbc 5fd4 2fbd
00000040: 1e2a cfbc e471 8c3c 107d 10bc 15fe 323d
00000050: aeb5 783d 4892 a3bc 9e0c 993d fb2a 05be
00000060: a75f 993c dcd3 ff3c ecdf cd3d 3430 c2bd
00000070: e8a4 763b f1ec 8e3d e7ae 053c c4c6 67bc
00000080: 6281 8e3d 44c7 80bd 4e57 fb3c cd55 493c
00000090: 356e e0bd 3d8d e3bd 66ca ea3d 9f7f a8bd
000000a0: c941 5fbc 3ba2 b43d 86f5 93bd 24aa 93bc
000000b0: 1f44 d83d 9a99 343d cf59 a6bd f276 fbbd
000000c0: 47d1 3a3d 16fa 4abd 6a2e 57bd 288f d23d
000000d0: 1c7b dc3d bfe3 e1bd 91e6 39bd f6a5 ba3d
000000e0: 94fc d6bd fa77 d2bd b2f2 703d 912f dd3d
000000f0: 2589 b6b9 5485 e8bd 7713 f93b 40c7 5fbd
00000100: 2922 d93c 53c0 64bd 1b92 66bd e19f 7d3d
00000110: e600 a6bd 8351 273d 4c49 633d c518 cc3d
00000120: 2836 e23c 1c09 2abd 2da4 c43d 3226 8c3d
00000130: 2dea a23d feb2 8f3d 5e05 a8bd 927a 1a3d
00000140: 1a44 f83d b8f9 82bd ad9a f63d 3b28 70bc
00000150: 3ad2 9bbd 0bc7 983d b4ee aa3d 1e30 b7bd
00000160: da1e f73d 68ba ddbd 58d9 e43c aeb9 b7bd
00000170: dd8d 1a3d 44d0 a83d 853d 61bc 21d3 e3bd
00000180: 8bcb 9fbd 52b4 df3d cca6 4cbb b313 a2bd
00000190: 3eb8 5fbc 3c58 0f3d fdbe 9c3d d59d 9dbc
000001a0: cf60 0b3d 935f b9bd 6179 b1bd 8f61 2abd
000001b0: 881c b73d a51b 9c3c 4861 cbbd d350 d03d
000001c0: 6fa7 b33d bf24 66bc 8208 d1bd 1c9a c33c
000001d0: 3d45 fbbc 7ac3 cdbb 55eb 80bd 447e d1bc
000001e0: 8489 debd c7aa a4bd daf2 e23d 979b 0a3d
000001f0: 6dd5 8e3d 6c1f 8b3d 7ee3 833c b7c0 73bb
00000200: 5e19 d1bd 60d9 c4bd e4be 493d e2a0 7cbd
00000210: 3af1 4bbd 3080 9a3b a9b3 f6bd 8b25 883d
00000220: af45 b43d af55 b0bd 80e0 943d c5b0 bcbd
00000230: df19 9bbd 5196 c43d 5b4e 8abb 1113 dabb
00000240: 654f 9b3c d367 873d 9d35 e9bc 69cb bfbc
00000250: 0847 c6bc cba1 9f3d 8c55 833d d0d7 893c
00000260: dc5d 583d 320a 7fbd 13fe e93d feaa 7fbd
00000270: ca73 f8bd c7c7 213d 36d3 00be 6c18 833d
00000280: 44fd f2bd 4a93 f53d 2a04 423c b1e4 69bd
00000290: 0f2d d6bc 381c d63b 69a5 ea3c ca60 463b
000002a0: 844a f5bc 8580 3f3d d25d 00be 24e9 9a3d
000002b0: 6eb6 c43b 8cfa e23d bd35 22bb 99bd c0bd
000002c0: ebcf 25bd 0890 dbbc 1ba7 1abd 3674 973d
000002d0: 9cdd 82bc f345 2f3d b339 fabd 7ab3 a6bd
000002e0: 8cc3 98bb 91af 273d b4ac e1bb f07a 08bd
000002f0: 782d 83bd 34a1 cf3c 4b58 b23d 9e55 1abd
00000300: cc55 853d 051b fa3d 93f0 44bd 341c 9c3c
00000310: a5c4 58bd 3a51 84bd ed3f 83bd 5eda 463d
00000320: fcf8 b53d 4529 efbd 1800 39bd 93bc 8abd
00000330: 4338 a4bc d23d ab3d 42d1 003d 7668 b83d
00000340: 0e47 7f3d 36df e13c c65a d63d c6ec b8bd
00000350: 3d8c 48bd 3c02 9138 3c3a 81bd e960 683c
00000360: 922d ed3d d3e6 8c3c e3e9 c53d af01 fabc
00000370: 147b 0cbc 5c3f 1d3c 0e46 883d 0714 d73d
00000380: 3624 693d bbdc ed3d f2fa 89bd 5af7 dabc
00000390: 1aef bfbd 48ac fe3c 322e 323d cf5e aa3d
000003a0: 8905 973d 1b49 a3bd 35e8 48bc 35dd cbbc
000003b0: 3c43 c2bd 3861 c2ba 011f 9d3b b503 903c
000003c0: 18b6 ae3d 35e7 7ebd 9f03 e43b 6e20 8cbd
000003d0: 7301 2b3d c97f 74bd c454 03bd a9e5 ccbd
000003e0: df61 babd 1ce2 293c 6235 48bb f955 73bd
000003f0: c538 f5bb 892a 70bc 2f69 6ebd 5634 3a3b
