results/baseline/wesad/seed_44/best_model.pth (torch, 334901 bytes, 30 tensors)

mlp.0.weight f4 [128, 140]
0	0x3d262c52	0.04056961
1	0x3d0db3fc	0.034595475
2	0x3d74c9f2	0.059762903
3	0xbd6e4b1d	-0.058177102
4	0x3c8aaf00	0.01692915
5	0x3d327fbf	0.04357886
6	0xbd2654e1	-0.04060829
7	0xbd447107	-0.047959354
8	0x3d9e65e2	0.07734276
9	0x3d6e677b	0.058204155
10	0x3d97275c	0.07380554
11	0x3d30aa8d	0.0431314
12	0x3d41693d	0.047219504
13	0xbda1f64c	-0.079083055
14	0x3d067ab3	0.03283186
15	0xbd058a24	-0.032602444
16	0x3a919d62	0.0011109526
17	0x3cfdcba5	0.030980894
18	0x3d3a962b	0.045553368
19	0xbd2c1e37	-0.042021003
20	0x3d7fbc2c	0.062435314
21	0x3cd5ff49	0.026122706
22	0x3d7fd410	0.062458098
23	0xbc5677d7	-0.0130900955
24	0xbc00e21d	-0.00786641
25	0xbced0d1a	-0.028936911
26	0xbda5b1d9	-0.080905624
27	0x3d1e7ac5	0.0386913
28	0x3d31c6c0	0.043402433
29	0xbc80bcd6	-0.015715044
30	0xbd863690	-0.06553376
31	0x3d5bebe3	0.053691756
32	0xbb86eb27	-0.004117388
33	0xbcb4c11e	-0.022064742
34	0x3d3de971	0.046365205
35	0xbd864013	-0.0655519
36	0xbbf5714b	-0.007490312
37	0x3ad055ab	0.0015894672
38	0x3d1538d1	0.036431137
39	0xbcb66ab4	-0.022267677
40	0xbda0a5ff	-0.07844161
41	0x3d280642	0.041021593
42	0x3cc3737d	0.02385878
43	0xbd976a1d	-0.073932864
44	0xbbf5ed37	-0.007505085
45	0xbd9a15da	-0.07523699
46	0x3d05a43d	0.032627333
47	0xbcb14e2f	-0.021643726
48	0xbd7bbdc2	-0.061460264
49	0x3d085989	0.033288512
50	0xbd4cdae2	-0.05001343
51	0x3d46172e	0.04836195
52	0x3d78b15d	0.06071602
53	0xbdaca660	-0.08430171
54	0xbd7de7fc	-0.061988816
55	0x3d422302	0.047396667
56	0xbd84920d	-0.064731695
57	0x3c8ee552	0.017443333
58	0x3d206813	0.039161753
59	0xba785786	-0.0009473491
60	0xbd38b911	-0.045098368
61	0xba945e57	-0.0011319619
62	0x3c8d4c21	0.017248215
63	0x3d79cd61	0.06098688
64	0x3d92d5be	0.07169674
65	0xbae68e3c	-0.0017589997
66	0x38b466b4	8.602199e-05
67	0xbd15df09	-0.036589656
68	0xbca1a58a	-0.019732255
69	0xbcd1916f	-0.025582043
70	0x3cc57f83	0.024108654
71	0x3c4e7082	0.012600066
72	0xbd92821d	-0.071537234
73	0x3cf3b765	0.029750535
74	0x3c98cdbd	0.018652791
75	0xbbd9015b	-0.006622476
76	0xbda5e442	-0.08100177
77	0x3d9993f9	0.07498927
78	0xbd94cddd	-0.07265828
79	0xb92a58ea	-0.00016245586
80	0xbd9e220c	-0.07721338
81	0x3ba32f66	0.0049800156
82	0x3c6b1c33	0.014349985
83	0x3d9ebacf	0.07750475
84	0x3da3e7fb	0.08003231
85	0x3d0b776c	0.034049436
86	0x3d6ec52f	0.058293518
87	0x3da142de	0.07874082
88	0xbcf6e010	-0.030136138
89	0xbd4e51d5	-0.05037101
90	0x3d6a70bc	0.057236418
91	0xbd0abfd5	-0.03387435
92	0x3c144548	0.009049721
93	0x3b33731c	0.0027381843
94	0xbd81ccc6	-0.063378856
95	0xbb89ff56	-0.0042113466
96	0x3cfb044d	0.0306417
97	0x3d93c9a4	0.07216194
98	0xbd09ba5d	-0.033624995
99	0xbcec5abd	-0.028851861
100	0x3d826044	0.063660175
101	0xbd4fa175	-0.050691087
102	0xbd71c7b3	-0.05902834
103	0x3d9f6ef9	0.07784838
104	0x3d92e162	0.071718946
105	0xbd0d83f1	-0.034549657
106	0xbcdbe966	-0.026844691
107	0xbcd78b2c	-0.02631148
108	0x3da2d07d	0.07949922
109	0xbd5b28df	-0.053505775
110	0x399a986f	0.0002948674
111	0x3d2737bd	0.04082464
112	0x3cc8ff1c	0.024535708
113	0x3d47a0d6	0.04873737
114	0xbd9e0ae6	-0.077169225
115	0xbd5881b6	-0.052858077
116	0x3d7e3d8d	0.06207042
117	0xbd92ee75	-0.07174388
118	0xbd20e696	-0.039282404
119	0x3d85f258	0.06540364
120	0x3d11f64c	0.035635278
121	0x3cdba934	0.02681408
122	0xbd9b66f0	-0.07587993
123	0x3d26c24e	0.040712647
124	0x3d2598b3	0.04042883
125	0x3d06b694	0.032888964
126	0xbc8b735b	-0.01702278
127	0x3d823ea0	0.06359601
128	0xbca33b48	-0.019925728
129	0x3d08ff9b	0.03344689
130	0xbd172040	-0.03689599
131	0xbda338a1	-0.079697855
132	0x3d41706e	0.047226362
133	0x38c45492	9.361761e-05
134	0xbce286ee	-0.02765223
135	0x3d215a74	0.039392903
136	0x3d60d245	0.05488803
137	0xbd3ce381	-0.046115402
138	0xbd9cf2d9	-0.07663507
139	0xbd7c971e	-0.061667554
140	0x3bdd4bd6	0.006753425
141	0xbcd097eb	-0.025463065
142	0x3d9eefd8	0.0776059
143	0xbd8c9a23	-0.06865337
144	0x3cb70943	0.022343284
145	0xbd98dea0	-0.07464337
146	0xbd8d4499	-0.068978496
147	0xbd7cca3c	-0.061716303
148	0xbc25b6bd	-0.010114369
149	0x3d5e95c0	0.05434203
150	0xbd871d9f	-0.06597447
151	0xbd0eeb7d	-0.034892548
152	0xbd00b344	-0.03142096
153	0xbd2e8a8e	-0.042612605
154	0x3d944af8	0.07240862
155	0x3d089bd5	0.033351738
156	0xbce661ff	-0.0281229
157	0xbd946b2b	-0.07247003
158	0x3d1e27aa	0.038612045
159	0x3b8a7daa	0.004226406
160	0x3d09bec5	0.033629198
161	0x3d49b3e9	0.04924384
162	0x3d8723a4	0.06598595
163	0xbd3441a4	-0.044007912
164	0xbc9d0998	-0.019169614
165	0x3d330536	0.04370614
166	0x3d8bf2d2	0.06833424
167	0x3cbe50e0	0.023231924
168	0x3d03074d	0.031989384
169	0x3d810c39	0.063011594
170	0x3d65a0fc	0.05606173
171	0xbd58139b	-0.052753072
172	0x3d6c6239	0.05771086
173	0xbcc41b5f	-0.023938833
174	0xbc355e35	-0.011069824
175	0x3bdc3be0	0.006721005
176	0xbc79b776	-0.015241494
177	0x3d082e43	0.033247244
178	0x3d7ab5ac	0.061208412
179	0xbd7a531b	-0.06111441
180	0x3d5574c4	0.05211331
181	0xbd64d6d7	-0.05586895
182	0x3d2ee7e8	0.04270163
183	0xbc0b3011	-0.008495347
184	0x3da145b8	0.07874626
185	0x3d0a8ca3	0.033825528
186	0xbc218ac6	-0.009859746
187	0xbcf1d331	-0.02951965
188	0x3c9e4e9f	0.019324599
189	0x3d551a96	0.052027307
190	0xbd871eea	-0.06597693
191	0xbc13a19b	-0.009010698
192	0x3d27101b	0.040786844
193	0xbbed2390	-0.0072369054
194	0xbc71621b	-0.014732863
195	0xbd63b443	-0.055591833
196	0x3cb0b5c3	0.021571046
197	0xbc3e744a	-0.011624405
198	0x3d24fe2f	0.04028147
199	0xbbb63153	-0.005560079
200	0xbcda37a5	-0.026637862
201	0xbc540e68	-0.012942888
202	0xbd15e878	-0.036598653
203	0xbce476a0	-0.027888596
204	0xbba70eb7	-0.0050981897
205	0x3cb6d9a7	0.022320582
206	0x3cd59789	0.026073234
207	0x3d0647c3	0.03278328
208	0x3ced3d4a	0.028959889
209	0xbda4f467	-0.080544285
210	0xba42873c	-0.0007420664
211	0x3cc263b5	0.023729185
212	0x3da5b45c	0.080910414
213	0xb97b2110	-0.00023949542
214	0xbd2dc3f5	-0.042423207
215	0xbcb18e66	-0.021674346
216	0x3cffdea1	0.031234087
217	0xbb5aea67	-0.0033403875
218	0xbcf44cde	-0.02982181
219	0xbc32fba7	-0.010924256
220	0xbd7ffe78	-0.06249854
221	0xbd43c1e3	-0.047792327
222	0x3d5b87bb	0.05359624
223	0xbd56523c	-0.05232452
224	0x3d4fbff9	0.05072019
225	0xbcc21be6	-0.023694944
226	0xbcaf7839	-0.021419631
227	0x3d3b7acc	0.045771405
228	0x3adc97ca	0.0016829905
229	0xbd66d14f	-0.056351956
230	0xba16a036	-0.0005745919
231	0xbd6de3d8	-0.058078617
232	0xbd90a528	-0.07062751
233	0x3d09dfa0	0.03366053
234	0xbc0685dd	-0.008210626
235	0xbd4cf790	-0.05004078
236	0x3d623d60	0.055234313
237	0x3d36f5fb	0.04466818
238	0xbc48e86c	-0.012262445
239	0xbd904bf3	-0.07045736
240	0xbd91fb21	-0.07127977
241	0x3dabf5d9	0.08396501
242	0x3d0859f4	0.03328891
243	0x3d749c61	0.059719447
244	0xbba179c3	-0.004927845
245	0x3ba08fe5	0.004899966
246	0x3d97e275	0.0741624
247	0xbca9b807	-0.020717634
248	0xbd28a8f5	-0.041176755
249	0x3daa2bf8	0.083091676
250	0x3d947354	0.072485596
251	0xbc946b55	-0.018117586
252	0x3d31483e	0.043281786
253	0xbbe09f98	-0.0068549626
254	0xbd9aede0	-0.07564902
255	0x3d9de626	0.07709913

mlp.0.bias f4 [128]
0	0x3d1cd982	0.03829337
1	0x3d353f54	0.044249848
2	0x3c8f1759	0.017467188
3	0x3d8f4b75	0.06996814
4	0xbd37ab77	-0.044841256
5	0x3d88a38c	0.06671819
6	0x3c3d5321	0.011555464
7	0xbd063758	-0.032767624
8	0x3cf4dfe7	0.029891921
9	0xbd52b420	-0.05144131
10	0xbd7bf4b6	-0.06151267
11	0x3c9962e1	0.018723907
12	0xbd04aad9	-0.032389496
13	0x3ae60af1	0.0017550868
14	0xbc4741fe	-0.01216173
15	0xbd431d6d	-0.047635484
16	0xbdaec07d	-0.08532808
17	0xbd767f3a	-0.060179926
18	0xbd6bfc5e	-0.057613723
19	0x3d025891	0.031822745
20	0x3c99ca65	0.018773267
21	0xbd1c3c7f	-0.03814363
22	0x3ce4aab5	0.02791343
23	0x3d72110e	0.059098296
24	0xbd20b93e	-0.03923916
25	0x3cbce85e	0.02306002
26	0x3cfc4e06	0.030798923
27	0xbc15c5bd	-0.009141383
28	0xbcd16d80	-0.025564909
29	0x3bac5acd	0.0052598477
30	0x3c883a92	0.016629491
31	0x3c433723	0.011915001
32	0x3d928059	0.071533866
33	0xbc2a13c4	-0.010380689
34	0xbd1ef547	-0.038808133
35	0x3cbe14dd	0.023203308
36	0xbd15d3aa	-0.03657881
37	0x3c3f2253	0.011665898
38	0x3c00eb8d	0.00786866
39	0x3d146f3b	0.03623889
40	0xbcc537f3	-0.02407453
41	0x3ca3edc4	0.020010836
42	0x3c8efb13	0.017453706
43	0x3d478b91	0.048717085
44	0xbb20789c	-0.0024485951
45	0x3aa98dc1	0.0012935923
46	0xbc1dc7d4	-0.009630162
47	0x3b438430	0.0029833429
48	0x3da4b9b8	0.080432355
49	0xbb633d7c	-0.0034674099
50	0x3be73c58	0.007056754
51	0x3d9e1d4a	0.0772043
52	0x3d3b749b	0.0457655
53	0xbd9013d1	-0.0703503
54	0xbd351e25	-0.0442182
55	0xbd4be1db	-0.04977594
56	0x3bb96cc0	0.005658716
57	0xbc8256d6	-0.015910547
58	0x3d407846	0.0469897
59	0xbd6e6c1c	-0.05820857
60	0x3d153477	0.036426987
61	0x3d8ae23a	0.067814305
62	0xbd40bcf5	-0.047055203
63	0xbd0401a6	-0.032228135
64	0x3c0563e8	0.008141495
65	0xbd7a6031	-0.06112689
66	0xbcc99f20	-0.02461201
67	0xbc4686a7	-0.012117065
68	0xbda2515a	-0.07925673
69	0xbd2fc6b2	-0.0429141
70	0x3c843998	0.016140744
71	0x3da19c4c	0.078911394
72	0xbd3151c3	-0.043290865
73	0xbda72af2	-0.08162488
74	0x3d037958	0.032098144
75	0x3d1b4138	0.037903994
76	0x3d905bd1	0.070487626
77	0xbd99aded	-0.07503877
78	0xbd49f5bf	-0.049306627
79	0x3d8d9e73	0.069149874
80	0x3c7d697e	0.015467046
81	0xbd44e1e9	-0.048067007
82	0xbce7ae5a	-0.02828138
83	0x3cd70768	0.026248649
84	0x3d964456	0.07337253
85	0xbb631bab	-0.0034653943
86	0x3d86a6d7	0.06574791
87	0xbc29fb01	-0.010374785
88	0x3b8f6670	0.004376225
89	0xbd0f5657	-0.03499445
90	0x3d7015a1	0.058614377
91	0x3c4c527e	0.01247084
92	0x3d8e2479	0.0694055
93	0xbcca021b	-0.024659207
94	0xbc716499	-0.014733457
95	0x3d07957f	0.033101555
96	0xbc6ec8b9	-0.014574223
97	0x3d294e03	0.041334163
98	0xbc92750b	-0.017878076
99	0x3d19d537	0.037556853
100	0x3baaccc6	0.005212399
101	0x3d51f197	0.05125579
102	0xbce52c7f	-0.027975319
103	0x3cfd6d22	0.030935828
104	0xbd9b1c02	-0.075737014
105	0x3ca096a1	0.019603075
106	0xbd67259e	-0.05643236
107	0xbd3f076a	-0.04663793
108	0xbd73c43b	-0.05951331
109	0x3c489ba1	0.012244136
110	0xbd17d52a	-0.037068523
111	0xb9ecbbee	-0.00045153446
112	0x3d16bd20	0.036801457
113	0x3da41cd7	0.08013313
114	0x3d33bdd1	0.043882195
115	0x3d4c4676	0.049871884
116	0x3da2b531	0.07944716
117	0x3d913ebe	0.07092045
118	0xbc8a1253	-0.01685444
119	0xbd4ba200	-0.049715042
120	0xbd9c9525	-0.076456346
121	0x3d5367de	0.051612727
122	0xbd282b34	-0.041056827
123	0x3d3017a2	0.042991288
124	0xbcf35e2f	-0.029707996
125	0xbc673c3e	-0.014113484
126	0xbd984623	-0.074352525
127	0xbd5d0fc1	-0.053970102

mlp.1.weight f4 [128]
0	0x3f7ece1f	0.99533266
1	0x3f7f8c80	0.9982376
2	0x3f8051e5	1.0024992
3	0x3f7f7a64	0.9979613
4	0x3f7ee750	0.99571705
5	0x3f8086f6	1.0041187
6	0x3f803011	1.0014669
7	0x3f802d88	1.0013895
8	0x3f7f3780	0.9969406
9	0x3f80830d	1.0039994
10	0x3f809a3e	1.0047071
11	0x3f808d1f	1.0043067
12	0x3f802fc3	1.0014576
13	0x3f807f15	1.0038782
14	0x3f7f4ee2	0.9972974
15	0x3f7eebe0	0.99578667
16	0x3f7fb084	0.99878716
17	0x3f7fb344	0.9988291
18	0x3f7ff12f	0.9997739
19	0x3f7f8577	0.99813026
20	0x3f7fb1f7	0.9988093
21	0x3f80902a	1.0043995
22	0x3f7ee040	0.9956093
23	0x3f808a7b	1.0042261
24	0x3f805059	1.002452
25	0x3f808d19	1.004306
26	0x3f808fc4	1.0043874
27	0x3f806a78	1.0032492
28	0x3f809812	1.0046408
29	0x3f7ff5cf	0.9998445
30	0x3f7ed75e	0.99547374
31	0x3f7f64ec	0.9976337
32	0x3f7f42ad	0.99711114
33	0x3f804d5b	1.0023607
34	0x3f80610c	1.0029616
35	0x3f8053e9	1.0025607
36	0x3f7f9e19	0.9985061
37	0x3f800483	1.0001377
38	0x3f805cc0	1.0028305
39	0x3f800c07	1.000367
40	0x3f7f9fa4	0.9985297
41	0x3f7eee1b	0.9958207
42	0x3f805852	1.0026953
43	0x3f809c10	1.0047626
44	0x3f7ed6c4	0.99546456
45	0x3f7f9704	0.99839807
46	0x3f80977a	1.0046227
47	0x3f80803d	1.0039135
48	0x3f805c47	1.0028161
49	0x3f805f55	1.0029093
50	0x3f807cda	1.0038102
51	0x3f7fe845	0.9996379
52	0x3f803132	1.0015013
53	0x3f7f8b05	0.998215
54	0x3f8003ad	1.0001122
55	0x3f8062f3	1.0030197
56	0x3f7fa380	0.99858856
57	0x3f807fb9	1.0038978
58	0x3f7f8d79	0.99825245
59	0x3f7fd243	0.9993021
60	0x3f80419e	1.0020025
61	0x3f7ee77a	0.99571955
62	0x3f7f2271	0.9966193
63	0x3f7f3d15	0.9970258
64	0x3f7ef7ce	0.9959687
65	0x3f7ffa52	0.99991333
66	0x3f7fd474	0.9993355
67	0x3f808deb	1.004331
68	0x3f7ed1d0	0.995389
69	0x3f80a34d	1.0049835
70	0x3f7eeb73	0.99578017
71	0x3f806f1c	1.0033908
72	0x3f8052f9	1.0025321
73	0x3f7ed90c	0.9954994
74	0x3f807f59	1.0038863
75	0x3f7ec921	0.9952565
76	0x3f8020fc	1.0010066
77	0x3f8056e5	1.0026518
78	0x3f8099c5	1.0046927
79	0x3f8094c6	1.0045402
80	0x3f7f99d1	0.9984408
81	0x3f808667	1.0041016
82	0x3f7fe610	0.9996042
83	0x3f805636	1.002631
84	0x3f7ed7ba	0.9954792
85	0x3f7ef636	0.9959444
86	0x3f804b0d	1.0022904
87	0x3f7f381b	0.99694985
88	0x3f8083c2	1.0040209
89	0x3f7f9222	0.99832356
90	0x3f7f46e9	0.99717575
91	0x3f7f5943	0.9974558
92	0x3f7f1368	0.99638987
93	0x3f8063c7	1.003045
94	0x3f7fc469	0.99909073
95	0x3f7f3cdc	0.9970224
96	0x3f808692	1.0041068
97	0x3f80760b	1.0036024
98	0x3f80015e	1.0000417
99	0x3f7f88a5	0.9981788
100	0x3f805fe8	1.0029268
101	0x3f80765a	1.0036118
102	0x3f806af5	1.0032641
103	0x3f7ef103	0.99586505
104	0x3f801f2c	1.0009513
105	0x3f8050b4	1.0024629
106	0x3f8091d7	1.0044507
107	0x3f809158	1.0044355
108	0x3f807f50	1.0038853
109	0x3f7fca7f	0.9991836
110	0x3f7eeae1	0.99577147
111	0x3f808cf2	1.0043013
112	0x3f7f0438	0.9961581
113	0x3f809537	1.0045537
114	0x3f7efdd1	0.99606043
115	0x3f8006f7	1.0002126
116	0x3f7edeac	0.9955852
117	0x3f7f12bc	0.9963796
118	0x3f808710	1.0041218
119	0x3f8074b2	1.0035613
120	0x3f7ff913	0.9998943
121	0x3f7ee528	0.99568415
122	0x3f7f679b	0.99767464
123	0x3f7ee109	0.99562126
124	0x3f807953	1.0037025
125	0x3f7f02b4	0.996135
126	0x3f7ee39a	0.9956604
127	0x3f803614	1.0016503

mlp.1.bias f4 [128]
0	0xbac7d698	-0.0015246449
1	0xb99fba7a	-0.0003046578
2	0x3a764e40	0.00093958154
3	0xbb5e02fc	-0.003387629
4	0xbb8b50d8	-0.0042515807
5	0x3b923b04	0.0044626016
6	0x3b3ef853	0.0029139712
7	0xbb21b844	-0.0024676481
8	0xbb113174	-0.002215472
9	0x3b6a9c36	0.0035798675
10	0x3b9765b3	0.004620278
11	0x3b87a99a	0.004140091
12	0x3ae319fa	0.0017326467
13	0x3b45bea6	0.003017345
14	0xbb3e2b7c	-0.0029017618
15	0xbb634fb8	-0.0034684967
16	0xbadf5d05	-0.0017041272
17	0xbae79861	-0.0017669314
18	0xba8e69e2	-0.0010865296
19	0xbb39117a	-0.0028239177
20	0x3b0dde8d	0.0021647543
21	0x3b846b3b	0.004041103
22	0xbb8ae5cc	-0.0042388197
23	0x3b82423b	0.0039751804
24	0x3b025e54	0.001989265
25	0x3b737e40	0.0037154108
26	0x3b93e4de	0.004513367
27	0x3954572c	0.0002025037
28	0x3b87aec9	0.004140709
29	0xba37ccee	-0.0007011433
30	0xbb90f761	-0.004424021
31	0xbaf5407d	-0.0018711236
32	0xbb2e6724	-0.002661177
33	0x3b5c02f7	0.0033571103
34	0x3b70a5af	0.003671985
35	0x3b501882	0.003175289
36	0x3a0c8a1c	0.0005361156
37	0x3b296fd8	0.0025854018
38	0x3b849523	0.004046099
39	0xbb5d600a	-0.0033779168
40	0xbb3857a7	-0.0028128417
41	0xbb89c4d5	-0.0042043724
42	0x3b5340a8	0.0032234583
43	0x3b9884a8	0.0046544857
44	0xbb91cdc4	-0.004449578
45	0xbb0edac4	-0.0021797875
46	0x3b8fb42f	0.004385493
47	0x3b72eb20	0.0037066415
48	0x3b0ab86a	0.0021167048
49	0x3b6d2a81	0.0036188664
50	0x3b747cb9	0.0037305786
51	0xbb4031b2	-0.0029326496
52	0x3b459865	0.0030150649
53	0xba46f184	-0.0007589089
54	0x3abd3ff3	0.0014438614
55	0x3b52825b	0.0032121155
56	0xbae393ae	-0.0017362738
57	0x3b17317b	0.0023070264
58	0xba541ad2	-0.0008091155
59	0xbab231c5	-0.0013595155
60	0x3acdab25	0.0015691264
61	0xbb888326	-0.0041660247
62	0xb9308fe3	-0.0001683827
63	0xba367c2c	-0.0006961252
64	0xbb8c3af0	-0.004279487
65	0xbb419f1c	-0.00295443
66	0x3b50858f	0.0031817888
67	0x3b64d838	0.0034918915
68	0xbab0f8f5	-0.0013501929
69	0x3ba33680	0.004980862
70	0xbb8a00f9	-0.0042115417
71	0x3b4a6a9b	0.0030886296
72	0x3b60d722	0.0034307917
73	0xbb7b34e4	-0.0038331086
74	0x3b4aeff7	0.0030965784
75	0xbb9bfe0b	-0.004760509
76	0x3b1aaabf	0.0023600308
77	0x3b241229	0.0025035238
78	0x3b973faa	0.0046157436
79	0x3b97f565	0.0046374076
80	0xbac03a25	-0.0014665766
81	0x3b403fd4	0.002933492
82	0x3ab97ef7	0.0014152218
83	0x3b5f9be2	0.0034120013
84	0xbb9148b6	-0.0044337166
85	0xbb6baa8d	-0.003595981
86	0x3a80a892	0.0009815863
87	0xbb8012bd	-0.003908484
88	0x3b9bb53f	0.004751831
89	0xbb3aa00c	-0.0028476743
90	0xbb4039a6	-0.0029331236
91	0xbad9605e	-0.0016584506
92	0xbb831c18	-0.004001152
93	0x3b8a1a42	0.004214556
94	0xbb6a84d4	-0.0035784738
95	0xba29fdff	-0.0006484687
96	0x3b81a2bf	0.0039561684
97	0x3b62a37b	0.0034582305
98	0x3a8382a3	0.001003344
99	0xbb331ffc	-0.0027332297
100	0x3b6cebf4	0.0036151381
101	0x3b8172cd	0.003950453
102	0x3b678281	0.003532559
103	0xbb8c9ae0	-0.0042909235
104	0x3b1b5ca7	0.0023706348
105	0xbb29b558	-0.0025895443
106	0x3b809b83	0.0039247884
107	0x3b2ed766	0.002667868
108	0x3b840c18	0.004029762
109	0xb9e19370	-0.00043025194
110	0xbb92338d	-0.0044617117
111	0x3b6167d7	0.0034394169
112	0xbb811702	-0.0039395103
113	0x3b8ec030	0.0043564066
114	0xbb897164	-0.0041944254
115	0x39e68266	0.00043966173
116	0x3b82409e	0.003974988
117	0xbb50d685	-0.0031866145
118	0x3b81ed09	0.0039650244
119	0xb79d23c0	-1.8732506e-05
120	0xb9fe1604	-0.00048463058
121	0xbb8937f2	-0.0041875774
122	0xbb55d022	-0.0032625278
123	0xbb916ef1	-0.004438274
124	0x3b7a935e	0.003823481
125	0xbb857387	-0.00407261
126	0xbb142a26	-0.002260813
127	0x3adb75f3	0.0016743526

mlp.4.weight f4 [64, 128]
0	0x3bdd78a9	0.0067587686
1	0x3d98b8f7	0.07457154
2	0x3cabf370	0.020990103
3	0x3d176112	0.036957808
4	0xbd941d6f	-0.072321765
5	0x3d84e464	0.064888746
6	0xbdb42b5c	-0.08797333
7	0x3bed35f9	0.0072391
8	0x3d93a724	0.07209614
9	0x3d5bbaf7	0.0536451
10	0xbdb7434e	-0.08948384
11	0xbd1d6bbf	-0.038432833
12	0x3b89d79f	0.0042066122
13	0x3d9084bf	0.07056569
14	0xbd01abb5	-0.031657893
15	0xbb9495aa	-0.004534443
16	0xbc4ffb99	-0.012694263
17	0x3b8aa64f	0.0042312513
18	0xbd0487a7	-0.03235593
19	0xbd9a5e97	-0.07537573
20	0x3c7f5a36	0.015585473
21	0x3b29f40c	0.0025932817
22	0x3c9cf4d8	0.01915972
23	0x3d8d69df	0.06904959
24	0xbc8739c3	-0.016507035
25	0x3d115fdb	0.035491806
26	0xbc0cb326	-0.008587634
27	0x3da26876	0.079300806
28	0x3d26fe2f	0.040769752
29	0x3cbf2a63	0.023335641
30	0xbcd148da	-0.025547434
31	0xbd818917	-0.06324976
32	0xbd6c3417	-0.057666864
33	0x3ca5c988	0.0202377
34	0xbd360196	-0.044435106
35	0xbd8027e5	-0.06257609
36	0x3caf6aef	0.021413295
37	0x3d8ecbe7	0.06972485
38	0xbd1e3bad	-0.03863113
39	0xbc84d1ec	-0.01621338
40	0x3db9c1a5	0.09070138
41	0x3d9db9f4	0.07701483
42	0xbd65ad7b	-0.056073647
43	0xbc597ca3	-0.013274345
44	0xbd022794	-0.031776026
45	0x3d9569bc	0.07295558
46	0x3d5d8548	0.054082185
47	0x3cde1456	0.027109306
48	0x3c288d85	0.010287647
49	0x3d63c6a2	0.055609353
50	0xbca13b4e	-0.019681599
51	0x3d802a30	0.062580466
52	0xbc84065f	-0.01611632
53	0xbda6471b	-0.08119031
54	0x3d609546	0.05482986
55	0x3d5a5e4c	0.053312585
56	0x3da4e8d6	0.080522224
57	0xbd929e74	-0.07159129
58	0x3afaa0bd	0.001912139
59	0xbd90a0b2	-0.070619
60	0xbbc9e234	-0.0061609987
61	0xbce9b6e8	-0.0285296
62	0x3d0116b1	0.03151578
63	0x3d19a688	0.037512332
64	0x3cae1db0	0.02125439
65	0xbd424cbb	-0.047436457
66	0xbb693f90	-0.0035590865
67	0xbdaa00fa	-0.083009675
68	0xbd4eb5a3	-0.05046619
69	0x3d30f7e7	0.043205168
70	0xbd1fa72f	-0.038977798
71	0x3c090861	0.008363814
72	0x3c3a3254	0.011364538
73	0xbc8eeee8	-0.017447904
74	0x3d60f96a	0.05492536
75	0xbd8aa6d9	-0.06770105
76	0x3d339098	0.043839067
77	0x3d021ba5	0.031764645
78	0xbd3e39c4	-0.04644181
79	0x3d295063	0.04133643
80	0xbd8d6080	-0.069031715
81	0xbcc2b1cc	-0.02376642
82	0xbc32da7a	-0.010916347
83	0x3d613792	0.054984637
84	0xbb67d7c9	-0.003537642
85	0x3d900e26	0.070339486
86	0x3d626c0d	0.055278827
87	0xbd7b6c20	-0.061382413
88	0xbdb61179	-0.088900514
89	0xbd4ab113	-0.049485277
90	0xbd9b2dd4	-0.075771004
91	0x3d8156f4	0.06315413
92	0xbd3d2f7f	-0.046187874
93	0xbc2a3e40	-0.010390818
94	0x3ce14da2	0.027502839
95	0x3cc17611	0.023615869
96	0x3d83c7eb	0.06434616
97	0xbd9e4f74	-0.07729998
98	0x3d6949ed	0.056955267
99	0xbd93322b	-0.07187303
100	0xbd6ac0cd	-0.057312775
101	0x3d7b975f	0.061423656
102	0x3d87a9c8	0.0662418
103	0xbd7c8fad	-0.061660457
104	0xbd30b9c9	-0.04314593
105	0x3d442162	0.0478834
106	0x3d8fd133	0.070223235
107	0x3d3c47f9	0.045967076
108	0x3d81ae89	0.06332118
109	0x3c3e2a57	0.011606774
110	0xbc431700	-0.011907339
111	0x3d031c62	0.03200949
112	0x3d889565	0.0666912
113	0xbd986c91	-0.074425824
114	0x3d90e57e	0.07075022
115	0x3d9c8eb4	0.07644406
116	0x3c900747	0.017581595
117	0x3d928164	0.071535856
118	0xbd546539	-0.051854346
119	0xbd5e53a5	-0.05427899
120	0xbd9ec9f9	-0.07753367
121	0x3da98320	0.08276963
122	0x3d34c2c0	0.04413104
123	0xbd4c5777	-0.0498881
124	0xbd813dfd	-0.063106515
125	0xbd8f59fe	-0.069995865
126	0x3d096da5	0.03355183
127	0x3d9a7965	0.075426854
128	0xbc92296e	-0.01784202
129	0x3d16b171	0.036790315
130	0xbbce1655	-0.0062892833
131	0x3ca6f566	0.020380687
132	0xbd5bfdae	-0.053708725
133	0x3ce5468a	0.027987737
134	0x3cc04c36	0.02347384
135	0x3d63354f	0.05547076
136	0xbcb13c45	-0.021635184
137	0x3d2f22d2	0.042757817
138	0xbd36e43a	-0.044651248
139	0xbd8274f2	-0.06369962
140	0x3d60a248	0.054842263
141	0xbcf49003	-0.029853826
142	0x3cfa72be	0.030572291
143	0xbc437970	-0.011930808
144	0x3d5b0a76	0.053476773
145	0x39dc0382	0.00041964283
146	0x3d749b55	0.05971845
147	0x3d0f9fa8	0.03506437
148	0x3d7437c1	0.059623484
149	0x3d792535	0.0608265
150	0xbd27b423	-0.040943276
151	0xbd54bbca	-0.051936902
152	0x3d875f54	0.06609979
153	0xbc3d3038	-0.011547141
154	0x3da0796a	0.07835658
155	0x3c10d185	0.008839016
156	0x3cf2b602	0.029627804
157	0x3d001836	0.03127309
158	0x3d739242	0.059465654
159	0x3c81219a	0.015763093
160	0x3d82c23b	0.06384703
161	0xbd4446dc	-0.04791914
162	0xbd5e9e23	-0.05435003
163	0xbd9a7ca3	-0.07543304
164	0x3da07c39	0.078361936
165	0xbda5d711	-0.08097661
166	0x3d562395	0.052280027
167	0xbd06fcf1	-0.032956067
168	0xbd4ca66f	-0.04996341
169	0xbd92519f	-0.07144474
170	0xbd6a73aa	-0.057239212
171	0x3c3190a0	0.010837704
172	0xbda7f76d	-0.082014896
173	0x3db498f9	0.0881824
174	0xbd9cdaeb	-0.07658943
175	0x3da202e7	0.0791071
176	0x3d53a6e0	0.051672816
177	0x3d5e5a1c	0.054285154
178	0xbd843fd9	-0.064574905
179	0x3c72c1b3	0.014816689
180	0x3d5e9caa	0.054348625
181	0xbc91b43c	-0.017786138
182	0x3d261582	0.040547855
183	0x3d3551e0	0.044267535
184	0x3d3dfafd	0.04638194
185	0xbd4fa83f	-0.05069756
186	0xbc2ee071	-0.010673628
187	0x3d8932f2	0.0669917
188	0x3d83fee3	0.064451
189	0xbd9c1dac	-0.07622847
190	0xbc4211e3	-0.011845085
191	0xbcefa876	-0.029255133
192	0x3d10a589	0.035314117
193	0x3d8ab647	0.06773048
194	0x3da25970	0.07927215
195	0xbb420249	-0.0029603413
196	0xbd389136	-0.04506036
197	0x3d845b30	0.06462705
198	0xbcdf7464	-0.027277179
199	0xbcdc99a6	-0.026928734
200	0x3db4d306	0.08829312
201	0xbcf6761d	-0.030085618
202	0xba94f22e	-0.0011363679
203	0x3c8a9bcc	0.016919993
204	0xbd16638a	-0.03671602
205	0x3d60a275	0.05484243
206	0x3d50cfe6	0.050979517
207	0xbcf03cba	-0.029325832
208	0x3bc9b32b	0.0061553917
209	0xbda1c864	-0.078995496
210	0x3bf4ea0c	0.0074741896
211	0xbda308b4	-0.07960644
212	0x3cc4b8a6	0.024013828
213	0x3dac01cb	0.083987795
214	0x3da58874	0.08082667
215	0x3d307924	0.04308428
216	0x3cc39996	0.023876946
217	0xbd89af7a	-0.067229226
218	0x3d8a4802	0.06752016
219	0xbcd3fdba	-0.025877822
220	0xbce04301	-0.0273757
221	0xbd4b3345	-0.04960944
222	0xbcfc9803	-0.030834204
223	0xbc3dd39d	-0.011586097
224	0xbc9d798e	-0.019223
225	0xbd73c069	-0.05950967
226	0x3d133586	0.035939716
227	0xbc06313e	-0.008190451
228	0xbdb2083a	-0.08692975
229	0x3cf962aa	0.030442555
230	0xbdbbcbdd	-0.09169743
231	0xbc715dcf	-0.014731838
232	0xbd29488a	-0.041328944
233	0x3ce76fc1	0.02825153
234	0xbc6c88d6	-0.014436921
235	0xbc0cab71	-0.008585797
236	0x3bb1ba7b	0.0054238415
237	0x3c008fcc	0.007846784
238	0xbda888f5	-0.082292475
239	0xbd661c3c	-0.05617927
240	0x3cb820ea	0.022476632
241	0xbd7321f4	-0.059358552
242	0x3d3d9593	0.046285223
243	0x3d21c19f	0.039491292
244	0x3c95168f	0.018199233
245	0x3c9f0b87	0.019414676
246	0x3d45fff8	0.048339814
247	0x3c0acdc4	0.00847191
248	0x3c9c2e8c	0.019065164
249	0x3d9eb923	0.07750156
250	0xbd42c02f	-0.04754656
251	0x3c553e50	0.013015345
252	0xbd1b8434	-0.037967876
253	0xbc9f5d02	-0.01945353
254	0x3d77a16a	0.06045667
255	0x3d397ab5	0.04528304

mlp.4.bias f4 [64]
0	0xbd79bbdb	-0.06097017
1	0x3d14e7e3	0.036353957
2	0x3da3a1b8	0.0798983
3	0xbdb084b6	-0.086190626
4	0xbd84b438	-0.064796865
5	0xbd62471d	-0.0552436
6	0xbcd371ac	-0.025811039
7	0x3d0b606e	0.03402751
8	0xbd428c06	-0.047496818
9	0xbbde2698	-0.006779503
10	0x3bada797	0.0052995193
11	0xbc20a9b8	-0.009806089
12	0xbd954663	-0.07288816
13	0x3c94d12c	0.018166147
14	0xbd491845	-0.04909541
15	0xbc070f74	-0.00824343
16	0x3b133fb8	0.00224684
17	0xbcba4c8a	-0.022741575
18	0xbd86bb11	-0.06578649
19	0x3d2c1028	0.042007595
20	0xbd907dcd	-0.070552446
21	0x3d20dea3	0.039274823
22	0xbda8cc4c	-0.082420915
23	0xbd3a2e07	-0.04545405
24	0xbd5569fa	-0.05210302
25	0xbdb671d5	-0.089084305
26	0xbc25b1d0	-0.010113195
27	0x3aea2813	0.0017864726
28	0xbd9bd140	-0.07608271
29	0xbda496c9	-0.080365725
30	0x3d0bbcf6	0.034115754
31	0xbdaa95ea	-0.08329375
32	0x3d89df14	0.06732002
33	0x3d6ed89c	0.058312044
34	0x3d975dc2	0.0739093
35	0xbd1d0e8a	-0.038343944
36	0xbbb13f7e	-0.00540918
37	0x3d76cc8c	0.060253665
38	0xbb135099	-0.002247846
39	0xb9bb5175	-0.0003572811
40	0x3d3d5119	0.04621992
41	0x3d261172	0.04054398
42	0x3da92fcf	0.08261072
43	0xbd44427c	-0.047914967
44	0xbcda62aa	-0.026658375
45	0x3c36065b	0.011109914
46	0xbca76892	-0.020435605
47	0x3cce6671	0.025195332
48	0x3d1ead81	0.038739685
49	0xbd876b6e	-0.066122875
50	0x3c1b6713	0.009485024
51	0xbdabbd5f	-0.08385729
52	0xbce8feb2	-0.02844176
53	0xbdad737c	-0.084692925
54	0xbcadcafe	-0.021214958
55	0x3d9cb6a4	0.076520234
56	0xbda219a4	-0.07915047
57	0xbd8c0520	-0.06836915
58	0x3d9e2176	0.07721226
59	0x3d9a0179	0.07519812
60	0x3d8f07e6	0.069839284
61	0x3d626ef3	0.05528159
62	0xbc94b287	-0.018151535
63	0x3d197e81	0.03747416

mlp.5.weight f4 [64]
0	0x3f7f3c1d	0.997011
1	0x3f7fd3bf	0.99932474
2	0x3f7f5af6	0.9974817
3	0x3f7efe6f	0.99606985
4	0x3f805a14	1.002749
5	0x3f7f0178	0.99611616
6	0x3f806f8e	1.0034044
7	0x3f80915c	1.004436
8	0x3f8060c1	1.0029527
9	0x3f807da7	1.0038346
10	0x3f7f5613	0.99740714
11	0x3f805e46	1.002877
12	0x3f7f13e5	0.9963973
13	0x3f7ffd52	0.9999591
14	0x3f80981a	1.0046418
15	0x3f7f0e6e	0.9963139
16	0x3f7ef10a	0.99586546
17	0x3f7eecf8	0.99580336
18	0x3f807057	1.0034283
19	0x3f807a48	1.0037317
20	0x3f7ef405	0.99591094
21	0x3f7f890c	0.9981849
22	0x3f8099d5	1.0046946
23	0x3f805a8d	1.0027634
24	0x3f806f7c	1.0034022
25	0x3f7fa04d	0.99853975
26	0x3f806fcd	1.0034119
27	0x3f80905c	1.0044055
28	0x3f809e70	1.0048351
29	0x3f80918f	1.0044421
30	0x3f809c40	1.0047684
31	0x3f80577a	1.0026696
32	0x3f7f2715	0.9966901
33	0x3f7f0716	0.9962019
34	0x3f808ece	1.004358
35	0x3f809ff0	1.0048809
36	0x3f807daa	1.003835
37	0x3f7fcbd9	0.9992042
38	0x3f809a97	1.0047177
39	0x3f80950a	1.0045483
40	0x3f803d51	1.0018712
41	0x3f7efa12	0.99600327
42	0x3f802a4d	1.0012909
43	0x3f7ff0e7	0.9997696
44	0x3f7fa0f7	0.9985499
45	0x3f805aa2	1.0027659
46	0x3f801504	1.0006413
47	0x3f7ee851	0.99573237
48	0x3f808e27	1.0043381
49	0x3f8094a1	1.0045358
50	0x3f80491c	1.0022311
51	0x3f8088c7	1.0041741
52	0x3f8098df	1.0046653
53	0x3f7f07b9	0.9962116
54	0x3f808ce7	1.0043
55	0x3f7f78e7	0.9979386
56	0x3f7f0f2d	0.9963253
57	0x3f7fa94b	0.99867696
58	0x3f808bf9	1.0042716
59	0x3f7f0c8a	0.9962851
60	0x3f80984d	1.0046479
61	0x3f809880	1.0046539
62	0x3f7ef6b5	0.99595195
63	0x3f806d7c	1.0033412

mlp.5.bias f4 [64]
0	0xbb66c089	-0.0035209975
1	0x3b503036	0.0031767017
2	0xbb55dff2	-0.0032634703
3	0xbb8b0e85	-0.004243674
4	0x3ad50e76	0.001625492
5	0xbb80eb5a	-0.003934306
6	0x3b860c36	0.004090811
7	0x3b8f668f	0.0043762396
8	0x3b8adc58	0.004237693
9	0x3b8c85c7	0.0042884084
10	0xbb64e4fb	-0.0034926522
11	0x3b77256a	0.003771151
12	0xbb63f768	-0.0034784917
13	0xbac677cf	-0.0015141907
14	0x3b93ebf4	0.004514212
15	0xbb64710f	-0.0034857427
16	0xbb85c754	-0.0040825997
17	0xbb8b1e71	-0.0042455723
18	0x3b6db959	0.0036273806
19	0x3b86c749	0.004113112
20	0xbb83167e	-0.004000484
21	0xb8a567fa	-7.88718e-05
22	0x3b91714f	0.0044385563
23	0x3b73bbbc	0.0037190756
24	0x3b6ca025	0.0036106196
25	0xbb291af3	-0.0025803417
26	0x3b84c63a	0.0040519508
27	0x3b7b9402	0.003838778
28	0x3b950961	0.004548237
29	0x3b8d3749	0.004309569
30	0x3b9096d5	0.004412512
31	0x3b5bf08a	0.003356012
32	0xbb7a25b2	-0.003816944
33	0xbb8291a4	-0.003984647
34	0x3b859386	0.004076424
35	0x3b889b6d	0.004168919
36	0x3b67d1af	0.0035372784
37	0xbaf864f5	-0.0018950986
38	0x3b90b7ef	0.004416458
39	0x3b8ec35c	0.0043567847
40	0x3b2a0b7e	0.0025946791
41	0xbb8418df	-0.004031285
42	0xbaec0746	-0.0018007539
43	0xbb3aee6a	-0.0028523454
44	0xbb48b431	-0.003062498
45	0x3b339e63	0.0027407638
46	0x3b1e276a	0.002413238
47	0xbb8459d1	-0.0040390273
48	0x3b8e0088	0.0043335594
49	0x3b95b2fa	0.004568455
50	0x3b5f1621	0.003404029
51	0x3b8a570f	0.004221804
52	0x3b9a50e6	0.004709351
53	0xbb6f4336	-0.0036508567
54	0x3b7b324a	0.0038329535
55	0xbb1ac0f8	-0.0023613553
56	0xbb8379f2	-0.0040123397
57	0xba50f707	-0.000797138
58	0x3b7f1561	0.0038922655
59	0xbb7eaa5f	-0.0038858873
60	0x3b97a656	0.004627983
61	0x3b9fc284	0.004875483
62	0xbb87e6f9	-0.004147407
63	0x3b9021b4	0.004398549

mlp.8.weight f4 [2, 64]
0	0xbd12269c	-0.035681352
1	0x3d9331a0	0.071871996
2	0xbdc9febd	-0.098630406
3	0xbde4467a	-0.11146255
4	0xbd8f7fff	-0.07006835
5	0xbb879833	-0.0041380166
6	0x3dcc24ed	0.099679805
7	0x3d5e4960	0.054269195
8	0x3d6987c2	0.057014234
9	0x3da7563e	0.08170746
10	0xbdf4525a	-0.1192977
11	0x3dedc69e	0.11610149
12	0xbde56045	-0.112000026
13	0xbdfeafaa	-0.12435849
14	0x3c99d7d9	0.018779682
15	0x3ca210ce	0.019783404
16	0xbd41fa7f	-0.047358032
17	0x3ccca86f	0.02498266
18	0x3de92326	0.11383657
19	0x3af5fc21	0.0018767157
20	0x3c092db9	0.008372718
21	0xbd51eacf	-0.05124932
22	0x3d8b825a	0.06811972
23	0xbcfb896d	-0.030705178
24	0x3d36c0b2	0.044617362
25	0xbd8c6603	-0.06855395
26	0xbb1de83d	-0.0024094724
27	0x3d0abab8	0.033869475
28	0x3c46d50b	0.012135754
29	0x3d42a19d	0.047517408
30	0x3e04d08d	0.12970181
31	0x3ca8a67b	0.020587197
32	0xbdd59938	-0.10429615
33	0xbd90c861	-0.07069469
34	0x3e01dfc5	0.12683018
35	0x3d2808ae	0.041023903
36	0x3da860d0	0.082215905
37	0xbcfeeb37	-0.031118019
38	0x3d80407b	0.06262299
39	0x3d9b5dfa	0.07586284
40	0xbccb4842	-0.024814729
41	0x3de67a09	0.11253745
42	0x3d25062d	0.040289093
43	0x3ddce540	0.107859135
44	0xbd95b6a5	-0.07310227
45	0x3d3b724b	0.045763295
46	0xbc7f723a	-0.015591199
47	0xbc3add9b	-0.011405374
48	0xbc9e715c	-0.019341163
49	0x3dd97875	0.106186785
50	0x3dbf617d	0.09344766
51	0xbd5ae3b0	-0.053439796
52	0xbdaaa181	-0.08331586
53	0xbde10774	-0.1098775
54	0x3dcd926e	0.10037695
55	0xbdaa2f68	-0.08309823
56	0xbdaefa22	-0.08543803
57	0x3ddfc9a4	0.10927132
58	0xbd95c862	-0.073136106
59	0xbd8f7181	-0.07004071
60	0x3dd6d156	0.104891464
61	0xbcd310f9	-0.02576493
62	0xbde8a4be	-0.11359547
63	0xbd93403c	-0.07189986
64	0xbcee1f6b	-0.029067716
65	0xbc829241	-0.01593888
66	0x3d143584	0.03618385
67	0x3c684a07	0.014177806
68	0xbd67ee66	-0.05662384
69	0xba98cf4f	-0.0011658462
70	0xbde4633e	-0.111517414
71	0x3b1a4978	0.0023542326
72	0xbdf4d28d	-0.11954222
73	0xbbd03f4e	-0.0063552028
74	0x3d0972c6	0.033556722
75	0x3d0c0678	0.034185857
76	0x3c72e347	0.014824695
77	0x3d7b63a8	0.061374336
78	0x39c4a604	0.00037507724
79	0x3cd28d12	0.025702033
80	0x3d03d494	0.032185152
81	0x3db5b700	0.08872795
82	0x3b131286	0.002244146
83	0xbd41b4b4	-0.047291473
84	0x3d9c7655	0.076397575
85	0xbd82cb80	-0.06386471
86	0xbd5c176c	-0.053733274
87	0xbdb0490e	-0.08607684
88	0xbc273a80	-0.010206819
89	0xbb3b4c98	-0.002857959
90	0xbdff21d9	-0.12457628
91	0xbd2c5d2e	-0.04208105
92	0xbdf01cca	-0.11724241
93	0xbdb027bc	-0.08601329
94	0xbdb946b7	-0.09046691
95	0xbdcffb44	-0.10155347
96	0x3d5ed7af	0.05440491
97	0xbd85eee9	-0.06539709
98	0xbcd486e4	-0.025943227
99	0x3dfc7280	0.12326527
100	0xbdf26050	-0.118347764
101	0x3c9ed9ca	0.01939096
102	0x3c014d9e	0.007892041
103	0x3c8f7f50	0.017516762
104	0xbd0fc3fd	-0.03509902
105	0x3dec536e	0.115393505
106	0x3d60a9af	0.054849323
107	0x3df7ab54	0.12093225
108	0x3ada4b37	0.0016654496
109	0xbd4453fb	-0.047931653
110	0xbda0b0f4	-0.07846251
111	0x3dad04f5	0.08448211
112	0xbd0a7196	-0.03379973
113	0xbc9fc152	-0.019501362
114	0xbde3558b	-0.111003004
115	0xbdc58e18	-0.09646243
116	0xbd10400f	-0.03521734
117	0x3c3f3529	0.011670389
118	0x3da603e8	0.08106214
119	0xbd51d416	-0.05122765
120	0x3d0584bb	0.032597285
121	0xbdc689b4	-0.096942335
122	0xbdc0b196	-0.09408872
123	0x3d98490b	0.07435807
124	0xbd1cf8df	-0.03832328
125	0xbddcd3c0	-0.107825756
126	0x3dd6ac80	0.104821205
127	0xbdc8270c	-0.097730726

mlp.8.bias f4 [2]
0	0xbd90eaa6	-0.07076006
1	0x3dce1504	0.10062602

exp_avg f4 [128, 140]
0	0xba9896b0	-0.0011641588
1	0x3bd3df75	0.006465847
2	0xbb994065	-0.004676866
3	0xba9828bf	-0.0011608823
4	0x3c19a629	0.009377995
5	0xbc478ad0	-0.012179092
6	0x3c81b8d0	0.015835196
7	0x3a01b174	0.0004947402
8	0x3bd3deda	0.006465775
9	0x3c4f1405	0.01263905
10	0x3c02f41e	0.007992772
11	0x3be9a6a5	0.0071304613
12	0x3bff43a4	0.007790046
13	0x3c06f8cb	0.008238028
14	0x3c02708a	0.007961402
15	0x3c0161e0	0.00789687
16	0x3c044728	0.008073606
17	0x3bf7f967	0.007567573
18	0x3c0304ab	0.007996718
19	0x3bc80f81	0.006105364
20	0x3b2a569f	0.0025991572
21	0x372c7aa6	1.0280555e-05
22	0x3b24cdb4	0.0025147023
23	0x3b2db7c5	0.002650724
24	0x3b29df1e	0.0025920342
25	0x3b29b40c	0.002589467
26	0x3b2acaa3	0.0026060722
27	0x3a1539b5	0.0005692498
28	0x3b2a52fb	0.0025989402
29	0x3b313cf2	0.0027044383
30	0x398c0bbc	0.00026711624
31	0x3a8d0638	0.00107593
32	0x3b594b25	0.0033156362
33	0xbab73ec0	-0.0013980493
34	0xbbd1d129	-0.0064031077
35	0xbb6a8c7f	-0.0035789309
36	0x3b483c21	0.0030553418
37	0xbb235f39	-0.0024928583
38	0x3a8d065f	0.0010759345
39	0x3b29c3bf	0.0025904027
40	0xbaaf21a7	-0.001336147
41	0x3b91be29	0.0044477177
42	0x399b5d04	0.00029633206
43	0x3b8f039e	0.004364445
44	0xbbf250c5	-0.0073948824
45	0xbbcf7058	-0.006330531
46	0x3aee8015	0.001819613
47	0x3b1947e9	0.002338881
48	0x3b91fcc5	0.0044551813
49	0x3ba3fdb7	0.0050046104
50	0x38de8594	0.00010610666
51	0xba912fce	-0.0011076869
52	0x3a7405ac	0.00093087065
53	0xba29e439	-0.0006480846
54	0xbc2d39d1	-0.010572867
55	0x3b12049f	0.0022280586
56	0xbb0c0797	-0.0021366829
57	0xba53a605	-0.000807375
58	0xba912f53	-0.0011076726
59	0xb9f58915	-0.00046832176
60	0x3b882071	0.004154258
61	0x3bd3600b	0.006450658
62	0x3b855e48	0.004070077
63	0x3b9497d6	0.004534702
64	0x3b866637	0.0041015404
65	0x3b84e9fc	0.0040562134
66	0x3b89e0f2	0.004207724
67	0x3bdb1a18	0.00668646
68	0x3b88579c	0.0041608345
69	0x3baf5ca1	0.0053516184
70	0xb84b24aa	-4.8433118e-05
71	0xba22c2e3	-0.000620885
72	0xb85ed9e4	-5.313185e-05
73	0xb8795c5f	-5.9452253e-05
74	0xb83bb9fb	-4.4757482e-05
75	0xb828d261	-4.0250252e-05
76	0xb875e5bb	-5.8626505e-05
77	0xb9706218	-0.00022924726
78	0xb84b44ce	-4.846305e-05
79	0xb9c00bb9	-0.00036629828
80	0xb9ca7ab6	-0.0003861987
81	0x3a45f664	0.00075516687
82	0xba787f10	-0.0009479383
83	0x3a7dc11e	0.0009679961
84	0xbb8f9d19	-0.004382741
85	0xbb4f5a0e	-0.003163937
86	0x3b7bcfa8	0.0038423333
87	0x3a86b7f5	0.0010278212
88	0x3a45741a	0.0007532254
89	0x3c198d6d	0.009372097
90	0xbaa9d0bf	-0.0012955888
91	0x39b8794f	0.00035185597
92	0xba9c2f9f	-0.0011916048
93	0xba98fb1d	-0.0011671517
94	0xba309061	-0.00067353813
95	0xbb80c61f	-0.003929868
96	0x3b94c570	0.004540138
97	0xb8036291	-3.132463e-05
98	0x39b7b61f	0.0003504017
99	0x3bb68466	0.0055699823
100	0xb9953fb6	-0.00028466963
101	0xba38f7cf	-0.00070559693
102	0x39d1bc90	0.00040004076
103	0xba5d07d4	-0.00084316474
104	0xbbb76fc8	-0.005598042
105	0xba7cdc31	-0.0009645848
106	0x3a91822e	0.0011101419
107	0xba383899	-0.00070274767
108	0xba39b9c5	-0.0007084872
109	0x3bc60ec8	0.0060442425
110	0x39354918	0.00017288735
111	0xbb5463dc	-0.0032408154
112	0x3b8315e9	0.0040004146
113	0xbb706450	-0.0036680885
114	0xba69fdb9	-0.0008926052
115	0xb950472f	-0.00019862944
116	0xb9dfaaed	-0.00042661224
117	0xbb86193d	-0.004092364
118	0xbb5496b6	-0.0032438464
119	0x3b3c0c41	0.0028693827
120	0x397e5066	0.00024253278
121	0xba51393f	-0.00079812476
122	0x3a9ada69	0.0011814359
123	0xbafab1d0	-0.0019126479
124	0x39837289	0.00025071602
125	0xbb330d30	-0.0027321093
126	0x3b3a083b	0.0028386253
127	0xbad9c1fe	-0.00166136
128	0xba51590e	-0.00079859875
129	0x3b53261a	0.0032218755
130	0xba272da4	-0.00063773454
131	0xba862d42	-0.0010236877
132	0x3b1acdc3	0.0023621179
133	0xb9aaa953	-0.00032551083
134	0xba693db9	-0.0008897442
135	0xbb11e325	-0.0022260633
136	0x3a50b0f1	0.00079609366
137	0xbac8e172	-0.0015325977
138	0xba8664df	-0.0010253451
139	0x3b64a610	0.003488902
140	0xba0a28a0	-0.0005270336
141	0x3acd59c7	0.0015667015
142	0xbb171fc8	-0.0023059715
143	0x3a87e185	0.0010366893
144	0x3a4c4f39	0.00077937875
145	0xbacd580d	-0.00156665
146	0x3ad90e58	0.0016560061
147	0x3ad592bd	0.0016294342
148	0x3acd59bc	0.0015667002
149	0x3a829807	0.000996352
150	0xbb0a0971	-0.0021062756
151	0xb9284475	-0.00016047231
152	0xbb0c3c72	-0.0021398333
153	0xbb0618c6	-0.0020461543
154	0xbb0a1a7b	-0.0021072912
155	0xbb0b3a28	-0.002124438
156	0xbb0912c5	-0.0020915729
157	0xb9394ec7	-0.00017672322
158	0xbb0a01c8	-0.002105819
159	0xb9c65420	-0.0003782818
160	0xb9c5bf4c	-0.00037717295
161	0xb8a624ae	-7.922329e-05
162	0xb9bb21c5	-0.0003569258
163	0xb9cedffa	-0.00039458257
164	0xb9c4abb8	-0.00037511974
165	0xb9c4b40f	-0.00037518187
166	0xb9c5a298	-0.0003769591
167	0xb962f511	-0.00021644334
168	0xb9c5d2da	-0.00037731865
169	0xb9ec59ab	-0.00045080236
170	0xba24acb4	-0.0006281838
171	0xbacac737	-0.0015470748
172	0x3abf2fc8	0.0014586383
173	0xbae55861	-0.0017497652
174	0x3a47a2ad	0.0007615488
175	0x3a8c2d20	0.0010694601
176	0xba8bb948	-0.0010660077
177	0xbad4e761	-0.0016243273
178	0xbacac715	-0.0015470708
179	0xbad4e6f9	-0.0016243152
180	0xba3e5026	-0.0007259868
181	0xb8d1d29d	-0.000100051264
182	0x3a0123ef	0.0004926314
183	0xba209fb0	-0.0006127311
184	0xba8e8857	-0.0010874373
185	0xba222c6b	-0.00061864284
186	0x3a671c93	0.00088162086
187	0xba193863	-0.0005844889
188	0xb8d721a4	-0.00010258265
189	0x3a673c99	0.00088209804
190	0xba64f540	-0.0008734055
191	0x39fe41da	0.00048495719
192	0xba07a4d7	-0.00051744044
193	0x3a1b7a58	0.00059310114
194	0xbadc30fb	-0.0016799265
195	0xb9634159	-0.00021672751
196	0xb8471833	-4.7467835e-05
197	0x3a131da5	0.00056120224
198	0x39fe4285	0.00048496216
199	0x396bb9a7	0.00022480507
200	0xbaaa3baa	-0.0012987752
201	0xba99a297	-0.0011721429
202	0xbaaef209	-0.0013347279
203	0xbaadb60b	-0.0013253106
204	0xbaa93647	-0.0012909853
205	0xbaa81858	-0.0012824638
206	0xbaaba785	-0.0013096189
207	0xba72e009	-0.0009264951
208	0xbaaa4e0f	-0.0012993234
209	0xb9f75a69	-0.00047178872
210	0xba7a907d	-0.00095582736
211	0x3a5bbdc2	0.0008382463
212	0xba7cac93	-0.00096387527
213	0xba77e76f	-0.00094567885
214	0xba799043	-0.0009520093
215	0xba7ce432	-0.0009647041
216	0xba78ff5b	-0.00094985
217	0x3a16cc0f	0.0005752453
218	0xba7a8fff	-0.00095582
219	0xba5451dd	-0.0008099357
220	0x38e4f6f8	0.00010917889
221	0x3a06a61f	0.00051364483
222	0xb88668bc	-6.409126e-05
223	0xb946fa8b	-0.00018976086
224	0x3ad5ab67	0.0016301692
225	0xbac10941	-0.0014727489
226	0x3aff691f	0.0019486285
227	0xb8835068	-6.2615436e-05
228	0x3a06ad73	0.000513754
229	0x39c4c6dc	0.00037532195
230	0x37e1770e	2.687753e-05
231	0x39a6e924	0.0003183569
232	0xb8eeb258	-0.000113819435
233	0xb7fc2026	-3.0055711e-05
234	0x39a73a8e	0.0003189635
235	0xba71bf82	-0.00092219573
236	0x3a632741	0.0008665212
237	0x382c67ec	4.110478e-05
238	0x39a70d64	0.000318627
239	0x398c2f9c	0.00026738353
240	0x382b641a	4.0862804e-05
241	0x39bed344	0.0003639703
242	0x388272ed	6.22029e-05
243	0xb9138bc3	-0.00014071078
244	0x3a06890d	0.00051321165
245	0xba854a20	-0.0010169186
246	0x3aabc36c	0.0013104505
247	0xb8f1ef55	-0.000115363546
248	0x39bebfd6	0.00036382553
249	0x3974a0c9	0.0002332955
250	0x392c6b46	0.0001644316
251	0x3af84114	0.0018940293
252	0xbac08edb	-0.0014691012
253	0x3b00d14c	0.0019656
254	0xb9e55475	-0.0004374121
255	0xbaa8338c	-0.0012832745

exp_avg_sq f4 [128, 140]
0	0x34f5383f	4.567573e-07
1	0x35a2cb5d	1.2129127e-06
2	0x355675fe	7.9892914e-07
3	0x34793cf6	2.321211e-07
4	0x3627a141	2.4978801e-06
5	0x36849461	3.95118e-06
6	0x36e1c722	6.7287046e-06
7	0x34480e9a	1.8631764e-07
8	0x35a2ca85	1.2128882e-06
9	0x368bd263	4.167015e-06
10	0x35d0e0a8	1.5562591e-06
11	0x35bb90a6	1.3974684e-06
12	0x35c71142	1.4831678e-06
13	0x35dcc78c	1.6449353e-06
14	0x35cf8b6a	1.5463277e-06
15	0x35cc3df6	1.5217217e-06
16	0x35d4db51	1.585906e-06
17	0x35dcc924	1.6449817e-06
18	0x35d11234	1.5577011e-06
19	0x35aa57bc	1.2691521e-06
20	0x34903b2b	2.686514e-07
21	0x337e4dda	5.920979e-08
22	0x34851ce5	2.4794204e-07
23	0x3495f499	2.793138e-07
24	0x348fd5a3	2.6791267e-07
25	0x348ecb7b	2.6597613e-07
26	0x34916ec2	2.7088942e-07
27	0x33cabd10	9.440748e-08
28	0x349039c2	2.6864114e-07
29	0x34ed24a5	4.4171352e-07
30	0x3404e039	1.237503e-07
31	0x348554ec	2.483497e-07
32	0x34d61f8a	3.9883554e-07
33	0x34506f75	1.9412057e-07
34	0x35a9bf7c	1.264721e-06
35	0x3541ac6a	7.2149e-07
36	0x35105156	5.376254e-07
37	0x349db290	2.937345e-07
38	0x348554d4	2.48349e-07
39	0x34e83a46	4.3255767e-07
40	0x34f5715c	4.5717286e-07
41	0x356afdd0	8.754114e-07
42	0x342055d4	1.4932385e-07
43	0x3577a76f	9.225832e-07
44	0x3608087f	2.0270525e-06
45	0x35b71025	1.3639261e-06
46	0x34f1f88b	4.5070587e-07
47	0x34dd1c7b	4.118518e-07
48	0x356b25ad	8.759915e-07
49	0x3566364b	8.5760684e-07
50	0x33b5870f	8.453036e-08
51	0x34b84128	3.4320078e-07
52	0x34f46c02	4.5527128e-07
53	0x34fa713c	4.6648518e-07
54	0x363d5eba	2.8218333e-06
55	0x34809f98	2.3957978e-07
56	0x346ef78c	2.2255534e-07
57	0x34fbe1fd	4.691682e-07
58	0x34b83e93	3.43182e-07
59	0x34705cec	2.2385547e-07
60	0x351c7f8c	5.8300134e-07
61	0x35922e10	1.0891254e-06
62	0x3517c506	5.653859e-07
63	0x353186b1	6.613364e-07
64	0x351a2482	5.7422596e-07
65	0x3517a09c	5.64856e-07
66	0x351ecd2a	5.915814e-07
67	0x35a81fca	1.2526227e-06
68	0x351cc61c	5.8402816e-07
69	0x357b3820	9.358646e-07
70	0x33d647a3	9.978182e-08
71	0x3495cd86	2.790295e-07
72	0x33d3f594	9.8701236e-08
73	0x33d92eed	1.0113386e-07
74	0x33d54bd7	9.9323806e-08
75	0x33d5df4a	9.9592015e-08
76	0x33d7c542	1.0047599e-07
77	0x3496d24e	2.8092694e-07
78	0x33d6477c	9.9781545e-08
79	0x33d20ae8	9.780871e-08
80	0x345749e9	2.0050324e-07
81	0x3471ae52	2.2508291e-07
82	0x347a91ce	2.3336108e-07
83	0x34c5aa37	3.6817957e-07
84	0x35293bb9	6.3044314e-07
85	0x35095e6e	5.117389e-07
86	0x351593eb	5.5722074e-07
87	0x34a9700a	3.1560222e-07
88	0x3471b3a3	2.2510226e-07
89	0x36391a34	2.75824e-06
90	0x33fd1867	1.1785669e-07
91	0x3470723c	2.23933e-07
92	0x34d4f1e6	3.9664081e-07
93	0x346b455a	2.191131e-07
94	0x33a67f69	7.753153e-08
95	0x3533c873	6.697439e-07
96	0x354d93f3	7.6583746e-07
97	0x34959afd	2.7866182e-07
98	0x347030d6	2.2369508e-07
99	0x35a59e35	1.2339502e-06
100	0x3401ce58	1.2089129e-07
101	0x340acff8	1.292791e-07
102	0x3478bc96	2.3165407e-07
103	0x33fbbb81	1.1722205e-07
104	0x35860166	9.984185e-07
105	0x33f35db2	1.13326124e-07
106	0x346db8f4	2.213963e-07
107	0x341fb37d	1.4873326e-07
108	0x340ae06d	1.2933897e-07
109	0x35a282cb	1.2108006e-06
110	0x341ccced	1.4603184e-07
111	0x34c8c05a	3.7392857e-07
112	0x35088f3c	5.087238e-07
113	0x350164f4	4.820315e-07
114	0x348eb8d0	2.658403e-07
115	0x34119346	1.3557755e-07
116	0x33ae87c0	8.127199e-08
117	0x3514daec	5.545287e-07
118	0x34c90a90	3.7446853e-07
119	0x350962ef	5.1180444e-07
120	0x342b2ce1	1.5941943e-07
121	0x3424b2dc	1.5338759e-07
122	0x34662de8	2.143712e-07
123	0x3472d440	2.2615222e-07
124	0x338178c4	6.028998e-08
125	0x34b17de7	3.3060425e-07
126	0x34af1480	3.2611206e-07
127	0x34714e94	2.247346e-07
128	0x3424bce8	1.5342414e-07
129	0x351fd2af	5.95387e-07
130	0x341f785b	1.4851814e-07
131	0x348a03a4	2.5707152e-07
132	0x34d99089	4.0524563e-07
133	0x34380bab	1.714058e-07
134	0x3465855a	2.13758e-07
135	0x347b271c	2.3390425e-07
136	0x342f5d98	1.6332194e-07
137	0x349a0722	2.8689925e-07
138	0x3489d85a	2.5675655e-07
139	0x353101c1	6.594019e-07
140	0x33340314	4.1912315e-08
141	0x33a4d186	7.674957e-08
142	0x346526bb	2.1341377e-07
143	0x330defdc	3.304727e-08
144	0x33ab5c18	7.97956e-08
145	0x33d9ad40	1.0136364e-07
146	0x340e6c97	1.3264285e-07
147	0x33ae935d	8.1293116e-08
148	0x33a4d141	7.674908e-08
149	0x33db6db8	1.021794e-07
150	0x3415a0f3	1.393526e-07
151	0x3263a843	1.3251397e-08
152	0x341946a6	1.4274937e-07
153	0x34101f08	1.3422334e-07
154	0x34159472	1.393071e-07
155	0x34178b6f	1.4113697e-07
156	0x34140dad	1.378855e-07
157	0x3291ec86	1.698778e-08
158	0x341591e8	1.3929787e-07
159	0x32d65979	2.4953566e-08
160	0x342c579c	1.605062e-07
161	0x3289285d	1.5967254e-08
162	0x342b7c32	1.5970798e-07
163	0x342e0dd7	1.6210048e-07
164	0x342c0ad9	1.6022695e-07
165	0x342b4ff9	1.595471e-07
166	0x342cd6d2	1.60969e-07
167	0x32a2ccbc	1.8952385e-08
168	0x342c59ba	1.605139e-07
169	0x32c4d993	2.2916344e-08
170	0x33c1bf81	9.022097e-08
171	0x33cd41d1	9.558028e-08
172	0x33e0109a	1.04338326e-07
173	0x33e4fcf6	1.0663091e-07
174	0x33eb498d	1.0956419e-07
175	0x33889569	6.360171e-08
176	0x3388f7b0	6.3780476e-08
177	0x33e34d92	1.0584621e-07
178	0x33cd41f3	9.5580525e-08
179	0x33bdab37	8.832142e-08
180	0x33148e11	3.4588144e-08
181	0x3352fe20	4.912556e-08
182	0x33cc136d	9.503024e-08
183	0x33b50e36	8.431054e-08
184	0x33b5605a	8.4459955e-08
185	0x334da7ea	4.7883e-08
186	0x334439ad	4.5687262e-08
187	0x33c40e6a	9.129583e-08
188	0x3352da43	4.9092943e-08
189	0x3375934b	5.717747e-08
190	0x330ce4fc	3.280455e-08
191	0x32ddd732	2.5825646e-08
192	0x3301245e	3.006823e-08
193	0x33023ce7	3.0323374e-08
194	0x341254b1	1.362812e-07
195	0x32f293df	2.8239752e-08
196	0x32e654ba	2.6814053e-08
197	0x32f1bc12	2.8141617e-08
198	0x32ddd6c8	2.5825457e-08
199	0x32d4c49d	2.4769458e-08
200	0x33a68211	7.753636e-08
201	0x33a1e0ae	7.538016e-08
202	0x33a96adb	7.889113e-08
203	0x33a893c1	7.849986e-08
204	0x33a54802	7.6965094e-08
205	0x33a32881	7.5976466e-08
206	0x33a993b3	7.896542e-08
207	0x3364b405	5.3249114e-08
208	0x33a6a95e	7.760785e-08
209	0x32b3fcbf	2.0953278e-08
210	0x331444aa	3.4521385e-08
211	0x339817e2	7.082396e-08
212	0x33159d0d	3.4834603e-08
213	0x3312369c	3.404294e-08
214	0x3312df34	3.4196276e-08
215	0x3316581c	3.500473e-08
216	0x33134c62	3.4295574e-08
217	0x334c7353	4.7602338e-08
218	0x33144447	3.4521033e-08
219	0x338f3a8a	6.6696046e-08
220	0x3326dfca	3.8853422e-08
221	0x332df2c3	4.0500492e-08
222	0x33119b4e	3.3901692e-08
223	0x3336ff7a	4.260753e-08
224	0x341378a3	1.3734329e-07
225	0x33c0288f	8.948074e-08
226	0x34223950	1.5108276e-07
227	0x333309cb	4.1685592e-08
228	0x332ddf89	4.0483005e-08
229	0x33a9ea04	7.912243e-08
230	0x3331e3a1	4.141805e-08
231	0x32dee111	2.594655e-08
232	0x3310a439	3.3676972e-08
233	0x3309f002	3.2116084e-08
234	0x335cfb27	5.1451163e-08
235	0x337efaaf	5.936698e-08
236	0x337411ae	5.6826757e-08
237	0x3302fde4	3.0498896e-08
238	0x32de7164	2.5895766e-08
239	0x331d719a	3.665773e-08
240	0x32ee1e7f	2.7720715e-08
241	0x335b3c4f	5.104476e-08
242	0x33b3966e	8.3627e-08
243	0x331ce379	3.6528466e-08
244	0x33792329	5.800681e-08
245	0x3394bd50	6.926223e-08
246	0x33f6a57e	1.14853705e-07
247	0x33765f50	5.7363025e-08
248	0x335b4bab	5.105873e-08
249	0x337b35fa	5.8489583e-08
250	0x330c8b18	3.2722795e-08
251	0x340993db	1.2812909e-07
252	0x33cc143d	9.5031716e-08
253	0x3417c341	1.4134004e-07
254	0x3344cf43	4.582331e-08
255	0x33c14472	8.999713e-08

exp_avg f4 [128]
0	0x3b06707a	0.0020513819
1	0x38e2fd7d	0.00010823736
2	0xba07209b	-0.00051547
3	0x3b1d9905	0.0024047506
4	0x3b2254d1	0.0024769793
5	0xbab4922a	-0.001377647
6	0xba8a91ad	-0.0010571979
7	0x39f540fd	0.00046778462
8	0x3aea60f0	0.0017881673
9	0xba9ef1cf	-0.0012126508
10	0xbb49d042	-0.0030794297
11	0xbb267378	-0.0025398415
12	0x3abbfc37	0.0014342134
13	0xbb066574	-0.0020507248
14	0x3b1158df	0.0022178215
15	0x3abb7e82	0.001430467
16	0x3aa0a763	0.0012256916
17	0x3a93a0db	0.0011263149
18	0x3a01dbfe	0.0004953741
19	0x3a95f128	0.0011439668
20	0xb927293f	-0.00015941726
21	0xbb55ffa0	-0.0032653585
22	0x3bcc3f70	0.0062331483
23	0xbb89777d	-0.0041951523
24	0xb9540d17	-0.00020222772
25	0xbae539c6	-0.0017488531
26	0xbb8d5e3a	-0.004314211
27	0x3a03ad1c	0.0005023049
28	0xbb0abd4f	-0.0021169966
29	0xbb1f60bd	-0.0024319135
30	0x3bf0cb6f	0.00734847
31	0x3a07304e	0.0005157039
32	0x3ac7bf90	0.0015239585
33	0xbae2f141	-0.0017314331
34	0xbb4e53bc	-0.0031483015
35	0xb94dcab3	-0.00019625835
36	0x392ea092	0.0001665375
37	0xba5ba2dc	-0.0008378455
38	0xbb407d07	-0.0029371397
39	0x3a31c669	0.00067815796
40	0x3b2230e7	0.0024748386
41	0x3c0e9f68	0.008704998
42	0xbaf636ec	-0.0018784679
43	0xbc3a1361	-0.011357159
44	0x3bc72a88	0.006078068
45	0x39e9876f	0.0004454213
46	0xbc1882ab	-0.009308497
47	0xba520e3f	-0.0008012987
48	0xbb210931	-0.002457213
49	0xbace1c71	-0.0015725029
50	0xbb19c7dc	-0.0023465073
51	0x3abf3ff3	0.0014591202
52	0xba2e73d0	-0.00066548306
53	0x399d623a	0.00030018558
54	0x39ebc093	0.00044966172
55	0xbaa0e2bd	-0.0012274605
56	0x3a8fcf14	0.0010971748
57	0xba036c87	-0.0005013425
58	0x390afdaf	0.0001325521
59	0x39aade7e	0.00032590696
60	0xb8f4104c	-0.00011637862
61	0x3b1a014b	0.0023499306
62	0x391e8e67	0.00015121103
63	0x3980c68b	0.00024561989
64	0x3aa45f32	0.0012540577
65	0x3acd33b1	0.0015655664
66	0xbaf3a8d9	-0.0018589749
67	0xbabbfa31	-0.0014341531
68	0x3aded385	0.0017000294
69	0xbb83675e	-0.004010125
70	0x3bdd63f8	0.006756302
71	0xbb041dd2	-0.0020159376
72	0xbb800b14	-0.0039075706
73	0x3b010f5c	0.0019692993
74	0xbb517271	-0.0031959082
75	0x3b4ac7f8	0.0030941945
76	0xb9ceb857	-0.00039428726
77	0xba6a395a	-0.00089349377
78	0xbbd68afc	-0.00654733
79	0xbb9a1181	-0.0047017937
80	0x3b18dc5f	0.002332471
81	0xbad168c6	-0.001597666
82	0x3a99292c	0.0011685244
83	0xba8b3410	-0.0010620374
84	0x3b60563f	0.0034231094
85	0x3b30fd49	0.0027006438
86	0x3a44ec6a	0.0007512035
87	0x3b348d6b	0.0027550112
88	0xbb460818	-0.0030217227
89	0x387714d7	5.8908798e-05
90	0x3aba360a	0.0014206779
91	0x3a4871e1	0.0007646364
92	0x3a4ed89b	0.0007890553
93	0xbb9f3239	-0.004858282
94	0x3b5075a0	0.0031808391
95	0x3a9dc482	0.0012036713
96	0xb9d153f8	-0.00039926148
97	0xba4491c7	-0.0007498529
98	0x399c7579	0.00029842163
99	0x3abd619d	0.0014448647
100	0xba8fde1a	-0.0010976226
101	0xbb251586	-0.002518983
102	0xbae42fc1	-0.0017409251
103	0x3b6fd144	0.0036593238
104	0xba87161d	-0.0010306273
105	0xb9bafc19	-0.00035664512
106	0xbab07a5c	-0.00134642
107	0xb898a7fb	-7.2792136e-05
108	0xbb2feff1	-0.0026845897
109	0x3ac8cef3	0.0015320465
110	0x3b8187bc	0.0039529484
111	0xba8be6a9	-0.00106736
112	0x3b6e39be	0.0036350335
113	0xbae98222	-0.0017815272
114	0x3acbeab1	0.0015557614
115	0xb9afe633	-0.00033550113
116	0xbb4ce652	-0.0031265211
117	0x3ac4216f	0.0014963577
118	0xbafecb8b	-0.0019439323
119	0xb8cd0061	-9.775232e-05
120	0x3a8aa527	0.0010577784
121	0x3b9a465b	0.004708094
122	0x3b442859	0.0029931276
123	0x3b88699c	0.0041629802
124	0xbaf1b4a3	-0.0018440675
125	0x3b91d46a	0.0044503706
126	0x3af06cd2	0.0018342978
127	0xb93c69aa	-0.0001796844
