results/baseline/wesad/seed_42/best_model.pth (torch, 334901 bytes, 30 tensors)

mlp.0.weight f4 [128, 140]
0	0x3d85dcfc	0.0653629
1	0x3d9beccf	0.07613527
2	0xbce2fae8	-0.027707532
3	0x3d8f26bb	0.06989809
4	0xbc2d114a	-0.010563204
5	0x3c19a92d	0.009378714
6	0xbd071e34	-0.03298779
7	0x3d3161d1	0.043306176
8	0x3da4d84a	0.08049066
9	0xbd5e6a73	-0.054300737
10	0x3da4d4b7	0.08048385
11	0x3cc4d49a	0.024027158
12	0x3d8dd82c	0.06925997
13	0x3c99826f	0.018738953
14	0x3d439374	0.047748044
15	0xbba44fac	-0.0050143804
16	0x3d93f8fe	0.07225226
17	0x3ca9d94d	0.0207335
18	0xbd04d44f	-0.032429036
19	0x3cf2f59a	0.029658128
20	0xbd10a3f5	-0.03531261
21	0xbb197e8e	-0.002342138
22	0xbd011d5d	-0.031522144
23	0x3d77561b	0.06038485
24	0xbd813439	-0.06308789
25	0xbd124119	-0.035706613
26	0xbca2e107	-0.019882692
27	0xbd3177bf	-0.04332709
28	0x3c3e233b	0.011605079
29	0xbd9a8144	-0.07544187
30	0x3da2f4a4	0.07956818
31	0xbd825908	-0.063646376
32	0x3d6f07d9	0.058357093
33	0x3cb46516	0.022020858
34	0xbd0ea305	-0.034823436
35	0x3d334d75	0.04377504
36	0x3cafee3c	0.021475904
37	0x3d9b2e49	0.075771876
38	0x3c8e6c52	0.017385636
39	0xbc96fa92	-0.018430028
40	0x3cc25da5	0.023726294
41	0xbc76b722	-0.015058311
42	0x3cf1851a	0.029482413
43	0x3da9d7f7	0.08293145
44	0x3d25c0e0	0.040467143
45	0xbd39dfe5	-0.045379538
46	0x3d664bcc	0.05622463
47	0x3cb6555b	0.022257498
48	0x3d500171	0.050782625
49	0xbd3333db	-0.043750625
50	0xbda7dba8	-0.08196193
51	0xbcd2a134	-0.025711633
52	0xbd911f08	-0.07085997
53	0x3d9b5151	0.07583869
54	0x3c84a209	0.016190546
55	0x3ce7a0c6	0.028274905
56	0x3d09fb49	0.03368691
57	0x3b9d7224	0.0048048664
58	0x3d95acef	0.07308375
59	0xbd56ad54	-0.052411392
60	0x3c5d493a	0.013506228
61	0xbd4a5c97	-0.049404707
62	0x3d0c4bf1	0.03425211
63	0xbcab12e7	-0.020883037
64	0x3d0b908d	0.0340734
65	0xbc1a8868	-0.009431936
66	0x3da0533b	0.07828375
67	0xbd2b3b7d	-0.04180478
68	0xbd2cee52	-0.042219467
69	0xbd2cca43	-0.04218508
70	0x3da24e90	0.07925141
71	0x3d01fca2	0.03173507
72	0x3dad1017	0.084503345
73	0xbd8828df	-0.066484205
74	0xbda5097c	-0.080584496
75	0xbd80ce87	-0.06289392
76	0xbd5b92df	-0.053606864
77	0x3d1dd810	0.03853613
78	0x3d0934f8	0.03349778
79	0x3d9b21f3	0.07574835
80	0xbd4287f9	-0.047492955
81	0xbd4cdef1	-0.0500173
82	0x3d17ffb3	0.03710909
83	0xbcd9e1a8	-0.02659686
84	0x3d341463	0.043964755
85	0xbce1a504	-0.027544506
86	0x3d65ef07	0.056136157
87	0xbd6d703f	-0.057968374
88	0xbd0f935e	-0.03505265
89	0x3d0ad4a2	0.03389419
90	0x3c74238e	0.014901055
91	0xbc67b56c	-0.014142375
92	0x3d3082db	0.043093543
93	0x3d8332ee	0.064061984
94	0xbd8639da	-0.06554003
95	0xbd5829b0	-0.05277413
96	0x3dae3cdd	0.085077025
97	0xbcb04bfd	-0.021520609
98	0xbcb8c81e	-0.02255636
99	0xbd9766f5	-0.07392684
100	0xbd51d22c	-0.051225826
101	0x3cf12d3d	0.029440517
102	0xbc9f7a09	-0.01946737
103	0xbd58feb9	-0.052977297
104	0xbbc2d017	-0.0059452164
105	0xbd8607f8	-0.06544489
106	0xbd82d268	-0.06387788
107	0xbd1c62b2	-0.03818006
108	0xbd866e14	-0.065639645
109	0xbd3a56e8	-0.045493037
110	0x3da65265	0.08121184
111	0x3cb137ad	0.021632994
112	0x3cad4bc3	0.02115429
113	0xbd979fef	-0.07403552
114	0xbd5edbcf	-0.054408845
115	0xbd1296c3	-0.03578831
116	0x3ca5857d	0.020205254
117	0xbd8e5848	-0.06950432
118	0xbcfbdfe6	-0.030746412
119	0xbd30133f	-0.042987105
120	0x3b1a559a	0.0023549558
121	0xbcd0177d	-0.025401825
122	0xbc446477	-0.011986843
123	0xbd5536e7	-0.052054312
124	0xbd80ccb3	-0.06289043
125	0xbd69007b	-0.056885224
126	0xbcb0f029	-0.021598892
127	0xbd7950f2	-0.06086821
128	0x3d9d8237	0.07690852
129	0xbc175d53	-0.009238559
130	0x3d95d0ff	0.073152535
131	0x3d049dc0	0.032377005
132	0xbd9dfb11	-0.07713903
133	0x3d822650	0.06354964
134	0xbc7b8fda	-0.015354121
135	0xbd220f31	-0.03956527
136	0xbd7f0df0	-0.06226915
137	0xbda0fcaf	-0.078606956
138	0x3cf7966a	0.03022309
139	0xbc2e82b8	-0.010651283
140	0x3d130539	0.035893653
141	0xbd8ddfa6	-0.06927423
142	0x3d865eb5	0.06561033
143	0xbd616287	-0.055025604
144	0xbcbf2234	-0.023331739
145	0x3cca814b	0.024719855
146	0x3d10ea6f	0.035379823
147	0x3d9a573a	0.075361684
148	0x3d9dd902	0.077074066
149	0xbd94614e	-0.07245122
150	0x3c8c523f	0.017129062
151	0xbd35c5ae	-0.044377975
152	0xbc4de533	-0.012566852
153	0xbd8cb343	-0.06870129
154	0x3d9563d3	0.072944306
155	0xbd86a192	-0.06573786
156	0x3d26bb25	0.04070582
157	0x3cb0b79e	0.02157193
158	0x3cbefb9f	0.023313342
159	0xbd5c79eb	-0.053827208
160	0x3d9b1452	0.07572235
161	0x3c5be9f3	0.013422477
162	0x3c227ab6	0.009916952
163	0xbd9b0b9e	-0.07570575
164	0x3d0cc8f8	0.034371346
165	0xbc60d6d8	-0.013723098
166	0xbd2351e3	-0.039873015
167	0x3d895e5f	0.06707453
168	0x3c915ee9	0.017745452
169	0xbd58210a	-0.052765884
170	0xbd358922	-0.044320233
171	0xbc3a7cd0	-0.011382297
172	0x3d5b353d	0.05351757
173	0xbced9258	-0.029000446
174	0xbd221a7f	-0.03957605
175	0xbcb3f9dd	-0.02196973
176	0xbd8ecfef	-0.06973254
177	0x3cbe0dad	0.02319988
178	0x3d6ddcb0	0.058071792
179	0xbdb17718	-0.086652935
180	0x3c74533f	0.014912426
181	0x3d18001a	0.03710947
182	0x3c892900	0.016743183
183	0xbd1210d1	-0.03566057
184	0x3d5b250d	0.05350213
185	0x3d577737	0.052603927
186	0x3ccd1ea0	0.025039017
187	0xbc9a7c05	-0.018857965
188	0xbced03d2	-0.028932486
189	0x3ac57e54	0.0015067556
190	0xbc5a905f	-0.013340085
191	0xbcf5b13b	-0.029991737
192	0x3d7082a3	0.058718335
193	0x3d8bdd11	0.068292744
194	0x3a68f042	0.0008885899
195	0xbc823bf6	-0.015897732
196	0xbb1711fe	-0.0023051496
197	0xbc1cea98	-0.009577416
198	0x3c7e2776	0.015512338
199	0x3c95a08d	0.018265033
200	0xbda8c64e	-0.082409486
201	0xbd173453	-0.036915135
202	0x3d85fd11	0.06542409
203	0x3cdecb20	0.027196467
204	0xbc211fce	-0.009834243
205	0xbd67c4af	-0.056584056
206	0xbd6aed7c	-0.05735539
207	0xbda66127	-0.08123999
208	0xbd07f830	-0.033195674
209	0x3cc5f337	0.024163825
210	0x3d74fcc2	0.05981136
211	0x3d0263a7	0.031833317
212	0xbd8cb019	-0.068695255
213	0xbd380985	-0.044930954
214	0xbbf3b85d	-0.0074377493
215	0x3db3aa82	0.08772756
216	0x3c9463a9	0.018113928
217	0xbcefe9ad	-0.02928623
218	0x3d277a1b	0.040887933
219	0xbcfffa7a	-0.031247366
220	0xbd4925df	-0.049108382
221	0x3d6b24a5	0.057407994
222	0xbd0c8189	-0.03430322
223	0xbcab5734	-0.020915605
224	0xbd9cf243	-0.07663395
225	0x3d7de389	0.061984573
226	0x3d6feb0e	0.058573775
227	0x3cdafc08	0.026731506
228	0xbd81721d	-0.063205935
229	0xbdb9dd74	-0.09075442
230	0xbd913096	-0.07089345
231	0x3d806ae2	0.06270386
232	0x3d2690b3	0.04066534
233	0x3d91aa97	0.071126156
234	0x3d4cc1b3	0.049989413
235	0x3cce2b86	0.025167238
236	0xbb8843c2	-0.004158468
237	0xbd83b522	-0.06431033
238	0xbd94f335	-0.072729506
239	0xbdaa27bc	-0.0830836
240	0x3d1c2202	0.03811837
241	0xbd334d86	-0.043775104
242	0xbc713566	-0.014722204
243	0xbd4f28dc	-0.050576076
244	0xbc08e3ac	-0.008355062
245	0xbd67e4d6	-0.05661472
246	0xbd6ebd34	-0.058285907
247	0x3cd49ae7	0.02595277
248	0xbce06ded	-0.027396167
249	0x3d3e60bc	0.04647897
250	0xbcdcf53e	-0.02697241
251	0xbd73e89d	-0.05954801
252	0xbc9720b4	-0.018448211
253	0xbd206d63	-0.03916682
254	0xbc98474e	-0.018588688
255	0xbda5b4ba	-0.080911115

mlp.0.bias f4 [128]
0	0x3d053579	0.0325217
1	0xbd667ab1	-0.05626935
2	0x3d9d9265	0.07693938
3	0xbc84b7f7	-0.016201003
4	0xbd0f8bb1	-0.03504533
5	0x3c1a4837	0.009416631
6	0x3d9972c7	0.07492595
7	0xbd501184	-0.050797954
8	0x3c171baa	0.009222904
9	0xbc867b08	-0.016416088
10	0xbc9b73b8	-0.018976077
11	0x3cfe81ec	0.031067811
12	0x3c213c6d	0.009841067
13	0xbd8890cd	-0.066682436
14	0x3b610b95	0.0034339179
15	0x3d673f11	0.05645663
16	0xbd400976	-0.046884023
17	0x3d9162a9	0.07098896
18	0xbd81960b	-0.063274466
19	0x3d12a0a6	0.035797738
20	0x3d66e3e8	0.056369692
21	0x3cf9ad74	0.030478217
22	0x3cdee189	0.027207153
23	0x3c32565c	0.0108848475
24	0xbcb066c6	-0.021533381
25	0x3d812de5	0.06307582
26	0xbc713276	-0.0147215035
27	0x3d9de31d	0.07709334
28	0x3da9aa2b	0.0828441
29	0xbda022bf	-0.07819127
30	0x3d8056e6	0.062665746
31	0x3ccfd919	0.025372075
32	0xbd83c4da	-0.06434031
33	0xbd236df2	-0.039899774
34	0xbba5ef5c	-0.0050639343
35	0x3da7b4b8	0.08188766
36	0x3d5aed2a	0.053448834
37	0xbc959b4d	-0.01826253
38	0xbd35d991	-0.04439694
39	0xbd3eaabe	-0.04654955
40	0xbd0c638c	-0.034274623
41	0xba8fbc76	-0.00109662
42	0xbda2b308	-0.07944304
43	0xbd99a76a	-0.07502635
44	0xbd4fdcd1	-0.050747696
45	0x3cb64b69	0.022252755
46	0x3d0922a9	0.03348032
47	0x3c9997b4	0.018749095
48	0x3d949f99	0.07257003
49	0x3cbd8944	0.023136742
50	0xbd105c16	-0.03524407
51	0x3d10176e	0.035178594
52	0xbd159565	-0.036519427
53	0x3d9337a1	0.07188345
54	0xbd15833c	-0.036502108
55	0xbd440df6	-0.047864877
56	0xbc769cfd	-0.015052077
57	0xbd3820a1	-0.044952992
58	0xbc7d6289	-0.015465387
59	0xbbcfcc2b	-0.0063414774
60	0x3c78dc06	0.015189176
61	0xbc72e3b5	-0.014824797
62	0xbd804d78	-0.06264776
63	0xbdaa6af3	-0.0832118
64	0xbd7a5495	-0.06111582
65	0xbd91f323	-0.07126453
66	0xbdad85d0	-0.08472788
67	0x3d9fd556	0.078043625
68	0x3d39457b	0.045232277
69	0x3d2e93de	0.042621486
70	0x3d54c8c7	0.05194929
71	0x3c92bc67	0.017912103
72	0xbcf8e0f6	-0.030380707
73	0xbc80f503	-0.01574183
74	0xbd0f77fd	-0.03502654
75	0x3d261e40	0.040556192
76	0x3c7ee7fc	0.015558239
77	0xbd9a597f	-0.07536601
78	0x3ca06103	0.019577509
79	0xbd749925	-0.059716363
80	0x3d6d401e	0.057922475
81	0x3c04a45f	0.00809583
82	0x3a15c8e1	0.0005713832
83	0xbd604a77	-0.054758515
84	0x3c78b815	0.015180607
85	0x3c6e4429	0.014542618
86	0x3ce138a5	0.02749283
87	0xbd7b6921	-0.061379556
88	0xbd081a9d	-0.033228505
89	0xbd5ce7fb	-0.05393217
90	0xbd38c8fe	-0.045113556
91	0xbd3926ea	-0.045203127
92	0xbd88db4c	-0.066824526
93	0x3da63d20	0.081171274
94	0xbdaf338a	-0.08554752
95	0xbcaaaf64	-0.020835586
96	0x3c05e0a2	0.008171232
97	0xbd20f76b	-0.039298456
98	0xbcac5e61	-0.021041097
99	0x3d07e390	0.033176005
100	0xbcddb5d9	-0.02706425
101	0xbc8808ea	-0.016605813
102	0x3d8e828d	0.06958494
103	0xbcc93d08	-0.024565235
104	0xbb8404b1	-0.0040288796
105	0x3d401184	0.046891704
106	0xbc991ddc	-0.018690996
107	0xbd86e5a8	-0.06586772
108	0x3d90c54b	0.07068881
109	0xbd9707cb	-0.07374533
110	0xbda32024	-0.07965115
111	0xbd496e1e	-0.04917728
112	0x3c1c4dd1	0.009540037
113	0x3d8b575a	0.0680377
114	0xbd6b3fc9	-0.057433877
115	0xbd35bd0e	-0.04436975
116	0x3da679c1	0.081286915
117	0x3d936347	0.0719667
118	0x3cfa01d1	0.030518444
119	0xbd8c1c50	-0.06841338
120	0x3d3400a4	0.043945923
121	0xbab53282	-0.0013824257
122	0xbd873da4	-0.06603554
123	0x3d6f343f	0.058399435
124	0xbd4e963d	-0.050436247
125	0x3c8ce337	0.017198188
126	0xbd530e68	-0.05152741
127	0x3d9d9391	0.07694162

mlp.1.weight f4 [128]
0	0x3f7e2c36	0.9928621
1	0x3f806f80	1.0034027
2	0x3f7e4632	0.9932586
3	0x3f804668	1.0021486
4	0x3f7e3d94	0.9931271
5	0x3f7e7dba	0.99410594
6	0x3f7e3b5d	0.9930933
7	0x3f7de584	0.9917834
8	0x3f80237d	1.001083
9	0x3f7e4264	0.99320054
10	0x3f8092fd	1.0044857
11	0x3f7fc2be	0.9990653
12	0x3f80404a	1.001962
13	0x3f80eaa3	1.0071605
14	0x3f80c148	1.0058985
15	0x3f8038f8	1.0017385
16	0x3f7e01e1	0.99221617
17	0x3f7e6081	0.99366003
18	0x3f80ebb1	1.0071927
19	0x3f80fc3b	1.0076975
20	0x3f7eb4e7	0.99494785
21	0x3f800bf0	1.0003643
22	0x3f7e5bd7	0.99358886
23	0x3f803730	1.0016842
24	0x3f7f52c2	0.99735653
25	0x3f7f9fa2	0.99852955
26	0x3f7fdbdb	0.9994485
27	0x3f807cf4	1.0038133
28	0x3f8012fb	1.0005792
29	0x3f7ece6a	0.9953371
30	0x3f7e7795	0.9940122
31	0x3f806aa6	1.0032547
32	0x3f7e923e	0.994419
33	0x3f807d71	1.0038282
34	0x3f80e9ed	1.0071388
35	0x3f80194c	1.000772
36	0x3f7f4f66	0.9973053
37	0x3f803686	1.0016639
38	0x3f80ca42	1.0061724
39	0x3f812972	1.0090773
40	0x3f81234c	1.0088897
41	0x3f8005f6	1.0001819
42	0x3f7ec5ed	0.9952076
43	0x3f7fe461	0.99957854
44	0x3f800593	1.0001701
45	0x3f80040f	1.0001239
46	0x3f80c5ed	1.0060402
47	0x3f7e5a8f	0.9935693
48	0x3f7f7465	0.9978698
49	0x3f8089d8	1.0042067
50	0x3f7e9fd7	0.99462646
51	0x3f801cf7	1.0008839
52	0x3f80e619	1.007022
53	0x3f7ea1a9	0.99465424
54	0x3f7eae4a	0.99484694
55	0x3f7f5619	0.9974075
56	0x3f7ecc40	0.9953041
57	0x3f7fbc1c	0.9989641
58	0x3f7e199c	0.99257827
59	0x3f8114d5	1.0084482
60	0x3f80b51e	1.0055273
61	0x3f7eb1dc	0.9949014
62	0x3f7f45ab	0.9971568
63	0x3f7e9b31	0.99455553
64	0x3f810e0c	1.0082412
65	0x3f80fffb	1.0078119
66	0x3f7f0757	0.99620575
67	0x3f7e7041	0.99390036
68	0x3f7ece45	0.9953349
69	0x3f80ce91	1.0063039
70	0x3f8088dc	1.0041766
71	0x3f7df866	0.9920715
72	0x3f7f67ae	0.9976758
73	0x3f7e86d5	0.9942449
74	0x3f7f1696	0.9964384
75	0x3f8106f4	1.0080247
76	0x3f7e7fe0	0.9941387
77	0x3f7f25c1	0.9966698
78	0x3f80e4ff	1.0069884
79	0x3f80a73a	1.0051033
80	0x3f7e8d06	0.99433935
81	0x3f7f04b5	0.9961656
82	0x3f80eb35	1.007178
83	0x3f7ffc86	0.99994695
84	0x3f805a3c	1.0027537
85	0x3f80be99	1.0058166
86	0x3f80b7b2	1.0056059
87	0x3f7fabe7	0.9987168
88	0x3f7f3528	0.99690485
89	0x3f7fc0bc	0.99903464
90	0x3f8111d9	1.0083572
91	0x3f7ef35c	0.99590087
92	0x3f7deefc	0.99192786
93	0x3f80bee8	1.005826
94	0x3f7e5960	0.99355125
95	0x3f80dfe8	1.0068331
96	0x3f80b261	1.0054437
97	0x3f7ee2ea	0.99564993
98	0x3f7eea5a	0.9957634
99	0x3f7e6dac	0.99386096
100	0x3f7e20d6	0.99268854
101	0x3f7ea3f7	0.9946894
102	0x3f7f680e	0.9976815
103	0x3f80cf8d	1.006334
104	0x3f7f9bf6	0.9984735
105	0x3f7e8f6e	0.99437606
106	0x3f80aa16	1.0051906
107	0x3f7ef7c1	0.9959679
108	0x3f80b822	1.0056193
109	0x3f805f4e	1.0029085
110	0x3f7fe141	0.99953085
111	0x3f7e5f99	0.9936462
112	0x3f7f5164	0.9973357
113	0x3f7f70ed	0.99781686
114	0x3f810250	1.0078831
115	0x3f7ee8b5	0.9957383
116	0x3f810e4c	1.0082488
117	0x3f80e57e	1.0070035
118	0x3f80a9f0	1.0051861
119	0x3f7ed056	0.99536645
120	0x3f8028b8	1.0012426
121	0x3f7fb3f2	0.9988395
122	0x3f80e7f4	1.0070786
123	0x3f7df0d7	0.9919562
124	0x3f80fb66	1.0076721
125	0x3f7ed4c5	0.9954341
126	0x3f7ebac5	0.9950374
127	0x3f804bf1	1.0023175

mlp.1.bias f4 [128]
0	0xbbe91036	-0.007112528
1	0x3a2ffb78	0.0006713192
2	0xbbd523d5	-0.0065045157
3	0xba5c7521	-0.00084097876
4	0xbbf9f7ab	-0.0076284013
5	0xbbd2357b	-0.006415067
6	0xbbc01844	-0.0058622677
7	0xbc094640	-0.008378565
8	0x3ada70de	0.0016665717
9	0xbbd19ae1	-0.006396637
10	0x3bb5c15c	0.005546732
11	0xbb4ebab6	-0.0031544394
12	0x3a3ec204	0.00072768354
13	0x3b572e25	0.00328339
14	0x3b7a7c80	0.003822118
15	0xba055fc2	-0.00050878164
16	0xbbdbaa4e	-0.0067036515
17	0xbbbbfd7c	-0.005737005
18	0x3bc00388	0.005859796
19	0x3bf002a4	0.0073245335
20	0xba3c85ab	-0.0007191549
21	0x3ab55d3b	0.0013836989
22	0xbbb36915	-0.0054751732
23	0x3a68090a	0.00088514446
24	0xbb839a1c	-0.004016174
25	0x3ace3225	0.0015731497
26	0x3b6a4576	0.0035746968
27	0x3b7cd339	0.0038578047
28	0x3b41917e	0.0029536183
29	0xbbe0f81f	-0.006865516
30	0xbbbea3ec	-0.005817881
31	0x3b1eec17	0.0024249607
32	0xbbdc667f	-0.0067260857
33	0x3b322992	0.0027185422
34	0x3bcddfe1	0.006282792
35	0x3a9c568c	0.0011927648
36	0x3a188c18	0.00058192154
37	0x3b33cf32	0.002743673
38	0x3bc75544	0.0060831625
39	0x3bf3f5db	0.0074450797
40	0x3c0410d1	0.00806065
41	0xbb757ba8	-0.0037457738
42	0xbbbf1e30	-0.005832456
43	0xba3eadfb	-0.000727385
44	0x3ac4df8e	0.0015020238
45	0xbb911613	-0.0044276803
46	0x3b9a9858	0.004717868
47	0xbbcfaf15	-0.00633801
48	0xb81012ec	-3.4349898e-05
49	0x3ad6d830	0.0016391333
50	0xbbbb4849	-0.005715404
51	0xbad8da8e	-0.0016544627
52	0x3b8da562	0.0043226937
53	0xbbaf3b92	-0.0053476775
54	0xbb83c239	-0.004020956
55	0x3b396491	0.0028288702
56	0xbb87bcf3	-0.0041423975
57	0x3af1dcf1	0.0018452686
58	0xbbeed103	-0.0072880997
59	0x3bf01541	0.0073267524
60	0x3bbf184a	0.005831753
61	0xbb59ddfa	-0.003324388
62	0xbb1ada9b	-0.0023628834
63	0xbb92b92b	-0.00447764
64	0x3a974930	0.0011542197
65	0x3beb637e	0.0071834913
66	0xbad84af2	-0.0016501828
67	0xbb5b0483	-0.0033419437
68	0xbb7f5bfc	-0.003896474
69	0x3babda7f	0.0052445526
70	0x3a5595eb	0.00081476447
71	0xbc024d54	-0.007953007
72	0xbb28bea0	-0.0025748387
73	0xbbac33de	-0.0052552065
74	0xbb8227d5	-0.0039720335
75	0x3b80c377	0.003929551
76	0xbbc54aec	-0.0060208943
77	0xbb5a4295	-0.0033303846
78	0x3be0a82c	0.006855985
79	0x3b8d1969	0.0043060076
80	0xbbc62c49	-0.0060477597
81	0xbb2c7e58	-0.0026320424
82	0x3bb84935	0.0056239613
83	0xbb2d161f	-0.002641089
84	0xb781a1f6	-1.5453417e-05
85	0x3af0445c	0.001833092
86	0x3bc02260	0.005863473
87	0xbb51d329	-0.003201673
88	0xbb0bcf12	-0.002133314
89	0x3b6f1a32	0.003648412
90	0x3bedcd8b	0.0072571686
91	0xbabfa1fc	-0.0014620419
92	0xbb19ace8	-0.0023449007
93	0x3ba9b0d6	0.005178551
94	0xbbe26e9e	-0.0069101593
95	0x3a69afd7	0.0008914447
96	0x3b97ce66	0.004632759
97	0xbbc4d534	-0.006006861
98	0xbb132791	-0.0022454003
99	0xbbfa5bbf	-0.0076403315
100	0xbbfd44fa	-0.00772917
101	0xbbd4d0db	-0.006494624
102	0xbb84eba5	-0.0040564113
103	0x3bacdfbd	0.005275695
104	0xba100fb2	-0.0005495503
105	0xbbe02137	-0.006839897
106	0x3b5642fc	0.0032693734
107	0xb9a790fa	-0.00031960738
108	0x3bbe0470	0.005798869
109	0x39639da8	0.00021707139
110	0x39271fb8	0.00015938177
111	0xbbd648fa	-0.006539461
112	0xbb1e8d90	-0.0024193265
113	0xbb1fceca	-0.002438473
114	0x3c0296db	0.007970537
115	0xbb60d8a1	-0.0034308808
116	0x3b9b00c9	0.004730318
117	0x3ba4318c	0.0050107893
118	0x3a3930d1	0.0007064464
119	0x3a878adb	0.0010341065
120	0xbb37dc22	-0.0028054793
121	0x3b34caad	0.0027586624
122	0x3a886591	0.0010406246
123	0xbc028215	-0.007965584
124	0x3bfdc1d7	0.007744055
125	0x3b3ca99a	0.0028787614
126	0xbbb7a6f0	-0.0056046173
127	0x3b6b19ce	0.0035873535

mlp.4.weight f4 [64, 128]
0	0x3c01f9fe	0.007933138
1	0xbc7f05fe	-0.0155653935
2	0x3d63dd96	0.055631243
3	0x3d986061	0.07440258
4	0xbb9e2f23	-0.0048273965
5	0x3d61aa19	0.05509386
6	0xbd217951	-0.039422337
7	0xbd215954	-0.03939183
8	0xbd4254b9	-0.04744408
9	0xbda26dd6	-0.07931106
10	0x3d981ecd	0.0742775
11	0x3cd2a839	0.02571498
12	0xbd8137ff	-0.063095085
13	0xbda607a7	-0.08106928
14	0x3d8101d9	0.062991805
15	0x3b826c78	0.0039802156
16	0xbd5c224c	-0.053743646
17	0xbb2e5515	-0.0026601006
18	0xbcd8cca9	-0.026464777
19	0x3c90e2ba	0.017686237
20	0xbd281a3a	-0.041040637
21	0xbd432e74	-0.047651723
22	0xbd3e7dab	-0.046506565
23	0xbd260f49	-0.04054192
24	0x3bfe4c8d	0.0077605904
25	0x3d27da60	0.040979743
26	0x3cb5c74e	0.022189762
27	0x3d786805	0.060646076
28	0xbd04a584	-0.03238441
29	0xbce9b317	-0.02852778
30	0xbd4fa391	-0.0506931
31	0xbd91ae0b	-0.07113274
32	0xbd49930c	-0.0492125
33	0xbcb41340	-0.021981835
34	0x3dbb3de1	0.09142662
35	0xbda1c85a	-0.07899542
36	0x3d7c9a74	0.061670735
37	0x3d33fee5	0.04394426
38	0x3d4f0343	0.05054022
39	0x3d5c46fe	0.05377864
40	0x3d66a375	0.05630823
41	0x3da9402d	0.08264194
42	0x3cf74f29	0.030189114
43	0xbc8015bd	-0.015635366
44	0x3d038cc6	0.032116674
45	0xbab2be8d	-0.0013637111
46	0xbd4f1c60	-0.05056417
47	0x3d1b3aa0	0.037897706
48	0x3da484ea	0.08033164
49	0x3d920db3	0.07131519
50	0xbd0a4fea	-0.03376762
51	0xbb7f1591	-0.0038922767
52	0x3cdb1944	0.026745446
53	0x3d59134a	0.05299691
54	0xbd9673cd	-0.07346306
55	0x3b65c0bd	0.0035057508
56	0xbc3c5285	-0.011494284
57	0x3dbb3e03	0.09142687
58	0x3c8d81dc	0.017273836
59	0xbd0d2217	-0.03445634
60	0xbcd65d85	-0.02616764
61	0x3d9d8723	0.07691791
62	0xbcc6f380	-0.024286032
63	0x3c5665fc	0.013085838
64	0x3d8bc1d5	0.0682408
65	0xbdaf0c65	-0.08547286
66	0xbc22525b	-0.00990733
67	0xbd95f948	-0.07322937
68	0xbcbbd48a	-0.022928495
69	0x3ce4a14b	0.027908942
70	0xbb4de7f9	-0.0031418784
71	0x3d4f17ca	0.050559796
72	0xbd8b6e32	-0.068081275
73	0x3d38f693	0.045157026
74	0xbd0d3140	-0.034470797
75	0x3d4988a6	0.049202584
76	0xbcaba7b2	-0.020953987
77	0x3d913a21	0.07091165
78	0x3c7ad6eb	0.0153100295
79	0x3d0dd7bb	0.034629565
80	0xbd7f48a9	-0.062325153
81	0x3c7a4d4a	0.015277216
82	0x3d6eecd3	0.058331322
83	0xbd8ca32e	-0.068670616
84	0x3d913511	0.070902
85	0x3d21e58a	0.039525546
86	0xbcfd2eb2	-0.030906055
87	0xbd592dad	-0.053022075
88	0x3d54d81e	0.051963918
89	0xbd06424a	-0.032778062
90	0x3d525021	0.051345948
91	0x3b656563	0.0035003058
92	0x3d9bdf89	0.07610995
93	0xbd8514cf	-0.064981095
94	0xbc4da7c6	-0.012552207
95	0x3cf7307e	0.03017449
96	0xbd175eeb	-0.036955755
97	0xbc84d878	-0.016216502
98	0xbccb7422	-0.02483565
99	0x3daa27ad	0.08308349
100	0x3d3b72b7	0.045763697
101	0xbd9ebca2	-0.077508226
102	0x3c9602fb	0.018311968
103	0x3da6104e	0.081085786
104	0x3d4aeb8c	0.04954104
105	0x3dabba52	0.08385147
106	0xbccbb04f	-0.024864344
107	0x3c6c4f4d	0.014423204
108	0x3dbf2ee4	0.093351156
109	0x3da2c661	0.07947994
110	0xbd05b270	-0.032640874
111	0x3c25ff74	0.010131706
112	0x3bee209d	0.0072670714
113	0x3da25018	0.07925433
114	0xbd04daac	-0.032435104
115	0xbbe3ea2c	-0.0069554057
116	0x3d26b020	0.04069531
117	0xbbea89a5	-0.007157522
118	0xbd494af9	-0.049143765
119	0x3d938dad	0.07204757
120	0xbd065106	-0.032792114
121	0x3d46a7d6	0.048499905
122	0xbce614cd	-0.02808609
123	0xbda45209	-0.080234595
124	0xbd59085a	-0.05298648
125	0x3c7650ac	0.015033882
126	0x3d8ca0a5	0.06866578
127	0xbc2cbf0f	-0.010543599
128	0x3d715d11	0.058926646
129	0x3c8961bb	0.016770234
130	0x3d21ddd1	0.03951818
131	0x3db0cad6	0.08632438
132	0x3d621c64	0.055202857
133	0x3d89e973	0.0673398
134	0xbd6986b0	-0.057013214
135	0xbd854f8c	-0.06509313
136	0x3d953470	0.07285392
137	0x3da967e2	0.08271767
138	0x3d39cbdf	0.045360442
139	0x3d152b54	0.036418274
140	0xbcbd7693	-0.02312783
141	0x3d02a5e0	0.031896472
142	0xbd385bce	-0.045009427
143	0xbbb57f94	-0.00553889
144	0x3da5be4a	0.080929354
145	0xbd640287	-0.055666473
146	0xbd99af02	-0.07504083
147	0xbc243775	-0.010022988
148	0x3d33565a	0.043783523
149	0xbda2bd44	-0.07946256
150	0x3d61b65e	0.05510556
151	0x3bc9d68a	0.0061596083
152	0x3c2fb967	0.010725356
153	0x3d587f8e	0.05285602
154	0x3d375a8d	0.04476409
155	0xbad7188f	-0.0016410517
156	0xbda909ea	-0.08253844
157	0x3da119aa	0.07866223
158	0xbccaac52	-0.024740372
159	0xbd4d6683	-0.05014659
160	0x3cfd0ff4	0.030891396
161	0x3d7bb51e	0.061452024
162	0x3c111afa	0.008856529
163	0xbd4780ec	-0.048706934
164	0xbda332aa	-0.07968648
165	0x3d1f2333	0.038851928
166	0x3cf074d9	0.029352592
167	0x3d5e377b	0.05425213
168	0x3db255aa	0.087077454
169	0xbd51db88	-0.051234752
170	0x3cea7601	0.028620722
171	0x3dbae3b1	0.0912546
172	0x3aa8825e	0.0012856235
173	0xbd08b807	-0.033378627
174	0xbd8adc9f	-0.067803614
175	0x3b57500b	0.0032854106
176	0xbd3d51de	-0.046220653
177	0xbd6d3e51	-0.057920758
178	0xbdab815c	-0.08374283
179	0x3d160b49	0.036631856
180	0xbc819964	-0.015820213
181	0x3d1bc362	0.03802813
182	0x3d482988	0.048867732
183	0xbdad20ee	-0.084535465
184	0xbd004a7b	-0.03132103
185	0x3da105c6	0.07862429
186	0xbc58cac0	-0.013231933
187	0x3d7080de	0.058716647
188	0xbd9c7bf8	-0.07640833
189	0x3da6ea5c	0.08150169
190	0x3d22aeb7	0.039717402
191	0xbd7e42ab	-0.0620753
192	0x3ca6b5b2	0.020350311
193	0x3d693ee7	0.056944754
194	0x3d3c8d07	0.04603293
195	0x3c8c0d8a	0.0170963
196	0xbd03a343	-0.03213812
197	0xbcc7d111	-0.024391683
198	0xbd7fda20	-0.06246388
199	0x3db2f6ea	0.08738501
200	0x3c82a934	0.015949823
201	0x3cab1797	0.020885272
202	0xbd5a6968	-0.05332318
203	0xbd8bd412	-0.068275586
204	0xbc0b3c2d	-0.008498234
205	0x3d3fdb37	0.04683992
206	0x3d8a5433	0.06754341
207	0xbbb30995	-0.0054637888
208	0x3d1e28be	0.038613074
209	0xbc72da8e	-0.014822615
210	0xbccdedb8	-0.025137767
211	0x3db78364	0.08960608
212	0x3cc33a4a	0.023831505
213	0x3dafbefe	0.08581351
214	0xbdb5fc26	-0.08885984
215	0x3c07d25d	0.008289901
216	0xbd00fbc2	-0.031490095
217	0x3d8f769c	0.07005045
218	0x3d2247c2	0.039619215
219	0x3c96eb81	0.018422844
220	0x3d5b35cb	0.053518098
221	0xbd5a9d6e	-0.053372793
222	0xbcb8127b	-0.02246975
223	0x3d36678a	0.044532336
224	0xbd526cd4	-0.051373318
225	0x3c9e3482	0.019312147
226	0x3cee7370	0.02910778
227	0xbd93e6e3	-0.072217725
228	0xbd47a486	-0.048740886
229	0xbd83bbae	-0.064322814
230	0xbda353cc	-0.07974967
231	0xbd02039a	-0.031741716
232	0x3cf4ea0b	0.029896757
233	0x3cfbe907	0.030750765
234	0x3d4fbe36	0.05071851
235	0x3c18897c	0.009310123
236	0xbd79e8ce	-0.061013035
237	0xbda4efed	-0.08053575
238	0x3d9c9dda	0.07647295
239	0x3c8ec1b5	0.017426351
240	0x3d8d695d	0.06904862
241	0xbda9e32e	-0.08295284
242	0xbd5819d8	-0.05275902
243	0x3a94b756	0.0011346142
244	0x3d8ccf09	0.06875426
245	0xbd93c83f	-0.07215928
246	0xbd42540c	-0.047443435
247	0xbd8a33ac	-0.06748137
248	0x3d408169	0.046998415
249	0x3be2afc6	0.0069179265
250	0xbd02cc22	-0.031932957
251	0x3d6de174	0.058076337
252	0xbd87a84f	-0.06623899
253	0xbbda7506	-0.0066667823
254	0xbd2998ed	-0.041405607
255	0xbca0442e	-0.01956376

mlp.4.bias f4 [64]
0	0x3cddfff7	0.027099593
1	0x3c691d8a	0.014228234
2	0xbd77e774	-0.060523465
3	0xbd304f31	-0.043044273
4	0xbdaa1b9a	-0.08306046
5	0xbd0a16a2	-0.03371299
6	0xbd1d165d	-0.038351405
7	0xbc8abc77	-0.01693557
8	0x3d902ac7	0.07039409
9	0x3cafbbca	0.02145185
10	0x3d30f63b	0.043203574
11	0x3d31b151	0.043381993
12	0x3d86030e	0.065435514
13	0x3d9e87ab	0.0774072
14	0x3cb6f972	0.022335742
15	0x3d90d6f3	0.07072248
16	0xbd9cbccf	-0.076532
17	0x3d22dfc6	0.03976419
18	0x3d84667f	0.06464862
19	0xbdb85de8	-0.09002286
20	0xbd9c6a40	-0.07637453
21	0xbc96496f	-0.018345563
22	0x3d1e94cb	0.03871612
23	0x3d9e2754	0.07722345
24	0xbda754d4	-0.081704766
25	0x3daec0ef	0.08532893
26	0xbc4bebaa	-0.012446323
27	0xbc927a57	-0.017880602
28	0xbceb54f4	-0.028727032
29	0x3d7b29ca	0.06131915
30	0x3d103440	0.03520608
31	0x3c3ec921	0.011644633
32	0xbd93aa35	-0.07210199
33	0xbc497c65	-0.012297724
34	0xbd9a83f6	-0.07544701
35	0xbdb9e456	-0.09076755
36	0x3cfb5613	0.030680692
37	0xbcdac0a9	-0.026703196
38	0xbdbad6a1	-0.091229685
39	0xbd9cc729	-0.07655174
40	0x3db1febd	0.086911656
41	0x3da0c8db	0.0785081
42	0xbd8e6b13	-0.069540165
43	0xbd297de8	-0.04137984
44	0x3d511ed9	0.05105481
45	0xbc60a741	-0.013711751
46	0xbb8f1779	-0.004366812
47	0xbd05bfc9	-0.032653604
48	0x3d409590	0.047017634
49	0xbda89696	-0.08231847
50	0xbda8b02a	-0.08236726
51	0x3cdf601e	0.027267512
52	0x3d25de4e	0.04049521
53	0x3d3673ae	0.044543914
54	0xbd03f13f	-0.032212492
55	0xbd02e6ac	-0.031958267
56	0xbd18ee1e	-0.03733646
57	0xbd2e42fd	-0.042544354
58	0xbd98bf4a	-0.074583605
59	0x3d1b4bda	0.037914135
60	0xbd3f3159	-0.04667792
61	0xbdb9f345	-0.09079603
62	0x3c845abe	0.01615655
63	0x3d93db36	0.072195455

mlp.5.weight f4 [64]
0	0x3f8026a9	1.0011798
1	0x3f80bb11	1.0057088
2	0x3f811b05	1.0086371
3	0x3f803eeb	1.0019201
4	0x3f80f2ae	1.007406
5	0x3f7f634f	0.9976091
6	0x3f80640c	1.0030532
7	0x3f805ac0	1.0027695
8	0x3f80f1cd	1.0073792
9	0x3f805906	1.0027168
10	0x3f804761	1.0021783
11	0x3f812f12	1.009249
12	0x3f7ebf71	0.99510866
13	0x3f811f4f	1.008768
14	0x3f8109b3	1.0081085
15	0x3f7f2a2d	0.9967373
16	0x3f7f98ab	0.9984233
17	0x3f7eaf8e	0.99486625
18	0x3f80ead5	1.0071665
19	0x3f7e9c01	0.99456793
20	0x3f7ffdbc	0.9999654
21	0x3f7f9319	0.9983383
22	0x3f81160e	1.0084856
23	0x3f7e70c2	0.99390805
24	0x3f7f22b6	0.9966234
25	0x3f80d27b	1.0064234
26	0x3f80cd59	1.0062667
27	0x3f80c6ef	1.006071
28	0x3f7eb071	0.9948798
29	0x3f80e559	1.0069991
30	0x3f7ef912	0.995988
31	0x3f805791	1.0026723
32	0x3f7fccad	0.99921685
33	0x3f7e81af	0.9941663
34	0x3f8071e9	1.0034763
35	0x3f7e184a	0.9925581
36	0x3f809fb1	1.0048734
37	0x3f7f31f5	0.99685603
38	0x3f7eb00b	0.9948737
39	0x3f7ea70c	0.99473643
40	0x3f7e76b4	0.99399877
41	0x3f7e68c2	0.993786
42	0x3f7e3d0a	0.9931189
43	0x3f80cde0	1.0062828
44	0x3f7fa63d	0.99863034
45	0x3f80e15b	1.0068773
46	0x3f80e4d2	1.006983
47	0x3f7e6ae1	0.99381834
48	0x3f8105d2	1.0079901
49	0x3f7fdad8	0.99943304
50	0x3f801e30	1.0009212
51	0x3f7e4e20	0.9933796
52	0x3f7f9850	0.99841785
53	0x3f7efc0f	0.9960336
54	0x3f7e7d44	0.9940989
55	0x3f810443	1.0079426
56	0x3f811cc5	1.0086905
57	0x3f80fd11	1.007723
58	0x3f809156	1.0044353
59	0x3f80b280	1.0054474
60	0x3f7ddf9e	0.9916934
61	0x3f7ec169	0.9951387
62	0x3f800c1e	1.0003698
63	0x3f803910	1.0017414

mlp.5.bias f4 [64]
0	0x3ba906c4	0.005158277
1	0x3ba4ffdf	0.005035385
2	0x3c09afa9	0.008403697
3	0x3a9e809c	0.0012092772
4	0x3bc46782	0.0059937844
5	0xbb735895	-0.0037131656
6	0x3a8241ce	0.0009937824
7	0x3a08998e	0.000521087
8	0x3bd92360	0.0066265315
9	0x3b2febed	0.0026843504
10	0x3bac74f7	0.0052629667
11	0x3c00ef1a	0.007869506
12	0xbbbb1f7a	-0.0057105394
13	0x3bfde0e4	0.0077477563
14	0x3bbbbb32	0.0057291025
15	0xbb8d4210	-0.004310854
16	0x34018800	1.2063538e-07
17	0xbbaba04c	-0.0052376147
18	0x3bd6603e	0.0065422347
19	0xbba6a1ec	-0.0050852206
20	0x39f94a51	0.0004754835
21	0xbb3e5c06	-0.002904655
22	0x3ad77453	0.0016437866
23	0x3b965ed1	0.0045889397
24	0xbb38257c	-0.0028098514
25	0x3bb4e7f9	0.0055208174
26	0x3bc6ff63	0.006072925
27	0x3b990de4	0.0046708453
28	0xbbaea940	-0.0053302348
29	0x3bb46d60	0.0055062026
30	0xbba480f2	-0.0050202543
31	0x3b9bb124	0.0047513414
32	0x3b5b3ba1	0.003345229
33	0xbbab1bf1	-0.0052218367
34	0x3b1f28f0	0.0024285875
35	0xbbee7b09	-0.0072778505
36	0x3b908ec7	0.0044115516
37	0xbb7be336	-0.0038434989
38	0xbbb484be	-0.005508988
39	0xbba5778e	-0.0050496524
40	0xbbc54a89	-0.006020848
41	0xbb027643	-0.0019906915
42	0xbbe47051	-0.006971397
43	0x3b5eb8f3	0.003398475
44	0xbb0db587	-0.0021623091
45	0x3bb21af0	0.00543534
46	0x3b829548	0.003985081
47	0xbbbc4a59	-0.0057461676
48	0x3bb92219	0.0056498167
49	0xbab9239c	-0.0014124992
50	0xbb100b85	-0.0021979522
51	0xbbda63cf	-0.00666473
52	0xbb67d90f	-0.003537718
53	0xbb9343b7	-0.004494156
54	0xbbcba2f2	-0.006214493
55	0x3c048e9e	0.008090643
56	0x3bebd17b	0.007196603
57	0x3be74021	0.0070572053
58	0x3b866b6b	0.0041021607
59	0x3bb9dab1	0.005671822
60	0xbc0af264	-0.008480642
61	0xbb94a882	-0.0045366893
62	0x3b06c4b9	0.0020564033
63	0x3b6b3974	0.00358924

mlp.8.weight f4 [2, 64]
0	0xbb810607	-0.003937486
1	0xbdc4eac5	-0.09615091
2	0x3d99d215	0.07510773
3	0xbd87846b	-0.066170536
4	0x3db03a22	0.08604838
5	0xbdab457b	-0.08362862
6	0x3dee6ca0	0.11641812
7	0xbd075eab	-0.033049267
8	0x3dfa260f	0.1221429
9	0x3d7d9e4f	0.061918553
10	0x3dc2cf86	0.09512238
11	0x3d025577	0.031819787
12	0xbd8b336e	-0.06796919
13	0x3cb1ca62	0.021702949
14	0x3de19a66	0.11015777
15	0xbdd7f929	-0.105455704
16	0x3d08d47d	0.03340577
17	0x3cc1c546	0.023653638
18	0x3db9fbf3	0.090812586
19	0xbda473cf	-0.08029901
20	0xbdbb7e62	-0.09154965
21	0x3d0f1391	0.03493077
22	0xbd334e46	-0.04377582
23	0xbd4906e7	-0.04907885
24	0x3d00cc7a	0.031445004
25	0x3dd7cfff	0.10537719
26	0xbdb37499	-0.087624736
27	0xb9bb0a55	-0.00035675117
28	0xbd41b0c5	-0.04728772
29	0xbc0a9f57	-0.008460841
30	0xbd4fddb2	-0.050748535
31	0x3df95706	0.121748015
32	0x3d8cbcee	0.06871973
33	0x3d06e77a	0.032935597
34	0xbcffef8d	-0.031242156
35	0x3d8f2205	0.069889106
36	0xbd847ff8	-0.064697206
37	0xbddfe685	-0.1093264
38	0xbda07c04	-0.07836154
39	0xbd2d5c83	-0.042324554
40	0xbdaaa151	-0.0833155
41	0x3d96447a	0.073372796
42	0x39ebd02b	0.0004497779
43	0xbd59cbb9	-0.0531728
44	0xbdac4b60	-0.08412814
45	0x3dedd0ac	0.116120666
46	0x3df9b351	0.12192405
47	0xbd8d33c4	-0.06894639
48	0x3dc4d845	0.09611563
49	0xbc3aff0b	-0.011413346
50	0xbd412a61	-0.047159556
51	0x3d5a58d7	0.05330738
52	0xbdc518d3	-0.096238755
53	0xbde238f0	-0.11046016
54	0xbb88e60e	-0.0041778153
55	0x3db8fb27	0.090322785
56	0x3dcb4018	0.09924334
57	0x3dea5e1c	0.11443731
58	0x3d8d49d1	0.06898845
59	0x3d16b4a7	0.036793377
60	0x3c16bb12	0.0091998745
61	0xbd905bc4	-0.07048753
62	0x3dd24ad2	0.10268177
63	0x3dd74253	0.10510697
64	0xbddf01a2	-0.10888983
65	0xbdfe9087	-0.1242991
66	0xbd1ef569	-0.03880826
67	0xbda8467d	-0.082165696
68	0xbd51d505	-0.051228542
69	0x3dd9bd45	0.106318034
70	0xbce30bdc	-0.027715616
71	0x3ded3284	0.11581901
72	0xbc9550e1	-0.018227043
73	0x3bef0d14	0.00729526
74	0xbbef2761	-0.0072983955
75	0xbd3d191b	-0.04616652
76	0xbcd35881	-0.025799038
77	0xbd89e8cb	-0.06733855
78	0xbdc93951	-0.09825385
79	0x3bc3b1ad	0.0059721083
80	0x3ce447e6	0.027866315
81	0x3cbce95b	0.023060491
82	0x3cb73a14	0.022366561
83	0xbd54b822	-0.051933415
84	0xbdf4c27c	-0.119511575
85	0x3d7095bf	0.05873656
86	0x3d026799	0.03183708
87	0xbde6281e	-0.112381205
88	0x3debad2d	0.1150764
89	0xbd17911b	-0.037003618
90	0xbddf3e55	-0.10900561
91	0xbda8f640	-0.082500935
92	0xbd16a66b	-0.036779802
93	0xbdd7f0dc	-0.10543987
94	0x3c99edbc	0.018790118
95	0xbd8c420c	-0.06848535
96	0xbd8950cc	-0.06704864
97	0x3dd3cfbd	0.10342357
98	0xbd3b5de7	-0.04574385
99	0x3b679b78	0.003534047
100	0xbd9c8ab3	-0.07643642
101	0xbc911b14	-0.017713107
102	0xbdace7f0	-0.08442676
103	0xbd83a5d7	-0.06428116
104	0xbdace3a1	-0.08441854
105	0xbd23916c	-0.039933607
106	0x3cb29071	0.02179739
107	0x3d79a0ce	0.06094437
108	0x3d9176d4	0.07102743
109	0xbd89bcb0	-0.067254424
110	0xbdcdaebd	-0.10043094
111	0xbccb0b20	-0.024785578
112	0x3dfe14a3	0.1240628
113	0x3b7a2886	0.0038171127
114	0x3df09538	0.11747211
115	0x3db74b4c	0.089499086
116	0x3da9561d	0.08268378
117	0xbc7d5fd0	-0.015464738
118	0x3c613b0a	0.013746986
119	0xbdb7fe7d	-0.08984087
120	0x3c3961f3	0.011314857
121	0x3d16bcad	0.03680103
122	0xbdaadb7d	-0.08342645
123	0xbdbea48b	-0.09308728
124	0xbd6082b0	-0.054812133
125	0xbb605c5d	-0.003423474
126	0xbcbdc22a	-0.023163874
127	0x3d438e41	0.047743086

mlp.8.bias f4 [2]
0	0xbd6c6a2d	-0.057718445
1	0x3de600a5	0.11230592

exp_avg f4 [128, 140]
0	0xb98b41e6	-0.00026561244
1	0xbaaa9334	-0.0013013841
2	0x3b6329a4	0.003466227
3	0x3b8611b8	0.0040914677
4	0xbbe9914d	-0.007127917
5	0x3babb2a5	0.005239802
6	0xbc229c1f	-0.0099249175
7	0x3b1e4cd6	0.0024154685
8	0xbaaa9271	-0.0013013614
9	0xbba5f5eb	-0.005064716
10	0xbae4f282	-0.0017467292
11	0xbb70835f	-0.0036699397
12	0xbad17807	-0.0015981206
13	0xbb023d84	-0.0019873092
14	0xbae292ae	-0.0017286146
15	0xbadb78d8	-0.0016744388
16	0xbaec3180	-0.0018020123
17	0xbb885c2c	-0.0041613784
18	0xbae5201f	-0.0017480886
19	0xbb8a1329	-0.00421371
20	0xba6bf5cf	-0.0009001167
21	0xbaab3f05	-0.0013065046
22	0xba513692	-0.0007980849
23	0xba821f80	-0.0009927601
24	0xba6cbf0f	-0.00090311555
25	0xba5ee02f	-0.0008502034
26	0xba78e1fb	-0.0009494123
27	0xbaaa79da	-0.0013006285
28	0xba6c083c	-0.00090039126
29	0xbae768b5	-0.0017655106
30	0x38e751b6	0.00011030158
31	0xbbbd24cb	-0.0057722083
32	0x3b4c98fe	0.003121912
33	0xbb8e601b	-0.0043449528
34	0x3b138847	0.0022511648
35	0x3be9f313	0.0071395724
36	0xbbdc6a61	-0.0067265485
37	0xbb761f0a	-0.0037555122
38	0xbbbd24d2	-0.0057722116
39	0xbbd24b6f	-0.006417684
40	0x3a055f25	0.0005087725
41	0xbb9b416d	-0.004738024
42	0x3ab47d3f	0.0013770236
43	0xbb71f8b1	-0.0036921913
44	0x3bb79c06	0.0056033162
45	0x3bbc103d	0.0057392404
46	0xbb522b21	-0.0032069164
47	0xbb34d06a	-0.0027590045
48	0xbb9b6a21	-0.004742876
49	0xbba5d967	-0.005061317
50	0xba960850	-0.0011446569
51	0xbb2a2643	-0.0025962747
52	0x3b1ec017	0.0024223381
53	0xbb38bf1a	-0.0028190077
54	0x3b9c4643	0.004769118
55	0x3ae495e5	0.0017439692
56	0xbadf7a49	-0.0017049994
57	0xbb2d8528	-0.0026477072
58	0xbb2a24fa	-0.002596198
59	0xbb5480a2	-0.0032425304
60	0xbb58f073	-0.0033102303
61	0xbb70dda0	-0.0036753193
62	0xbb56b0ed	-0.0032759265
63	0xbb646fde	-0.0034856717
64	0xbb57f08a	-0.003294977
65	0xbb56bd02	-0.0032766466
66	0xbb5a0350	-0.0033266135
67	0xbb863bda	-0.0040964903
68	0xbb590e13	-0.003311996
69	0xbb5cd197	-0.0033694261
70	0xba1f0177	-0.0006065587
71	0xba015a1f	-0.00049343886
72	0xba1ac0e8	-0.0005903379
73	0xba20768d	-0.0006121181
74	0xba200c64	-0.0006105362
75	0xba1efc08	-0.0006064777
76	0xba1f8162	-0.0006084648
77	0xba5721bd	-0.00082066265
78	0xba1f0136	-0.0006065549
79	0xba32b03a	-0.0006816421
80	0x398db69c	0.0002702967
81	0xbb18f563	-0.0023339621
82	0x3b2c67ba	0.0026306943
83	0xbad74468	-0.0016423585
84	0x3b262c4c	0.0025355993
85	0x3b15c22d	0.0022851333
86	0xbb4b8abc	-0.0031058034
87	0xbb178443	-0.0023119606
88	0xbb18fb70	-0.0023343228
89	0xbbceff70	-0.0063170716
90	0x3a76735d	0.0009401346
91	0xbb0d307e	-0.0021543796
92	0x3b059631	0.002038371
93	0xba5cac99	-0.0008418053
94	0x3a3842bb	0.00070289866
95	0x3b5aa0d0	0.0033360012
96	0xbb6834e0	-0.0035431907
97	0xbac27213	-0.0014835022
98	0xbb0d2501	-0.0021536949
99	0xbb8b3af2	-0.00424897
100	0x39c24e0d	0.00037060716
101	0xbb58f7bc	-0.0033106646
102	0x3b71d310	0.0036899485
103	0xbb46a27e	-0.0030309255
104	0x3b89ee52	0.004209318
105	0x3b41fc6b	0.0029599916
106	0xbb3e8d91	-0.002907608
107	0xbb638752	-0.0034718108
108	0xbb590ea2	-0.0033120294
109	0xbbc98781	-0.0061501865
110	0x39600832	0.00021365358
111	0xbac93108	-0.0015349695
112	0x3a80579b	0.0009791733
113	0xbaacadba	-0.0013174333
114	0x3a4e8a0d	0.00078788475
115	0x3b221cfb	0.0024736512
116	0xbaf4c5b5	-0.0018674644
117	0xbaa1b5a5	-0.001233746
118	0xbac910c6	-0.0015340082
119	0xbb5008a9	-0.0031743443
120	0x374ee211	1.2331192e-05
121	0xbafb61db	-0.0019178943
122	0x3b0d11f6	0.0021525598
123	0xbababa28	-0.0014246153
124	0x39acfe80	0.00032996014
125	0x3b15d231	0.002286088
126	0xbb21f94a	-0.0024715238
127	0xbaf61c0f	-0.0018776673
128	0xbafb1358	-0.0019155545
129	0xbb4f3456	-0.0031616888
130	0xb8829795	-6.2271174e-05
131	0xbb023b96	-0.0019871942
132	0x3add2af2	0.0016873761
133	0xbade9fb6	-0.0016984853
134	0xba940502	-0.0011292996
135	0x3b11f837	0.0022273192
136	0xbb3aaeea	-0.0028485605
137	0xbaeddf0c	-0.0018148138
138	0xbb023111	-0.0019865672
139	0xbb65c1ca	-0.0035058134
140	0x3a1e467f	0.00060377264
141	0xbb073eed	-0.0020636872
142	0x3908b956	0.00013039014
143	0xbba91b40	-0.005160719
144	0x3bc8c188	0.0061265863
145	0xbac696c1	-0.0015151129
146	0x3ba90c58	0.005158942
147	0xbb92f999	-0.0044853208
148	0xbb073f3e	-0.002063706
149	0xb9d9f378	-0.00041570864
150	0xba2488c0	-0.0006276481
151	0x3b2e1588	0.0026563127
152	0xba4ad2a4	-0.00077370764
153	0xb9c99884	-0.0003845134
154	0xba292a66	-0.0006453156
155	0xba371fec	-0.0006985653
156	0xba15f58b	-0.00057204877
157	0x3b482b13	0.0030543252
158	0xba240deb	-0.00062581775
159	0x3b325d3e	0.0027216221
160	0xba9b9c3d	-0.0011872124
161	0x37ad7c06	2.068096e-05
162	0xba99af11	-0.0011725147
163	0xba9b1d4a	-0.001183429
164	0xba9bf471	-0.0011898411
165	0xba9a634c	-0.001177886
166	0xba9c6656	-0.0011932354
167	0x3900a711	0.00012269268
168	0xba9ba6a7	-0.0011875228
169	0x3a3c1951	0.00071754033
170	0xba509186	-0.0007956255
171	0x3b30dc35	0.0026986722
172	0xbaffc9b6	-0.0019515071
173	0x3b15127c	0.0022746613
174	0xbb215b90	-0.0024621226
175	0xbb1dc08d	-0.0024071068
176	0x3adabb71	0.0016687942
177	0x3b0c665f	0.0021423323
178	0x3b30dc4b	0.0026986774
179	0x3b17ca5b	0.0023161385
180	0x39877822	0.00025838712
181	0x3a8e6c20	0.0010865964
182	0x3b0877a2	0.002082326
183	0x3a0ec09f	0.0005445573
184	0xbb8f4d47	-0.004373226
185	0xbb2f9e55	-0.0026797254
186	0x3aa22e57	0.001237343
187	0xba348fb0	-0.0006887866
188	0x3a8f33c3	0.001092546
189	0x3af6148c	0.0018774434
190	0x395d6b6a	0.00021116217
191	0x39b10e17	0.0003377057
192	0xba5db824	-0.000845792
193	0x39a36b2d	0.00031169635
194	0xbbb99ea9	-0.0056646657
195	0x3a00208e	0.00048876635
196	0xb9a59651	-0.00031583247
197	0x3a1d3b0f	0.0005997875
198	0x39b107fb	0.00033766017
199	0x3a126714	0.0005584818
200	0x38c8cad1	9.574521e-05
201	0x39d406bd	0.0004044081
202	0x38ff12d2	0.00012162853
203	0x391f6c35	0.00015203732
204	0x38b3b6d1	8.569437e-05
205	0x38abe2c9	8.1961574e-05
206	0x38cf57ec	9.886906e-05
207	0x39ac912e	0.00032914564
208	0x38c8329f	9.546172e-05
209	0xb897b23b	-7.233439e-05
210	0xba6b0103	-0.00089646893
211	0x3aba6695	0.0014221246
212	0xba71bbaa	-0.00092213845
213	0xba667823	-0.00087917055
214	0xba6a36e4	-0.0008934571
215	0xba6eea29	-0.0009113872
216	0xba6887b9	-0.0008870322
217	0x3abf7c25	0.0014609142
218	0xba6b00b0	-0.0008964641
219	0xbacc31f3	-0.0015578851
220	0xba7ad6a5	-0.00095687277
221	0xb8db41f3	-0.00010455018
222	0xb8ae63de	-8.315568e-05
223	0xb9ccebfc	-0.00039085734
224	0xbaf2df3b	-0.0018529663
225	0xb9d4323e	-0.00040473224
226	0x3a62ee03	0.00086566823
227	0xb923b3c2	-0.00015611856
228	0xb8dc631a	-0.000105088766
229	0x3b386ec5	0.0028142196
230	0x3a230f98	0.000622028
231	0xbb29b776	-0.0025896705
232	0x3b3b9249	0.0028621128
233	0xbb38acbd	-0.0028179132
234	0xba1178f0	-0.0005549332
235	0x3a1e9801	0.0006049872
236	0xba268987	-0.00063528906
237	0xbb429263	-0.0029689304
238	0xbb29baf6	-0.002589879
239	0xba41be37	-0.000739071
240	0xb8e2bd3b	-0.00010811767
241	0xbac2762f	-0.0014836247
242	0x3a9eb1d9	0.0012107446
243	0xbada5490	-0.0016657282
244	0xba943af4	-0.0011309073
245	0x3a9c3551	0.0011917745
246	0xba70f350	-0.000919153
247	0xbacd1c94	-0.0015648776
248	0xbac26947	-0.00148324
249	0x3a450fa0	0.0007517282
250	0x3a9ea0ae	0.001210233
251	0xbb85979d	-0.0040769116
252	0x3ba40695	0.0050056675
253	0xbb6cba94	-0.0036121951
254	0xba2e5840	-0.00066507235
255	0x3b11c986	0.0022245361

exp_avg_sq f4 [128, 140]
0	0x34bb9b17	3.4944307e-07
1	0x354ea62f	7.698281e-07
2	0x3586172c	9.990522e-07
3	0x3585e9ce	9.977318e-07
4	0x367336cf	3.6241725e-06
5	0x3653f69c	3.1584996e-06
6	0x36fbbb61	7.5021967e-06
7	0x35017f89	4.8241833e-07
8	0x354ea5b8	7.698213e-07
9	0x3645aac0	2.9454677e-06
10	0x3512fa20	5.475322e-07
11	0x35a376d0	1.2179025e-06
12	0x3508ddd7	5.098677e-07
13	0x3526ae05	6.209305e-07
14	0x3511852e	5.421051e-07
15	0x350e0628	5.290808e-07
16	0x3516a7e7	5.6123685e-07
17	0x35caaf64	1.5101218e-06
18	0x35130d96	5.478154e-07
19	0x35d1a626	1.5620069e-06
20	0x34101af6	1.3420853e-07
21	0x346992a6	2.1753166e-07
22	0x340ad0c2	1.2928197e-07
23	0x341572df	1.3918496e-07
24	0x34106a9f	1.3449834e-07
25	0x340d9408	1.3185502e-07
26	0x3412941c	1.3651191e-07
27	0x3473c332	2.270215e-07
28	0x341020d1	1.3422984e-07
29	0x3482dae0	2.437364e-07
30	0x348511ef	2.478623e-07
31	0x3608e6f1	2.0400005e-06
32	0x35612528	8.38731e-07
33	0x35a8a705	1.2565584e-06
34	0x3516466d	5.598184e-07
35	0x363fa690	2.855817e-06
36	0x36309aad	2.6316077e-06
37	0x358b551a	1.0381075e-06
38	0x3608e703	2.0400046e-06
39	0x362ab579	2.5437605e-06
40	0x3510a555	5.388477e-07
41	0x35f5b391	1.8306183e-06
42	0x34ddbb62	4.1300797e-07
43	0x35b3404e	1.3355254e-06
44	0x35ee8436	1.777086e-06
45	0x361560f0	2.2259155e-06
46	0x358331d4	9.774762e-07
47	0x356ef51e	8.90186e-07
48	0x35f6078d	1.8330626e-06
49	0x361665c3	2.2410975e-06
50	0x34569c80	1.9987237e-07
51	0x35244219	6.1190946e-07
52	0x353401ff	6.705813e-07
53	0x355609e4	7.9735605e-07
54	0x35f29a19	1.8075253e-06
55	0x349f0e00	2.9626244e-07
56	0x34930c23	2.7389714e-07
57	0x3548379b	7.458672e-07
58	0x3524410b	6.118941e-07
59	0x35601db0	8.3489704e-07
60	0x3572b2e6	9.0412357e-07
61	0x3598a926	1.1374111e-06
62	0x356cb5a1	8.8181156e-07
63	0x35845ac7	9.861186e-07
64	0x3571073a	8.979001e-07
65	0x356daf06	8.854407e-07
66	0x3575c836	9.156096e-07
67	0x35b1582b	1.3213188e-06
68	0x3572f5bd	9.050962e-07
69	0x35740159	9.0899044e-07
70	0x34a1a5c1	3.010919e-07
71	0x34b510a1	3.3725976e-07
72	0x349f132d	2.963001e-07
73	0x34a3e092	3.0524512e-07
74	0x34a1a704	3.0110107e-07
75	0x34a0ee6b	2.9975794e-07
76	0x34a2877d	3.0273432e-07
77	0x34d0ed7f	3.891582e-07
78	0x34a1a60c	3.0109402e-07
79	0x349fab9d	2.9740923e-07
80	0x343c841b	1.7556924e-07
81	0x351bd689	5.805419e-07
82	0x352d9ef6	6.467884e-07
83	0x34b8770f	3.4359297e-07
84	0x35470cda	7.415198e-07
85	0x35129bac	5.461577e-07
86	0x35562943	7.9781256e-07
87	0x35152074	5.555405e-07
88	0x351bd19b	5.8047016e-07
89	0x3648fd84	2.9949888e-06
90	0x34659937	2.1383026e-07
91	0x358466be	9.864668e-07
92	0x35850cae	9.912962e-07
93	0x352b5942	6.383235e-07
94	0x349064b4	2.689536e-07
95	0x35bbcf8b	1.3992989e-06
96	0x35dd2868	1.6477543e-06
97	0x3565dba7	8.5628784e-07
98	0x358442a0	9.854157e-07
99	0x36023407	1.9401793e-06
100	0x3442c088	1.81377e-07
101	0x354eae3e	7.6994536e-07
102	0x356850d3	8.654435e-07
103	0x352517c0	6.150185e-07
104	0x35d654f0	1.5968963e-06
105	0x354af0fc	7.560154e-07
106	0x3551e85b	7.819669e-07
107	0x35523c85	7.8319164e-07
108	0x354ecdba	7.704035e-07
109	0x362fc8d8	2.6193939e-06
110	0x339f12a1	7.407403e-08
111	0x35129563	5.4606625e-07
112	0x3509a82b	5.1281194e-07
113	0x3520cac6	5.989972e-07
114	0x33f04188	1.1187791e-07
115	0x350d4680	5.2629184e-07
116	0x350500bb	4.9547424e-07
117	0x3527909c	6.242278e-07
118	0x351289af	5.4589594e-07
119	0x357531a8	9.134187e-07
120	0x340b09fe	1.2949019e-07
121	0x3531e7fc	6.627522e-07
122	0x35595981	8.0969045e-07
123	0x350798a1	5.0513523e-07
124	0x34161606	1.397785e-07
125	0x351061dc	5.3786584e-07
126	0x351f2e1f	5.929923e-07
127	0x3533f113	6.7033506e-07
128	0x3531e29e	6.626741e-07
129	0x357675ba	9.1813456e-07
130	0x348aa5c9	2.5825128e-07
131	0x35235e14	6.0859134e-07
132	0x350e30c8	5.297011e-07
133	0x352fe6d3	6.5528474e-07
134	0x3435fefe	1.6949704e-07
135	0x35092a5f	5.1098135e-07
136	0x3534096a	6.7068925e-07
137	0x352cdc3d	6.439548e-07
138	0x35235741	6.0849203e-07
139	0x3582fa97	9.758686e-07
140	0x3459baee	2.0277704e-07
141	0x34fba604	4.6873186e-07
142	0x350509c8	4.9560595e-07
143	0x359aa6aa	1.15224e-06
144	0x359a38cc	1.1490424e-06
145	0x350563b2	4.9691437e-07
146	0x35b50778	1.3487725e-06
147	0x3556fa5c	8.0085533e-07
148	0x34fba647	4.6873376e-07
149	0x34d322c2	3.9327102e-07
150	0x3456fd75	2.002251e-07
151	0x34e7eba1	4.3198546e-07
152	0x345e829c	2.0722877e-07
153	0x344b887f	1.8955505e-07
154	0x3457ed52	2.0109772e-07
155	0x345be7ad	2.0480248e-07
156	0x34541ab1	1.9753749e-07
157	0x350de7c0	5.2863834e-07
158	0x3456dc49	2.0010442e-07
159	0x35053a19	4.9630904e-07
160	0x3480f5b1	2.4020622e-07
161	0x3369be25	5.4422475e-08
162	0x347cdd2a	2.3549788e-07
163	0x34832c9d	2.4433112e-07
164	0x3480a159	2.3959254e-07
165	0x347f82d1	2.3796316e-07
166	0x3481c3cf	2.4170592e-07
167	0x336e88e0	5.553818e-08
168	0x3480f656	2.402109e-07
169	0x3389a66c	6.4098316e-08
170	0x3491fec0	2.719371e-07
171	0x34fdc4f5	4.7268227e-07
172	0x34aa2d8f	3.1698116e-07
173	0x34cdf344	3.8361225e-07
174	0x348f34a5	2.667413e-07
175	0x3519573a	5.7123873e-07
176	0x34e06e7a	4.1803634e-07
177	0x34bba69f	3.4952697e-07
178	0x34fdc51b	4.7268335e-07
179	0x3500b815	4.795159e-07
180	0x345a3496	2.0321963e-07
181	0x34df05a9	4.1541105e-07
182	0x34c21706	3.6152068e-07
183	0x34f04a2b	4.4757448e-07
184	0x352196ec	6.0196794e-07
185	0x34ead8f2	4.3743745e-07
186	0x3496b329	2.8070033e-07
187	0x34ca13e0	3.7639893e-07
188	0x34df7a10	4.16258e-07
189	0x34afee66	3.2769748e-07
190	0x342f1c92	1.6308539e-07
191	0x34b63ad2	3.394294e-07
192	0x34e6b666	4.297355e-07
193	0x34f97acd	4.6469214e-07
194	0x3586969b	1.002761e-06
195	0x344ace83	1.8887845e-07
196	0x3433b6dc	1.6737198e-07
197	0x34f340ab	4.530933e-07
198	0x34b63a02	3.3942348e-07
199	0x349ae1c1	2.8848993e-07
200	0x33f09fed	1.1204961e-07
201	0x3457e90a	2.0108214e-07
202	0x33e6eabc	1.07529075e-07
203	0x3404f78d	1.2383516e-07
204	0x33ef931d	1.11560645e-07
205	0x33e8c546	1.0839226e-07
206	0x33f6203e	1.14611325e-07
207	0x3459298b	2.0224813e-07
208	0x33f0f2c6	1.1220031e-07
209	0x3410b9cf	1.3478642e-07
210	0x34145f1c	1.3818175e-07
211	0x3487efd5	2.532021e-07
212	0x3416216e	1.3982e-07
213	0x34130db3	1.3695426e-07
214	0x3413f54c	1.377968e-07
215	0x34157540	1.3919362e-07
216	0x3414131f	1.379053e-07
217	0x3475e2b6	2.289988e-07
218	0x34145f00	1.3818135e-07
219	0x349f9bf6	2.9729534e-07
220	0x340f850f	1.3366319e-07
221	0x3460a661	2.0922154e-07
222	0x349d3381	2.9281003e-07
223	0x347b67c4	2.3413946e-07
224	0x3480cd92	2.399143e-07
225	0x344bd8aa	1.898467e-07
226	0x3469c0a1	2.1769894e-07
227	0x349facf3	2.9741895e-07
228	0x34606555	2.089849e-07
229	0x355c8373	8.214767e-07
230	0x340af29e	1.2940515e-07
231	0x34bc4796	3.5069814e-07
232	0x34dced69	4.1150932e-07
233	0x34bf796e	3.5664874e-07
234	0x33afc8c6	8.185593e-08
235	0x34492b30	1.8735295e-07
236	0x3456b5e6	1.9996477e-07
237	0x34d7dc49	4.020715e-07
238	0x34bc1f4b	3.5040497e-07
239	0x34b0ab80	3.2907337e-07
240	0x33a2d29c	7.5820225e-08
241	0x348d16cf	2.6279892e-07
242	0x349838d0	2.8353543e-07
243	0x3488cd60	2.5481404e-07
244	0x3487e0b6	2.5309208e-07
245	0x3458f8c2	2.0207065e-07
246	0x3473d9a2	2.2710313e-07
247	0x3498e62e	2.8479684e-07
248	0x348cffae	2.6263064e-07
249	0x3517b592	5.6516103e-07
250	0x33dfab74	1.0415434e-07
251	0x353544b6	6.752774e-07
252	0x355e9a59	8.292605e-07
253	0x352f8982	6.539268e-07
254	0x33bb57a5	8.7238085e-08
255	0x34a6b691	3.1052744e-07

exp_avg f4 [128]
0	0x3b88e924	0.004178183
1	0x3b36ebd5	0.0027911563
2	0x3ab7e9f2	0.0014031513
3	0x39e7707a	0.00044143555
4	0x3b092e3a	0.0020932094
5	0x3b3d946a	0.0028927573
6	0x3b24da14	0.0025154399
7	0x3bced8f0	0.006312482
8	0xbb90b95d	-0.0044166283
9	0x3a8b0afa	0.001060813
10	0xb78da3f3	-1.6884855e-05
11	0x3b3653d0	0.0027820952
12	0xba034d58	-0.00050087785
13	0xbb104b34	-0.002201748
14	0xbb4f5920	-0.0031638816
15	0x3a42f7bb	0.00074374274
16	0x3b399bc9	0.0028321615
17	0x3a921b4b	0.001114705
18	0xbac810ab	-0.0015263757
19	0xbb2d16fb	-0.0026411403
20	0x3972c478	0.00023152109
21	0xba123952	-0.00055779994
22	0x3ad5537a	0.0016275488
23	0xbaf89393	-0.0018964879
24	0xba2483f0	-0.0006275764
25	0x3b017596	0.0019753925
26	0xba03567c	-0.00050101406
27	0xbb293d2e	-0.002582382
28	0xbacb6063	-0.0015516396
29	0x3b669669	0.0035184866
30	0x3b345e7c	0.0027522137
31	0xb9aae882	-0.0003259816
32	0x3abb01d8	0.0014267517
33	0xbb0568e4	-0.002035671
34	0xbb0e27e5	-0.002169126
35	0x3a45625c	0.00075296103
36	0x3ab7b14a	0.0014014628
37	0xb8891489	-6.536494e-05
38	0xbb47859b	-0.0030444625
39	0xbb1cc718	-0.002392238
40	0xbb50ed9f	-0.0031879914
41	0x37ea2dbb	2.7916269e-05
42	0x3a8e9543	0.0010878224
43	0xbadce9eb	-0.0016854381
44	0x3848566c	4.7764202e-05
45	0x3ac081dc	0.0014687139
46	0xba7ac98b	-0.00095667754
47	0xb7d93814	-2.589453e-05
48	0x39da793e	0.00041670533
49	0x3b2f2d9d	0.0026730068
50	0x3a10fa8c	0.00055304985
51	0x3a6793d4	0.0008833979
52	0xbbad7032	-0.0052929157
53	0xba1edf02	-0.00060604524
54	0xba9b0905	-0.001182825
55	0xba654e82	-0.00087473553
56	0x3acc2524	0.0015575034
57	0x39f33675	0.00046389145
58	0x3a06afad	0.0005137872
59	0xbadca970	-0.0016835164
60	0xb9532aa0	-0.00020138407
61	0x396836c5	0.00022145647
62	0xb9cb9341	-0.0003882889
63	0x3ab458a5	0.0013759328
64	0xbadcef9d	-0.0016856078
65	0xbb2d4255	-0.0026437242
66	0x3a853b41	0.0010164754
67	0x3a43e48e	0.0007472717
68	0x3a3b7268	0.0007150532
69	0xbbe4b6b2	-0.006979787
70	0xba09ba56	-0.00052539015
71	0x3b53cd55	0.0032318432
72	0x3a2313c5	0.00062209024
73	0xb980c2f1	-0.00024559305
74	0x38554790	5.0849805e-05
75	0xbb0d1ed5	-0.002153327
76	0x3a8c85da	0.0010721043
77	0x3af2f0d3	0.0018534906
78	0xbb186453	-0.0023253157
79	0xba1fd9fa	-0.00060978497
80	0xb853e8f3	-5.052327e-05
81	0x3aceb83a	0.0015771457
82	0xba545259	-0.0008099429
83	0x3af4883c	0.0018656324
84	0x38deee35	0.000106301544
85	0x3a13f156	0.0005643567
86	0xb9ba3a26	-0.00035520009
87	0x396f9515	0.00022848354
88	0x3a927ca2	0.001117606
89	0xba838dbd	-0.0010036748
90	0xbb599cc3	-0.003320501
91	0xb8c5e82a	-9.436936e-05
92	0x3a83a862	0.0010044689
93	0xbafb9a7f	-0.0019195824
94	0x3a1c7b9d	0.00059693475
95	0x38ca3731	9.642391e-05
96	0x3a98a754	0.0011646547
97	0x3962a9b2	0.00021616256
98	0x3a0f3fc0	0.00054645166
99	0x3b1c8083	0.002388031
100	0x3ab5d199	0.0013871669
101	0x3b3d4e12	0.0028885645
102	0x3a9dcb7c	0.0012038792
103	0xba8b2984	-0.0010617231
104	0x3b1268e1	0.0022340345
105	0x3aeb7b2d	0.0017965786
106	0xbba7510a	-0.005106096
107	0xb8c1789e	-9.225424e-05
108	0xbb374799	-0.002796626
109	0xbae3ec32	-0.0017389117
110	0x39f74186	0.0004716033
111	0x3a7a9548	0.0009558988
112	0x3a9f3819	0.0012147456
113	0x3a30a820	0.000673892
114	0xbb6014a9	-0.0034192002
115	0x39678df8	0.00022082764
116	0xba50023a	-0.0007934902
117	0xba9f8e3f	-0.001217313
118	0xb98e0cf1	-0.00027093993
119	0x3a7ac676	0.0009566316
120	0xba7b0c19	-0.0009576693
121	0x3ab6b6c8	0.0013939971
122	0xba91ade0	-0.0011114441
123	0x3b0571f8	0.002036212
124	0xbb55f505	-0.0032647264
125	0x3a4ba22b	0.00077680004
126	0x3a58a840	0.00082648173
127	0xba9072ca	-0.0011020538
