results/baseline/sleep-edf/seed_43/best_model.pth (torch, 161013 bytes, 30 tensors)

mlp.0.weight f4 [128, 24]
0.018733507 -0.09871003 0.09343448 0.03208789 0.05309105 -0.51769197 0.13525635 -0.16517399
0.014419612 -0.036588416 0.2544502 -0.11760948 0.26961923 -0.71996784 -0.292673 -0.95396835
-0.009668225 -0.23322469 0.1733372 -0.19423637 -0.18536893 -0.12952513 -0.08172926 0.672247
0.023276204 0.051927336 -0.047893804 0.07732462 -0.019599972 -0.024848662 0.119973876 -0.36095205
0.0065001575 0.055919863 -0.0016882248 0.0064697484 0.5071586 -0.027945895 -0.9914673 -0.55162334
0.0040156534 0.11167988 -0.09093172 0.08733326 -0.08667315 0.05537772 -0.23812118 -0.39232215
0.027417485 0.08360834 -0.0102978675 0.05866677 -0.18014693 0.15806077 0.10517815 -0.18198808
-0.0020711357 -0.25628704 -0.26718763 -0.019401377 0.46822402 0.07420515 -1.249614 -0.07881616
0.011808714 -0.20475173 0.004070165 0.009404506 -0.033756647 -0.029767111 0.0540784 0.047083862
0.025614368 0.0046038153 -0.018231204 0.008251439 0.03741521 -0.33890897 -0.18226524 -0.029714545
-0.0040807147 -0.15789607 0.12121134 -0.111848146 -0.14557607 -0.19602908 -0.041638494 0.599369
0.00023084748 -0.17951299 0.009764264 -0.015764669 -0.070996776 0.04051715 0.37452558 0.41783693
0.021335969 0.06765995 -0.068050735 -0.0042772735 -0.030677127 -0.30083227 0.004592576 0.20941913
0.003348604 -0.019962585 -0.018910708 -0.054617405 -0.6467806 -0.6554212 0.7192837 1.0159703
0.0010176997 0.059655998 -0.039762463 0.040345814 -0.049369946 -0.15794578 -0.08958573 0.35956877
0.022213576 0.035577398 -0.044904456 0.019831995 -0.03881682 0.095560305 -0.33900657 0.23156098
0.008735023 -0.07185855 0.10241669 -0.07052728 0.10226411 -1.1599959 0.35028148 1.1587957
0.0039324453 0.061508127 -0.016732188 0.036199514 -0.1520867 0.11152165 0.082806885 -0.052780062
0.024352878 0.01085736 -0.04718929 0.071376145 0.27277058 -0.28073248 -0.05016482 -0.20495461
0.0006117563 -0.061807647 0.06338406 0.015262479 0.6135012 -0.16995451 -1.116924 -0.47644013
0.0062637315 -0.0641989 -0.09206315 0.06343269 0.12340876 0.17706303 -0.09977527 -0.3034243
0.023976792 -0.15806013 0.00039516596 -0.0031970567 0.073366284 -0.5112567 0.12483942 0.018699242
0.007940905 -0.06858344 0.08208647 -0.05845284 0.8691759 -0.7185029 0.5589639 -0.7922622
0.00619485 -0.07481705 0.021291882 -0.0073272604 0.043687157 -0.27332264 -0.09797489 0.23970589
0.027362134 -0.08322369 -0.16222867 -0.08278853 -0.0062627657 -0.30815697 0.15159996 0.12389205
0.008376013 0.009635939 -0.07012772 0.25605622 -0.58749473 0.35703897 1.4979192 0.43866283
0.0026951272 0.17660944 -0.08823283 0.08586916 -0.2153626 0.12064676 0.12909704 0.11411539
0.026802115 0.07493506 -0.018008871 -0.0021237799 -0.08230303 -0.22714213 -0.38761395 0.31807607
0.009241273 0.05225144 -0.061994202 -0.06583229 -0.08678728 -1.7184474 0.44201532 0.26973218
0.008362886 -0.20525332 0.083724104 -0.03764792 -0.1971389 -0.14783433 0.1319443 0.23878065
0.034976155 0.32577676 -0.05999823 0.07942951 -0.01733726 -0.024383832 -0.17740169 0.30613083
-0.0019260275 0.23725687 0.02565005 -0.031435505 -0.007771204 -0.39988896 -0.7342408 0.20181851
00000000: 0377 993c 7c28 cabd 945a bf3d 976e 033d
00000010: 0076 593d 7687 04bf a480 0a3e 5f23 29be
00000020: 3c40 6c3c bcdd 15bd 4c47 823e 3ddd f0bd
00000030: 880b 8a3e d04f 38bf 3cd9 95be 4537 74bf
00000040: 7a67 1ebc 74d2 6ebe 4f7f 313e e6e5 46be
00000050: 5ad1 3dbe 3ca2 04be ac61 a7bd 6118 2c3f
00000060: bdad be3c c2b1 543d 4b2c 44bd 5f5c 9e3d
00000070: 1f90 a0bc 6c8f cbbc ddb4 f53d b5ce b8be
00000080: 46ff d43b 3a0c 653d 6d47 ddba 2f00 d43b
00000090: 25d5 013f caee e4bc cdd0 7dbf 3037 0dbf
000000a0: be95 833b 6cb8 e43d 693a babd c8db b23d
000000b0: b181 b1bd c0d3 623d 0ad6 73be 73de c8be
000000c0: a29a e03c d93a ab3d 63b8 28bc 914c 703d
000000d0: 7078 38be afda 213e a467 d73d 155b 3abe
000000e0: e4bb 07bb 0e38 83be d1cc 88be a3ef 9ebc
000000f0: 0fbb ef3e dff8 973d 5af3 9fbf 5e6a a1bd
00000100: 5679 413c 70aa 51be 055f 853b 5b15 1a3c
00000110: 6944 0abd 28da f3bc 5081 5d3d 02db 403d
00000120: 39d5 d13c 9adb 963b 9b59 95bc 0b31 073c
00000130: b140 193d 7a85 adbe bda3 3abe eb6b f3bc
00000140: 84b7 85bb 82af 21be a73d f83d a410 e5bd
00000150: e511 15be d9bb 48be 208d 2abd 3f70 193f
00000160: a60f 7239 41d2 37be 4bfa 1f3c e824 81bc
00000170: c266 91bd 50f5 253d d1c1 bf3e b9ee d53e
00000180: c5c8 ae3c 4d91 8a3d 2f5e 8bbd 5f28 8cbb
00000190: 994e fbbc b006 9abe 527d 963b f871 563e
000001a0: 4174 5b3b 9388 a3bc a1ea 9abc 80b6 5fbd
000001b0: 6a93 25bf afc9 27bf fa22 383f 510b 823f
000001c0: 5664 853a d959 743d f7dd 22bd a741 253d
000001d0: 2438 4abd 8abc 21be b978 b7bd 6619 b83e
000001e0: 3ff9 b53c 9bb9 113d bced 37bd b576 a23c
000001f0: 63fe 1ebd 1fb5 c33d 4592 adbe 521e 6d3e
00000200: 581d 0f3c 932a 93bd d7bf d13d 9b70 90bd
00000210: d96f d13d bf7a 94bf 1858 b33e 6b53 943f
00000220: bedb 803b f2ef 7b3d f111 89bc f145 143d
00000230: 9ebc 1bbe 7665 e43d a896 a93d e82f 58bd
00000240: b07f c73c 12e3 313c 8f49 41bd a82d 923d
00000250: 96a8 8b3e 2bbc 8fbe a079 4dbd 9fdf 51be
00000260: 455e 203a 042a 7dbd 81cf 813d 7a0f 7a3c
00000270: 6a0e 1d3f 8e08 2ebe 5ef7 8ebf f6ef f3be
00000280: fd3f cd3b b67a 83bd 9b8b bcbd 00e9 813d
00000290: bbbd fc3d 0350 353e fa56 ccbd 6e5a 9bbe
000002a0: fa6a c43c 84da 21be 472e cf39 b685 51bb
000002b0: 1041 963d b8e1 02bf cfab ff3d 272f 993c
000002c0: 921a 023c 7975 8cbd f41c a83d 3f6c 6fbd
000002d0: 5082 5e3f ceef 37bf 4218 0f3f b2d1 4abf
000002e0: 2bfe ca3b ae39 99bd 506c ae3c 8419 f0bb
000002f0: 4ef1 323d f2f0 8bbe 0fa7 c8bd 7675 753e
00000300: 8e26 e03c 2f71 aabd 461f 26be 088d a9bd
00000310: e337 cdbb c0c6 9dbe 053d 1b3e 1dbb fd3d
00000320: 8b3b 093c 0fe0 1d3c 1f9f 8fbd cd19 833e
00000330: 0e66 16bf d0cd b63e d1bb bf3f 6a98 e03e
00000340: bba0 303b 1bd9 343e 6ab3 b4bd 2cdc af3d
00000350: 0388 5cbe a615 f73d 0432 043e 54b5 e93d
00000360: 1c90 db3c 8e77 993d 5787 93bc 1d2f 0bbb
00000370: 7e8e a8bd f297 68be 5675 c6be deda a23e
00000380: b568 173c 9b05 563d a2ed 7dbd 14d3 86bd
00000390: 88bd b1bd 16f6 dbbf d54f e23e 561a 8a3e
000003a0: 7c04 093c ed2d 52be 8b77 ab3d b534 1abd
000003b0: c8de 49be e261 17be 681c 073e ea82 743e
000003c0: 2843 0f3d 36cc a63e b4c0 75bd f0ab a23d
000003d0: df06 8ebc 9ac0 c7bc caa8 35be 2ebd 9c3e
000003e0: c272 fcba 77f3 723e 0e20 d23c 84c2 00bd
000003f0: 96a5 febb 3fbe ccbe 34f7 3bbf 83a9 4e3e

mlp.0.bias f4 [128]
0.037010767 -0.23138408 -0.21997023 0.29919732 0.19866514 0.28175405 -0.09670611 -0.143171
0.0045454 0.012378117 0.18766238 0.26843247 0.1288507 0.14468785 -0.31550938 0.043026324
0.071753725 0.18696612 0.20424822 -0.18200767 0.19807838 -0.073990405 0.03375896 0.4085929
-0.22354451 -0.20967053 -0.101659626 0.32597914 0.20879626 0.044929802 -0.08161997 -0.011423027
0.05944924 0.33099365 -0.011859213 0.1767399 0.21748331 0.21199436 -0.30964068 0.21641788
-0.047442164 -0.0010960493 0.2679707 0.30472538 0.039663646 0.051807113 0.033052184 -0.21419351
0.26089728 -0.1296797 -0.034717634 0.29605117 -0.05840423 -0.13158299 0.13827424 -0.13238089
0.053850852 0.21375407 0.042791277 -0.10449636 0.069857426 0.005582534 0.07048325 -0.11697096
0.27893537 -0.08471166 -0.03240242 -0.042770006 -0.06858316 -0.24574143 0.11594615 0.07242839
0.21499422 0.16078405 0.36413404 -0.059922818 -0.23840472 0.17367975 -0.1696347 0.04706256
0.16645315 -0.06960774 0.213285 0.16243859 0.24490722 -0.06117734 0.16676155 0.29910073
0.20233582 0.06333467 -0.17276849 -0.2407315 -0.15938525 0.049648926 0.15053976 0.2102052
-0.09826244 0.13621363 -0.15648246 -0.16205841 0.18069544 0.25396547 0.16473725 0.20734547
0.0040095137 -0.26213786 0.15526082 0.0410001 0.155948 -0.059732635 -0.07766931 -0.071134314
-0.07048381 -0.19898671 -0.055420607 -0.108469844 0.28206307 0.24572442 -0.12746939 0.17749362
0.041823573 -0.23578554 -0.060985357 -0.11107347 0.22661635 0.05674163 -0.017605213 0.010810519
00000000: 9a98 173d f3ef 6cbe e03f 61be 6430 993e
00000010: e06e 4b3e 1142 903e da0d c6bd 6b9b 12be
00000020: 94f1 943b 96cd 4a3c 912a 403e fb6f 893e
00000030: 70f1 033e 0d29 143e 728a a1be 5f3c 303d
00000040: 9ef3 923d 0c74 3f3e 7226 513e 3860 3abe
00000050: 0fd5 4a3e 4888 97bd d646 0a3d 1733 d13e
00000060: dae8 64be dfb3 56be ec32 d0bd bde6 a63e
00000070: b0ce 553e 5008 383d 5f28 a7bd a627 3bbc
00000080: 0c81 733d 0078 a93e 254d 42bc 4efb 343e
00000090: f2b3 5e3e 0d15 593e 3989 9ebe a69c 5d3e
000000a0: b752 42bd 50a9 8fba 7533 893e f704 9c3e
000000b0: 5976 223d b233 543d ba61 073d 8b55 5bbe
000000c0: 5494 853e c1ca 04be 1434 0ebd 0594 973e
000000d0: 4639 6fbd b1bd 06be c397 0d3e db8e 07be
000000e0: b692 5c3d 59e2 5a3e e845 2f3d 3002 d6bd
000000f0: 6911 8f3d b0ed b63b 8659 903d 788e efbd
00000100: 9ed0 8e3e 4f7d adbd 66b8 04bd 9a2f 2fbd
00000110: 5475 8cbd a4a3 7bbe 2d75 ed3d 5655 943d
00000120: 7227 5c3e 93a4 243e c76f ba3e a171 75bd
00000130: 5e20 74be 1bd9 313e b8b4 2dbe acc4 403d
00000140: b272 2a3e 818e 8ebd 6267 5a3e 4d56 263e
00000150: f5c8 7a3e 1795 7abd 8ac3 2a3e bb23 993e
00000160: 1f31 4f3e 9cb5 813d 39ea 30be 5182 76be
00000170: e335 23be ac5c 4b3d 1827 1a3e 0840 573e
00000180: d13d c9bd 967b 0b3e f03c 20be a4f2 25be
00000190: 3a08 393e c307 823e e2b0 283e 5f52 543e
000001a0: 3d62 833b ef36 86be b1fc 1e3e b9ef 273d
000001b0: d5b0 1f3e 35aa 74bd 1611 9fbd deae 91bd
000001c0: d159 90bd 2cc3 4bbe b800 63bd 7025 debd
000001d0: 926a 903e 2f9f 7b3e 5687 02be e3c0 353e
000001e0: 324f 2b3d c471 71be c8cb 79bd 7d7a e3bd
000001f0: 1e0e 683e e969 683d cf38 90bc 9a1e 313c

mlp.1.weight f4 [128]
0.8649274 1.0501959 0.86698365 0.9347686 1.0783874 1.0070467 0.88471395 1.4716506
1.0105866 1.2390355 0.88198596 0.65761185 0.94442195 1.1671455 1.3963636 0.7513633
0.87613505 0.67313695 1.2206672 1.0118464 0.9814413 0.65336144 1.0589432 0.43028077
0.9051864 1.3112683 0.728844 0.5776905 1.0407208 0.95303077 0.81283396 0.71023583
1.0475637 0.07811426 1.0094302 1.1565771 0.94567025 1.1027951 1.0806961 1.0116022
0.8907071 0.6393524 0.45860305 0.67978567 0.69908476 0.44539535 0.94608897 0.9722763
1.0105525 0.96393275 0.739061 0.4593757 0.6802976 0.7491611 0.99773216 1.140236
0.64616275 0.55472434 0.67421556 0.78627807 0.8829011 0.9293603 0.5828889 0.80933464
0.96137995 1.0034724 0.7024808 0.42442882 0.79835445 0.94465595 1.3037355 1.0279016
1.0394274 1.082469 0.5712186 1.0842583 1.0506839 0.711163 1.3927811 0.45778868
0.5910258 0.6438738 1.1233094 0.8954269 0.8835509 1.2603271 0.68551755 0.84149617
1.10009 1.0164773 0.98751676 0.9066433 1.0549854 1.2615132 0.6862089 1.0600932
0.9840404 0.85461026 1.442207 1.0040158 0.47828862 0.7418445 1.0354635 1.2338821
0.6555316 1.2314847 0.95425314 0.7093691 1.0120819 0.85112464 0.8154569 0.8730026
0.554526 0.7423582 1.1481794 0.9546376 0.5722398 0.46633473 1.0070292 0.9321809
1.2425555 1.1176293 0.6997319 0.8742044 1.0635077 0.69365007 0.8683383 0.9922238
00000000: e26b 5d3f d26c 863f a4f2 5d3f ff4c 6f3f
00000010: 9908 8a3f e8e6 803f 9d7c 623f 0c5f bc3f
00000020: e75a 813f b798 9e3f d5c9 613f 4059 283f
00000030: a3c5 713f 0665 953f 0bbc b23f 5859 403f
00000040: 634a 603f b452 2c3f d33e 9c3f 2f84 813f
00000050: bd3f 7b3f b242 273f 738b 873f c34d dc3e
00000060: 4cba 673f a4d7 a73f 8595 3a3f 86e3 133f
00000070: 5736 853f d3f9 733f e315 503f 04d2 353f
00000080: 9116 863f 5ffa 9f3d 0235 813f b80a 943f
00000090: 7217 723f 6428 8d3f 4054 8a3f 2e7c 813f
000000a0: 6105 643f 99ac 233f 05ce ea3e 6f06 2e3f
000000b0: 38f7 323f dc0a e43e e332 723f 19e7 783f
000000c0: c959 813f 4cc4 763f 1a33 3d3f 4b33 eb3e
000000d0: fc27 2e3f 06c9 3f3f 606b 7f3f 41f3 913f
000000e0: ec6a 253f 6a02 0e3f 6499 2c3f 8549 493f
000000f0: ce05 623f 8eea 6d3f 3538 153f 8e30 4f3f
00000100: ff1c 763f c971 803f c8d5 333f bc4e d93e
00000110: f560 4c3f f9d4 713f cee0 a63f 4892 833f
00000120: f50b 853f 588e 8a3f 623b 123f fac8 8a3f
00000130: cf7c 863f c70e 363f a746 b23f 4763 ea3e
00000140: 784d 173f ead4 243f 9ac8 8f3f b33a 653f
00000150: 6430 623f 6652 a13f 147e 2f3f 4b6c 573f
00000160: c0cf 8c3f ee1b 823f e6cd 7c3f c619 683f
00000170: c309 873f 4479 a13f 63ab 2f3f 22b1 873f
00000180: 12ea 7b3f bdc7 5a3f 3d9a b83f 9783 803f
00000190: 3fe2 f43e 85e9 3d3f 118a 843f d9ef 9d3f
000001a0: ebd0 273f 4aa1 9d3f ef49 743f 3799 353f
000001b0: e68b 813f 4ee3 593f c9c1 503f 197d 5f3f
000001c0: 6af5 0d3f 300b 3e3f 8bf7 923f 2163 743f
000001d0: 4f7e 123f 6dc3 ee3e 55e6 803f 68a3 6e3f
000001e0: 0f0c 9f3f 7a0e 8f3f a121 333f dccb 5f3f
000001f0: 0521 883f 0d93 313f 6b4b 5e3f 6102 7e3f

mlp.1.bias f4 [128]
-0.6651511 -0.23158075 -0.5612611 -0.20040242 -0.020560734 -0.46497858 -0.29264435 -0.2975501
-0.11571011 -0.10991313 -0.46213436 -0.08740061 -0.3145197 -0.5433458 -0.07889673 -0.34028804
-0.24033535 -0.22767395 -0.4235088 -0.5519092 -0.24037994 -0.3948731 0.001528381 -0.6371652
-0.28666872 -0.12007635 -0.4339657 -0.05239973 -0.4530097 -0.24855731 -0.323711 -0.28791022
-0.14005685 -0.8268083 -0.23663206 -0.113783784 -0.35536206 -0.32881826 -0.31621826 -0.34136257
-0.3050497 -0.31986544 -0.48583186 -0.43185952 -0.3173349 -0.46775836 -0.1630728 -0.25175574
-0.58499575 -0.14795072 -0.54569966 -0.6147501 -0.38944513 -0.29479635 -0.3220973 -0.28316635
-0.5048648 -0.029411051 -0.5194389 -0.26239517 -0.27044457 -0.31501484 -0.09469889 -0.43313253
-0.20677884 -0.49644622 -0.36606994 -0.5030312 -0.3605067 -0.1776773 -0.118035674 -0.2665002
-0.2789263 -0.15278126 -0.32340977 -0.38284433 -0.30749917 -0.41709474 -0.20568724 -0.70247006
-0.4229285 -0.33355218 -0.48546284 -0.2581898 -0.42394584 -0.32088807 -0.38066664 -0.20998429
-0.46879148 -0.17603865 -0.19358689 -0.546603 -0.30103123 -0.31354278 -0.29760596 -0.4783734
-0.3546234 -0.40468058 -0.19607177 -0.28409782 -0.41353217 -0.22836702 -0.3417908 -0.27444723
-0.31804994 -0.121333405 -0.25382617 -0.27431518 -0.16706263 -0.31079662 -0.19435419 -0.18094139
-0.19186763 -0.51460135 -0.12007594 -0.15685356 -0.3612547 -0.483282 -0.22673245 -0.33459345
-0.29391137 -0.07106316 -0.48769048 -0.36672077 -0.41292816 -0.23027727 -0.42629695 -0.33205935
00000000: 5847 2abf 8123 6dbe cfae 0fbf 4b36 4dbe
00000010: fc6e a8bc ac11 eebe 7bd5 95be 7d58 98be
00000020: 6cf9 ecbd 231a e1bd e09c ecbe 17ff b2bd
00000030: ba08 a1be b618 0bbf 9c94 a1bd 3c3a aebe
00000040: 781a 76be 5c23 69be 25d6 d8be ec49 0dbf
00000050: 2926 76be cf2c cabe f553 c83a 421d 23bf
00000060: 3ec6 92be 97ea f5bd c130 debe 19a1 56bd
00000070: e3f0 e7be cf85 7ebe 73bd a5be f868 93be
00000080: 106b 0fbe b5a9 53bf ad4f 72be 7907 e9bd
00000090: 04f2 b5be de5a a8be 5ce7 a1be 13c7 aebe
000000a0: 792f 9cbe 67c5 a3be f4be f8be b11c ddbe
000000b0: b879 a2be 067e efbe 8efc 26be 21e6 80be
000000c0: 48c2 15bf 6580 17be f9b2 0bbf 4360 1dbf
000000d0: 5a65 c7be 8cef 96be f0e9 a4be 2efb 90be
000000e0: d23e 01bf 72ef f0bc f3f9 04bf a958 86be
000000f0: b677 8abe a049 a1be 7ef1 c1bd 8cc3 ddbe
00000100: d5bd 53be 332e febe 856d bbbe a7c6 00bf
00000110: 5694 b8be 0af1 35be b0bc f1bd b772 88be
00000120: 6ecf 8ebe b172 1cbe f795 a5be 2c04 c4be
00000130: 8870 9dbe 718d d5be ad9f 52be 14d5 33bf
00000140: 168a d8be 5ac7 aabe 968e f8be 7431 84be
00000150: 6e0f d9be 714b a4be bde6 c2be 1f06 57be
00000160: 7005 f0be 7a43 34be a43b 46be 2dee 0bbf
00000170: c420 9abe ae88 a0be cf5f 98be 5ced f4be
00000180: 3391 b5be 4b32 cfbe 0ac7 48be 4575 91be
00000190: 7dba d3be 0bd9 69be 34ff aebe 5984 8cbe
000001a0: 71d7 a2be a67d f8bd 81f5 81be 0a73 8cbe
000001b0: 7712 2bbe bc20 9fbe c904 47be b348 39be
000001c0: f378 44be eabc 03bf 60ea f5bd 389e 20be
000001d0: 60f6 b8be bd70 f7be 8d2c 68be d54f abbe
000001e0: 8d7b 96be 9089 91bd 91b2 f9be d3c2 bbbe
000001f0: 526b d3be cecd 6bbe 9843 dabe af03 aabe

mlp.4.weight f4 [64, 128]
-0.40520537 -0.23824996 0.41747993 -0.49192747 -0.70205665 -0.47296226 -0.1985886 -0.38779435
-0.17268935 -0.54533917 -0.44604486 0.06964048 -0.099582024 -0.019844243 0.20803963 0.053611383
-0.32994106 0.03001188 -0.37334204 -0.9485707 -0.1101304 0.06601353 0.045316514 -0.037855003
0.10300632 -0.2773268 0.060574073 0.05876003 0.059220254 -0.33055666 0.02035618 0.06770793
0.25002688 0.037253283 -0.2644251 -0.07341702 -0.07483044 -0.64193547 0.13461493 0.094618216
0.01629434 0.029853245 -0.21240804 -0.13921449 0.03823154 -0.23519647 -0.026019948 0.010483441
-0.25514787 0.05512635 0.11556039 0.067933105 0.10896592 0.012382286 -0.2237926 0.2876205
-0.40046066 0.04852073 -0.03532256 -0.020190962 -0.4204339 -0.2742472 0.03943951 -0.21236955
0.10670937 -0.9013246 0.026309583 -0.1355498 -0.064515464 0.009099088 -0.59571856 -0.11728715
-0.27461168 -0.3387808 0.007705779 0.06316274 0.03912579 -0.6044068 -0.21442692 -0.0286498
-0.43550396 0.06775426 -0.053914096 0.041368 0.12607892 -0.07320205 -0.0030792858 -0.019799195
-0.2687147 -0.22798271 0.10221167 0.31867084 0.082777716 -0.34513718 0.039772175 0.034644693
-0.22715317 -0.23736234 -0.018390568 -0.093469284 -0.09542451 0.036829356 -0.5071033 0.025834033
0.034248203 0.07940768 -0.25806487 -0.25213632 -0.24621782 -0.1140239 -0.496446 0.054750036
0.03514181 0.07273152 -0.41588774 -0.20191322 -0.35798147 -0.19937871 0.017060807 -0.19635864
-0.07645899 0.04980006 -0.15719782 0.07262062 -0.3325515 0.0516635 -0.25230816 -0.23501123
0.018782565 -0.16465043 -0.54778284 0.03186509 0.02811414 0.11717508 -0.08415348 0.06925471
0.1467304 0.042587604 0.028945629 0.017309127 0.20352837 0.28555322 -0.34502652 -0.036801107
-0.04198142 0.00836208 0.6887004 0.010679826 0.02109263 0.013331445 0.04808024 0.0051324014
-0.06471834 0.010114324 -0.064600945 0.05320997 0.15429474 0.10671927 -0.021848377 0.01907198
0.028703699 0.008300356 0.106192805 0.077113226 0.12703714 0.0018090114 -0.31976676 0.029744988
0.06331302 0.036284816 0.0778114 0.07620374 0.0035647792 0.033213582 -0.00649491 -0.31779557
0.43557277 -0.0047717937 -0.13068502 0.05139852 -0.04100469 0.085453 -0.0020294425 -0.305366
-0.012833472 0.018494496 0.11995489 0.016390903 0.0054321964 0.16930962 -0.0010667075 0.008030404
0.04568506 0.00026319647 -0.025533047 0.02345228 -0.0058036894 -0.09002734 0.099223204 0.15454593
0.11103891 0.15083487 0.03400885 0.011013528 -0.2538872 0.07204573 0.08923252 0.0025397618
0.050938696 -0.107863806 0.2564275 0.093007274 0.058125634 0.19710603 0.027545305 0.06938096
0.41233405 0.0886324 0.018153487 -0.31551072 -0.04398177 0.1238948 0.0022757135 0.1265394
0.04091251 0.15405534 0.088334806 -0.08201486 0.042684086 0.0018543336 0.10030143 0.22200622
0.022057267 -0.4535591 0.04474449 -0.02238727 0.08631998 0.020768825 0.011436895 0.0071776016
0.0037403745 -0.01111254 0.07092964 -0.006833808 0.03891432 0.034154177 -0.036909897 0.040986244
0.09395602 -0.12265661 0.021946827 -0.18494026 0.22901328 0.054004952 0.043463115 0.027426664
00000000: 1477 cfbe ccf7 73be eebf d53e ebdd fbbe
00000010: fcb9 33bf 1c28 f2be cf5a 4bbe fb8c c6be
00000020: 7ad5 30be 599b 0bbf fe5f e4be ab9f 8e3d
00000030: a9f1 cbbd 6590 a2bc 5708 553e 9c97 5b3d
00000040: 09ee a8be 79db f53c b026 bfbe 88d5 72bf
00000050: 0c8c e1bd 1a32 873d cf9d 393d d90d 1bbd
00000060: faf4 d23d c7fd 8dbe 851c 783d 5bae 703d
00000070: f090 723d b93e a9be 01c2 a63c 75aa 8a3d
00000080: 8603 803e e696 183d ba62 87be aa5b 96bd
00000090: b440 99bd e255 24bf 7fd8 093e 32c7 c13d
000000a0: b57b 853c cb8e f43c 7e81 59be 3e8e 0ebe
000000b0: ad98 1c3d 58d7 70be c927 d5bc bdc2 2b3c
000000c0: bea2 82be 2bcc 613d edaa ec3d 8320 8b3d
000000d0: 8629 df3d 12df 4a3c e329 65be ff42 933e
000000e0: 2e09 cdbe acbd 463d 64ae 10bd 8467 a5bc
000000f0: 1d43 d7be 216a 8cbe 538b 213d 6777 59be
00000100: 718a da3d 36bd 66bf 3287 d73c 91cd 0abe
00000110: af20 84bd 5714 153c 0381 18bf 3f34 f0bd
00000120: e799 8cbe ad74 adbe c280 fc3b 775b 813d
00000130: 5d42 203d 67ba 1abf bb92 5bbe fcb2 eabc
00000140: 60fa debe bfc2 8a3d 07d5 5cbd 7e71 293d
00000150: d51a 013e f5ea 95bd d8cd 49bb ec31 a2bc
00000160: f994 89be 4d74 69be 5a54 d13d d328 a33e
00000170: 5d87 a93d d2b5 b0be 26e8 223d 98e7 0d3d
00000180: d79a 68be 1d0f 73be d1a7 96bc d36c bfbd
00000190: ed6d c3bd 61da 163d 86d1 01bf e5a1 d33c
000001a0: d847 0c3d 7ea0 a23d 1421 84be 0318 81be
000001b0: 8620 7cbe 5d85 e9bd 2c2e febe 9341 603d
000001c0: dcf0 0f3d 43f4 943d 3def d4be 57c2 4ebe
000001d0: 5949 b7be ef29 4cbe 1bc3 8b3c 3d12 49be
000001e0: 8896 9cbd 26fb 4b3d 77f8 20be 1fba 943d
000001f0: 3144 aabe 1b9d 533d 892e 81be c9a6 70be
00000200: e5dd 993c 1f9a 28be 7f3b 0cbf f884 023d
00000210: a04f e63c 7df9 ef3d a958 acbd 6ad5 8d3d
00000220: 7e40 163e 5770 2e3d 621f ed3c dfcb 8d3c
00000230: be69 503e 0834 923e 51a7 b0be c2bc 16bd
00000240: b6f4 2bbd 1b01 093c ab4e 303f 70fa 2e3c
00000250: 74ca ac3c 226c 5a3c c9ef 443d b42d a83b
00000260: 0d8b 84bd 8db6 253c 804d 84bd b3f2 593d
00000270: 71ff 1d3e a28f da3d 5efb b2bc d73c 9c3c
00000280: 0524 eb3c 37fe 073c 9d7b d93d 8aed 9d3d
00000290: 0616 023e 5a1c ed3a 78b8 a3be c3ab f33c
000002a0: 42aa 813d 639f 143d 955b 9f3d b510 9c3d
000002b0: 129f 693b f70a 083d 41d3 d4bb 1ab6 a2be
000002c0: 6503 df3e b55c 9cbb 4bd2 05be 4187 523d
000002d0: 89f4 27bd fc01 af3d 6500 05bb ef58 9cbe
000002e0: 7c43 52bc c581 973c e9aa f53d 3746 863c
000002f0: 9100 b23b 805f 2d3e c4d0 8bba f591 033c
00000300: 4220 3b3d a2fd 8939 ae2a d1bc ff1e c03c
00000310: e02c bebb 4160 b8bd 8935 cb3d 4a41 1e3e
00000320: 5e68 e33d 7574 1a3e dd4c 0b3d 1672 343c
00000330: 81fd 81be b68c 933d 8abf b63d 2272 263b
00000340: 18a5 503d b3e7 dcbd 774a 833e 997a be3d
00000350: 2515 6e3d 2ad6 493e b1a6 e13c 9b17 8e3d
00000360: 731d d33e e784 b53d 9fb6 943c 9f8a a1be
00000370: 3a26 34bd 8fbc fd3d 2324 153b 8b93 013e
00000380: e093 273d afc0 1d3e e1e8 b43d 68f7 a7bd
00000390: 82d5 2e3d 1c0d f33a d66a cd3d 9955 633e
000003a0: 71b1 b43c e638 e8be 0046 373d 8265 b7bc
000003b0: 88c8 b03d 6223 aa3c d061 3b3c 1632 eb3b
000003c0: 1221 753b 5f11 36bc 8f43 913d 23ee dfbb
000003d0: 9f64 1f3d 40e5 0b3d d52e 17bd 31e1 273d
000003e0: 046c c03d 6433 fbbd d5c9 b33c fb60 3dbe
000003f0: 7582 6a3e 4c34 5d3d 6106 323d e2ad e03c

mlp.4.bias f4 [64]
0.01749565 0.00983834 0.018993862 -0.038813256 0.075979084 -0.006200714 0.0106988 0.028403236
0.059999306 0.03277655 0.06042167 0.0010887751 -0.0012727217 0.03819139 0.26932806 -0.0055110008
0.034646258 0.005485421 0.025607865 0.019482251 0.031126322 -0.032265797 0.027781285 0.026902566
-0.014704875 -0.2866362 -0.15635239 0.07950947 0.0016172065 0.13759498 0.15357332 0.065420255
0.030795854 -0.042672798 -0.04501259 0.05236252 0.0010002524 -0.052071966 0.0027776542 0.07360746
-0.22580163 0.070668966 -0.060659617 0.06517561 0.114549085 0.077052556 -0.042096596 0.0106197605
-0.14207532 -0.32291678 0.03629915 0.055073045 0.019193174 -0.26101577 -0.00083389063 0.081107974
-0.11851938 0.0012376062 0.030473603 -0.17689906 -0.13032727 0.00054417906 -0.16398467 0.057566654
00000000: 0a53 8f3c fd30 213c 0499 9b3c a6fa 1ebd
00000010: ec9a 9b3d 5c2f cbbb 054a 2f3c e7ad e83c
00000020: d5c1 753d b440 063d b77c 773d 3bb5 8e3a
00000030: 74d1 a6ba 936e 1c3d 5ee5 893e a095 b4bb
00000040: 3ce9 0d3d 0cbf b33b 96c7 d13c 3e99 9f3c
00000050: a1fc fe3c 2429 04bd 9495 e33c c562 dc3c
00000060: b7ec 70bc fbc1 92be d71a 20be dcd5 a23d
00000070: 72f8 d33a b3e5 0c3e 5342 1d3e 0efb 853d
00000080: 9647 fc3c acc9 2ebd 1f5f 38bd 157a 563d
00000090: e71a 833a 6a49 55bd 4e09 363b 82bf 963d
000000a0: 8b38 67be e4ba 903d 3876 78bd ca7a 853d
000000b0: b698 ea3d bbcd 9d3d 7b6d 2cbd 81fe 2d3c
000000c0: 317c 11be 5955 a5be 6bae 143d 4694 613d
000000d0: 013b 9d3c dca3 85be 7499 5aba f01b a63d
000000e0: 4aba f2bd 2c37 a23a c7a3 f93c 0725 35be
000000f0: 8374 05be 3da7 0e3a 99eb 27be 03cb 6b3d

mlp.5.weight f4 [64]
1.351248 1.2909516 1.1988138 1.3533679 1.1599569 1.3475825 0.95723224 1.1435452
1.2972628 1.2277013 1.1454755 1.2498722 1.1035284 1.0209166 0.694467 1.2236842
1.1707036 1.4505564 1.1714777 0.9860928 1.0766506 1.2642691 1.2586869 0.9873657
1.2728075 1.4244057 0.81420165 1.1129532 1.295007 0.9920331 0.9579076 1.1905168
1.1522249 1.3973535 1.5517724 1.2666513 1.3971318 1.368572 1.3654858 1.1314801
1.3626113 1.0707906 1.3653331 1.0700251 0.7524257 1.0452299 1.2879448 1.344163
1.3358923 1.4261068 1.1901542 1.1048934 1.3487347 1.6957344 1.3154758 0.8866292
1.4563276 1.4641465 1.0276027 1.4863666 1.5412371 1.1767671 1.3390996 0.6288572
00000000: b2f5 ac3f e73d a53f bb72 993f 293b ad3f
00000010: 7879 943f 957d ac3f 2c0d 753f b05f 923f
00000020: b50c a63f 5125 9d3f f19e 923f d0fb 9f3f
00000030: 6b40 8d3f 65ad 823f 97c8 313f afa1 9c3f
00000040: 9ed9 953f d5ab b93f fbf2 953f 9470 7c3f
00000050: b0cf 893f 92d3 a13f a71c a13f 00c4 7c3f
00000060: 5beb a23f ed52 b63f 856f 503f 4075 8e3f
00000070: cac2 a53f e2f5 7d3f 6f39 753f db62 983f
00000080: 1b7c 933f 7bdc b23f 7aa0 c63f a121 a23f
00000090: 37d5 b23f 5e2d af3f 3dc8 ae3f 57d4 903f
000000a0: 0c6a ae3f ab0f 893f 3cc3 ae3f 95f6 883f
000000b0: f89e 403f 18ca 853f 60db a43f 880d ac3f
000000c0: 85fe aa3f ab8a b63f f956 983f 266d 8d3f
000000d0: 57a3 ac3f d30d d93f 8361 a83f 22fa 623f
000000e0: f168 ba3f 2769 bb3f 7c88 833f 4341 be3f
000000f0: 4247 c53f 4ea0 963f 9e67 ab3f c9fc 203f

mlp.5.bias f4 [64]
-0.077735394 -0.19234727 -0.20691268 -0.1568095 -0.26880923 -0.10111823 -0.37120473 -0.23652993
-0.20884565 -0.23185821 -0.27849057 -0.089495726 -0.15505196 -0.37607506 -0.49700046 -0.17802265
-0.15834911 -0.06796477 -0.22482806 -0.27683988 -0.3656239 -0.10712083 -0.20088482 -0.37339628
-0.13274118 -0.1488054 -0.31906456 -0.3553326 -0.18430233 -0.4036942 -0.432609 -0.27435732
-0.24687685 -0.02730692 -0.12159389 -0.20703709 0.020981364 -0.053231504 -0.17236498 -0.33970654
-0.04046476 -0.33212882 -0.11774226 -0.3208942 -0.6894742 -0.41646603 -0.09706388 -0.021890555
-0.2143688 -0.10416614 -0.32736313 -0.28491184 -0.13118005 0.013544961 -0.17961998 -0.30100396
-0.17742531 -0.08873039 -0.28743103 -0.1301195 -0.14656013 -0.21060087 0.13933961 -0.56204045
00000000: bc33 9fbd aff6 44be ebe0 53be ab92 20be
00000010: 5da1 89be 1317 cfbd 8c0e bebe e734 72be
00000020: a2db 55be 3d6c 6dbe 5196 8ebe 8949 b7bd
00000030: f1c5 1ebe e98c c0be d876 febe 924b 36be
00000040: 4526 22be 1d31 8bbd 5439 66be f5bd 8dbe
00000050: 0e33 bbbe 2a62 dbbd c0b4 4dbe cc2d bfbe
00000060: 4eed 07be 7160 18be 6e5c a3be 28ee b5be
00000070: c0b9 3cbe 02b1 cebe ed7e ddbe 9078 8cbe
00000080: 49cd 7cbe c3b2 dfbc 3806 f9bd 8801 54be
00000090: 1ce1 ab3c 4709 5abd 7280 30be 04ee adbe
000000a0: 60be 25bd ca0c aabe db22 f1bd 3f4c a4be
000000b0: 6281 30bf 093b d5be 6dc9 c6bd d253 b3bc
000000c0: 7f83 5bbe 0f55 d5bd 249c a7be f7df 91be
000000d0: 1054 06be afeb 5d3c 4dee 37be 311d 9abe
000000e0: fbae 35be 47b8 b5bd 292a 93be 0c3e 05be
000000f0: dc13 16be c1a7 57be 0baf 0e3e e2e1 0fbf

mlp.8.weight f4 [5, 64]
-0.22593309 0.17860453 -0.3440011 0.45133945 -0.2336204 0.26494396 -0.1555174 0.104271635
-0.41245297 -0.35400197 -0.39466184 0.19224964 0.023766385 -0.13760746 0.084874794 -0.06694744
-0.40316758 0.26743162 -0.3419976 0.10298508 -0.3036723 0.28383896 -0.41949925 0.13820107
-0.37889946 -0.40759957 0.044967107 -0.1601315 0.26927295 -0.13703673 -0.0006162688 -0.2990269
-0.31993705 0.19428499 0.51511925 -0.30736604 0.1410547 0.2249049 0.37051108 -0.32679972
0.26995996 -0.26621726 -0.37604487 -0.36882424 0.10536848 -0.19251311 -0.33043754 0.16551726
-0.53989655 -0.35262054 0.068244345 -0.39217514 -0.39085075 0.35031208 -0.39573377 0.0689552
0.40856454 0.33799344 -0.09943683 0.5269021 0.4889879 -0.36730266 0.07999039 -0.035862986
0.07648832 0.1296505 0.00760094 -0.1391209 0.043102797 0.21739495 0.10017574 0.10316087
0.028170835 -0.008584757 0.083599046 -0.055335157 0.05499516 -0.052040126 0.099051036 -0.01782359
0.05357602 0.18820538 -0.1932636 -0.12400161 -0.33621305 0.08540557 -0.06439729 0.12967579
-0.21421902 -0.34246486 -0.16681209 0.13792586 0.22287895 0.09439949 0.08287458 0.11858617
0.15989086 -0.29530975 -0.2833934 0.16848528 0.10920455 -0.3087629 -0.20000255 0.050560985
-0.27519956 0.10518475 -0.052912854 0.1072879 0.11890754 0.17871906 -0.2564316 0.1335519
-0.09470881 -0.24910928 0.14101864 0.030021554 -0.09666764 -0.4843453 -0.006097982 0.085217625
-0.29322645 0.17903209 0.074731626 -0.26643667 -0.1422681 -0.21415226 -0.32886285 -0.12739632
-0.050238602 0.056388993 0.113701746 -0.11889498 0.038264964 -0.16529971 0.07048365 -0.12580611
0.0786539 0.20370069 0.17459643 0.10926088 -0.22020727 0.1938316 0.06291032 -0.100581884
0.13996585 -0.36360604 0.1872567 0.039853483 0.28097725 -0.18086456 0.15163955 0.080311045
0.13598797 -0.3878563 0.0004583958 0.09033788 -0.07900404 0.07371657 0.02995754 0.02735339
0.26899722 -0.23716901 -0.35466477 0.16622236 -0.36988494 -0.2300975 0.185951 0.08138826
-0.29168072 0.1263908 -0.36890155 0.19220519 -0.0007303813 0.21717872 0.130654 -0.28624463
0.193576 -0.34533754 -0.16431868 0.24697687 -0.22671135 -0.4598988 0.11696282 0.015997306
-0.020531153 -0.5376513 0.13442028 -0.20640276 -0.01512447 0.13875526 -0.27727994 -0.024551267
-0.790304 -0.487275 0.15262493 -0.45837206 -0.5192709 -0.06640939 0.12296432 -0.3720611
-0.45657763 0.23204754 -0.17432597 0.14867553 0.07052088 0.208047 -0.19526903 -0.78390825
0.18827102 -0.27172747 0.22213435 0.07188032 -0.12478085 -0.02363532 0.20278296 -0.2999737
0.18761128 0.60030407 0.056932744 -0.6296737 -0.36733672 -0.40265557 -0.5118035 -0.8658353
-0.18252246 -0.37077314 -0.66560006 -0.55298674 -0.5385651 -0.42663693 -0.5433869 -0.3312585
0.27599162 -0.34087774 0.47997323 -0.44007048 -0.2564402 -0.3888772 0.20734116 -0.49434155
0.29059213 0.5333221 -0.57671565 -0.085243486 -0.9760167 0.31184888 0.16597652 -0.4095475
-0.46634305 -0.17521153 0.16224615 -0.45554745 -0.28670955 0.17032097 0.102736905 -0.010476729
00000000: 015b 67be 1be4 363e ea20 b0be f715 e73e
00000010: 303a 6fbe bca6 873e f43f 1fbe 5e8c d53d
00000020: 092d d3be bf3f b5be 1e11 cabe 17dd 443e
00000030: b9b1 c23c f8e8 0cbe d6d2 ad3d bd1b 89bd
00000040: fb6b cebe ccec 883e 4f1a afbe d7e9 d23d
00000050: f07a 9bbe 5753 913e 9bc8 d6be 9584 0d3e
00000060: 1cff c1be e4b0 d0be 6e2f 383d 83f9 23be
00000070: 25de 893e 5b53 0cbe 198d 21ba 0e1a 99be
00000080: cace a3be a5f2 463e dbde 033f 155f 9dbe
00000090: a570 103e 784d 663e a1b3 bd3e 4b52 a7be
000000a0: 3138 8a3e a14d 88be f488 c0be 88d6 bcbe
000000b0: 6ecb d73d 2822 45be 1c2f a9be 5b7d 293e
000000c0: a936 0abf ae8a b4be b1c3 8b3d 2ecb c8be
000000d0: 971d c8be 1b5c b33e 9e9d cabe 6238 8d3d
000000e0: 5f2f d13e 7a0d ad3e 89a5 cbbd 0ee3 063f
000000f0: 9f5c fa3e 180f bcbe 00d2 a33d 11e5 12bd
00000100: e9a5 9c3d 1ac3 043e 4e11 f93b b675 0ebe
00000110: 8f8c 303d c89c 5e3e f028 cd3d 0246 d33d
00000120: 86c6 e63c 15a7 0cbc fa35 ab3d 1ea7 62bd
00000130: 9b42 613d 0728 55bd 45db ca3d c702 92bc
00000140: 8772 5b3d e9b8 403e e5e6 45be 8ef4 fdbd
00000150: 1e24 acbe 1ee9 ae3d bae2 83bd bbc9 043e
00000160: 3b5c 5bbe 8e57 afbe cad0 2abe 703c 0d3e
00000170: 613a 643e 8554 c13d 26ba a93d 4edd f23d
00000180: 6eba 233e d732 97be f118 91be 6887 2c3e
00000190: a3a6 df3d 2c16 9ebe 78cd 4cbe 0919 4f3d
000001a0: f5e6 8cbe 1a6b d73d 26bb 58bd c2b9 db3d
000001b0: cc85 f33d 2102 373e 014b 83be d4c1 083e
000001c0: b1f6 c1bd 8116 7fbe 3167 103e c3ef f53c
000001d0: aff9 c5bd 1bfc f7be 95d1 c7bb 9486 ae3d
000001e0: c721 96be 3054 373e e50c 993d 636a 88be
000001f0: bbae 11be bb4a 5bbe b660 a8be 2e74 02be
00000200: fec6 4dbd 25f8 663d 76dc e83d 367f f3bd
00000210: b9bb 1c3d 5444 29be bb59 903d 51d3 00be
00000220: 4c15 a13d ea96 503e 68c9 323e 2bc4 df3d
00000230: 047e 61be ca7b 463e 20d7 803d e0fd cdbd
00000240: 3553 0f3e 922a babe 38c0 3f3e 683d 233d
00000250: 40dc 8f3e 8f34 39be 6647 1b3e 1e7a a43d
00000260: 6e40 0b3e 1a95 c6be d854 f039 1103 b93d
00000270: dfcc a1bd b7f8 963d 8469 f53c 3714 e03c
00000280: 01ba 893e 6fdc 72be 9f96 b5be 3236 2a3e
00000290: 8f61 bdbe ae9e 6bbe f069 3e3e e3ae a63d
000002a0: 2d57 95be 976c 013e aae0 bcbe 70d1 443e
000002b0: 0f77 3fba 1964 5e3e 2aca 053e a88e 92be
000002c0: c938 463e 15d0 b0be 2843 28be 81e7 7c3e
000002d0: 0527 68be db77 ebbe 348a ef3d c80c 833c
000002e0: f330 a8bc 84a3 09bf 78a5 093e 3f5b 53be
000002f0: a0cc 77bc dc15 0e3e a3f7 8dbe bd1f c9bc
00000300: 5d51 4abf 1c7c f9be b649 1c3e beaf eabe
00000310: f0ee 04bf a501 88bd b8d4 fb3d cb7e bebe
00000320: 8bc4 e9be df9d 6d3e 8282 32be 663e 183e
00000330: 406d 903d 460a 553e 9bf4 47be 36ae 48bf
00000340: 1eca 403e dd1f 8bbe 3077 633e fd35 933d
00000350: 1a8d ffbd dc9e c1bc 56a6 4f3e 2796 99be
00000360: 2c1d 403e 87ad 193f 4f32 693d 4c32 21bf
00000370: 8f13 bcbe df28 cebe 8e05 03bf 62a7 5dbf
00000380: 2be7 3abe fad5 bdbe c464 2abf 8a90 0dbf
00000390: 67df 09bf 2870 dabe 671b 0bbf b79a a9be
000003a0: c64e 8d3e 8787 aebe 0dbf f53e eb50 e1be
000003b0: 214c 83be ea1a c7be 3e51 543e 561a fdbe
000003c0: 7ec8 943e cc87 083f a3a3 13bf 2394 aebd
000003d0: 3bdc 79bf a8aa 9f3e c0f5 293e 36b0 d1be
000003e0: 84c4 eebe a76a 33be db23 263e 843d e9be
000003f0: 98cb 92be 9f68 2e3e ba67 d23d 96a6 2bbc

mlp.8.bias f4 [5]
0.44075105 -0.5613187 0.31214997 -0.2590293 -0.2311543
00000000: 1faa e13e 95b2 0fbf 1fd2 9f3e 7d9f 84be
00000010: b6b3 6cbe

exp_avg f4 [128, 24]
-0.0005378945 3.2838543e-05 0.0007433276 -0.0016249581 -0.00012490097 -0.00038110832 1.6697408e-06 -0.00034322342
-0.000120171855 0.0020841707 0.0027274108 -0.0019804635 0.00010161857 1.2050646e-05 -4.9450664e-05 -5.8800946e-05
0.002536185 -0.0019384562 -0.0023300224 0.0030195338 -0.0012152926 -0.0009445998 -0.00080052717 -0.0011971801
-0.008824724 -0.049264662 -0.05623417 0.06305457 -0.031471286 -0.03347666 -0.029176611 -0.026184395
0.022224009 -0.036760177 -0.0367423 0.02965392 -0.0015514023 -0.0016297604 -0.0031152843 -0.0047820695
-0.0049485853 -0.07545015 -0.0858546 0.08548404 -0.051288754 -0.0409625 -0.034735925 -0.031982575
0.0063584074 0.0059152246 0.007436902 -0.005070726 0.0048674354 0.0030814696 0.0026002594 0.0022112092
-0.0009608571 0.008926794 0.0075505967 -0.0066329045 0.00020955756 0.00031622284 0.00044561556 0.0006043994
-8.710959e-05 0.003220089 0.0030036857 0.006685901 0.0043286523 0.0039409962 0.0035221402 0.0039177705
-0.0014692378 -0.008424556 -0.00651136 0.00558052 -0.0052409004 -0.0036084517 -0.0025436808 -0.0021772454
-0.0010494131 -0.0036704422 -0.001793424 0.003431505 -8.532355e-05 -0.00017054267 -0.00022550636 -0.0004421606
0.0022719793 -0.006812056 -0.004789963 0.004164211 -0.006475123 -0.0046605365 -0.0032337287 -0.003030875
-0.013997709 -0.019222718 -0.011535268 0.011619356 -0.013952673 -0.0040003415 -0.0010737533 0.00030194738
-0.0012270348 -0.0042197923 -0.00046044047 0.004930667 -0.0001586085 -0.00025964045 0.00010349879 3.073388e-05
0.004352208 -0.0081542665 -0.008753015 0.0099800285 -0.0053667827 -0.002836319 -0.001607329 -0.0009510979
-0.029816674 -0.0027713294 -0.006214326 -0.0018433598 -0.0032184857 -0.0055718995 -0.0060503855 -0.003821481
0.011129689 -0.0057673724 0.0010806858 0.0029448809 -0.0003206982 -0.00031360626 -0.00059741654 -0.001051873
0.003545979 -0.004920302 -0.0006340717 0.00473559 -0.0072072344 -0.005985483 -0.0050066877 -0.00351801
0.0015080537 -0.011619798 -0.01331968 0.013050584 -0.005288537 -0.0048171473 -0.0036330796 -0.0027465108
-0.0006217522 -0.0053788964 -0.0056854608 0.0041145026 -0.00015168851 -0.0002678682 -0.00037332007 -0.0004929889
0.00045187536 -0.008771513 -0.009970072 0.010925963 -0.0051913317 -0.00460242 -0.0036832474 -0.003274567
0.030861856 -0.001711571 -0.008762383 0.007106717 0.0036425656 0.002437578 -0.00016642976 -0.0021359914
-0.002436608 0.0077415393 0.0014352337 -0.0005313774 0.00024352055 0.00032106505 0.00055874564 0.00033507304
-0.016104449 0.0062680454 0.0026499103 -0.013275971 0.003339162 0.0012263092 -0.00022419229 0.00049771543
0.00010723386 0.011623518 0.012892209 -0.0150973 0.0039986535 0.0033969993 0.004873607 0.0021670696
-0.0005474296 0.003975916 0.003225538 -0.0031463203 9.320878e-05 0.00010808841 0.00015901857 0.00019990194
0.00036237738 0.0035136174 0.0060650334 -0.0028699362 0.0023837183 0.00282832 0.0030728588 0.0025333099
-0.025527395 -0.017580077 -0.0066831154 0.011429186 -0.016821612 0.0008104776 0.0041556503 0.0060368767
0.009981983 -0.005665174 0.00047858967 0.009927092 7.896857e-06 -7.386318e-05 0.0006060857 0.0011319399
0.0020212105 0.012969527 0.015209034 -0.017280102 0.00969768 0.008629961 0.0064468174 0.0062580304
-0.0033323718 -0.0015063217 -0.0012401025 -0.000477296 -0.0013735524 0.00024002069 0.0007050078 0.00049542094
-0.0029642538 -0.0028225253 -0.00064689753 0.001920098 -0.00011723838 -0.0001306534 -8.161395e-06 7.501893e-05
00000000: 7d01 0dba 1ebc 0938 dfdb 423a 8cfc d4ba
00000010: d9f7 02b9 7ecf c7b9 db1b e035 abf2 b3b9
00000020: c604 fcb8 9596 083b 5cbe 323b aaca 01bb
00000030: 0e1c d538 212d 4a37 3f69 4fb8 09a1 76b8
00000040: 2036 263b cc13 feba 4ab3 18bb 5fe3 453b
00000050: 744a 9fba 059f 77ba 78da 51ba b3ea 9cba
00000060: 9395 10bc bec9 49bd cd55 66bd c122 813d
00000070: 09e8 00bd d21e 09bd ca03 efbc a880 d6bc
00000080: 200f b63c d791 16bd 187f 16bd c7ec f23c
00000090: 6c58 cbba af9d d5ba cc29 4cbb e8b2 9cbb
000000a0: be27 a2bb 9c85 9abd 89d4 afbd 4212 af3d
000000b0: 2814 52bd 4bc8 27bd 4247 0ebd 2900 03bd
000000c0: 305a d03b 80d4 c13b 41b1 f33b 5528 a6bb
000000d0: 027f 9f3b 7bf2 493b 1d69 2a3b efe9 103b
000000e0: 07e2 7bba b041 123c ff6a f73b d658 d9bb
000000f0: aebc 5b39 b6ca a539 82a1 e939 8f70 1e3a
00000100: 9bae b6b8 2108 533b 7cd9 443b 6715 db3b
00000110: 5ed7 8d3b 7923 813b b5d3 663b a460 803b
00000120: 7193 c0ba 2607 0abc 3f5d d5bb cbdc b63b
00000130: dcbb abbb c67b 6cbb e2b3 26bb 1eb0 0ebb
00000140: 768c 89ba cd8b 70bb 5311 ebba 1ae3 603b
00000150: bbef b2b8 b3d3 32b9 e775 6cb9 cbd1 e7b9
00000160: 7de5 143b ab37 dfbb 1ff5 9cbb ef73 883b
00000170: 452d d4bb 6ab7 98bb f7ec 53bb a5a1 46bb
00000180: a656 65bc f678 9dbc 6cfe 3cbc 1d5f 3e3c
00000190: c199 64bc 4c15 83bb 2fbd 8cba b14e 9e39
000001a0: 75d4 a0ba 2f46 8abb 4667 f1b9 6f91 a13b
000001b0: 2550 26b9 5a20 88b9 7d0d d938 41e8 0038
000001c0: f89c 8e3b 7999 05bc ce68 0fbc 4683 233c
000001d0: d6db afbb 89e1 39bb 03ad d2ba 1a53 79ba
000001e0: 1942 f4bc 319f 35bb 8ba1 cbbb e49c f1ba
000001f0: 3bed 52bb 7b94 b6bb 5042 c6bb d071 7abb
00000200: 4d59 363c 3afc bcbb cca5 8d3a e7fe 403b
00000210: 6223 a8b9 856b a4b9 f29b 1cba 00df 89ba
00000220: a863 683b 7c3a a1bb d537 26ba 022d 9b3b
00000230: aa2a ecbb df21 c4bb 240f a4bb 6a8e 66bb
00000240: e3a9 c53a f760 3ebc c93a 5abc 1ed2 553c
00000250: 774b adbb 29d9 9dbb f618 6ebb cefe 33bb
00000260: 15fd 22ba 7441 b0bb 1a4d babb f3d2 863b
00000270: 930e 1fb9 a970 8cb9 2cba c3b9 ed3b 01ba
00000280: afe9 ec39 64b6 0fbc 8359 23bc cf02 333c
00000290: 0c1c aabb e6cf 96bb a362 71bb 1e9a 56bb
000002a0: 01d2 fc3c cb56 e0ba 1990 0fbc 77df e83b
000002b0: 1cb8 6e3b c6bf 1f3b a683 2eb9 fdfb 0bbb
000002c0: 80af 1fbb bdac fd3b 741e bc3a 224c 0bba
000002d0: 8d59 7f39 9f54 a839 c978 123a beac af39
000002e0: 7aed 83bc 2d64 cd3b 1eaa 2d3b 7583 59bc
000002f0: d8d5 5a3b 1cbc a03a 2915 6bb9 1e79 023a
00000300: bde2 e038 9170 3e3c d839 533c aa5a 77bc
00000310: 2307 833b 31a0 5e3b c7b2 9f3b 6505 0e3b
00000320: 6181 0fba 6748 823b 8c63 533b 7f32 4ebb
00000330: 1579 c338 86ad e238 39be 2639 c59c 5139
00000340: 78fd bd39 b844 663b 30bd c63b 8a15 3cbb
00000350: 2838 1c3b 565b 393b 0462 493b e305 263b
00000360: d41e d1bc 1804 90bc 09fe dabb 7b41 3b3c
00000370: 7acd 89bc 3b76 543a 1f2c 883b fed0 c53b
00000380: 798b 233c eda2 b9bb 38eb fa39 3ea5 223c
00000390: be7c 0437 fee6 9ab8 b9e1 1e3a 9a5d 943a
000003a0: 4976 043b 247e 543c 502f 793c 008f 8dbc
000003b0: 05e3 1e3c ae64 0d3c d33f d33b 2a10 cd3b
000003c0: ec63 5abb c56f c5ba ef8a a2ba 963d fab9
000003d0: c508 b4ba 10ae 7b39 46d0 383a 23df 013a
000003e0: ed43 42bb 1efa 38bb 8f94 29ba ccab fb3a
000003f0: e0dd f5b8 0100 09b9 edec 08b7 7b53 9d38

exp_avg_sq f4 [128, 24]
9.545287e-05 8.060276e-05 7.397977e-05 8.0878795e-05 4.196636e-05 2.0746305e-05 1.3592073e-05 1.1369875e-05
0.00011031225 4.574504e-05 5.5736957e-05 3.901071e-05 1.17972824e-07 1.0225519e-07 1.6098828e-07 3.625779e-07
6.2311534e-05 5.837276e-05 8.857606e-05 8.889282e-05 4.0467407e-05 2.9863328e-05 1.915146e-05 1.5955187e-05
0.0031502962 0.00529396 0.0048996964 0.007103722 0.002354071 0.0012586922 0.0009223151 0.00091683643
0.0029902596 0.0014459041 0.001270791 0.0012313429 2.5702086e-06 3.889945e-06 1.0439693e-05 2.8685052e-05
0.00043162485 0.0073628305 0.009404486 0.0090469625 0.0033792346 0.002330122 0.0016734804 0.0013441002
0.00035965585 0.0031902995 0.003077429 0.0030238861 0.00077844114 0.00044718006 0.00028300754 0.00018963467
3.5716064e-05 0.001659037 0.0011115688 0.00091898214 9.547982e-07 1.9748195e-06 3.93055e-06 7.280373e-06
9.023599e-05 0.0019159801 0.0022740643 0.002142918 0.000759364 0.0005333623 0.00035785144 0.0002714608
0.000535827 0.002064224 0.0016346073 0.001938458 0.0007523389 0.00042582484 0.0002570554 0.00020793971
0.000603229 0.00049901503 0.00037237882 0.0003285481 7.140931e-07 1.1511835e-06 2.5772288e-06 6.3840203e-06
0.000281773 0.0014521758 0.0014737647 0.0014118954 0.00076309906 0.0005395338 0.00035833614 0.0002795131
0.0009963696 0.0014523462 0.0013377685 0.001315288 0.0007157599 0.00034177123 0.00016846202 0.0001458473
0.00090117037 0.0004316838 0.00032135574 0.00030770357 7.6047274e-07 1.0830828e-06 2.1054684e-06 5.5989435e-06
0.00047772136 0.0015942239 0.0018583363 0.0017938487 0.00083246 0.00059708755 0.0003818536 0.0002823333
0.0017343564 0.000440168 0.0006573214 0.000497403 0.00034258285 0.00019841579 0.00012419625 0.00012514844
0.0014282434 0.0005634501 0.0007194349 0.00062171364 1.1376744e-06 1.7531754e-06 2.1891342e-06 4.1073486e-06
0.00070621166 0.00076674164 0.0008920524 0.00091575965 0.0005063474 0.00034350826 0.00023557722 0.00018612559
0.0005289356 0.0100105805 0.008937162 0.010656324 0.0026890193 0.0016673086 0.00110008 0.0007498066
0.00046387888 0.0028900974 0.0020079492 0.0018711847 2.5831957e-06 5.1750126e-06 1.1239755e-05 2.2521113e-05
9.806989e-05 0.0063701356 0.007972906 0.00764825 0.0025104326 0.001802609 0.0012908687 0.001015542
0.0010618716 0.004275707 0.003336314 0.0037944207 0.0014310868 0.0008726708 0.00047611195 0.0003286027
0.001170729 0.0010508052 0.00086888066 0.0007507295 1.8127998e-06 2.5070417e-06 5.4718853e-06 1.0062484e-05
0.00083294377 0.0019560463 0.0020811057 0.0019488345 0.0011583912 0.00090449833 0.000565764 0.0004136072
0.00026482652 0.005175862 0.005159814 0.004911672 0.0014894772 0.00083147985 0.0004399015 0.00032286902
0.00024931753 0.0014835199 0.0011156449 0.0010074843 1.4991475e-06 2.5938107e-06 4.6351274e-06 1.0444286e-05
0.00020780292 0.0029608258 0.0035943647 0.0034665493 0.0013125034 0.00093073345 0.0006032855 0.0004735137
0.0016586774 0.0011595438 0.00096807495 0.0010536242 0.00058897806 0.0003469509 0.00022788612 0.00018557522
0.0012019825 0.0004878753 0.0004130666 0.00037315904 7.098681e-07 1.0827753e-06 2.5698696e-06 6.190367e-06
0.00034237685 0.0015113555 0.0016371742 0.0016084356 0.00080453826 0.000574308 0.00035698494 0.00028133162
0.00012127063 4.308403e-05 7.308007e-05 5.7699533e-05 2.54459e-05 1.7171084e-05 1.2740946e-05 7.2549324e-06
0.0002467993 0.0001299959 9.58315e-05 9.276521e-05 3.3607378e-07 6.7623097e-07 1.9250895e-07 2.0280255e-07
00000000: df2d c838 4709 a938 9625 9b38 799d a938
00000010: 0905 3038 5a08 ae37 8209 6437 3ec1 3e37
00000020: 7057 e738 5dde 3f38 1ac7 6938 6e9f 2338
00000030: 3f58 fd33 6397 db33 1fdc 2c34 54a8 c234
00000040: 40ad 8238 46d5 7438 e9c1 b938 f86b ba38
00000050: 8cbb 2938 0283 fa37 72a7 a037 81d7 8537
00000060: 3375 4e3b f578 ad3b a28d a03b 57c6 e83b
00000070: c246 1a3b b4fa a43a 85c7 713a da57 703a
00000080: 3bf8 433b 7e84 bd3a ac90 a63a 0365 a13a
00000090: d97b 2c36 6086 8236 2426 2f37 aea0 f037
000000a0: b54b e239 e643 f13b 4615 1a3c b639 143c
000000b0: 2676 5d3b f6b4 183b af58 db3a 852c b03a
000000c0: 3190 bc39 5814 513b b1ae 493b 642c 463b
000000d0: 4d10 4c3a 7e73 ea39 a160 9439 abd8 4639
000000e0: d5cd 1538 0b74 d93a 0fb2 913a d9e7 703a
000000f0: 9e26 8035 2487 0436 2be3 8336 ee49 f436
00000100: 143d bd38 a021 fb3a 7808 153b 3370 0c3b
00000110: 0e10 473a 57d1 0b3a 029e bb39 da52 8e39
00000120: be76 0c3a ef47 073b 5240 d63a db13 fe3a
00000130: 9c38 453a 3e41 df39 64c5 8639 640a 5a39
00000140: 0322 1e3a 55d0 023a d73b c339 fb40 ac39
00000150: 1bb0 3f35 5d82 9a35 74f4 2c36 5136 d636
00000160: efba 9339 ef56 be3a 562b c13a 590f b93a
00000170: b60a 483a 806f 0d3a 10df bb39 9d8b 9239
00000180: 9e98 823a a75c be3a 1058 af3a be65 ac3a
00000190: d5a1 3b3a c22f b339 2ea5 3039 96ee 1839
000001a0: 853c 6c3a 9e53 e239 a37b a839 4653 a139
000001b0: 4a23 4c35 715e 9135 ac4b 0d36 8fde bb36
000001c0: ad76 fa39 47f5 d03a 6b93 f33a 931f eb3a
000001d0: 7239 5a3a de85 1c3a 8633 c839 2206 9439
000001e0: 5853 e33a 59c6 e639 1850 2c3a 2664 023a
000001f0: b19c b339 d50d 5039 ad3a 0239 473a 0339
00000200: e533 bb3a 7fb4 133a 7598 3c3a 7ffa 223a
00000210: 32b2 9835 a64e eb35 0ae9 1236 dbd1 8936
00000220: 1021 393a 29ff 483a a0d8 693a 970f 703a
00000230: 66bc 043a e618 b439 4705 7739 b52a 4339
00000240: 44a8 0a3a 6b03 243c 2d6d 123c dd97 2e3c
00000250: 423a 303b 9889 da3a 8f30 903a ab8e 443a
00000260: c534 f339 ca67 3d3b cc97 033b 8a42 f53a
00000270: f75a 2d36 05a5 ad36 6192 3c37 b9eb bc37
00000280: dfaa cd38 92bc d03b cba0 023c 2c9e fa3b
00000290: 1286 243b 8545 ec3a 5e32 a93a ef1b 853a
000002a0: 802e 8b3a 3b1b 8c3b 10a6 5a3b d1ab 783b
000002b0: 4e93 bb3a f2c3 643a aa9e f939 4f48 ac39
000002c0: 2673 993a 2cbb 893a 98c5 633a 9bcc 443a
000002d0: 544f f335 a63e 2836 239b b736 0ad2 2837
000002e0: e959 5a3a 0331 003b 2963 083b 0970 ff3a
000002f0: 29d5 973a db1b 6d3a c84f 143a 6bd9 d839
00000300: 6ad8 8a39 479a a93b a813 a93b 17f2 a03b
00000310: 903a c33a abf7 593a 94a2 e639 bf46 a939
00000320: d5b6 8239 ab72 c23a d53a 923a 900d 843a
00000330: 5136 c935 5411 2e36 7187 9b36 de39 2f37
00000340: ace5 5939 6a0a 423b 6f8f 6b3b 0c2f 633b
00000350: 4e08 ac3a 77fc 733a ce25 1e3a ef41 f839
00000360: fa67 d93a d5fb 973a 69c6 7d3a c319 8a3a
00000370: a665 1a3a f6e6 b539 b7f4 6e39 f896 4239
00000380: d78b 9d3a 84c9 ff39 dc90 d839 8fa4 c339
00000390: c48d 3e35 e053 9135 0676 2c36 d9b6 cf36
000003a0: 0b81 b339 ad18 c63a 7396 d63a 25d2 d23a
000003b0: a6e7 523a 288d 163a b529 bb39 b17f 9339
000003c0: ac52 fe38 20b5 3438 9042 9938 6702 7238
000003d0: a774 d537 9f0a 9037 f2c1 5537 656f f336
000003e0: d764 8139 824f 0839 25f9 c838 f18a c238
000003f0: a16d b434 3d86 3535 75b4 4e34 f1c1 5934

exp_avg f4 [128]
0.001459905 0.08104026 -0.009521212 0.00867939 0.0028618467 0.018134108 0.008011617 -0.0050326632
-0.003422527 -0.01636959 -0.0010878367 -0.0027492607 0.008508796 -0.0042464556 -0.019224256 0.009578171
0.01401776 0.0002130584 0.034542132 -0.006103366 0.0024627808 -0.016523559 -0.0011271749 0.0016180684
-0.038945455 -0.015863061 0.014972556 0.0016286355 -0.0009919668 -0.0023812244 -0.012526419 -0.0011332055
-0.0066164844 -0.0032617801 0.013202163 0.032186687 0.0031994956 -0.008312655 -0.013456471 0.011163893
-0.0026126783 -0.007823936 0.018425796 -0.002896702 0.002413698 0.0031932255 -0.0022615925 -0.03485067
0.05204335 -0.0030796428 -0.0015674398 -0.0016960057 -0.0003351635 -0.00022536416 0.00056737044 0.0014626754
0.0020902369 -0.006302661 0.009786172 0.013544358 0.002341215 -0.0038606212 -0.015117793 0.00439364
0.0004938468 0.0007026394 -0.0026345078 -0.001409469 -0.0033320535 -0.030704057 -0.004596615 0.0060397545
0.010353033 -0.0048900465 -0.0049485676 -0.009112483 -0.025341708 0.02109258 -0.008073537 0.0036885843
0.011714163 -0.009444384 -0.0046379743 -0.013968161 0.0139468545 0.0032961124 0.00089051784 -0.010285325
0.042871125 -0.0021670284 0.024246244 -0.0013181486 -0.103445284 3.5918492e-05 0.0006169371 -0.005062412
0.011057751 0.02823635 -0.0062272996 -0.00022024463 0.0029010873 -0.008433109 0.0025432466 0.008041562
-0.00011485614 0.013373868 0.004982287 0.0028309412 0.008143972 0.006790726 0.00037174576 -0.0028962877
-0.034029763 -0.031937744 0.042678498 0.013873567 -0.0014682697 -0.0032988868 0.0005444353 0.0077029895
-0.007492777 -0.03754408 0.006285091 -0.02877262 0.014459928 -0.0035512294 0.014844724 -0.024508309
00000000: 485a bf3a 70f8 a53d dcfe 1bbc 0034 0e3c
00000010: d28d 3b3b fb8d 943c 2843 033c 0ae9 a4bb
00000020: 7a4c 60bb 8519 86bc be95 8eba f12c 34bb
00000030: 7a68 0b3c da25 8bbb 307c 9dbc c3ed 1c3c
00000040: bfaa 653c 6e68 5f39 0d7c 0d3d bffe c7bb
00000050: 9b66 213b 6a5c 87bc b7bd 93ba 5e15 d43a
00000060: 4585 1fbd 40f3 81bc 744f 753c f077 d53a
00000070: e204 82ba 510e 1cbb 9c3b 4dbc 1188 94ba
00000080: 18cf d8bb 97c3 55bb e34d 583c 30d6 033d
00000090: a1ae 513b cd31 08bc 8878 5cbc c3e8 363c
000000a0: 7839 2bbb f72f 00bc b2f1 963c 98d6 3dbb
000000b0: 222f 1e3b 6f45 513b 3a37 14bb 93bf 0ebd
000000c0: 682b 553d d5d3 49bb 8d72 cdba 824c deba
000000d0: e2b8 afb9 bb4f 6cb9 96bb 143a 3eb7 bf3a
000000e0: 5bfc 083b 8d86 cebb 2e56 203c 28e9 5d3c
000000f0: 126f 193b 7a02 7dbb 9fb0 77bc 86f8 8f3b
00000100: 7f75 013a 5531 383a b5a7 2cbb efbd b8ba
00000110: 955e 5abb 1387 fbbc 349f 96bb 22e9 c53b
00000120: c59f 293c af3c a0bb 9827 a2bb 864c 15bc
00000130: 6a99 cfbc 59ca ac3c de46 04bc 2dbc 713b
00000140: c3ec 3f3c 9ebc 1abc 26fa 97bb b7da 64bc
00000150: 5981 643c 9703 583b a471 693a c883 28bc
00000160: a299 2f3d b404 0ebb 0fa0 c63c bac5 acba
00000170: 1fdb d3bd 30a7 1638 f3b9 213a 97e2 a5bb
00000180: 922b 353c eb4f e73c 600e ccbb 78f1 66b9
00000190: 2b20 3e3b 062b 0abc 99ac 263b c1c0 033c
000001a0: ecde f0b8 111e 5b3c 7442 a33b 5087 393b
000001b0: 4b6e 053c bd84 de3b dfe6 c239 a5cf 3dbb
000001c0: cb62 0bbd 27d1 02bd a6cf 2e3d f54d 633c
000001d0: f572 c0ba 2332 58bb 6fb8 0e3a 5c69 fc3b
000001e0: f885 f5bb d2c7 19bd 2af3 cd3b 8fb4 ebbc
000001f0: 55e9 6c3c bebb 68bb 4937 733c a6c5 c8bc
