results/baseline/sleep-edf/seed_42/best_model.pth (torch, 160757 bytes, 30 tensors)

mlp.0.weight f4 [128, 24]
000000 22 38 86 3a 4b 4a b6 3e 2c b3 10 be 34 d6 31 3d
       0.0010240118 0.35603556 -0.14130849 0.04341717
000010 19 e4 a2 bd de a2 41 be bc 29 b1 3d 51 73 fa 3d
       -0.079536624 -0.18909785 0.08650538 0.12229026
000020 5d 15 a9 bb fa 7d ef 3c ad ca fe bb 56 0b 6b 3d
       -0.0051600174 0.029234875 -0.0077756257 0.057383858
000030 6a 69 4e 3e e8 bf b6 3e a2 54 3e bf 3b 48 bf bc
       0.201574 0.35693288 -0.7434789 -0.023349872
000040 4b d0 6a 3c 12 ee 5f 3d 96 d8 db bc 26 d7 01 bc
       0.0143318875 0.0546704 -0.026836675 -0.007924831
000050 32 16 42 be 7a fb e1 bd fb 87 66 be 55 0c 60 3e
       -0.1895378 -0.110342935 -0.2251281 0.21879704
000060 ae 41 55 ba 3a 8e d9 bd c8 5c 0c be ee 53 90 bd
       -0.0008135092 -0.10622831 -0.13707268 -0.07047258
000070 a9 a9 2a 3e 24 fe 94 be 9f 65 5f 3e 07 5a a7 bd
       0.16666283 -0.29100144 0.21816109 -0.08171468
000080 99 18 44 bc 0f 71 87 3d ad 6f 2a be 39 09 70 3e
       -0.011968755 0.06613361 -0.16644163 0.23441018
000090 4f 04 21 bf 67 8a c0 3e bd c5 9d 3f e9 18 e9 3e
       -0.628972 0.37605593 1.232597 0.45526817
0000a0 d5 92 a7 3b 15 f9 f7 bb 4a 93 e5 3b 24 55 63 3d
       0.0051139393 -0.0075675347 0.0070060836 0.05550112
0000b0 8f 38 7b 3c 50 60 82 bd 58 48 fd 3d 7b 25 0c 3e
       0.015333309 -0.063660264 0.12367314 0.13686173
0000c0 ba 17 65 3c fa 0f 1b be 85 bf 5a be 01 e8 6a 3d
       0.013982708 -0.15142813 -0.21362121 0.057350162
0000d0 7f 17 78 be fc 45 97 3e 58 29 ca 3d 18 79 70 3e
       -0.24227713 0.2954558 0.09871167 0.23483694
0000e0 db 64 81 bc 94 f0 e8 bb 6e 46 1d 3d c5 2e ae bd
       -0.015795162 -0.0071087573 0.038397245 -0.08505014
0000f0 0e 1e 6d 3d 33 a8 2d bf f2 78 6e 3f 28 ca 3f bf
       0.05788999 -0.67834777 0.931533 -0.7491784
000100 a0 20 4c 3d c3 1c fd bc c7 c9 9c 3d f5 b8 5f bd
       0.0498358 -0.030897504 0.076556735 -0.05461975
000110 6f fa 13 be 0a 7f 6b be cd 83 c2 3d 6c bf 93 3d
       -0.14451002 -0.2299768 0.09497795 0.07214245
000120 18 20 9d 3c ab 57 2f be 52 21 a6 bd 1d b2 bd 3c
       0.019180343 -0.17123286 -0.08111824 0.02315622
000130 a5 b6 ab be e1 95 87 3e 54 dd 7a 3d 5d 72 88 3e
       -0.33537784 0.26481536 0.06124623 0.26649752
000140 37 1b 7c bb 4b e6 23 3d 0f ee c4 3c e2 1e 1e bc
       -0.003846837 0.040014546 0.024039296 -0.009650918
000150 10 28 a6 3e 42 3f 40 be 94 7b fe 3e 01 cf 69 bf
       0.3245244 -0.18774131 0.49703658 -0.9133149
000160 c5 3a d8 3a 82 3b 35 bd 3d 8c b5 3c fe 5a 86 bd
       0.0016497007 -0.044246204 0.022161597 -0.06560324
000170 8f e6 fa 3d 0e da d3 bd 5c ce a6 be 16 81 b8 be
       0.12251007 -0.10344325 -0.32579315 -0.36035985
000180 47 a7 17 3c 7a 38 95 3d 20 32 0b 3c cf 0a b6 be
       0.009256191 0.07286163 0.008495837 -0.3555512
000190 68 61 09 be d0 33 12 3e f6 cf 31 be fe 4f d3 bd
       -0.13416064 0.14277577 -0.17364487 -0.10317992
0001a0 5e 40 b6 bc c4 a7 d1 3d 75 a3 43 be f0 18 61 be
       -0.02224749 0.10237077 -0.19105323 -0.21982169
0001b0 ed 44 81 be 11 25 3f 3f d8 4a 87 bf 4b ef 4f bf
       -0.252479 0.74665934 -1.0569715 -0.8122451
0001c0 03 64 0a 3d 60 df 89 be 2c 5e 1a be 41 07 a6 bd
       0.033786785 -0.26928234 -0.15074986 -0.08106852
0001d0 1f 96 1b 3e 9f ab 8a be f4 b1 10 be d0 c3 e6 3e
       0.15193985 -0.27084062 -0.14130384 0.45071268
0001e0 d3 79 dd ba b6 d2 a4 3d 35 12 00 bc a1 b3 1d bd
       -0.0016897268 0.080480024 -0.007816841 -0.038501386
0001f0 22 64 ab 3b c5 8e 6d be a0 df 0d be 85 0a 28 bd
       0.0052304426 -0.23198994 -0.13854837 -0.041025657
000200 86 0a ec ba bd 0f 57 be 0d 36 be 3d 80 ec 07 be
       -0.0018008507 -0.21002097 0.09287653 -0.13273811
000210 1a af b6 be 6c 84 f4 3e 90 61 a2 3e 81 61 bb bc
       -0.35680467 0.4775728 0.3171506 -0.022873642
000220 54 b6 c2 3c a6 f6 cf be 8a 4b f3 3d 76 d9 b4 bd
       0.023768581 -0.40617865 0.11879642 -0.0883054
000230 a7 ff 59 bd 35 9b cf bd 6e f3 a2 3e d1 7b 01 3e
       -0.053222325 -0.10137025 0.31826347 0.12644888
000240 31 e8 2b 3c 5c 1c 1b be 50 5e f0 bb e3 e9 f7 bb
       0.01049237 -0.15147537 -0.0073354617 -0.0075657233
000250 2f a7 cc 3d 82 2c e2 be 14 05 0b 3e 93 cf 80 bc
       0.09992825 -0.44174582 0.13576156 -0.01572398
000260 c7 6c de bb 6c e1 7a bd f5 3e ad 3d 50 18 cd bd
       -0.0067878696 -0.061250135 0.08459274 -0.10014403
000270 ac 22 f7 3e cd bb 7e bf 16 d4 a2 3e c9 49 75 bf
       0.4826864 -0.9950531 0.31802434 -0.9581571
000280 bb 09 6f 3c d5 d9 d1 bd c3 d3 39 3d 1c 1c 14 bd
       0.014589722 -0.10246626 0.045367967 -0.03615962
000290 12 bf f9 3d 7c be cf be ee 34 2e be e1 f0 b5 3e
       0.12194647 -0.40575016 -0.17012379 0.3553534
0002a0 d3 67 c8 3b e8 ed 27 bd 95 18 e8 bd 16 8e 74 3c
       0.0061158924 -0.04099837 -0.11332814 0.014926454
0002b0 aa f1 32 3d 3a 81 90 bc 7b 61 7e 3d ae c8 dd 3d
       0.0436875 -0.017639745 0.062104683 0.10829292
0002c0 df 9f 8a bc ad 8c d9 3d 69 52 a6 3d 07 62 36 bc
       -0.016921936 0.10622535 0.08121187 -0.01113177
0002d0 14 ce 0f 3e 6b 68 e6 bf ec a4 74 bf 31 f1 2e be
       0.14043456 -1.8000616 -0.9556415 -0.17084195
0002e0 36 a5 a1 3b 60 3a 35 3e f3 02 90 bc 09 41 c9 3d
       0.0049330248 0.1769805 -0.017579531 0.098268576
0002f0 e9 5a c4 bd 27 a8 02 bd 4a 93 eb 3d 8b c7 0b be
       -0.09587652 -0.031898644 0.115027025 -0.13650338
000300 18 19 68 3c d2 fa a0 3d d7 40 e4 bd 50 97 93 bc
       0.014166139 0.0786034 -0.1114518 -0.018016487
000310 5e 3e 02 bc 6f 51 7e 3c 56 58 57 be c0 10 3d 3e
       -0.00794944 0.015522345 -0.21029791 0.18463421
000320 b5 f7 48 bc c7 a3 2a be 82 cf 0b 3e a7 80 04 3e
       -0.012266089 -0.16664039 0.13653377 0.12939702
000330 ec a7 55 bf 9d f0 09 bf 60 09 3f 3f 74 57 82 3f
       -0.83459353 -0.5388277 0.7462368 1.0182939
000340 77 8f 3f 3c 72 28 a8 bd 55 e5 9f 3c 14 db bc bc
       0.0116919195 -0.08210839 0.019518534 -0.023053683
000350 21 40 85 bd 7c 7a c9 bc 32 9f be 3d 08 82 ba 3d
       -0.06506372 -0.024594538 0.09307708 0.09106833
000360 2e 9f 08 3c a7 09 d9 bd 35 b1 be bc ad f0 28 bc
       0.008338733 -0.10597544 -0.023277858 -0.010311288
000370 0a f3 77 bc 1f 13 2c 3d e3 3b 81 bd 6f 62 41 be
       -0.015133629 0.042010423 -0.063102506 -0.18885206
000380 3d 94 6e bc 4e b4 9d 3d 2e 9f b9 3b d5 06 2d 3d
       -0.01456171 0.07700406 0.0056647277 0.042242844
000390 b6 d9 3c 3e 43 dc eb 3d 5b e3 89 bf 9a 76 0b bf
       0.18442425 0.11516621 -1.0772508 -0.54477847
0003a0 d2 80 71 3c ca 8c f0 3b eb 1f 4e 3c 4e 78 65 3c
       0.014740186 0.007341002 0.012580852 0.014005734
0003b0 05 ee c7 3d 9f 2d 47 be dc 08 cf be 73 c4 f0 be
       0.097621955 -0.19450997 -0.40436447 -0.4702488
0003c0 e1 aa 19 3c 3b 4e f8 bc 9c 21 79 bd cb 9f 81 3c
       0.00937912 -0.03031074 -0.060823068 0.015823266
0003d0 81 d0 92 3d d8 ba be bc 80 43 99 3d 4f 44 2f bd
       0.07168675 -0.023282453 0.07483578 -0.042789754
0003e0 ae 77 58 bb 47 5a 4c 3e 9b 55 10 bc bd 8c 0e 3d
       -0.003303032 0.19956313 -0.008809472 0.034802187
0003f0 91 f7 ca bd 0a 76 84 bd d4 6c ee bf e4 17 17 be
       -0.09910501 -0.06467827 -1.8626962 -0.14755207

mlp.0.bias f4 [128]
000000 5e 78 33 3e 80 1e ec 3d 43 e8 4d bd 3f 76 00 be
       0.17526385 0.11529255 -0.05027033 -0.12545107
000010 1b 3e ef bd ba 02 64 3e 10 98 d5 bd e7 64 0b 3e
       -0.116817676 0.22266665 -0.10429394 0.1361271
000020 e7 8a 6c 3e bd 3f 8b be cb 7c 56 bd 0f f4 f5 bd
       0.23099862 -0.27197066 -0.052365106 -0.12009441
000030 0a 8d 6d bc 1b 29 b3 bc 92 28 62 3e 09 86 cc 3e
       -0.014498958 -0.021870187 0.22085789 0.3994601
000040 67 ad e7 3b 5d fa 90 3e 52 e9 1f 3e 2a b8 61 be
       0.0070702317 0.28316012 0.15616348 -0.2204291
000050 1b 83 0b bd 9f 07 35 3e 6d 30 9a 3e 0f 78 14 3d
       -0.03406058 0.17678688 0.3011507 0.03624731
000060 bc 46 2a 3d 36 e5 3a 3e cf 2e 29 be f9 86 76 3e
       0.041571364 0.182515 -0.16521762 0.24074925
000070 44 5e 65 3e d0 70 38 be 7f 62 39 be f0 04 7e 3e
       0.2239924 -0.18011785 -0.1810398 0.24806571
000080 ff 2b 31 3d f3 4a 93 3e 0c c7 c7 bd d8 b7 a9 3e
       0.04325485 0.2876812 -0.09754762 0.33148074
000090 b9 61 61 3d 93 01 68 be 8c 20 81 be d9 11 fd 3d
       0.055024836 -0.2265685 -0.25220144 0.1235692
0000a0 5f ee 37 3e e5 6e 22 3e 29 59 dd bd 96 28 eb 39
       0.17962025 0.15862615 -0.108080216 0.00044852932
0000b0 28 aa 0e be 17 82 7b 3e 4d e8 cc 3d 68 e7 82 be
       -0.13932097 0.24561344 0.10005245 -0.25567174
0000c0 83 c4 56 3e f9 8a d4 3d 85 70 6a 3e c0 84 7c bd
       0.20973401 0.103780694 0.22894485 -0.061650038
0000d0 27 55 68 3e 3a a0 46 bd a5 b9 66 bd 6f 27 2f ba
       0.22688733 -0.048492648 -0.05632939 -0.0006681596
0000e0 39 58 27 be 1d a4 14 3e ee 62 14 bd 9f ef 52 3e
       -0.16342248 0.14515729 -0.03622716 0.2059922
0000f0 4f 84 2c 3e e1 12 53 be 2e 16 e2 3c 64 c1 1d be
       0.16847347 -0.2061267 0.027598467 -0.15405804
000100 11 9c 22 3e 98 11 da bd 64 c4 53 3e 6d 02 ea 3d
       0.15879847 -0.10647887 0.20680386 0.11426244
000110 18 31 29 be f0 b4 91 3d 74 de 94 be 7b 13 43 3d
       -0.16522634 0.07114589 -0.29075968 0.047626
000120 13 f8 bb 3c 40 72 28 3e 28 09 9c 3e 45 4b 24 be
       0.02294544 0.16449833 0.30475736 -0.16044338
000130 da 2d 11 3e 1c 6a 78 be 72 ff 35 3d da ff 9e 3d
       0.14177647 -0.24259228 0.044433065 0.077636436
000140 f9 91 58 be 34 4e 83 3e 9b 9e bb 3d d5 13 e8 3c
       -0.21149434 0.25645602 0.09161111 0.02832977
000150 50 e2 f4 3d 6b 55 6d 3e 6a b9 90 3e e2 0b 2f 3c
       0.11957228 0.23177116 0.2826646 0.010683985
000160 22 14 06 3e a3 59 d6 3e 1c 87 84 be a9 ef 53 3e
       0.13093618 0.41865262 -0.2588433 0.20696892
000170 eb ba ea bd 3b 1b ba 3e e3 95 06 be 74 9f 44 be
       -0.11461433 0.363489 -0.13143115 -0.19201452
000180 16 2b c0 3e fd f1 67 be f5 c5 78 3e ba 5d 34 3e
       0.37532872 -0.22650905 0.24294265 0.17613879
000190 c9 19 29 3e c6 df 9c be 29 6e 7b be 65 2a ad bd
       0.16513743 -0.30639476 -0.24553742 -0.08455352
0001a0 72 f7 6f 3e c2 6d ee bc d3 19 04 3e dc 3c d9 bd
       0.23434237 -0.029105071 0.12900476 -0.10607311
0001b0 b2 0c 35 3d c9 f7 00 3e 04 78 d4 bd ce 99 24 3e
       0.04420156 0.12594523 -0.10374454 0.16074297
0001c0 13 e2 90 3e 0e 9c 90 bd a9 dd 1a 3e a1 a5 2a be
       0.2829748 -0.07061015 0.15123619 -0.16664745
0001d0 44 c1 bb bd 11 b7 07 3e 38 75 68 be 5c f1 ec 3d
       -0.09167722 0.13253428 -0.22700965 0.11569473
0001e0 63 fb 10 be 7e ec 4a 3e d7 57 5f 3e 59 36 4c 3e
       -0.14158396 0.19816777 0.21810852 0.19942607
0001f0 04 ea 6f 3e 48 51 49 3d 89 ef 9a 3d 98 c2 0e 3c
       0.23429114 0.04914978 0.07565219 0.008713387

mlp.1.weight f4 [128]
000000 24 fb 36 3f f2 3d 70 3f c1 87 5b 3f a9 6d 58 3f
       0.7147696 0.9384452 0.8575402 0.8454233
000010 6c 38 40 3f b4 1e 3e 3f 31 1f a8 3f 27 c0 84 3f
       0.7508609 0.742656 1.3134519 1.037114
000020 3c a9 83 3f 91 aa 8b 3f 46 2e 5e 3f 79 90 7d 3f
       1.0286021 1.0911428 0.8678936 0.9904857
000030 74 e9 71 3f 2f 08 3a 3f ed dd 69 3f c1 a5 27 3f
       0.94496846 0.7266874 0.91354257 0.65487295
000040 d3 29 78 3f 52 1e 42 3f 0d dc 86 3f bd 3c 87 3f
       0.9693882 0.75827515 1.0535904 1.0565411
000050 31 07 81 3f e6 39 7d 3f 4e ea 19 3f 61 96 51 3f
       1.008032 0.9891647 0.60123146 0.81870085
000060 5a c7 85 3f 75 b3 20 3f d1 92 5d 3f a3 21 89 3f
       1.0451462 0.6277383 0.8655215 1.071339
000070 e2 7c 31 3f 92 2c 62 3f 3c ca 86 3f 7c ad 6d 3f
       0.6933118 0.8834926 1.0530467 0.9284284
000080 e6 e1 76 3f 1d 7f b9 3e 53 24 58 3f e7 de ad 3e
       0.96438444 0.36229792 0.84430426 0.33959123
000090 35 e4 70 3f 16 7d 9f 3f be d6 85 3f 33 1d a0 3f
       0.94098216 1.2460048 1.0456159 1.2508911
0000a0 8c a6 86 3f bd c9 1c 3f b4 d8 71 3f 96 b5 08 3f
       1.0519576 0.6124533 0.9447129 0.5340208
0000b0 c8 c3 98 3f bf 93 8c 3f 0f 16 71 3f 8e 05 b1 3f
       1.1934748 1.0982589 0.94174284 1.382982
0000c0 b0 04 8b 3f 86 48 96 3f 92 fa 10 3e bd f8 8a 3f
       1.0860806 1.1740882 0.14158085 1.0857159
0000d0 ed de 60 3f 89 da b0 3f c8 9a 9f 3f e6 81 a7 3f
       0.8784016 1.3816692 1.246911 1.3086517
0000e0 f9 cc 84 3f 5f 63 27 3f 63 53 24 3f f3 2c 8b 3f
       1.0375053 0.65386003 0.6418974 1.0873092
0000f0 01 a0 80 3f 8e 0c 6b 3f 81 49 51 3f 89 0a 80 3f
       1.0048829 0.9181603 0.81752783 1.0003215
000100 df 9f 3e 3f 69 c6 82 3f 45 41 a3 3f ef 7c 28 3f
       0.74462694 1.02168 1.2754294 0.65815634
000110 d6 01 5c 3f 12 1a f4 3e 95 46 94 3f 4b 5e 8c 3f
       0.859403 0.4767614 1.158404 1.0966276
000120 17 4e a1 3f ae 35 71 3f d0 7b 75 3f 4a 92 20 3f
       1.2601956 0.94222534 0.9589205 0.6272322
000130 ba 29 55 3f 40 35 80 3f 23 0e 04 3f 6e 08 3e 3f
       0.83266795 1.0016251 0.5158407 0.7423161
000140 36 85 82 3f 72 ec 84 3f 36 47 17 3f 4c d5 58 3f
       1.0196903 1.0384657 0.59093034 0.84700465
000150 87 25 89 3f 09 1a 4e 3f cb f3 6d 3f 23 ed 3c 3f
       1.0714577 0.80508476 0.92950124 0.7379934
000160 94 56 82 3f 96 3a 62 3f 0f 1e 89 3f 79 d7 59 3f
       1.0182672 0.88370645 1.0712298 0.8509441
000170 b1 38 62 3f be d1 61 3f a5 b4 3f 3f 93 53 74 3f
       0.88367754 0.88210666 0.74885017 0.95440024
000180 90 25 aa 3e f5 1a 9a 3f d8 a6 89 3f bf 4e 25 3f
       0.33231783 1.2039477 1.0754042 0.6457328
000190 82 4a 3d 3f 19 92 98 3f a4 2b 80 3f 6d af 44 3f
       0.73941815 1.1919585 1.0013318 0.7683018
0001a0 98 62 87 3f 36 f9 51 3f ed a1 51 3f 29 11 83 3f
       1.0576963 0.8202089 0.81887704 1.0239612
0001b0 32 54 81 3f d6 a3 30 3f b1 45 5c 3f 56 86 51 3e
       1.0103819 0.68999994 0.8604384 0.20461401
0001c0 90 bd 34 3f 9b 22 78 3f a7 f7 22 3f 01 3a 79 3f
       0.7060175 0.96927804 0.6365914 0.9735413
0001d0 5b 6e 30 3f 9f 1e 47 3f 61 c5 7f 3f 7c 35 74 3f
       0.6891839 0.777811 0.9991055 0.9539411
0001e0 9b 4e 4e 3f d9 c8 7b 3f dd d2 8e 3f db f8 18 3f
       0.8058869 0.98353344 1.11581 0.59754723
0001f0 ce 0f 9f 3f 14 d1 42 3f 62 08 6d 3f 7c 4a 13 3f
       1.2426698 0.7610028 0.92590916 0.5753553

mlp.1.bias f4 [128]
000000 6a 52 66 be 5b b5 bd be c9 53 5f be 76 55 50 be
       -0.22492376 -0.37052426 -0.21809305 -0.20345101
000010 4e d8 03 bf a9 b9 bb be e1 68 bd be 5e 4d 87 be
       -0.5150193 -0.36665085 -0.3699408 -0.26426214
000020 10 dc e2 be 5d ef 94 be 06 15 8e be 1f cd 0b be
       -0.4430852 -0.2908887 -0.27750415 -0.13652466
000030 9c 3f e1 bd ee 03 d2 be ae 90 9f be f5 c0 31 be
       -0.10998461 -0.41018623 -0.3116507 -0.17358764
000040 31 ab 61 be cf 00 4a be 2d 70 a0 be 24 69 a3 be
       -0.2203796 -0.19726871 -0.31335583 -0.31916153
000050 18 c8 94 be e0 0e 8d be 26 55 e9 be 75 4b c2 be
       -0.2905891 -0.2755041 -0.45572776 -0.37948194
000060 65 96 3b be f6 b9 b0 be 45 5b a5 be e1 0d d8 be
       -0.1831909 -0.34516877 -0.32296196 -0.4219809
000070 16 d2 ac be 74 64 9a be 3f 12 91 bc 7b 44 8e be
       -0.33754033 -0.30154765 -0.017708896 -0.2778662
000080 7c ca b3 be d3 5d 2c bf f7 4e 68 be b3 ca 06 bf
       -0.3511542 -0.67330664 -0.22686373 -0.52653044
000090 b2 ce 9e be e3 54 d0 be 8f 45 73 be 4f eb 25 be
       -0.3101707 -0.40689763 -0.23757003 -0.16203044
0000a0 23 c0 06 bf 17 c4 05 bf c0 2a 15 be cd e7 0b bf
       -0.5263693 -0.52252334 -0.14567089 -0.54650575
0000b0 6b ff 32 be 5c 95 64 be e2 74 88 be d0 3b 97 be
       -0.17480247 -0.22322601 -0.26651675 -0.2953782
0000c0 62 3f 05 bf c8 bd 77 be 05 3f 6a bf 1c a9 60 be
       -0.5204984 -0.2419349 -0.9150241 -0.2193951
0000d0 c2 40 4a be f6 0c 90 be e9 bc eb be 31 14 35 be
       -0.19751266 -0.28134888 -0.46042565 -0.17683484
0000e0 3d f2 91 be 13 67 0f bf 64 bd c4 be fb 6e a1 be
       -0.28505126 -0.56016654 -0.38425744 -0.31529984
0000f0 0d 69 8c be 73 07 21 bf 8e 12 5b be 48 64 af be
       -0.27423897 -0.6290199 -0.21393797 -0.34256196
000100 01 20 f2 bc 58 f4 9a be 4e ac b9 be 5f ed 29 bf
       -0.029556276 -0.30264544 -0.3626427 -0.66377825
000110 6a 30 d1 be 2c 24 fe be 4e cf 50 be 9f a9 c7 be
       -0.4085725 -0.49636972 -0.2039158 -0.38996598
000120 be 44 86 be 91 a1 52 be 15 cd 25 bf 06 75 04 bf
       -0.2622432 -0.20569445 -0.64766055 -0.51741064
000130 b3 4d 90 be ff 2b 40 bf 82 70 16 bf af ab a6 be
       -0.2818428 -0.7506713 -0.58765423 -0.3255286
000140 32 23 38 be 9c 93 83 be 21 d0 d8 be 9c f9 19 be
       -0.17982176 -0.25698555 -0.4234629 -0.15036625
000150 42 0d 34 be c2 97 6f bb aa 54 d5 be e7 a0 b1 be
       -0.17583182 -0.003655896 -0.41666156 -0.3469307
000160 ac ae 5d be 80 1d 8c be 38 ef 73 be ec b2 5b be
       -0.21648663 -0.27366257 -0.23821723 -0.21454972
000170 32 5f 84 be f1 d9 d0 be a0 0b 87 be 09 92 8c be
       -0.25853878 -0.40791276 -0.26376057 -0.27455166
000180 19 d1 25 bf ad 32 43 be 0d 68 cc be 6c a1 c4 be
       -0.6477218 -0.190623 -0.39923134 -0.38404405
000190 63 77 17 bf 62 1e ff bd 2d b3 b2 be 3e 9d 8b be
       -0.59166545 -0.12456967 -0.34902325 -0.27268404
0001a0 dc 9b ec be b0 64 69 be 2a 4e 81 be a5 f7 00 bf
       -0.4621266 -0.22792315 -0.25254947 -0.50377876
0001b0 6d 5e b8 be b5 a7 f1 bd 0f 0a a2 be fa 4e 42 bf
       -0.3600954 -0.11799566 -0.316483 -0.7590176
0001c0 63 fc a5 be a7 81 af be 3a a3 8e be 19 1c 8f be
       -0.32419118 -0.34278604 -0.27858907 -0.27951124
0001d0 7d a7 1d bf 05 d5 a4 be bc 37 07 be a4 5d a9 be
       -0.6158369 -0.3219377 -0.13204855 -0.33079255
0001e0 bc fa 7c be c1 4e 9a be 4c a5 af be 33 f7 5d be
       -0.24705023 -0.3013821 -0.343058 -0.2167633
0001f0 05 cb a8 be b6 c4 b7 be fc c8 da be 75 62 dd be
       -0.32967392 -0.35892266 -0.42731464 -0.4323918

mlp.4.weight f4 [64, 128]
000000 87 7b 14 bc 15 33 d9 3c 9a 7e 84 3d 7b cb 89 3d
       -0.009062654 0.026513616 0.0646946 0.06728264
000010 2e 2e 21 bc 8d 95 e8 3c 72 93 e0 bd c7 57 d5 3d
       -0.00983767 0.028391624 -0.10965623 0.10417133
000020 d6 63 58 3e 16 8c 8e 3d af dc 9a ba db a6 17 be
       0.21131834 0.06960313 -0.0011815036 -0.14809744
000030 2a ef 30 bb bb 11 ae be e1 06 c6 3d 5f 6a 64 3d
       -0.0026998022 -0.33997902 0.09669281 0.055765506
000040 f2 28 a6 3b 6d 36 71 bc 0d d5 c2 3d bd 09 c3 bc
       0.005070799 -0.014722449 0.095132925 -0.023808355
000050 7a 86 d5 bd 7a cd 82 bd 10 0a 04 3b 10 00 0d bd
       -0.1042604 -0.06386848 0.00201476 -0.034423888
000060 c6 6f 90 3d a3 eb 93 ba fe 1e 84 3c 95 e3 c9 3d
       0.07052569 -0.0011285435 0.01612806 0.09857861
000070 0c 15 a4 bb d6 e4 2d 3d c0 7e 91 bd 28 3f 99 3c
       -0.005007392 0.042454563 -0.07104254 0.018706873
000080 23 83 f4 be 03 56 2e 3c a4 b1 07 be bc 7c 92 3c
       -0.477563 0.010640624 -0.13251358 0.017881744
000090 14 9b 89 be 35 05 38 be 91 b6 d5 3d 57 9b ab 3d
       -0.26876128 -0.17970736 0.104352124 0.08379238
0000a0 2d 4c b9 3e bc 5a 38 be e5 59 dc 3b 48 50 9c 3d
       0.3619093 -0.18003362 0.0067245835 0.076325
0000b0 82 39 0d bb b4 d7 ef 3c 9f 3f 3c 3d cb 15 2d bd
       -0.002154917 0.02927766 0.04595911 -0.04225711
0000c0 89 ad 04 3f 3c 56 f7 3c d9 42 eb 3b d4 98 c3 bc
       0.51827294 0.030192487 0.0071795997 -0.023876585
0000d0 36 25 39 be 2c de a9 3d 81 61 38 be 27 ac 4d bc
       -0.18080601 0.08294329 -0.18005945 -0.012553251
0000e0 8c ff ef 3b e0 81 fb be 34 5f 38 3d 8f 63 ca 3c
       0.0073241647 -0.49122524 0.045012668 0.024705676
0000f0 da e8 f4 3c 50 06 8f 3d b5 72 2b be b5 21 a5 be
       0.029896189 0.06983626 -0.16742976 -0.3225228
000100 69 ba 17 3d d4 01 e8 be 8e 16 0b 3e 30 f7 32 3d
       0.03704301 -0.45313895 0.13582823 0.043692768
000110 b8 f9 f6 3d c1 38 61 3d 3c 00 88 3d 18 0c ce 3d
       0.12059349 0.054985765 0.0664067 0.100609004
000120 51 0c 81 3d 8c 04 52 3d eb 31 ed 3e c3 e8 dc bc
       0.06301177 0.051273867 0.46327147 -0.026966458
000130 19 d3 c9 bb 32 0d 5b bd d9 2d 86 3b 52 e6 73 be
       -0.006159198 -0.05347938 0.004094821 -0.23818329
000140 44 b5 9f 3d 43 8b a9 3d 03 6b 9c bd 10 34 88 3d
       0.077982455 0.08278515 -0.07637598 0.06650555
000150 27 68 3d 3d 5a ef 9b 3d cd 2b 8f 3e bd 50 74 bc
       0.046241906 0.07614012 0.27963105 -0.014911828
000160 ef a6 67 3d 12 2b 04 3e 86 5b 47 3d 39 ae 52 3c
       0.056555685 0.12907055 0.048671268 0.012858921
000170 59 ff 8d 3d 6d 25 9c 3d ee 93 6f 3d 89 76 54 3d
       0.06933469 0.07624326 0.058490686 0.051870856
000180 d8 b2 23 3d 43 f8 2a 3d 16 13 fd 3d c5 42 9c 3c
       0.03996548 0.041740667 0.12357156 0.019074807
000190 5d ab 01 bf a8 80 b9 3d 3d 9f 2f 3e ee 07 5b bb
       -0.50652105 0.09057742 0.17150588 -0.0033421475
0001a0 5f c3 b3 3e 76 5f 6a 3c 14 67 78 3c 8d 18 88 bc
       0.35109994 0.014304986 0.0151612945 -0.01661327
0001b0 d7 9a 27 bc 4d 06 ec 3c bb e2 8b 3d 96 3f e3 bc
       -0.010229788 0.028811598 0.06830355 -0.027740281
0001c0 d3 7f e9 3c 3e 09 91 bd 0b 97 a4 3c 7e 46 17 3d
       0.028503334 -0.07081841 0.020091554 0.03693246
0001d0 0f e5 86 3d 2d 72 d0 3d 44 4b e3 3a e4 df ae 3a
       0.06586658 0.10178027 0.0017341156 0.0013341871
0001e0 88 50 f5 3c d5 b8 67 3d 9f 26 23 3e 42 e1 6d 3d
       0.029945627 0.056572754 0.15932702 0.05807615
0001f0 9d 34 36 3d 73 f8 ce 3c 48 a0 07 be 8f d2 ce 3d
       0.04448377 0.025264954 -0.13244736 0.100987546
000200 d6 47 41 3d 7d e6 c2 3d c2 ef a9 bd 3c f0 48 bd
       0.04718765 0.095166184 -0.08297683 -0.04905723
000210 f4 f2 b5 3d 35 e0 53 3d 25 cc ea 3d dc 53 d3 be
       0.0888423 0.051727492 0.11464719 -0.41274917
000220 e7 5f ef bd 79 7f 11 3d 2b 65 a2 3d 95 0a 8d 3d
       -0.11688214 0.035521958 0.079294525 0.06886784
000230 20 e7 a1 bd c3 a6 32 3d 98 1b 69 bc 5c d5 aa bd
       -0.07905412 0.043616068 -0.01422777 -0.08341476
000240 75 63 ac bd 01 b4 c6 3c 7e 3d 94 be ce 1b 88 3d
       -0.084174074 0.024255754 -0.28953165 0.06645928
000250 74 fa af bc 63 4a 6f be 69 78 af 3d 30 3c 91 3d
       -0.02148173 -0.2336822 0.08567888 0.07091558
000260 fc e8 49 3d 88 41 e9 3c e2 fe ad 3d 3c e9 0a be
       0.049294457 0.02847363 0.08495881 -0.13565534
000270 87 6b c2 bc 20 bc 95 3d d6 4d 53 3d 23 28 9d 3d
       -0.023732914 0.073112726 0.051587902 0.07673671
000280 f6 fa 23 3d 55 ab 6e 3d df 14 85 3d 5d e9 ff 3c
       0.040034257 0.058268864 0.064981215 0.031239206
000290 a4 47 aa bc 27 ca 30 3e f6 93 01 bd 9d 1a 53 bc
       -0.020786114 0.17264615 -0.031635247 -0.012884763
0002a0 1b 61 37 be 42 37 25 3d 2a 63 9b bd ce 84 ef 3c
       -0.17908137 0.0403359 -0.075872734 0.02923813
0002b0 3b b6 04 3d 78 06 44 3d 0f 5b 0b be 2e 35 ed 3d
       0.03240035 0.04785773 -0.13608955 0.11582409
0002c0 58 9a c7 bd af 60 aa 3d 31 be 6d 3d d1 a3 a4 3d
       -0.097462356 0.08319222 0.05804271 0.08039058
0002d0 46 04 8e 3c f1 13 ed bc 34 c3 c8 3c d5 a5 57 3d
       0.017336022 -0.028940173 0.024507143 0.052648384
0002e0 94 7c 73 3d c2 d3 58 bc 3f 18 34 3d b7 5b 5a be
       0.05944498 -0.013234081 0.043968435 -0.21324049
0002f0 ff ea 85 3d 1c b8 7b bd 89 27 b8 3c 1d dc 9e 3d
       0.065389626 -0.061454877 0.02247979 0.07756827
000300 3f cc cb bd b5 4a 96 3d 63 20 d4 bc d2 95 48 bd
       -0.09951066 0.07338468 -0.02589435 -0.048971005
000310 57 e0 c5 3d 5b 74 ac 3c 19 98 f7 bd 10 65 df be
       0.0966193 0.021051576 -0.12089557 -0.43631792
000320 79 14 8f 3b c3 8f 21 be b5 7a 6c be 36 74 16 3d
       0.004366454 -0.15777497 -0.23093684 0.03673192
000330 36 c3 3f 3d 75 5d e2 bb 41 7a be 3d 63 1b 73 3c
       0.046817027 -0.0069081136 0.09300662 0.0148380725
000340 7d d9 62 3c 42 8c 89 bd 0c 5c b3 3d 58 20 01 3d
       0.013845799 -0.06716205 0.08757791 0.031524986
000350 1a 38 f3 3c be 00 42 be a9 4c 0d be e6 a0 68 3c
       0.029689837 -0.18945596 -0.13798775 0.014198517
000360 60 b4 80 be 86 b1 2a be b3 67 b3 3d 38 f2 9f bc
       -0.25137615 -0.16669282 0.087600134 -0.019524679
000370 fd bb b6 3d 02 ea 06 39 f5 55 b8 bc fd 16 79 3d
       0.08922575 0.0001286641 -0.022501925 0.06081294
000380 3b 86 5f 3d 89 bf 87 ba 0b a1 62 be 70 f3 44 3d
       0.05457137 -0.0010356765 -0.22131746 0.048083723
000390 7d 8f d7 bc 40 2d c7 bc 29 e4 b5 3d 45 9a 62 3d
       -0.026313538 -0.02431357 0.08881409 0.055322904
0003a0 b3 5b b9 be 29 af 96 3d 33 31 e9 bd 02 d8 e2 3d
       -0.36202773 0.07357628 -0.11386337 0.110763565
0003b0 c6 eb d0 3d ed d8 b4 bd a7 9c 44 3d 77 50 b2 3d
       0.1020122 -0.08830438 0.048000958 0.08706754
0003c0 d7 3e 21 be a5 6e dc bd 92 78 a9 bd 85 31 12 3b
       -0.15746628 -0.10763291 -0.0827495 0.0022307348
0003d0 9d b8 be bd 05 af c5 bc 3c 4d a0 3d 37 43 cf 3c
       -0.09312556 -0.024131307 0.07827231 0.025300605
0003e0 ef 40 e2 3c 91 72 3d be 50 25 e5 3c 3b 10 ba bd
       0.027618853 -0.18500735 0.027971894 -0.09085127
0003f0 b9 bd dc 3d 9b 3d 47 bd 95 82 56 bc 1e 25 3f bb
       0.10778374 -0.048642736 -0.013092657 -0.002916641

mlp.4.bias f4 [64]
000000 70 43 a4 bc bb 97 b4 3d f5 15 92 3d ae ac 5a bd
       -0.020051688 0.08818003 0.07133094 -0.053387336
000010 21 9d 0f 3e 06 57 62 3c c3 e2 63 3d 1a fa 89 3c
       0.14024784 0.013814693 0.05563618 0.01684289
000020 a5 35 8a 3c 58 3b ff ba e0 57 90 3d 5b 52 b1 be
       0.016871283 -0.0019472642 0.07048011 -0.34633145
000030 97 b6 cc 3d 5d 6a d9 bd 85 e9 f2 3c 8a 76 7c 3d
       0.09995764 -0.1061599 0.029652366 0.061636485
000040 4a a5 e0 3c 2a cd 6c ba 53 37 0d be c7 2f dd 3d
       0.027422566 -0.00090332574 -0.13790636 0.108001284
000050 d9 60 e1 bd 42 60 ca bd 8c 7f 18 3e 6a 4f 82 3e
       -0.110048 -0.09881641 0.14892405 0.25451213
000060 fe 76 cf 3c 2b 00 11 3d 20 61 40 be 5c 60 99 ba
       0.025325295 0.03540055 -0.1878705 -0.0011701691
000070 4d 1e 10 3d f9 45 67 be 50 06 06 b9 32 67 63 3d
       0.035185147 -0.22585286 -0.00012781587 0.055518337
000080 c0 3a f8 bd ea f2 13 be 62 50 e7 3b 8a fa 9d 39
       -0.12120581 -0.14448133 0.007059143 0.0003013204
000090 10 07 9a be ad c5 da 3d e8 70 c1 bd f6 9f bd bc
       -0.30083513 0.10682235 -0.09445363 -0.023147564
0000a0 37 64 09 3d 60 05 2a bd 4a d0 1e be 46 50 8f 3d
       0.033542838 -0.041509032 -0.15509143 0.06997733
0000b0 21 e4 c6 3d 7d 8b ca 3d c8 6d 66 3d 5b 6b 96 3d
       0.09711481 0.098898865 0.05625704 0.07344695
0000c0 ed 56 46 3d 70 10 cc 3e 06 d5 de 3b 31 47 46 3d
       0.048422743 0.3985629 0.0068002967 0.048407737
0000d0 3d 01 de 3c 4d d2 8a bd e5 61 f6 bc 50 dd 10 3d
       0.0271002 -0.06778393 -0.030075977 0.03536731
0000e0 d9 20 7c 3d e9 1b 5e 3d 0e 27 e7 bd ac fe de 3c
       0.061554763 0.054225836 -0.11286746 0.027221046
0000f0 f3 bf c5 3d 5a 66 50 3d e6 f2 99 3e 04 eb 66 3d
       0.09655752 0.05087886 0.3006813 0.056376472

mlp.5.weight f4 [64]
000000 06 cb a8 3f c2 62 90 3f 0d f0 91 3f a2 a8 92 3f
       1.3186958 1.1280138 1.1401383 1.1457713
000010 57 ce 8d 3f f5 70 9f 3f cb b2 87 3f af 76 cb 3f
       1.1078595 1.2456347 1.0601438 1.5895594
000020 fb 3d a7 3f 0b e8 b9 3f c7 9a 93 3f b1 cb d0 3f
       1.306579 1.4523939 1.1531609 1.6312162
000030 45 99 99 3f 4a af ac 3f 1b 7c a1 3f 3a 66 84 3f
       1.1999899 1.3490994 1.2615999 1.0343697
000040 2b 7f ad 3f d0 18 aa 3f 00 6b a8 3f e4 43 98 3f
       1.3554434 1.3288822 1.3157654 1.1895719
000050 45 b7 b0 3f 1d 68 be 3f 79 75 97 3f 14 bd 42 3f
       1.380593 1.4875523 1.1832725 0.7606976
000060 e6 f7 a6 3f d8 db 8a 3f fd 50 c0 3f f4 2a a4 3f
       1.3044403 1.0848341 1.5024716 1.2825608
000070 ab 24 9c 3f 75 91 a3 3f 14 da ad 3f 43 43 95 3f
       1.219869 1.2778765 1.3582177 1.1661152
000080 8c 50 bd 3f 81 b4 a6 3f a9 4a ab 3f 80 f0 b7 3f
       1.4790206 1.3023835 1.338216 1.437027
000090 09 00 b8 3f 75 a5 98 3f a6 cb bd 3f 5b 34 87 3f
       1.4375011 1.1925493 1.4827774 1.0562853
0000a0 4a 86 99 3f 10 9e 7b 3f 81 99 c3 3f 7b e9 72 3f
       1.1994107 0.9828806 1.5281221 0.9488751
0000b0 16 ee 94 3f 12 54 9a 3f 57 0b ae 3f e1 3d 70 3f
       1.1635158 1.2056906 1.3597211 0.9384442
0000c0 88 39 95 3f 30 c1 29 3f 09 45 9d 3f f6 b9 7e 3f
       1.1658182 0.66310406 1.2286693 0.99502504
0000d0 0f 77 97 3f cf fc 19 3f e0 0a a2 3f 5c 7d ad 3f
       1.1833209 0.6015138 1.2659569 1.3553882
0000e0 9e 3b aa 3f af b4 92 3f 18 e1 86 3f c2 53 b1 3f
       1.3299444 1.146139 1.0537443 1.3853686
0000f0 17 68 99 3f b1 40 91 3f e5 71 49 3f 8c c3 83 3f
       1.1984891 1.1347867 0.78689414 1.0294051

mlp.5.bias f4 [64]
000000 97 92 fa 3b 1d bb b6 be b9 39 c5 be 2b 4c 65 bd
       0.0076468694 -0.3568963 -0.385206 -0.055980843
000010 58 b7 af be 37 72 1e be ce ab 9a be dc be 87 bd
       -0.34319568 -0.15473257 -0.30209202 -0.066282004
000020 7e 65 3b be 27 25 b4 bc 7b ff 69 be 30 92 53 3c
       -0.18300435 -0.021990372 -0.22851364 0.012913272
000030 7c 9b 70 be 10 29 fb bd b3 8a 7e be bf 43 9b be
       -0.23496813 -0.122636914 -0.24857597 -0.30325124
000040 48 30 8e bd b0 54 06 be ee d0 3c be e1 c4 99 be
       -0.06942803 -0.13118243 -0.18439075 -0.3003302
000050 ed e5 04 be 16 18 04 be 4a 00 ab be 9e 84 0c bf
       -0.12978335 -0.12899813 -0.33398658 -0.5488986
000060 36 83 13 be 24 c4 85 be e3 8c 40 be 65 13 35 be
       -0.14405522 -0.26126206 -0.18803744 -0.1768318
000070 a7 30 1a be d1 fb e4 bc 73 2f c5 bc 22 66 33 be
       -0.15057622 -0.027952107 -0.024070477 -0.1751943
000080 a2 48 1d be 3b 24 20 be a3 fc 5f bd 5f 22 3e bd
       -0.15359738 -0.15638821 -0.054684293 -0.046419498
000090 a9 ce 2d be 6d 91 84 be 2c 22 1f be 62 13 11 be
       -0.16973366 -0.258922 -0.1554038 -0.1416755
0000a0 cb 50 15 be f8 9a 47 be 68 30 0e bb 7d 44 a1 be
       -0.14581601 -0.1949271 -0.0021696333 -0.31497565
0000b0 93 4e 94 be ff 90 92 be fc d2 1a be 9f 92 00 bf
       -0.28966197 -0.28626248 -0.15119547 -0.50223726
0000c0 0e 9d 61 be 64 7d 34 bf c5 d1 b8 bd c5 aa 09 be
       -0.22032568 -0.7050383 -0.09024385 -0.1344405
0000d0 c9 04 64 be 75 09 11 bf 65 e9 2d be c5 76 95 3b
       -0.2226745 -0.56655055 -0.16983564 0.0045612776
0000e0 9a ff f3 bd 93 e6 88 be ca 06 c2 be 6c 46 87 bd
       -0.119139865 -0.26738414 -0.37895805 -0.06605229
0000f0 40 97 7a be a5 1f 71 be 85 85 07 bf 8e bd 9d be
       -0.2447176 -0.23547228 -0.5293811 -0.3080868

mlp.8.weight f4 [5, 64]
000000 b7 db 49 3e 0b 77 f9 be e0 19 be be eb e5 d5 3d
       0.19712721 -0.48723635 -0.37129116 0.10444244
000010 56 58 35 be 68 99 c5 be 34 7b b5 3d 96 5b cf 3e
       -0.17709479 -0.38593602 0.0886139 0.40499562
000020 45 1e 79 3e 6e e5 72 3e 2d 5b 37 3d c6 13 b2 3e
       0.24327953 0.23720333 0.044764686 0.3478071
000030 61 cd 3e be 42 73 b7 3e f6 c3 8d 3e 08 d1 af be
       -0.18633033 0.35830122 0.2768857 -0.34339166
000040 8a e1 83 3e 69 6d b2 be c7 d5 fc be b0 08 87 be
       0.2575801 -0.34849098 -0.4938185 -0.26373816
000050 ec bf f2 3e c4 67 00 bf 8e 85 cf bd 44 38 c0 bc
       0.4741205 -0.50158334 -0.101328954 -0.02346433
000060 4c ef cc be 08 71 f6 3d 48 31 07 3f 03 dd 84 3e
       -0.4002632 0.12033278 0.5280957 0.2594987
000070 5e 02 d5 be 52 5f 28 3e a1 48 56 3e a6 40 8d 3d
       -0.4160337 0.16442612 0.20926143 0.06897096
000080 04 5c 12 3f 77 d5 a4 3e 95 fd f6 be 18 78 8b 3e
       0.57171655 0.3219411 -0.48240343 0.27240062
000090 02 86 76 be 30 b8 81 be 3d 8e fe 3e 8b 1e 79 3d
       -0.24074557 -0.25335836 0.49717894 0.060820144
0000a0 80 a4 75 be 8a 6f 1c 3e be c4 94 3e 14 2f 8a 3d
       -0.23988533 0.15276924 0.29056352 0.06747261
0000b0 a8 b1 b6 be c7 7f a8 be 52 5a a9 be 5f 1b 9e be
       -0.35682416 -0.32909986 -0.3307672 -0.30880257
0000c0 50 06 be be 02 a5 46 bd be 8b 24 3e 08 97 01 3c
       -0.3711419 -0.048497207 0.16068932 0.007909544
0000d0 55 80 b4 be b7 50 fb ba 39 de b5 be ef 22 1c 3e
       -0.3525416 -0.0019173835 -0.35521105 0.15247701
0000e0 e3 09 a0 be 9a 9c b2 be a6 ad 9d be a4 1b 48 3e
       -0.31257543 -0.34885103 -0.30796546 0.19541794
0000f0 e2 b7 bc be 07 c9 aa be ba f7 4d 3c 43 38 87 bd
       -0.3685904 -0.33356497 0.01257127 -0.06602528
000100 74 bd 95 be f1 ba d7 bc ab c0 e1 3d c5 80 b3 be
       -0.29246104 -0.026334258 0.110230766 -0.3505918
000110 81 b6 09 3e b2 86 05 be 6a 0e aa 3d 0c db 5f 3e
       0.13448526 -0.13039663 0.083035305 0.21860904
000120 a1 c0 5e 3e 49 e8 bd be ed ff 95 3d 8c f9 c9 be
       0.2175317 -0.37091282 0.073242046 -0.39448202
000130 14 9d 0d 3e b9 85 23 be 09 5d 7e be 97 c9 38 3c
       0.13829452 -0.1596898 -0.24840178 0.0112785315
000140 17 07 4c 3e ba 9a 13 3d de 92 00 be 37 b4 1c 3e
       0.1992458 0.03603623 -0.12556025 0.15303122
000150 04 bc 1d be a5 56 ad be ca 28 10 3e c8 be f3 3b
       -0.15403754 -0.33855167 0.1407806 0.0074385144
000160 bd 13 75 3d 81 27 d3 3d 50 ab 98 be 0e ac e6 3d
       0.059833277 0.10310269 -0.298182 0.112632856
000170 0e 4b b5 3c 4f 5b 94 be 3e 3a 53 be 74 2f c0 3d
       0.022130515 -0.28975913 -0.20627686 0.09384051
000180 1b d0 8e be c4 60 7e be 2e 84 7a be 86 9a 24 3e
       -0.27893147 -0.248416 -0.24464485 0.16074571
000190 f4 57 14 be 16 4b 3b 3e 8a bc 1f be 92 c5 1d bd
       -0.14486676 0.18290362 -0.15599266 -0.038518496
0001a0 75 ce 96 3a 18 f1 1f 3d 07 1f 8c be 23 1a ab 3d
       0.0011505621 0.039048284 -0.27367422 0.083545946
0001b0 45 ad ec 3d 17 59 24 3e 49 4e 92 3c 51 8b 0c be
       0.11556486 0.1604961 0.017859595 -0.1372502
0001c0 30 ea ad 3d d7 09 f2 bb 2c 5a 0e 3e a4 8e 7d 3d
       0.08491933 -0.007386427 0.13901585 0.06190361
0001d0 69 23 ab be ee 34 e7 bd ff e9 66 be 6a be 20 3e
       -0.33425453 -0.112893924 -0.225502 0.15697637
0001e0 d4 a0 df 3d b5 f4 68 be 95 5a 8d be 9e 1e 57 3e
       0.109193474 -0.22749598 -0.2760817 0.21007773
0001f0 f5 13 df 3d 29 3e 0a be 26 e2 57 3d 70 f7 eb 3d
       0.108924784 -0.13500275 0.052705906 0.11521804
000200 d4 7a 5b be b3 34 64 3e dc 31 84 3e 9c 03 94 3c
       -0.21433574 0.22285728 0.2581929 0.018068127
000210 c6 f0 ee 3d 3d 46 40 bd a5 45 22 3d bd d8 be be
       0.11667018 -0.046941984 0.0396172 -0.37274733
000220 b9 18 df bd ce d8 c8 be a2 70 47 be e2 15 f1 be
       -0.10893387 -0.3922791 -0.1947656 -0.47087008
000230 1c 04 f6 3d 4c 12 b2 bd 31 2b 43 3e 27 f7 ff 3d
       0.120125026 -0.08694896 0.19059445 0.124983124
000240 5f a5 bd be 77 29 2d 3e c9 67 1c 3e a6 c8 1b 3e
       -0.3704023 0.16910349 0.15273966 0.1521326
000250 d7 2b 7d bd 9a 82 dc be 87 15 d9 3d a7 ab 41 bd
       -0.061809387 -0.4306839 0.10599809 -0.04728284
000260 f7 f4 57 3e 93 c2 72 3d e1 4b 3c bc 7e 53 e5 3d
       0.2108954 0.05926759 -0.0114927 0.111975655
000270 50 43 22 3e 31 81 ae be c9 16 9f be 70 e1 58 be
       0.1584599 -0.3408294 -0.3107207 -0.21179748
000280 f5 aa 4d be ec d8 33 be 21 a4 f2 3d e7 b7 87 be
       -0.20084746 -0.17563218 0.11847711 -0.26507494
000290 d2 db 7e be 07 83 3d 3e 25 da 3b be 7c 10 95 3c
       -0.24888542 0.18507014 -0.18344934 0.018196337
0002a0 2c b6 82 bc 39 ba f2 3d 17 e3 a9 be dc 95 8d bd
       -0.015956007 0.118519254 -0.33181068 -0.06913349
0002b0 0f d3 1c 3e 19 9d 46 3e 31 9a b1 bd 48 1c 1e 3e
       0.15314887 0.19395865 -0.08671988 0.15440476
0002c0 2c ec 19 3e 82 9e f8 bc 00 f2 13 be 87 ab 49 be
       0.15031499 -0.03034902 -0.14447784 -0.19694339
0002d0 63 d6 1b 3e f9 16 41 bc 4a 4a 8b be 74 ed 8e be
       0.15218501 -0.011785262 -0.27205116 -0.27915537
0002e0 cc 0d ab bc 98 91 0b 3e 73 79 e8 bb da 3c b8 be
       -0.020880602 0.13629758 -0.007094556 -0.35983926
0002f0 76 16 00 3e 03 01 2f 3e 26 c1 75 3c 17 d4 1d 3e
       0.12508568 0.1709023 0.014999663 0.15412937
000300 d5 a2 ec be 92 38 53 be 31 25 31 be 11 b9 c7 3d
       -0.4621798 -0.20627049 -0.17299344 0.097520955
000310 26 d0 18 bf 7e 5f 0e bf ad fa d4 be 1d 4f d0 be
       -0.5969261 -0.5561446 -0.415975 -0.4068536
000320 1c ed b9 be 38 6f df be 0e 50 4b bf c5 16 bd 3e
       -0.36313713 -0.4363954 -0.7941903 0.36931434
000330 39 ff 08 bf 0e 3a f8 3d ea 35 d1 be 3e b9 1b 3e
       -0.5351444 0.12120448 -0.40861446 0.15207383
000340 cc bd a8 bd 59 e0 48 3e 87 64 6e 3e c9 99 f3 be
       -0.08239326 0.19616832 0.23280536 -0.47578266
000350 91 e0 b1 be 85 e2 1d 3f be 9f 02 bf 60 0a d2 be
       -0.34741643 0.61673766 -0.51025 -0.4102354
000360 fd e5 7b 3e 4d 4f c7 be a1 96 0a bf 2e 6c df be
       0.24599452 -0.3892769 -0.5413609 -0.43637222
000370 46 5a 40 3e f3 40 66 3e 13 91 27 bf 20 bb 00 bf
       0.18784437 0.22485714 -0.6545574 -0.5028553
000380 9c a1 f1 be 33 df e9 be 7b 22 3a 3e 4e 9b 6e be
       -0.4719361 -0.456781 0.18177216 -0.23301432
000390 fa a0 13 3f a6 1e e0 be fb e2 3a bf 00 9a 63 3d
       0.57667506 -0.43773383 -0.73002595 0.055566788
0003a0 17 36 3a bf 3b 88 16 3e 0f 8b bc 3e b0 f9 bb be
       -0.72738785 0.14700405 0.36824843 -0.36713934
0003b0 3f c4 9a be b9 7b e7 be 4a 29 59 bf f9 57 05 bc
       -0.3022785 -0.4521158 -0.8482863 -0.00813865
0003c0 9a 0b 37 3e d2 e3 a3 be 12 fd 25 3e be 7c 80 bd
       0.1787552 -0.3200975 0.1620982 -0.06273793
0003d0 bf 32 4d 3e 8b 47 a4 3c 0d 06 e1 3e d5 47 11 bf
       0.2003889 0.020053646 0.4394993 -0.5675023
0003e0 1a da 70 bf f6 ac 2f 3e a5 16 1d 3d f3 0e d8 be
       -0.94082797 0.17155823 0.038351674 -0.42198905
0003f0 76 ed e1 be b8 05 4b 3e 98 5b cc be a1 7c 24 3e
       -0.4412648 0.198264 -0.3991363 0.16063167

mlp.8.bias f4 [5]
000000 25 ed a1 3e 44 6a 11 bf cf e9 aa 3e b0 56 54 be
       0.3162624 -0.56802773 0.33381507 -0.20736194
000010 14 0c 54 be
       -0.20707732

exp_avg f4 [128, 24]
000000 3e e6 79 3b 69 3c bb 39 2f da e6 39 1b ea a4 39
       0.003813162 0.00035712429 0.00044031578 0.0003145494
000010 96 c2 f0 b8 6b 04 15 bb da e6 ff ba 50 ca e6 ba
       -0.00011480336 -0.002273823 -0.0019523755 -0.0017607901
000020 9d 70 dd bb d7 48 64 3a fd be 22 b8 f2 89 f5 39
       -0.0067578093 0.0008708364 -3.880168e-05 0.0004683282
000030 ae 94 76 b8 f4 3c ab 37 e2 6b f0 38 f1 20 5f b9
       -5.878944e-05 2.0413172e-05 0.000114641865 -0.00021279209
000040 18 e6 bf ba 95 b6 0b b8 97 f7 60 3a e4 81 10 ba
       -0.0014640717 -3.3310225e-05 0.00085818156 -0.0005512519
000050 2f 1b 7f ba fb 19 14 ba 43 dc 30 ba b0 d2 24 ba
       -0.00097315287 -0.00056496233 -0.0006746689 -0.00062874984
000060 74 6d 47 3a 40 01 3f 3d 87 d3 44 3d 2d 3e 2e bd
       0.00076075573 0.04663205 0.04805329 -0.042539764
000070 75 30 b9 3c d6 b5 8f 3c 9c ce 76 3c 1b 77 30 3c
       0.022606114 0.01754276 0.015063908 0.010770584
000080 d8 6b ef ba 4d 4b e9 3c e1 9e bf 3c f4 c7 ad bc
       -0.0018266393 0.028478289 0.023391189 -0.02121351
000090 52 9e 41 3a 3f 2f 80 3a 59 27 e2 3a 5f 96 f2 3a
       0.0007385957 0.0009779705 0.0017254158 0.0018507949
0000a0 5c b0 fa 3a d2 c9 f2 3c 80 fe ed 3c df a0 fe bc
       0.0019126046 0.029637251 0.02905202 -0.031082569
0000b0 a2 9f a4 3c 5f 5f 89 3c b8 ca 5b 3c 4a 6d 33 3c
       0.02009565 0.01676911 0.013415031 0.0109513495
0000c0 28 6c 14 bb 32 f3 a9 3c 99 64 a5 3c 9f 47 b4 bc
       -0.0022647474 0.020745847 0.02018957 -0.022006808
0000d0 10 2d 1e 3c df cb de 3b 38 cf c8 3b 3a 66 ab 3b
       0.009654298 0.0067992057 0.006128218 0.005230692
0000e0 2e 04 83 bb 64 a8 0a 3c ce 4b 84 3b 30 37 bf bb
       -0.003998301 0.008462999 0.004037357 -0.0058354363
0000f0 1e 35 5d 39 9d 6a b0 39 50 9e 18 3a 25 5f 6b 3a
       0.0002109599 0.0003364877 0.000582193 0.0008978716
000100 f8 76 7c 39 0f a0 81 3c 0b f4 9d 3c e6 bb 8f bc
       0.00024076912 0.015823392 0.019281408 -0.017545652
000110 3d 92 15 3c 36 cc 01 3c 2d 65 dc 3b e5 b3 cb 3b
       0.009129104 0.007922223 0.0067259283 0.0062165135
000120 2c f7 c4 bb 1e 31 20 bc 9c e3 1c bc b5 8f c2 3b
       -0.0060109105 -0.009777335 -0.009575751 0.0059375414
000130 e5 30 da bb 89 94 8b bb e7 48 16 bb 4c e0 30 bb
       -0.0066586607 -0.00425965 -0.0022931637 -0.002698916
000140 dc c8 13 3b a4 f3 15 bb 66 c0 6c ba f2 98 71 3b
       0.0022550141 -0.0022880817 -0.0009031355 0.0036864844
000150 d0 39 43 b9 97 08 17 b8 b4 e0 9a b9 06 58 04 ba
       -0.00018618186 -3.6009205e-05 -0.00029540586 -0.0005048517
000160 22 a3 0d ba 06 42 1f bc 94 38 05 bc 23 eb 30 3c
       -0.0005403032 -0.009720331 -0.008131165 0.010798248
000170 4c 35 e0 bb 9b 5c c4 bb ec 4f a0 bb 79 67 8a bb
       -0.006842291 -0.0059924847 -0.00489234 -0.0042237607
000180 c3 bd df ba 96 5c 5d ba 73 40 16 bb 72 c5 d9 39
       -0.0017070103 -0.00084442773 -0.0022926598 0.00041536574
000190 0e 2a a2 b9 1f 15 b4 b9 c6 e4 6b ba 39 32 11 39
       -0.0003093038 -0.00034348012 -0.00089986285 0.00013846987
0001a0 ac 66 88 ba e6 3f bc b9 7b 45 c4 39 7a 4d 57 3a
       -0.0010406575 -0.00035905762 0.000374358 0.0008213144
0001b0 4d 65 a5 37 db ee 25 b8 ef de 2a b8 83 c1 7c 38
       1.9716705e-05 -3.9561517e-05 -4.073878e-05 6.0261704e-05
0001c0 48 ae 64 3a 2d cd c9 3a 6a 4c a6 3a 1f 72 e4 ba
       0.00087234797 0.001539623 0.0012687568 -0.001742903
0001d0 b5 6b 74 3a b3 fc 5a 3a 01 6f 34 3a 29 5d f7 39
       0.0009323911 0.0008353695 0.0006882996 0.0004718092
0001e0 24 26 80 3b f8 c6 73 3a 83 5b 93 3a e0 3d 52 bb
       0.0039107967 0.0009299363 0.0011242483 -0.0032080337
0001f0 82 08 be 3a 58 6d 06 3a ad bc 65 39 54 87 35 b8
       0.0014498385 0.0005127988 0.00021909429 -4.3279797e-05
000200 34 94 c2 3a c6 66 c8 39 2e c5 ef b9 45 20 47 b9
       0.0014845193 0.00038223545 -0.00045732543 -0.0001899014
000210 3f c7 47 38 af e7 8f b8 6d 4d 9c b8 42 63 39 b8
       4.763086e-05 -6.861926e-05 -7.453081e-05 -4.4199878e-05
000220 e2 b3 11 b9 2c e2 05 3a 90 70 00 3b 40 98 0a bb
       -0.00013895289 0.00051072496 0.0019598342 -0.0021147877
000230 eb 0c cf b8 08 45 2c ba 76 23 b0 ba e3 8c 2a ba
       -9.872935e-05 -0.0006571566 -0.0013438303 -0.0006505979
000240 79 ac 7d 3b 88 1f 55 bb fb a5 0e bb df d0 27 b9
       0.0038707538 -0.0032520015 -0.0021766413 -0.00016004172
000250 46 37 ff ba 81 ec 42 bb e7 f5 e9 bb ee 77 ad ba
       -0.0019471429 -0.0029743018 -0.0071399095 -0.0013234594
000260 7d 7b 88 3b 91 73 98 39 a3 c7 8b 3a 2c 38 98 ba
       0.0041651116 0.00029077803 0.0010664355 -0.001161342
000270 34 6d 94 37 04 9c 28 b9 8e 03 11 ba af 17 17 b9
       1.7693827e-05 -0.00016079849 -0.0005531841 -0.00014409305
000280 d2 67 23 bb 2b 97 2c 3a e1 e2 4a 3b 5f ec 62 bb
       -0.0024933708 0.0006583805 0.0030957984 -0.0034625751
000290 bc fd e5 ba 10 68 d8 ba 29 2e eb b9 04 f0 80 3b
       -0.0017546932 -0.0016510505 -0.00044857085 0.003934862
0002a0 20 60 1e 3c 2b a6 ca bb d7 e9 63 bb b5 ae 8d 3b
       0.009666473 -0.0061843595 -0.003477683 0.004323805
0002b0 f5 14 b6 bb d5 ba 65 bb 43 6a 1d bb 00 e3 f5 ba
       -0.0055566975 -0.0035053988 -0.0024019636 -0.0018759668
0002c0 a2 de 98 3b ea de a4 ba 04 8a 93 39 10 14 48 39
       0.004665212 -0.0012578641 0.00028140855 0.0001908096
0002d0 94 84 3e b9 0e b2 b5 b7 3d 65 90 b8 bb bc 39 b8
       -0.00018169201 -2.1659795e-05 -6.885312e-05 -4.4283206e-05
0002e0 87 2a 0f bb 15 1f 44 bb 7c bc 37 bb 76 bf 3b 3b
       -0.0021845417 -0.0029925753 -0.002803593 0.0028648055
0002f0 97 14 e8 ba fb 91 02 ba ef 51 5c ba e3 5f 83 ba
       -0.0017706332 -0.0004980859 -0.0008404543 -0.0010023083
000300 a6 3f 2f bc de fe 99 3b 2f 9d c2 3b 8b 93 d2 bb
       -0.010696327 0.004699572 0.005939148 -0.00642628
000310 b2 a5 09 3b 8b 81 02 3b 3b 25 bb 3a b7 72 ce 3a
       0.0021003303 0.001991364 0.0014278063 0.001575074
000320 28 01 70 bb 0d ed 76 3b ff 2e 3d 3b a6 52 3f bb
       -0.0036621783 0.0037677914 0.0028867123 -0.002919355
000330 e7 94 41 39 ca 6f 8a 39 55 9a a2 39 48 a5 f9 39
       0.00018461385 0.000264047 0.00031014034 0.00047616125
000340 68 2f 22 b9 c9 17 f0 3b 24 09 35 3b 23 2c 06 bc
       -0.00015467184 0.007327054 0.0027623856 -0.008189234
000350 91 c1 dd 3b c8 9c 9c 3b 3f a6 34 3b ed ef f4 38
       0.0067674597 0.004779432 0.002756491 0.00011679516
000360 a9 a1 a6 b8 f8 05 02 3c 4d 1a 05 3c f3 f2 68 bc
       -7.9456084e-05 0.007935993 0.008123946 -0.01421808
000370 c6 b4 81 3b 7b 31 98 3b 55 b5 7b 3b 2b 47 12 3b
       0.0039583175 0.0046445704 0.0038407643 0.0022320251
000380 af b1 78 3b 43 3b 13 3b 69 59 5e 3b af d6 0c bb
       0.0037947705 0.0022465743 0.0033927804 -0.0021490266
000390 f9 92 c4 38 a2 2c b3 38 b4 75 87 39 19 b4 ea 39
       9.373384e-05 8.543699e-05 0.00025836902 0.0004476614
0003a0 17 3a 8b 3b 7c 59 40 3c 97 46 87 3c a4 14 7b bc
       0.004248868 0.011740085 0.016513152 -0.015324745
0003b0 3a 2b da 3b 91 c5 98 3b 07 f2 7e 3b c4 6f 48 3b
       0.006657985 0.0046622236 0.0038901584 0.0030584196
0003c0 2b ff 14 3c 73 19 7a 3c 9c c2 3b 3c a7 f9 0a bc
       0.00909404 0.015264857 0.011459973 -0.008482373
0003d0 05 63 25 3c f3 45 ee 3b b7 f1 d7 3b 71 33 d0 3b
       0.010094409 0.007271522 0.006590094 0.0063537885
0003e0 65 f3 09 3a ac fa 19 3c 43 a1 99 3b 61 fc b6 bb
       0.0005262404 0.009398144 0.0046884133 -0.005584285
0003f0 d8 75 d0 39 37 43 e8 39 9c cd 4e 3a 9b 8f 82 3a
       0.00039760652 0.00044300567 0.00078889146 0.0009961011
