results/fl/wesad/seed_123/best_model.pth (torch, 112693 bytes, 10 tensors)

mlp.0.weight f4 [128, 140]
-0.034841146 0.0021274018 -0.041373078 0.03140896 -0.06672583 0.058780298 -0.05710169 -0.066516116
-0.054076202 0.03698994 -0.026938653 0.04074043 -0.06749818 -0.046967223 -0.02674342 -0.012337279
-0.060158838 0.06415503 -0.015641231 0.03571262 0.055045847 0.022401487 0.018270126 0.07699031
-0.04283789 0.02200155 -0.04226422 0.067207955 0.06278034 -0.06978405 0.07117731 0.043505553
0.03600858 0.039350227 0.06696115 -0.013156067 -0.07012224 -0.022079777 -0.056373682 0.008344303
-0.01727138 -0.04579525 -0.007041909 0.07943291 -0.008804632 0.0039557307 -0.01565623 0.012480641
0.074847564 0.0502858 0.031267777 0.020157043 0.018938921 0.033642914 -0.016395926 -0.08122408
-0.04930272 0.07299199 0.006842951 -0.065809846 0.01690435 0.075138204 -0.076340854 -0.05325803
-0.030080836 0.006958993 -0.016122114 -0.004404834 -0.078816056 0.043780275 0.073176034 0.050812677
-0.06083519 -0.0691707 0.03407734 0.00091221934 0.033639427 -0.08314729 -0.006045756 0.057175286
0.042840783 0.0025489936 0.016280249 -0.008545934 -0.043940354 -0.0315188 -0.050802045 0.06998026
0.04597451 0.032183714 -0.06153501 0.060002603 0.03179015 0.052866254 -0.030285655 0.020308623
0.080207124 0.051340073 0.06257395 -0.018263817 0.06868222 -0.069184706 0.008608297 -0.050000932
-0.021483669 -0.01907786 0.0043895333 0.07482298 0.0388524 0.0005413122 0.057075053 -0.04897577
0.04932754 -0.012737889 -0.016488155 0.014090667 -0.06862426 0.0042913584 0.022748465 0.070848845
-0.025609732 0.02740398 0.08795756 -0.038452573 0.07848397 -0.04102785 0.035422795 0.030001832
0.02058047 0.06720679 -0.032211673 0.016887462 0.0058447774 -0.06716985 -0.019542124 -0.054960612
0.032942038 0.0022089402 0.0029558348 -0.026260534 3.5459132e-05 -0.02312878 0.018376943 0.07841257
0.022685133 -0.04348754 -0.04347021 0.0078062117 -0.05953825 -0.05643012 -0.052293293 -0.02311259
0.008886096 0.06108128 0.035434578 0.067427866 -0.0503337 0.013871465 -0.072407655 0.056344114
0.01987687 0.08040452 -0.057942912 0.07012698 0.07361229 0.070554614 0.014366923 0.07555858
0.058705445 0.068570256 -0.0034162658 -0.05801865 -0.0030260598 0.02029888 -0.06279719 -0.05735579
-0.072576374 -0.026518485 0.08045686 0.021756122 -0.0034530011 0.012196033 0.048697203 -0.06514837
-0.07762389 -0.037429333 -0.043436784 0.050906222 0.068524644 -0.07629053 -0.07516191 -0.07868711
0.02922496 0.07087204 -0.075839505 -0.04230644 0.030164607 -0.052430827 0.07540941 0.023550743
-0.01897907 0.0101702195 0.0309025 -0.0253079 -0.06094741 0.005102534 0.0060936627 0.006208767
-0.0077850255 0.059217118 -0.027878784 -0.006200555 0.030433364 -0.057454273 0.018337322 -0.0229966
0.03625872 -0.04304855 -0.001170472 0.007291274 -0.06304002 -0.052932214 0.023313541 -0.016654538
0.04398631 -0.090323895 -0.034264386 -0.06099736 0.04227975 0.008914533 -0.016566293 -0.008001366
-0.07129888 0.029639479 -0.0011474073 -0.0664829 0.03935345 0.0037855415 -0.07568114 0.053971354
0.04745083 -0.0102183055 -0.064161465 0.008207645 0.056954805 0.07033626 -0.05612773 -0.03348344
0.071506456 0.05115559 0.04873381 -0.037857912 0.07026974 -0.06814859 -0.007318508 -0.0022728653
00000000: 97b5 0ebd e16b 0b3b d176 29bd afa6 003d
00000010: 8da7 88bd 9cc3 703d 76e3 69bd 9a39 88bd
00000020: 027f 5dbd c382 173d 73ae dcbc 70df 263d
00000030: 7c3c 8abd b460 40bd 0415 dbbc 4c22 4abc
00000040: 1d69 76bd b663 833d 0a22 80bc 6547 123d
00000050: c177 613d 5383 b73c 3bab 953c 18ad 9d3d
00000060: c976 2fbd 983c b43c 3f1d 2dbd 53a4 893d
00000070: fb92 803d f1ea 8ebd 69c5 913d e132 323d
00000080: bc7d 133d b42d 213d ed22 893d 8b8c 57bc
00000090: 409c 8fbd a6e0 b4bc 17e8 66bd 8bb6 083c
000000a0: b67c 8dbc cd93 3bbd d0bf e6bb b9ad a23d
000000b0: 4e41 10bc 139f 813b 7e41 80bc 9a7b 4c3c
000000c0: ae49 993d 7cf8 4d3d a412 003d 6220 a53c
000000d0: cc25 9b3c 27cd 093d c050 86bc cf58 a6bd
000000e0: a6f1 49bd d37c 953d d53a e03b 50c7 86bd
000000f0: fe7a 8a3c 0fe2 993d 9858 9cbd 1825 5abd
00000100: 166c f6bc 4408 e43b 8612 84bc 6d56 90bb
00000110: 506a a1bd f252 333d 51dd 953d f420 503d
00000120: 522e 79bd 5ea9 8dbd ae94 0b3d 0122 6f3a
00000130: 7fc9 093d 2049 aabd 7a1b c6bb a230 6a3d
00000140: d179 2f3d 040d 273b 285e 853c 3f04 0cbc
00000150: cdfa 33bd db19 01bd ce15 50bd d051 8f3d
00000160: c54f 3c3d 12d3 033d 220c 7cbd 4ac5 753d
00000170: 6336 023d 498a 583d 9f19 f8bc 455e a63c
00000180: a243 a43d f849 523d c526 803d 009e 95bc
00000190: 44a9 8c3d b6b0 8dbd d109 0d3c c7cd 4cbd
000001a0: 85fe afbc 2c49 9cbc 13d6 8f3b ca3c 993d
000001b0: b223 1f3d d9e6 0d3a 88c7 693d d19a 48bd
000001c0: ad0b 4a3d 94b2 50bc 2b12 87bc 8adc 663c
000001d0: e08a 8cbd 869e 8c3b fd5a ba3c 3319 913d
000001e0: 80cb d1bc 507e e03c 1823 b43d 7280 1dbd
000001f0: 34bc a03d d20c 28bd 7e17 113d 67c6 f53c
00000200: 6098 a83c b7a3 893d 63f0 03bd 9357 8a3c
00000210: 8c85 bf3b 5990 89bd ce16 a0bc 611e 61bd
00000220: 3bee 063d dec3 103b aeb6 413b 5520 d7bc
00000230: f4b9 1438 9178 bdbc 3e8b 963c c596 a03d
00000240: 2cd6 b93c fe1f 32bd d20d 32bd 40cb ff3b
00000250: 61de 73bd 4523 67bd 7e31 56bd 9d56 bdbc
00000260: fd96 113c 5d30 7a3d d923 113d 9f17 8a3d
00000270: b62a 4ebd 2445 633c 774a 94bd 16c9 663d
00000280: d1d4 a23c 20ab a43d 8c55 6dbd bc9e 8f3d
00000290: 0ac2 963d f07e 903d 3e63 6b3c 75be 9a3d
000002a0: 1f75 703d 906e 8c3d 6ee3 5fbb f7a4 6dbd
000002b0: dc50 46bb d649 a63c d09b 80bd e8ed 6abd
000002c0: eca2 94bd 4b3d d9bc 91c6 a43d e539 b23c
000002d0: bf4b 62bb dfd1 473c b876 473d 826c 85bd
000002e0: 46f9 9ebd 804f 19bd c5ea 31bd 0b83 503d
000002f0: a656 8c3d 363e 9cbd 7dee 99bd b526 a1bd
00000300: 2f69 ef3c 5c25 913d be51 9bbd 8549 2dbd
00000310: c41b f73c b5c1 56bd 4070 9a3d 7ded c03c
00000320: ff79 9bbc fea0 263c 3d27 fd3c 8352 cfbc
00000330: fea3 79bd 2833 a73b 59ad c73b ea72 cb3b
00000340: 8719 ffbb a68d 723d 0c62 e4bc 062e cbbb
00000350: 644f f93c 2c55 6bbd 2738 963c 5e63 bcbc
00000360: 0684 143d ad53 30bd 866a 99ba a4eb ee3b
00000370: 201b 81bd 73cf 58bd 0afc be3c 196f 88bc
00000380: fd2a 343d bcfb b8bd d058 0cbd 5ed8 79bd
00000390: 882d 2d3d 430e 123c 09b6 87bc 2918 03bc
000003a0: 2605 92bd 7ece f23c 9a64 96ba 3028 88bd
000003b0: 1531 213d d916 783b b7fe 9abd 1111 5d3d
000003c0: cd5b 423d ae6a 27bc 1667 83bd 5c79 063c
000003d0: 7149 693d 750c 903d 31e6 65bd ee25 09bd
000003e0: fa71 923d 8688 513d 1b9d 473d e610 1bbd
000003f0: 95e9 8f3d 7d91 8bbd 18d0 efbb 5af4 14bb

mlp.0.bias f4 [128]
0.014237532 -0.05065216 -0.06381138 0.016530795 0.019422226 0.012695998 -0.07428368 0.05414784
-0.009463631 0.07167358 -0.06571878 -0.062304374 0.050301373 0.08112858 0.04366348 0.0049333014
0.001881391 -0.07257944 0.0010541237 -0.07942326 -0.011709249 -0.020139962 0.007108172 0.0048097298
0.061151233 0.07771188 0.053973783 0.07506099 0.07749626 0.06970174 -0.06642535 -0.09092972
-0.011612141 0.04019718 0.07592927 -0.03662524 -0.049287003 -0.002759167 0.07985883 -0.05552034
0.024424821 -0.061506636 0.04478615 -0.033388965 0.080963 0.017321754 0.06740411 0.047853
0.025406525 -0.047762122 -0.06252821 0.06708824 0.042487964 0.048838317 0.07415039 0.08119121
0.038010553 -0.024411986 -0.0075064646 0.046411835 0.08778436 0.047453906 0.057836585 -0.05489147
-0.0016790676 0.07130424 0.04925879 -0.01274324 -0.014327233 0.079999916 0.03521171 -0.056855645
-0.05552306 -0.01747174 -0.054675497 0.0037232344 0.031131076 0.06799835 -0.074626006 -0.0050068484
0.03778606 0.02410506 -0.06241387 -0.041619234 -0.016358314 0.057488173 0.010019592 0.015304006
-0.07575891 0.041150577 0.05714482 -0.009090368 -0.0066568106 0.05104875 -0.059768472 0.0346515
-0.046072543 0.029826233 0.024796259 -0.028272176 0.019293854 0.0005010108 -0.065320596 -0.048818953
-0.052679874 -0.0044885115 0.014457254 -0.08142572 0.025936076 0.030885663 -0.008290572 -0.06407263
-0.03772036 0.02512382 -0.034931056 0.07154052 0.003578221 0.047438644 -0.018887043 0.077273674
0.03600721 0.06921634 0.05983977 0.018768279 0.025297713 0.06837612 -0.020866156 0.046552215
00000000: 8a44 693c a478 4fbd 8aaf 82bd 976b 873c
00000010: 5c1b 9f3c e002 503c 0b22 98bd 20ca 5d3d
00000020: 580d 1bbc 99c9 923d 9197 86bd df32 7fbd
00000030: d008 4e3d be26 a63d 7ad8 323d 88a7 a13b
00000040: 0299 f63a 88a4 94bd 862a 8a3a aaa8 a2bd
00000050: 26d8 3fbc 90fc a4bc abeb e83b f09a 9d3b
00000060: b779 7a3d 6827 9f3d 9d13 5d3d 94b9 993d
00000070: 5cb6 9e3d c9bf 8e3d 040a 88bd 5c39 babd
00000080: d940 3ebc cca5 243d ce80 9b3d 5904 16bd
00000090: 2be1 49bd 24d3 34bb 078d a33d 4c69 63bd
000000a0: 9016 c83c 62ee 7bbd af71 373d dec2 08bd
000000b0: eecf a53d 5ae6 8d3c 2b0b 8a3d 8201 443d
000000c0: 5821 d03c 37a2 43bd ca0e 80bd 8f65 893d
000000d0: dc07 2e3d b00a 483d 29dc 973d 9447 a63d
000000e0: f4b0 1b3d a5fb c7bc caf8 f5bb 561a 3e3d
000000f0: 49c8 b33d 075f 423d 0ee6 6c3d e1d5 60bd
00000100: 2914 dcba f507 923d 96c3 493d 06c9 50bc
00000110: c5bc 6abc ffd6 a33d 273a 103d 77e1 68bd
00000120: 266c 63bd e520 8fbc 6af3 5fbd 8201 743b
00000130: 9906 ff3c b842 8b3d 85d5 98bd 7d10 a4bb
00000140: 8ec5 1a3d fa77 c53c b0a5 7fbd ee78 2abd
00000150: df01 86bc b878 6b3d 3729 243c a7bd 7a3c
00000160: 7d27 9bbd 828d 283d b010 6a3d c4ef 14bc
00000170: 6021 dabb 7e18 513d c9cf 74bd bbee 0d3d
00000180: 90b6 3cbd 2556 f43c 8621 cb3c 0d9b e7bc
00000190: 250e 9e3c 4456 033a cec6 85bd 62f6 47bd
000001a0: dac6 57bd 5d14 93bb 1ede 6c3c 87c2 a6bd
000001b0: e577 d43c ee03 fd3c 2ed5 07bc 8338 83bd
000001c0: aa80 1abd 78d0 cd3c de13 0fbd d683 923d
000001d0: 9680 6a3b 064f 423d 00b9 9abc a941 9e3d
000001e0: 4c7c 133d 4cc1 8d3d 8c1a 753d efbf 993c
000001f0: 263d cf3c c708 8c3d 80ef aabc 89ad 3e3d

mlp.1.weight f4 [128]
0.99270093 1.0051132 0.99991906 1.0013756 1.0037148 1.00631 1.0007735 0.99832994
0.9963382 1.0100142 1.0001743 1.0071726 1.005154 1.000619 1.0008161 0.99435085
1.0056036 1.0072601 1.0106652 0.99610615 0.99739546 1.003759 0.99487406 1.0012269
0.9956263 0.99796987 0.9957392 1.0025485 1.0049931 1.0018847 0.9991559 0.99590194
1.0000786 0.9998405 0.9989792 1.0005305 0.99394107 0.99543285 1.0070297 1.0052211
1.0055836 1.0016868 1.0010144 1.0065577 0.99778754 1.0098904 1.0004493 1.0056019
0.9978389 0.99530274 0.9975138 0.9958397 0.9980467 0.9954729 0.9951711 0.9999508
1.0037966 0.9947136 0.9961029 0.9989828 1.0026922 1.0051429 1.0011976 1.0009023
0.99324006 0.9986298 1.0024638 0.99861425 0.9946363 0.99786633 1.001184 0.9939331
1.003205 0.9944064 1.0014057 0.9975643 0.99909806 1.0022166 1.0007484 1.0017834
1.0038804 0.99833643 0.9984256 1.0078838 0.99429935 0.9966534 0.99454176 1.0029011
0.99839103 1.0037749 0.996518 1.0018141 1.0034438 0.9972551 0.9982776 0.9960108
1.00308 0.9994522 1.0047843 1.0051965 0.9980336 1.0062648 0.99814034 1.0069392
1.0025429 0.9953473 0.9987747 1.0012609 1.0021785 1.0045462 1.007094 1.0011591
1.0012879 0.9964372 0.9964529 1.0010117 0.9986275 0.9970039 1.000092 0.99853206
1.0004401 0.99887186 1.0034442 1.0007833 0.9986558 0.9991196 1.0023307 0.9956216
00000000: a621 7e3f 8da7 803f b2fa 7f3f 132d 803f
00000010: ba79 803f c4ce 803f 5919 803f 8d92 7f3f
00000020: 0510 7f3f 2548 813f b605 803f 08eb 803f
00000030: e3a8 803f 4914 803f be1a 803f c78d 7e3f
00000040: 9eb7 803f e6ed 803f 7a5d 813f d000 7f3f
00000050: 4f55 7f3f 2d7b 803f 11b0 7e3f 3428 803f
00000060: 5de1 7e3f f47a 7f3f c4e8 7e3f 8253 803f
00000070: 9da3 803f c23d 803f aec8 7f3f 6ef3 7e3f
00000080: 9302 803f 8cf5 7f3f 1abd 7f3f 6211 803f
00000090: ec72 7e3f b0d4 7e3f 59e6 803f 16ab 803f
000000a0: f7b6 803f 4637 803f 3d21 803f e2d6 803f
000000b0: 016f 7f3f 1744 813f b90e 803f 90b7 803f
000000c0: 5f72 7f3f 29cc 7e3f 105d 7f3f 5aef 7e3f
000000d0: fd7f 7f3f 50d7 7e3f 89c3 7e3f c7fc 7f3f
000000e0: 687c 803f 8da5 7e3f 9a00 7f3f 56bd 7f3f
000000f0: 3858 803f 86a8 803f 3e27 803f 911d 803f
00000100: fb44 7e3f 34a6 7f3f bc50 803f 2fa5 7f3f
00000110: 7ca0 7e3f 2b74 7f3f cc26 803f 6672 7e3f
00000120: 0569 803f 6b91 7e3f 102e 803f 6060 7f3f
00000130: e4c4 7f3f a248 803f 8618 803f 703a 803f
00000140: 277f 803f fa92 7f3f d298 7f3f 5602 813f
00000150: 678a 7e3f ad24 7f3f 4a9a 7e3f 105f 803f
00000160: 8e96 7f3f b27b 803f ce1b 7f3f 723b 803f
00000170: d970 803f 1c4c 7f3f 1f8f 7f3f 90fa 7e3f
00000180: ed64 803f 19dc 7f3f c69c 803f 47aa 803f
00000190: 217f 7f3f 49cd 803f 2086 7f3f 62e3 803f
000001a0: 5353 803f 15cf 7e3f b3af 7f3f 5129 803f
000001b0: 6347 803f f894 803f 75e8 803f fb25 803f
000001c0: 342a 803f 8216 7f3f 8a17 7f3f 2721 803f
000001d0: 0da6 7f3f a63b 7f3f 0403 803f cc9f 7f3f
000001e0: 6c0e 803f 11b6 7f3f dc70 803f ab19 803f
000001f0: e8a7 7f3f 4dc6 7f3f 5f4c 803f 0fe1 7e3f

mlp.1.bias f4 [128]
-0.0057819057 0.003958159 0.00043721602 0.0018254557 0.0022300235 0.005496538 0.000505912 -0.00014073195
-0.0036435863 0.0074313036 -0.00026365934 0.0064398507 0.005142865 0.0014345953 -0.0018577675 -0.004651239
0.0051556616 0.004412801 0.008270305 -0.004550583 0.0008130181 0.0034619889 -0.0024837875 0.00012438439
-0.003543164 -0.0018016401 -0.0034299477 0.0028225721 0.003994457 -0.00061982585 0.0012129808 -0.005450343
3.2951815e-05 0.0012467894 -0.0023717165 0.00063671777 -0.0060416926 -0.0038837595 0.0062770015 0.0054339124
0.006704654 0.0027912585 0.002050843 0.0057276366 -0.0011411349 0.0072795087 -0.001073068 0.0006231718
-0.0022465526 -0.004845802 -0.0010162378 -0.00320622 -0.0028500673 -0.006612219 -0.0060325293 -0.00055116555
0.004138283 -0.0045061833 -0.0023764884 -0.0009946926 0.0021553263 0.0042933794 0.00064963545 0.00018861028
-0.0065651005 0.00035239948 0.0045565907 -0.0007146433 -0.0061116307 -0.00040415957 0.0014871554 -0.0034414786
0.0006086983 -0.0051327446 0.00323675 -0.0017427203 -0.00066744525 0.0023349086 0.0021547629 0.0010241478
0.0033027446 -0.0013715758 -0.00092369376 0.0052106273 -0.0048028706 -0.0024452682 -0.0044008056 0.0001461811
-0.0011574603 0.0032564702 -0.002157986 0.0015535492 0.0038689205 -0.0014649704 -0.0038465708 -0.003506538
0.0034392807 -0.0036589773 0.0030829173 0.0045103347 -0.0041173175 0.0041393735 -4.799085e-05 0.005448448
0.0028043923 -0.0032078014 -0.001872297 -3.939576e-05 0.0012158155 0.005130355 0.0063636005 0.0016038937
0.0024976914 -0.0036710107 -0.0017098655 0.0008292384 -4.29941e-05 -0.00055377086 0.0013616686 -0.0002950193
0.00033960212 0.0016430928 0.0025080529 0.0013395713 -0.0015641475 -0.0014519783 0.0020780351 -0.0038911814
00000000: 2476 bdbb 72b3 813b 243a e539 2144 ef3a
00000010: 9625 123b 4d1c b43b 2e9f 043a 7291 13b9
00000020: 3cc9 6ebb 4b82 f33b c23b 8ab9 6205 d33b
00000030: 7a85 a83b 0809 bc3a 5580 f3ba 6c69 98bb
00000040: d3f0 a83b 4299 903b 2c80 073c 0f1d 95bb
00000050: b920 553a 89e2 623b 0ac7 22bb 2e6d 0239
00000060: 6e34 68bb 0325 ecba f9c8 60bb e7fa 383b
00000070: efe3 823b cf7b 22ba e2fc 9e3a ca98 b2bb
00000080: be35 0a38 4f6b a33a cd6e 1bbb 68e9 263a
00000090: 64f9 c5bb ac86 7ebb 4eaf cd3b f60e b23b
000000a0: b7b2 db3b 8ced 363b 7067 063b e6ae bb3b
000000b0: 2292 95ba f288 ee3b 30a6 8cba 5a5c 233a
000000c0: e63a 13bb 89c9 9ebb 4833 85ba 721f 52bb
000000d0: 32c8 3abb 50ab d8bb 86ac c5bb 187c 10ba
000000e0: 6f9a 873b 9ba8 93bb dcbe 1bbb 5860 82ba
000000f0: 6040 0d3b 7aaf 8c3b 4c4c 2a3a b0c5 4539
00000100: 0e20 d7bb 42c2 b839 744f 953b e656 3bba
00000110: 1344 c8bb 61e5 d3b9 a8ec c23a 6e8a 61bb
00000120: 0d91 1f3a 9530 a8bb a71f 543b fd6b e4ba
00000130: 7ef7 2eba 4405 193b ec36 0d3b b33c 863a
00000140: dc72 583b 72c6 b3ba 0a24 72ba e9bd aa3b
00000150: 6661 9dbb cb40 20bb a234 90bb 3148 1939
00000160: ecb5 97ba 816a 553b ff6c 0dbb 76a0 cb3a
00000170: b78d 7d3b 4004 c0ba c016 7cbb f2cd 65bb
00000180: 8e65 613b 74cb 6fbb c50a 4a3b 6ecb 933b
00000190: 90ea 86bb 95a3 873b c849 49b8 e588 b23b
000001a0: e5c9 373b fa39 52bb dd67 f5ba e03c 25b8
000001b0: 005c 9f3a 891c a83b c085 d03b be39 d23a
000001c0: 4fb0 233b 5795 70bb 911d e0ba 3f61 593a
000001d0: 9054 34b8 ef2a 11ba 047a b23a d2ac 9ab9
000001e0: a00c b239 0c5d d73a 255e 243b 8e94 af3a
000001f0: 1504 cdba 4f50 beba a52f 083b 3103 7fbb

mlp.4.weight f4 [64, 128]
-0.06573991 0.08401621 -0.076778375 0.028628994 -0.04041106 -0.04151815 -0.08282963 -0.020324558
-0.067375 0.06328508 0.08803159 -0.042289913 -0.02264535 -0.038385663 -0.012339962 0.057433203
0.013997148 -0.06678013 -0.009900987 -0.04372913 -0.04439665 -0.07530831 -0.028553326 0.045912888
-0.078867495 0.003048427 0.026892925 0.016702645 0.08163 -0.07788428 0.047959283 0.013449994
0.014479361 -0.042595495 -0.07856932 0.013799664 0.011341115 0.0070505235 0.050001726 0.020082729
0.08228417 0.07135609 -0.07073337 0.0074513564 -0.032513715 -0.00412261 0.09295466 0.035752352
0.03784273 0.04258265 -0.056657806 -0.008225482 0.005324283 -0.023119358 0.07172604 0.012228647
0.010506125 -0.013675494 -0.02851027 -0.014447577 -0.016026085 -0.041886494 0.054067656 0.06228188
0.03965746 0.083249055 0.024836034 0.012248705 0.054849505 -0.021777216 0.033385105 0.059083242
0.07394052 -0.05156701 0.03478526 0.0656289 0.031551592 -0.011067529 0.0028525835 -0.018594496
0.045783844 -0.07801019 -0.058376875 0.06856447 -0.021938046 0.03666497 -0.032856006 -0.06294354
0.009720613 -0.0697442 -0.012238806 -0.06998993 -0.074408434 -0.016673611 0.03831466 0.045604356
-0.008718286 -0.02726474 -0.040150065 -0.06894757 0.068248704 0.055845108 0.06054401 -0.021880694
-0.07913827 0.011145415 -0.02291311 -0.036218118 -0.02920402 -0.06846228 0.08638489 0.039190467
-0.010048323 0.022241136 -0.00040669256 0.06441666 0.023972634 -0.031968735 -0.057776537 0.0068537905
0.07336813 -0.011865843 -0.08148278 0.039857518 0.077785194 -0.06608029 -0.0844063 -0.06767503
0.065584995 -0.06585107 -0.028662901 -0.07818055 0.030939776 0.02122005 -0.054505304 -0.042221885
0.04830022 -0.06512405 -0.083190545 0.004632467 -0.01603188 -0.014559714 0.019896366 0.06800814
-0.0016303036 0.06551389 0.010581162 0.056703173 -0.036158726 -0.0909144 0.036509212 -0.057385437
-0.06270088 -0.041553255 0.044205125 0.067210175 0.029411055 -0.025368255 -0.08277288 -0.013468279
0.026073208 -0.014433593 -0.0074904175 0.022441998 -0.009543264 0.08767822 0.04512591 0.035438232
0.06693745 0.04772636 0.08145281 0.048000038 0.054121558 -0.08277969 0.008013 -0.04535131
-0.022537297 -0.049124464 -0.0071207285 0.07747041 0.07483054 0.084251985 -0.0074887234 -0.024004607
-0.022155927 -0.002580373 0.009131246 -0.041902766 0.071175285 -0.088030286 -0.07483011 -0.06724024
0.08191068 -0.07042354 0.033381466 -0.01354442 0.0097693615 0.03120653 -0.07349158 0.04435613
0.016598906 0.05821614 -0.06066119 0.06644196 0.072498426 0.047914945 -0.08242665 0.07983687
-0.06880156 -0.04968265 -0.07356835 0.0059278156 0.08070538 0.04784597 -0.008446493 0.018051654
0.01749125 -0.038541265 -0.072111376 -0.08175295 -0.09011002 0.06898065 -0.022629252 -0.05091921
-0.053755257 -0.06887938 0.023722842 -0.0043897727 0.03711359 -0.029359482 0.029368341 -0.036108524
0.03633112 0.06253971 0.0809016 0.06498324 -0.06029657 -0.08257486 0.023098435 -0.081627205
-0.04870183 0.07475177 0.019312626 -0.04871216 0.038578477 -0.08414786 0.037330125 0.017181586
-0.00785828 -0.059161585 -0.07910957 -0.011595779 0.019303627 -0.030895688 -0.07928126 -0.0148828635
00000000: a5a2 86bd b110 ac3d fb3d 9dbd 5a87 ea3c
00000010: 1186 25bd f00e 2abd 95a2 a9bd b07f a6bc
00000020: e7fb 89bd 9c9b 813d e849 b43d 3038 2dbd
00000030: be82 b9bc 493a 1dbd 8d2d 4abc 143f 6b3d
00000040: 4b54 653c 05c4 88bd c037 22bc 511d 33bd
00000050: 43d9 35bd 3e3b 9abd aae8 e9bc 270f 3c3d
00000060: 4885 a1bd 1ec8 473b 8d4e dc3c fcd3 883c
00000070: a12d a73d cb81 9fbd f470 443d 5d5d 5c3c
00000080: d73a 6d3c 9d78 2ebd f4e8 a0bd fc17 623c
00000090: 16d0 393c 1408 e73b 9cce 4c3d 8984 a43c
000000a0: 9a84 a83d 2423 923d a8dc 90bd 822a f43b
000000b0: 1a2d 05bd f616 87bb 035f be3d 0f71 123d
000000c0: fa00 1b3d 256b 2e3d 0412 68bd 2cc4 06bc
000000d0: 5377 ae3b cf64 bdbc 1ae5 923d aa5a 483c
000000e0: e221 2c3c 2e0f 60bc 5f8e e9bc 88b5 6cbc
000000f0: 2349 83bc 2c91 2bbd 0c76 5d3d 491b 7f3d
00000100: dc6f 223d 7b7e aa3d f074 cb3c cbae 483c
00000110: e0a9 603d 2266 b2bc d2be 083d 4501 723d
00000120: 216e 973d ee37 53bd fd7a 0e3d 7268 863d
00000130: 3e3c 013d 9554 35bc 69f2 3a3b 7c53 98bc
00000140: d787 3b3d cec3 9fbd 971c 6fbd 876b 8c3d
00000150: 6bb7 b3bc 022e 163d 0594 06bd 8be8 80bd
00000160: 3543 1f3c 0cd6 8ebd 4685 48bc e156 8fbd
00000170: 7363 98bd 1997 88bc d5ef 1c3d a2cb 3a3d
00000180: 24d7 0ebc 4e5a dfbc 6574 24bd 6234 8dbd
00000190: fac5 8b3d d7bd 643d fffc 773d 243f b3bc
000001a0: 3f13 a2bd 429b 363c 46b4 bbbc 7359 14bd
000001b0: 453d efbc f435 8cbd 90ea b03d 2f86 203d
000001c0: b9a1 24bc 0b33 b63c 5a39 d5b9 e2ec 833d
000001d0: 4262 c43c a6f1 02bd 17a7 6cbd c395 e03b
000001e0: 0842 963d f468 42bc 72e0 a6bd a341 233d
000001f0: d84d 9f3d 1a55 87bd 36dd acbd 3599 8abd
00000200: 6d51 863d eddc 86bd 76ce eabc 201d a0bd
00000210: 6a75 fd3c acd5 ad3c f440 5fbd dbf0 2cbd
00000220: 74d6 453d c25f 85bd ce5f aabd f3cb 973b
00000230: 4a55 83bc de8b 6ebc b4fd a23c da47 8b3d
00000240: e9af d5ba 252c 863d 9c5c 2d3c 9641 683d
00000250: 2c1b 14bd 5431 babd af8a 153d fe0c 6bbd
00000260: 5269 80bd bf33 2abd 6f10 353d 7da5 893d
00000270: 74ef f03c 16d1 cfbc d484 a9bd 0eaa 5cbc
00000280: 7b97 d53c e07a 6cbc 2d72 f5bb 48d8 b73c
00000290: 5a5b 1cbc a390 b33d f2d5 383d ae27 113d
000002a0: 8016 893d b77c 433d bbd0 a63d b09b 443d
000002b0: 91ae 5d3d 6688 a9bd f548 033c 4cc2 39bd
000002c0: 23a0 b8bc bc36 49bd 0055 e9bb cea8 9e3d
000002d0: c140 993d 4e8c ac3d f763 f5bb 4fa5 c4bc
000002e0: 5980 b5bc 7a1b 29bb 399b 153c 3ca2 2bbd
000002f0: 59c4 913d 3949 b4bd 8740 99bd 40b5 89bd
00000300: c9c0 a73d 383a 90bd 01bb 083d 6ae9 5dbc
00000310: ac0f 203c d6a4 ff3c c182 96bd c6ae 353d
00000320: 6efa 873c 0c74 6e3d de77 78bd b912 883d
00000330: 0e7a 943d 7642 443d 4ecf a8bd 8381 a33d
00000340: d5e7 8cbd 0980 4bbd 01ab 96bd 1f3e c23b
00000350: dd48 a53d 23fa 433d 2963 0abc 10e1 933c
00000360: cf49 8f3c 72dd 1dbd 21af 93bd 176e a7bd
00000370: 9a8b b8bd ba45 8d3d fb60 b9bc a990 50bd
00000380: 792e 5cbd a210 8dbd 6856 c23c 15d8 8fbb
00000390: 6b04 183d 4c83 f0bc e095 f03c 88e6 13bd
000003a0: f1cf 143d d214 803d bdaf a53d ef15 853d
000003b0: 89f9 76bd 021d a9bd ee38 bd3c 2a2c a7bd
000003c0: 927b 47bd 7517 993d 8335 9e3c 6786 47bd
000003d0: 7704 1e3d b755 acbd 79e7 183d 66c0 8c3c
000003e0: 04c0 00bc 6b53 72bd 3304 a2bd 39fc 3dbc
000003f0: a422 9e3c f418 fdbc 375e a2bd 41d7 73bc

mlp.4.bias f4 [64]
0.035328828 -0.019835897 0.008026193 0.08057864 -0.009880726 -0.030526683 -0.008141338 0.051523928
0.019574175 0.022164483 -0.07477817 -0.08686472 0.05298287 -0.014864275 0.049635556 0.016684638
-0.03040254 -0.069726005 0.068994485 0.07462913 0.09369477 0.003953252 -0.005116506 0.06723143
-0.08092541 -0.07469747 0.056197375 -0.020560214 0.05337278 -0.038915038 -0.0027295556 0.007879664
0.06351672 0.0030370513 -0.020380897 -0.054128703 0.026049554 0.0108283395 -0.034724522 -0.00411916
-0.081736445 0.058971576 -0.04367365 0.082012415 0.080816925 0.08297928 -0.067581944 0.065075286
-0.051565364 -0.07573471 -0.012598238 -0.054893762 -0.06507534 0.061181433 0.083753236 -0.022038884
-0.051719133 0.048777856 0.03990821 -0.025594354 -0.036130372 -0.030979356 0.06833296 -0.030543637
00000000: f6b4 103d e47e a2bc 4b80 033c 6a06 a53d
00000010: c5e2 21bc 1813 fabc 3f63 05bc c10a 533d
00000020: 055a a03c 4a92 b53c 4c25 99bd 21e6 b1bd
00000030: 9104 593d 4a89 73bc a74e 4b3d 39ae 883c
00000040: bf0e f9bc 82cc 8ebd fb4c 8d3d 28d7 983d
00000050: 0be3 bf3d 488a 813b 5da8 a7bb a2b0 893d
00000060: 39bc a5bd fdfa 98bd 382f 663d e56d a8bc
00000070: 6b9d 5a3d 6065 1fbd 58e2 32bb b519 013c
00000080: 0e15 823d 4409 473b d7f5 a6bc 0fb6 5dbd
00000090: e065 d53c 5969 313c 4d3b 0ebd 05fa 86bb
000000a0: 7065 a7bd 2e8c 713d 24e3 32bd 20f6 a73d
000000b0: 5883 a53d 0af1 a93d 6768 8abd 3146 853d
000000c0: 3436 53bd cd1a 9bbd d768 4ebc 48d8 60bd
000000d0: 3846 85bd 6299 7a3d d186 ab3d e48a b4bc
000000e0: 71d7 53bd 4acb 473d cb76 233d 40ab d1bc
000000f0: 71fd 13bd 6bc8 fdbc 27f2 8b3d a636 fabc

mlp.5.weight f4 [64]
1.0045565 0.99560773 1.0001726 0.9969133 1.0020282 1.0018789 1.0018297 1.0005205
1.0064578 0.99411374 1.0071597 1.0030781 0.99610907 1.0026028 0.9984464 0.9970067
1.0020652 0.99722785 1.0001714 0.9980478 1.0048584 0.99841386 1.0008489 1.002148
1.0039726 0.9944993 0.9968246 0.999719 1.0005724 0.9966703 0.9978794 0.9969712
0.99680924 1.0052209 1.006691 0.9979606 1.0010002 0.9993308 0.9950859 1.0051754
1.0016836 0.9987731 1.0004082 1.0028589 1.0013063 0.9949698 1.005326 1.0023417
0.9992904 1.006377 1.0054839 1.0023988 1.006735 0.9998744 0.99614275 1.007628
0.99711293 1.0001252 1.0057569 1.0008273 1.0031805 1.0015054 0.99900264 1.0026336
00000000: 4f95 803f 26e0 7e3f a805 803f b635 7f3f
00000010: 7642 803f 913d 803f f53b 803f 0e11 803f
00000020: 9cd3 803f 3d7e 7e3f 9cea 803f dd64 803f
00000030: 0101 7f3f 4a55 803f 2f9a 7f3f d53b 7f3f
00000040: ac43 803f 534a 7f3f 9e05 803f 1080 7f3f
00000050: 339f 803f 0d98 7f3f d11b 803f 6346 803f
00000060: 2d82 803f 8297 7e3f e62f 7f3f 96ed 7f3f
00000070: c212 803f c925 7f3f 0675 7f3f 8139 7f3f
00000080: e42e 7f3f 14ab 803f 40db 803f 597a 7f3f
00000090: c620 803f 25d4 7f3f f3bd 7e3f 96a9 803f
000000a0: 2b37 803f 98af 7f3f 600d 803f ae5d 803f
000000b0: ce2a 803f 57b6 7e3f 86ae 803f bc4c 803f
000000c0: 7fd1 7f3f f6d0 803f b2b3 803f 9b4e 803f
000000d0: b1dc 803f c5f7 7f3f 3603 7f3f f4f9 803f
000000e0: cb42 7f3f 1a04 803f a4bc 803f 1c1b 803f
000000f0: 3868 803f 5431 803f a3be 7f3f 4c56 803f

mlp.5.bias f4 [64]
0.004374402 -0.004584829 0.00045044158 -0.003594201 0.0014625397 0.0006751548 0.0021939983 0.0018674836
0.004640452 -0.0049050064 0.0070648864 0.0011808595 -0.0045736525 0.0031646492 -0.00078183704 -0.00074354466
-0.0002258743 -0.0032980372 -0.0010658114 -0.0024800084 0.0060555805 -0.0011392732 0.0014966354 0.0007915226
-0.0002623642 -0.005875879 -0.0032955366 -0.00064049463 0.0007439442 -0.004698565 -0.0018950393 -0.0046820436
0.00014443211 0.0044015623 0.003659647 -0.0011859549 0.00020961036 -0.002059828 -0.0047722934 0.003010239
0.0021236606 -0.0029083183 0.0012961277 0.0018276443 -5.071018e-05 -0.006399444 0.0048062727 0.0024883053
-0.0021762927 0.005456119 0.0063493038 0.0019539788 0.0048094187 -0.000111105095 -0.0034228466 0.0065029007
-0.003262704 -0.0012732913 0.0041194092 0.0018774344 0.0038805555 -0.00012884571 -0.002045869 0.0017139908
00000000: 2557 8f3b 553c 96bb 3f29 ec39 b08c 6bbb
00000010: b0b2 bf3a dffc 303a 2fc9 0f3b 5ac6 f43a
00000020: ef0e 983b 2dba a0bb 9080 e73b 12c7 9a3a
00000030: 94de 95bb 0166 4f3b 32f4 4cba 70ea 42ba
00000040: acd8 6cb9 e223 58bb b2b2 8bba a387 22bb
00000050: e46d c63b aa53 95ba c02a c43a 2f7e 4f3a
00000060: ed8d 89b9 728a c0bb eef9 57bb dee6 27ba
00000070: 4005 433a 6cf6 99bb f862 f8ba d46b 99bb
00000080: b372 1739 fb3a 903b b0d6 6f3b 0b72 9bba
00000090: daca 5b39 2efe 06bb e660 9cbb 6e47 453b
000000a0: 1d2d 0b3b 7c99 3ebb d4e2 a93a 918d ef3a
000000b0: a4b1 54b8 6db2 d1bb f07d 9d3b d612 233b
000000c0: 22a0 0ebb 3ec9 b23b d20d d03b 530e 003b
000000d0: 5498 9d3b 1801 e9b8 d651 60bb 4916 d53b
000000e0: 17d3 55bb 91e4 a6ba 1cfc 863b 3f14 f63a
000000f0: eb50 7e3b c21a 07b9 fc13 06bb fda7 e03a

mlp.8.weight f4 [2, 64]
0.096002996 -0.09128742 -0.09921707 0.03309879 0.056726836 0.020963056 0.095891 0.036334403
0.11728159 -0.114297025 -0.027150126 0.12254027 0.04181915 -0.115555674 -0.05716982 -0.09109929
0.0077756485 -0.0019955894 -0.043223996 -0.12170003 0.028289141 -0.03479035 0.082286365 0.06620863
0.09169276 -0.09687328 -0.12205936 0.028371781 0.058260363 0.0012834643 0.06508285 -0.09937159
0.01812317 0.10960818 0.1168097 -0.10833765 -0.025432063 0.0432559 -0.058244895 0.020945102
-0.11763267 -0.10535082 -0.03176873 -0.08544773 -0.0036708259 0.09992821 0.13020426 -0.005227685
0.03616543 0.010758034 0.08238028 0.09775212 0.107628 0.1101737 0.022654505 0.056902967
-0.10994546 0.063742355 0.055225607 -0.09729523 -0.0909486 0.0006675603 0.0019654566 0.119814
-0.049834818 0.031648517 -0.031855263 -0.03189889 0.00577721 -0.12563019 -0.001025234 0.022823978
-0.12935264 -0.015052149 -0.09487278 -0.014123029 -0.053136643 0.08236226 -0.05351535 -0.11844911
0.06697207 -0.0026482153 0.1073539 -0.11565504 -0.10612896 -0.11490233 0.053811006 0.104206115
-0.07765061 0.01762758 -0.10927022 -0.024836585 0.06884463 0.005194893 0.07649135 0.047293935
-0.009205503 -0.003878808 -0.12061816 -0.06526361 -0.045060374 0.07474235 0.056860857 -0.03772573
0.0037663353 0.09714258 -0.093804196 0.122793585 -0.023393124 0.10179404 0.05436744 -0.11423946
0.059273556 -0.029297585 0.10049098 0.016460206 -0.05242157 0.05815573 0.12049761 -0.122741766
-0.10299543 -0.054285325 0.026704725 0.038124107 0.11954967 0.08528213 0.11906046 -0.123739496
00000000: 389d c43d e6f4 babd 5232 cbbd 9992 073d
00000010: 665a 683d b7ba ab3c 8062 c43d 62d3 143d
00000020: 5531 f03d 8f14 eabd f169 debc 65f6 fa3d
00000030: 8f4a 2b3d 74a8 ecbd e72a 6abd 4492 babd
00000040: deca fe3b 6fc8 02bb a50b 31bd de3d f9bd
00000050: a1be e73c 5380 0ebd c185 a83d 6498 873d
00000060: 6ac9 bb3d 8065 c6bd 42fa f9bd f06b e83c
00000070: 6ba2 6e3d ea39 a83a 284a 853d 5583 cbbd
00000080: 0b77 943c 417a e03d ed39 ef3d 21e0 ddbd
00000090: e756 d0bc 192d 313d 3392 6ebd 1095 ab3c
000000a0: 66e9 f0bd 2cc2 d7bd ee1f 02bd 38ff aebd
000000b0: 3d92 70bb 29a7 cc3d 4454 053e 004d abbb
000000c0: 3422 143d 7742 303c feb6 a83d 4332 c83d
000000d0: 126c dc3d c0a2 e13d f195 b93c 1613 693d
000000e0: 162b e1bd 5a8b 823d 3f34 623d b942 c7bd
000000f0: 4243 babd 37ff 2e3a e4ce 003b 0b61 f53d
00000100: 981f 4cbd e0a1 013d aa7a 02bd 69a8 02bd
00000110: c04e bd3b 33a5 00be 2561 86ba 5af9 ba3c
00000120: 0575 04be 4a9d 76bc a94c c2bd 4764 67bc
00000130: cfa5 59bd 8bad a83d e932 5bbd 7295 f2bd
00000140: a728 893d ae8d 2dbb 5ddc db3d 8ddc ecbd
00000150: 245a d9bd ea51 ebbd ee68 5c3d 046a d53d
00000160: 4807 9fbd b767 903c 11c9 dfbd 1876 cbbc
00000170: 6afe 8c3d ec39 aa3b 7fa7 9c3d 49b7 413d
00000180: aed2 16bc 9a33 7ebb a706 f7bd eda8 85bd
00000190: 3a91 38bd 8412 993d eee6 683d 4c86 1abd
000001a0: 9fd4 763b b0f2 c63d 6a1c c0bd 347b fb3d
000001b0: f0a2 bfbc 6579 d03d 65b0 5e3d 61f6 e9bd
000001c0: d4c8 723d 7d01 f0bc 37ce cd3d 8ed7 863c
000001d0: 00b8 56bd b434 6e3d 73c7 f63d 0960 fbbd
000001e0: 45ef d2bd 4a5a 5ebd dec3 da3c 0628 1c3d
000001f0: 75d6 f43d 66a8 ae3d f8d5 f33d 226b fdbd

mlp.8.bias f4 [2]
-0.034510273 -0.05733953
00000000: a55a 0dbd dbdc 6abd
