models/wesad/baseline/model_wesad_baseline.pth (torch, 856605 bytes, 30 tensors)

input_proj.weight f4 [128, 14]
00000000: 9758 ff3d 7552 d73c 2b17 573c abc3 d23d
00000010: 7868 91bd efae 13bd 372c 5d3d 9b83 56be
00000020: 9ce5 1cbd f009 15be 2682 f13c 290e f83d
00000030: fc06 7dbc 22ec fabd fa3e e6bc a948 b93d
00000040: ff57 e23d da07 d3bd 1ee2 433e 97b4 90bd
00000050: e47c 313e def6 5b3d a762 f53d 7c4a 083d
00000060: 27b1 4dbe 7462 ed3d a5c5 1e3e 58bf 273e
00000070: d5dc d43d 6cf8 063e 0d1a 313d 1b37 73bc
00000080: f4ad fabd 1d22 933b 6354 b4bd e863 723d
00000090: b741 6bbd 8c4b 313e c732 f53d 7bb5 1e3d
000000a0: e405 183d 9be2 28be 10a3 503e 0b44 2d3e
000000b0: 9c69 29be b0be 1dbe a96e cdbd df30 133e
000000c0: ad9c 5dbb 4925 053e cd45 293d 08df 10be
000000d0: 3981 fa3d f70a 5f3d 2f8f 1d3d 7cd9 63bd
000000e0: c488 143e 21a8 1c3e e433 483e 3f46 bdbd
000000f0: 79c1 0abe b58c f9bd b6dd 433e f490 19be
00000100: aeab 27be 3e6e 2f3d 7181 193e 8c10 ad3d
00000110: ca00 363e ef45 333c ec29 a0bd 19e1 c6bd
00000120: 1e70 9a3d 282b e63d b911 79bd 2a96 e5bd
00000130: 429a 4ebd e172 07be 2251 a0bd b504 413c
00000140: 71fe 6e3e 937e 1cbc 6c0f f23d a671 143e
00000150: 3e94 883d 3c92 483e b29d 2a3d 9254 19be
00000160: e3ae c4bd b1df fe3d f21e 213d f989 7cbc
00000170: b7f1 b73d ff55 4fbd 089d b9bd 94a4 7ebc
00000180: c8e6 333e b113 163e ba9e d3bc 51a3 0ebe
00000190: 18cb 66bd 61a5 31be 1208 49be be5c 19be
000001a0: 068c c43d 4e4a c83d 07dc 9a3c 597f 2e3e
000001b0: ba86 183e 8c36 f7bd b3de 13be 35f6 cebd
000001c0: 34da 2a3e 32a0 f5bd a91a df3d 5f49 e73d
000001d0: f28f 92bd 8300 0f3e a517 b63c 8907 debc
000001e0: 0d55 01be f865 0dbe d29e 003e c916 f2bd
000001f0: 9a01 57be b4e0 a43d 52fd 2dbe d0c2 e13d
00000200: b245 f6bd a512 983d 8ba1 c0bc 9974 083b
00000210: 9508 ac3d 8649 c1bd 3b75 183e 4cac 27bd
00000220: 4204 1d3e 20e7 f0bd a668 443e d56a 553e
00000230: 50ca e43c 5791 40be b34c cb3d 479e 203e
00000240: 183d 333c 876b ddbc 0ed2 bebd 6f4f 3cbd
00000250: f220 fa3d a811 b43d c9ba 183c 4085 17be
00000260: 11d5 2e3e 9cc2 2abd 004e 09be b8e3 34be
00000270: 1ef1 423e 3d8d 2f3e 0b35 ccbd 9206 74bb
00000280: da81 9d3d 03fb a53c 1552 7abd 35e9 183e
00000290: cffc ca3d 7e0e 3d3e 2b2e 33be 5d37 4c3e
000002a0: 7fdf d33d 2868 c0bc 0f08 09be 743a 32bd
000002b0: 4063 1c3e efe0 663a 09c4 af3d f150 8dbd
000002c0: e667 5dbd b274 93bc 63bf ecbd c7dc 453e
000002d0: f15c 973d 9f6f 1d3e e50d c5bd b0e7 d73d
000002e0: 153f a2bd fbf8 2ebe 6944 cabd ca0f 46be
000002f0: ae7c febd a870 00be d461 a83d 9df8 3ebe
00000300: 2173 0ebe 0e22 64bd f210 a7bd accd 2bbe
00000310: 8d82 b1bd ecc5 3bbe 537c 323d 6b6b 923d
00000320: fe15 f3bd 0372 37be 04bf 3c3e 77ad a2bd
00000330: 3f85 023e fb1f dabc 0e6b 353c 078f 8a3d
00000340: 9470 553d 9016 f03d fbef 343d b087 53bd
00000350: c16e 273e a347 dcbd a926 583e f1b3 e0bc
00000360: 7cd1 f73d b918 8b3d ae92 3e3e 409d b13d
00000370: 733b ac3d 0f54 0c3e f6e6 1bbd 877c d6bd
00000380: 1405 143d b1f7 18bd bffe 1e3e 6646 3bbc
00000390: 2483 103c 9919 77bd 0ddb bcbd 4b10 d13d
000003a0: aef5 103e 5d97 47be b00d ecbd b2f7 92bd
000003b0: c2a7 e3bd 4463 ec3c ba74 ce3c e8c3 97bd
000003c0: 57ff 01bd 25e2 4c3d fb8b 50be 3757 f1bd
000003d0: 73bd 31bd a4ca 8c3d bd20 063d 6c84 123e
000003e0: 126c debd 8e4b 113c c492 2e3e 0c72 90bc
000003f0: 88c5 abbd bd36 48be eace 95bd 8c97 ebbd
0.12468069 0.026284436 0.013128082 0.10291227 -0.07100004 -0.0360555 0.053997245 -0.20948641
-0.03830491 -0.14554572 0.029481005 0.12112076 -0.01544356 -0.1225207 -0.028106201 0.09047062
0.1105194 -0.10304232 0.19129226 -0.07065695 0.17332798 0.053702228 0.11981707 0.03327416
-0.2008711 0.11591044 0.15505083 0.16381586 0.10393683 0.13180703 0.043237735 -0.014844681
-0.1224021 0.0044901506 -0.08805158 0.05917731 -0.057435717 0.17313975 0.11972576 0.038747292
0.037114993 -0.16492693 0.20374703 0.16920488 -0.16544193 -0.15404773 -0.100308724 0.14374112
-0.003381531 0.13002504 0.041326333 -0.1414758 0.122316785 0.054453816 0.03846663 -0.05562733
0.14505297 0.15298511 0.19551045 -0.09241914 -0.13550366 -0.12185041 0.19127545 -0.14996701
-0.16374084 0.042829745 0.14990784 0.08450422 0.17773739 0.010941966 -0.07820496 -0.09710903
0.07540916 0.112387 -0.060807917 -0.11210282 -0.05044008 -0.13227417 -0.07827975 0.011780907
0.23339249 -0.009551662 0.11819348 0.14496478 0.066689 0.19587034 0.041654296 -0.14973667
-0.096036695 0.124450095 0.039336152 -0.015413755 0.0898165 -0.05061912 -0.090631545 -0.015542168
0.17568505 0.14655949 -0.025832523 -0.13929488 -0.05634603 -0.17348243 -0.19631985 -0.14976785
0.0959702 0.097797975 0.018903745 0.17040767 0.14895144 -0.12070951 -0.14440422 -0.10105554
0.166848 -0.119934455 0.10893757 0.11293291 -0.07156362 0.13965039 0.022228071 -0.027103202
-0.126301 -0.13808429 0.12560585 -0.11820752 -0.20996705 0.08050671 -0.16991165 0.11023486
-0.12025012 0.07425431 -0.02351453 0.002082145 0.084000744 -0.094378516 0.1488847 -0.0409358
0.15333655 -0.117628336 0.19180545 0.20841534 0.027928501 -0.18805443 0.099267386 0.15685378
0.010939859 -0.027028812 -0.093174085 -0.04597419 0.12213315 0.0879243 0.009321877 -0.14796925
0.17073466 -0.0416895 -0.13408661 -0.17664993 0.19037291 0.17143722 -0.09971055 -0.0037235362
0.07690783 0.020261293 -0.061113436 0.14932711 0.09911501 0.1846256 -0.1749808 0.19942994
0.10345363 -0.023487166 -0.1338198 -0.043512776 0.15272236 0.00088073214 0.085823126 -0.06900204
-0.054054163 -0.01799998 -0.115599416 0.19322501 0.07390774 0.15374611 -0.09621791 0.10542238
-0.07922188 -0.17087166 -0.098763295 -0.1934196 -0.124261245 -0.12542975 0.08221784 -0.18649526
-0.13911106 -0.05569654 -0.08157529 -0.16777676 -0.08667479 -0.1833722 0.043575596 0.071493946
-0.11869429 -0.17914586 0.18432242 -0.07943242 0.12746142 -0.026626578 0.011072887 0.067655616
0.052109316 0.117230535 0.044174176 -0.051643074 0.16350843 -0.10755851 0.21108498 -0.027429553
0.12100503 0.06791825 0.18610641 0.08672571 0.084097765 0.13703941 -0.03806206 -0.104729705
0.036137655 -0.037345592 0.15526865 -0.0114303585 0.008820329 -0.060327146 -0.09221468 0.10208186
0.1415622 -0.19491334 -0.11526048 -0.071761504 -0.11115982 0.028855927 0.025202144 -0.07410413
-0.03173765 0.050020356 -0.20365898 -0.11784213 -0.043393563 0.06874588 0.032746065 0.14308327
-0.108604565 0.008868111 0.17048174 -0.017632507 -0.083872855 -0.19552131 -0.07314856 -0.11503515

input_proj.bias f4 [128]
00000000: d457 f5b9 da03 7bbb 2eab 58bb 6858 62bb
00000010: cdce e639 a623 9c3c 6e3f 94bc c47a d93b
00000020: 9590 7d3a 400b 8a3c ee23 eebb c614 caba
00000030: 34e1 6b3c 8f26 3fbc bfa3 823a f243 0fbc
00000040: 43f2 083c 6d62 28bc 6dc1 2b3c 9161 74bc
00000050: aa69 10bc 943f 5b3c 92e2 f83b ccb1 16bb
00000060: 1980 853b 0257 7e3b a4ca 5abc bb33 2dbc
00000070: 7935 4a3c 1549 c93b 2605 333b 34a1 03bb
00000080: 4f29 51bc 764d 963b 74c0 da3c c299 22bc
00000090: 7185 08bb d4f8 bfba 4aa2 12bc 01b0 c83c
000000a0: 50c6 9bba e90d 2b3c 2ff5 e1bb a517 60bb
000000b0: a820 3dbc 1e98 fbbb 966e 45bc 1b92 78bc
000000c0: 1798 6ab9 5196 3a3c c25d afbc 1cb5 66ba
000000d0: f481 063c 4da7 163c 0467 b2bc 650e 7e3c
000000e0: 717f 4ebb 496d e0bb 8ca5 3bbc e308 8abc
000000f0: 7f56 48bc 61a9 2a3c 9845 373c 14c2 953c
00000100: 05a2 f43b 4c48 42bb 6288 c139 702a 30bb
00000110: 8e2e 903c a226 2b3b 41e6 64bc 94cb 6c3b
00000120: 8144 cebb 4216 7c3b dcbf 233c 75b0 6abc
00000130: ce69 fe3a f733 4638 8c0c b13c 3947 4bbc
00000140: 3258 60bc ee08 cd3a 1645 9bbc 413f bdbb
00000150: b0d8 94bc 52a7 aa3c 7713 9bbc 5414 2d3a
00000160: 489e 313a eb4d 563c 14ef 6d3c 2b35 4cbb
00000170: 8598 273c b8b8 5b3c 23f0 aebb 5f51 1f3c
00000180: 9848 06bc 9eca 133c cce6 8c3a 3964 0dbc
00000190: 3ae5 6c3c bf81 39bc 49fb 14bc 4119 e63b
000001a0: feb9 7a38 c5e8 75bc dcdc f73b 429f c2bb
000001b0: 27ee 773b cf34 683b 1bb9 13bc 8099 913c
000001c0: 1091 b43b f29e 2a3b 67fe 42bb 4121 3cbb
000001d0: 8ccf 3ebb 71eb 84bc 3d4c c4ba 87e8 d43a
000001e0: 6cd0 3cbc 2b3c 853b 2dc8 e6bb f50a f93b
000001f0: bcd1 17ba ee00 e93c 38ac 4bbb 51fc d43a
-0.0004679548 -0.0038301856 -0.0033061015 -0.0034537558 0.00044023097 0.019059967 -0.018096652 0.0066369493
0.00096727285 0.016851068 -0.0072674667 -0.0015417568 0.014396954 -0.011666908 0.0009967013 -0.008744227
0.008358541 -0.010277373 0.010483128 -0.01491584 -0.008814255 0.013381857 0.0075953687 -0.0022994159
0.0040741083 0.0038809185 -0.013353977 -0.010571416 0.01234185 0.0061427453 0.00273163 -0.0020085098
-0.012766196 0.004586871 0.026703097 -0.009924354 -0.002083149 -0.00146463 -0.008949826 0.024497988
-0.0011884663 0.010440328 -0.0068956832 -0.003419378 -0.01154343 -0.007678046 -0.0120502915 -0.015171553
-0.00022372637 0.011388377 -0.021407012 -0.0008800791 0.008209694 0.009195161 -0.021777637 0.015506362
-0.0031509066 -0.0068489653 -0.011453044 -0.01684994 -0.0122276535 0.01041636 0.011186026 0.01828102
0.0074656033 -0.0029645143 0.00036913442 -0.0026880763 0.017600324 0.0026115556 -0.013970912 0.0036132084
-0.0062947874 0.0038465415 0.009994473 -0.014324297 0.0019410194 4.7255275e-05 0.021612428 -0.0124071175
-0.013692902 0.001564292 -0.018953841 -0.0057753627 -0.01816973 0.020831738 -0.01893018 0.00066024554
0.00067756 0.0130801005 0.014522333 -0.003115962 0.010229235 0.01341074 -0.005338685 0.00972399
-0.008196019 0.009020476 0.0010749935 -0.008629852 0.014458949 -0.011322438 -0.009093114 0.0070220535
5.9777863e-05 -0.01500911 0.0075641703 -0.005939395 0.003783116 0.0035431867 -0.009016301 0.01777339
0.005510457 0.002603468 -0.0029753686 -0.0028706344 -0.0029115407 -0.016225548 -0.0014976334 0.0016243615
-0.011524301 0.0040660105 -0.007042906 0.007600183 -0.0005791446 0.028442826 -0.0031077992 0.0016249513

input_norm.weight f4 [128]
00000000: 41d0 7d3f ec10 7f3f 1540 7f3f 6ee4 7d3f
00000010: e2a6 803f 042e 813f 634a 7d3f a020 7d3f
00000020: 3715 803f 06da 803f 3ec5 7d3f 7beb 793f
00000030: 15d7 803f 8cc1 7c3f 2c81 803f ce98 7e3f
00000040: 4202 7f3f fe78 7e3f ce5c 813f 4901 7b3f
00000050: dfb3 7f3f e6ce 7c3f 06bc 7f3f 16ee 7d3f
00000060: 6e70 7f3f 35ae 7f3f 7e31 7b3f 5ec3 7c3f
00000070: a3d6 7e3f 0426 7d3f cbba 7f3f 7bc5 7e3f
00000080: 3c8d 813f 7832 803f 903c 813f 258c 7f3f
00000090: 67ce 7f3f 0ad3 7f3f f7d6 7b3f 05c6 833f
000000a0: a786 7f3f 0088 813f 8dfa 7e3f d0f8 7e3f
000000b0: 0168 7a3f 24d6 7f3f aa5f 7d3f 7247 7f3f
000000c0: 409f 7e3f 3112 7e3f 6068 803f 6d37 803f
000000d0: 8b96 7d3f 718d 7f3f 1bd5 793f fddf 7d3f
000000e0: 9c69 7d3f a088 7f3f ab45 7f3f 9f68 7e3f
000000f0: c073 7d3f e4ab 803f c912 7f3f 8ec6 7e3f
00000100: 0401 803f 349c 813f c2db 7f3f fb1e 7f3f
00000110: bd1b 813f b92e 803f 402b 813f 5ed9 803f
00000120: dcf0 7f3f 6ae7 803f 8d8f 813f f61c 7c3f
00000130: 5ba6 7e3f 928a 7e3f f989 813f e34e 813f
00000140: fb16 7d3f bd70 7d3f 05f3 7a3f a894 803f
00000150: 151a 7a3f f1ca 813f 253e 7c3f 3aa6 7f3f
00000160: 8c99 803f 3eb1 803f 089d 803f b9e3 813f
00000170: e66d 813f 2215 813f 9beb 7c3f 737c 803f
00000180: c7f9 7d3f b3fc 7d3f d4d5 7d3f ffab 7d3f
00000190: 2a60 803f b26f 7a3f a25a 7c3f 5c4f 803f
000001a0: 0cd7 803f 941c 7b3f 5974 823f 57e6 7f3f
000001b0: 3f24 793f 75f4 7e3f eaac 7d3f 1d62 7d3f
000001c0: 06f5 7f3f a37b 813f 501d 7f3f f074 803f
000001d0: f00d 7b3f f33b 7f3f 76c5 803f 8bd7 7e3f
000001e0: 4a83 7c3f fe3d 803f 00fd 7d3f f03c 823f
000001f0: a80a 803f 437c 803f e8c4 7b3f d500 7f3f
0.99145895 0.99635196 0.99707156 0.9917668 1.0050929 1.0092168 0.9894163 0.98877907
1.0006474 1.0066535 0.9912909 0.9762494 1.0065638 0.9873283 1.003942 0.9945191
0.9961282 0.9940337 1.0106447 0.98048836 0.99883837 0.987532 0.99896276 0.99191415
0.9978093 0.99875194 0.98122394 0.98735607 0.9954626 0.9888613 0.998944 0.9952008
1.0121226 1.0015402 1.0096607 0.9982322 0.9992432 0.99931395 0.98374885 1.0294806
0.9981484 1.0119629 0.9960106 0.9959841 0.9781495 0.9993613 0.98974097 0.9971839
0.99461746 0.9924651 1.0031853 1.0016915 0.99057835 0.998252 0.975908 0.99169904
0.9898927 0.9981785 0.9971568 0.9937839 0.99004745 1.0052457 0.9963804 0.9952172
1.000031 1.0125794 0.999447 0.9965665 1.008659 1.0014259 1.0091324 1.0066335
0.999769 1.0070622 1.0121933 0.9848169 0.9947259 0.9943019 1.0120231 1.0102199
0.9886319 0.9900015 0.9802707 1.0045366 0.9769605 1.0140058 0.98532325 0.99863017
1.0046859 1.005409 1.0047922 1.014762 1.0111663 1.0084574 0.98797005 1.0037979
0.99209255 0.99213713 0.991544 0.9909057 1.0029347 0.97826684 0.98575795 1.0024219
1.0065627 0.9809048 1.0191756 0.99960846 0.9732093 0.9959176 0.9909197 0.98977834
0.9998325 1.0115856 0.996541 1.0035686 0.9806814 0.9970085 1.006026 0.9954764
0.9863783 1.0018919 0.9921417 1.0174847 1.0003252 1.0037922 0.9834733 0.99610645

input_norm.bias f4 [128]
00000000: 58e5 d03a e068 813a 961e 77b8 28d1 be3a
00000010: 3866 183b 0f4d 723c 801f 82bc 39e5 553a
00000020: 8a07 bd3b 1449 793c 92c7 28bb e1f9 21bc
00000030: 8d30 5f3c b1a2 02bc d1bf af3b 38c1 f6bb
00000040: 4624 b73b 8715 72bb 6e98 e53b 2afd 45bc
00000050: 34d9 dabb 41c0 6c3b c0cf 423a 1a1b 30bb
00000060: 6cf3 c83a 8151 fc3b a75b 24bc f771 6dbc
00000070: c804 1539 04fe 593b 94cb c039 2bf9 99bb
00000080: fb9a a138 e7a2 1f3c 3e43 863c e094 ac39
00000090: d41e 95b8 1b39 a43b b738 6dbc 2715 5d3c
000000a0: 15d6 9fbb 3463 043c 7362 beba 1122 f7ba
000000b0: 0328 8dbc 08da 84bb 616b cabb d5e8 19bc
000000c0: a369 393a 1e8a 0b3c acc3 18bc 461a 083c
000000d0: 5042 78ba d64a 293b 15b4 62bc a2d4 b23a
000000e0: 83ab acbb 527d 293a d414 43ba 81f5 17bc
000000f0: 8c6e 5dbc c18e dc3a 697c 3c3c cb70 7e3c
00000100: 6f55 423a fceb a03b 70df 593b b3bb 44bb
00000110: 2cef 673c 17da c13b 20cf 01bb cda9 2d3c
00000120: 7ccc caba 7810 fc3a 422c ac3c 783d 35bc
00000130: 8d23 783b a875 923b 9058 c43c c5af e03b
00000140: 44d0 99bb d25e 30bb 34d1 80bc 5da2 b5b9
00000150: b42f 71bc 450e 803c 7081 b0bb 68ff 3e3b
00000160: 3d82 deba efb0 043a 3e72 743c 8188 47bb
00000170: 15f8 9c3b d430 2b3c 8256 8ebb 5abe 643b
00000180: f7cb 9fbb 5895 dcbb f922 1f3a a6e5 f6ba
00000190: d445 353c d4a8 7abc 45e2 fabb 4c2e 973b
000001a0: 9210 a43b a04c 58bc ed62 843c d39f afbb
000001b0: 92e9 82bb af2e 26bb ac87 f7bb 9afc 263b
000001c0: 933d debb 051a b139 ed8f 73bb 1d76 8c3b
000001d0: 5c1b f5ba 5192 a2bb 72ea b33b 5a77 b2bb
000001e0: a796 82bc d55f 923b 351b a9bb 7015 4e3c
000001f0: b03a 603c 8bea c33c 9fb1 17bc 0e23 9fb9
0.001593749 0.0009873174 -5.8917874e-05 0.0014558183 0.0023254286 0.01478888 -0.015884161 0.0008159462
0.005768721 0.015215177 -0.0025753719 -0.009886236 0.013622415 -0.007973359 0.0053634425 -0.0075303577
0.005589041 -0.00369391 0.0070066964 -0.012084285 -0.0066787247 0.0036125334 0.000743147 -0.0026871623
0.0015331334 0.0077001457 -0.010031617 -0.014492503 0.00014211528 0.0033262977 0.0003677277 -0.0046988926
7.7059456e-05 0.009743429 0.016389485 0.00032917317 -7.110616e-05 0.0050116903 -0.014478854 0.013493813
-0.0048778155 0.0080802925 -0.001452519 -0.0018854757 -0.017230993 -0.0040543117 -0.0061773513 -0.00939389
0.0007072931 0.008516816 -0.009323996 0.008307045 -0.00094703306 0.002583196 -0.01383688 0.0013643692
-0.005269469 0.00064655126 -0.00074417633 -0.009274841 -0.013515126 0.0016827212 0.011504271 0.015529822
0.00074132433 0.004910944 0.0033244751 -0.0030019104 0.014156144 0.005915891 -0.0019807294 0.010599566
-0.0015472318 0.0019230982 0.021017198 -0.011062019 0.0037862987 0.004469592 0.023968011 0.006856891
-0.0046940167 -0.0026911986 -0.015724756 -0.0003464398 -0.014720846 0.015631804 -0.005386524 0.0029143933
-0.001697607 0.00050617656 0.014919816 -0.0030446353 0.004790316 0.010448653 -0.0043438086 0.0034903497
-0.0048766094 -0.0067316703 0.000607058 -0.0018836751 0.011064012 -0.015299041 -0.007656368 0.0046136733
0.005006858 -0.013201863 0.016160453 -0.0053596287 -0.003995129 -0.0025357415 -0.007554015 0.0025480152
-0.0067822426 0.00033779457 -0.0037164644 0.004286541 -0.001870017 -0.00496129 0.0054905945 -0.0054463567
-0.015940977 0.0044669905 -0.005160714 0.012578353 0.013685867 0.02391555 -0.009258657 -0.0003035296

lstm.weight_ih_l0 f4 [256, 128]
00000000: 1ce2 e5bd 81ce 40bd 8e7c 7c3b 2e5d 8abd
00000010: 5d62 a13d 7a4f 1c3c 0276 85bd c0f3 953c
00000020: ea03 76bc 9af4 f1bb b4f8 aa3b ad42 1c3d
00000030: 47fc a7bb bcc4 28bd 76a0 7fbd 7621 223d
00000040: 597f 533d 3c2d 963d 6244 183d c563 ccbd
00000050: f6ba 3f3d 556a ab3c b890 4dbd 800d f23c
00000060: 4070 dabd 2dce 5dbd 2463 94bd e8a4 7ebd
00000070: 509c 723d 39e0 e93c f067 03be 613b 973c
00000080: bc74 953c cd36 18bd 928c 673c c451 903b
00000090: 3c86 1c3d 08fa 07bd aca4 e93c 8fd5 bbbd
000000a0: 114a 87bd b405 85bc 8ffe e2bd c61b a2bd
000000b0: de7d f7bd 3fb7 0a3d c2aa efbc 735d af3c
000000c0: b5b5 a5bd a5fd b1bd 8648 81bd e488 833d
000000d0: a18e 71bd 3bc7 7a3d 403f cfbd d448 a63d
000000e0: 15ea 05be 9620 cdbd 8059 2cbd 0a87 503c
000000f0: 0e87 c43b cedf 9d3d 4724 f63b 769b c5bc
00000100: 8c82 9a3d 3375 463c aca7 e93d 89e1 733d
00000110: 4e59 eebd 67c2 01be 4f58 0ebd 988b cebc
00000120: 0981 753d 06ac d43b 0511 c2bd 36b8 7bbd
00000130: 31b2 adbd 5a33 b0ba fc23 e8bd 465d 3fbd
00000140: 0a95 fabc b82c cb3b a95c f7bb 88f4 d93d
00000150: f646 15bd 478c c13d 54c8 d8bc dd57 6f3c
00000160: 3e4e 243d 659f 4e3d beb9 f03d ee00 153d
00000170: 6a92 c1bb d511 dfbc fa29 703d 2885 f8bc
00000180: c6e0 93bd c83a 25bc 1b91 613d 15df 46bd
00000190: 0789 00be 5005 663d 8e1a 3ebb a784 a2bd
000001a0: 87dd 00bc c275 a13d 81cb 4e3d becf bf3d
000001b0: 4370 bdbb 234c b93d 1c7c 63bd 8ba3 da3d
000001c0: abbb 8d3d aac0 fa3c da66 41bb f3f6 01bd
000001d0: f4dd 04be 4288 953b fa80 5e3d f557 a1bd
000001e0: e3dd a6bd 9586 45bd 2b3e b63d 585c 833d
000001f0: 7607 40bd 40bb c2bd b9e1 ebbd 2767 eabc
00000200: c8dd 65bd 4d8f 1b3d fbcb 253d bb76 e03d
00000210: a847 5c3b 5e5d ee3b 50fe 49bd 4c92 133d
00000220: cc1f 873c be12 953d b857 a6bd ccf2 7a3d
00000230: 871c 4f3d 9c15 cc3d 64e6 d23d 5580 bc3d
00000240: 668c c23c 233b f33d dedd 84bb 7beb 733d
00000250: d26a 34bd 868f 82bd aa4f 9cbd 367c 953d
00000260: 0977 bbbd 4e48 ec3d 7737 00be ca8e 183d
00000270: b1fc f6bd 409a ea3d ec23 d13c 51c1 5dbd
00000280: 3a9e 9bbd 7a76 1b3d 3187 a9bd 733a 8ebd
00000290: 79e4 eabd 9e30 d9bd 5abe 693d ef01 8f3d
000002a0: b5ea 9fbd 0998 b33c c6ae 11bd e8b2 d6bd
000002b0: fca6 e1bd ccf0 eabd 52c7 bcbd 54ed e03d
000002c0: d6b5 153c f7f9 bd3d 0bde adbd fc9f 25bd
000002d0: 3262 863d 06de e3bd 4a48 2fbd 5a4b bb3d
000002e0: f623 f1bc b27f 363d e079 f33c 086b c1bd
000002f0: a28a a9bc 4955 d1bd c76a cbbd 9a50 96bc
00000300: 8553 c93c 3931 eabd 402e cb3d 7f5d 383d
00000310: 4be9 cf3d d682 e3bd c794 f2bd 3d21 a7bd
00000320: 1128 36bd a837 07bd 5d68 943d 4365 e83d
00000330: c2c1 e8bc a188 503d 6ffd eb3d 876d 2cbd
00000340: 7153 c03d b535 683d 2833 363d 982a cdbd
00000350: 2daf e1bd 2445 f7bd 260d 95bd 7231 943d
00000360: c149 c63c 049d 813d f7b9 82bd 5095 7cbb
00000370: 0d3e 173c b48b 5abd 5aa7 243d f016 0f3d
00000380: 25cb bb3c f5a7 8abc 0571 4cbc 3645 ddbc
00000390: a2af d0bd 073e 9ebd 1bf5 4abd 256d e13c
000003a0: 999d 563d 48ee e0bd 82b1 d03d 1aaf 963d
000003b0: 6deb fbbd b2d2 aa3c 1094 093d 3810 e4bd
000003c0: ce7b 613d e987 80bd 772c f9bd 3d3c 50bd
000003d0: ba18 4e3d c5f2 b4bc ceab 00be ff44 af3d
000003e0: a585 d33d a385 ef3b 238b 5fbd d478 84bd
000003f0: 4edd 833b 5152 82bd 03a7 b13d 6ee3 d03c
-0.112247676 -0.047071937 0.0038526389 -0.06756054 0.078800894 0.009540433 -0.06516649 0.018304706
-0.015015582 -0.007383895 0.005217636 0.038149524 -0.0051265093 -0.041203246 -0.062408887 0.039582692
0.05163512 0.073328465 0.03717459 -0.09979967 0.04680916 0.020924727 -0.050186843 0.029547453
-0.10665941 -0.054151703 -0.07245472 -0.062168986 0.059231102 0.0285493 -0.12832618 0.018460931
0.01824414 -0.037161637 0.014132636 0.0044042785 0.038213953 -0.033197433 0.028520904 -0.091715924
-0.06605924 -0.016238071 -0.110837094 -0.079154536 -0.12084554 0.033866163 -0.029256228 0.021406865
-0.080912985 -0.08690957 -0.06312661 0.06422594 -0.058973912 0.061225157 -0.10119486 0.081193596
-0.13077576 -0.10015981 -0.04207754 0.012727508 0.005997545 0.07708703 0.007511649 -0.024121981
0.07544431 0.012112903 0.11408934 0.05954126 -0.11638127 -0.12671815 -0.034752186 -0.025213048
0.05993751 0.0064902334 -0.094759025 -0.061454974 -0.08481253 -0.0013443038 -0.113349885 -0.04671981
-0.030588645 0.0062003992 -0.0075488877 0.10642344 -0.036444627 0.09450584 -0.026462711 0.014608351
0.04011368 0.05044498 0.117541775 0.03637784 -0.0059073465 -0.027230183 0.058633782 -0.030336931
-0.072206065 -0.010084815 0.055070024 -0.04855259 -0.12552272 0.05615741 -0.0029007527 -0.07935458
-0.007865316 0.07883789 0.050487045 0.093657956 -0.005781205 0.09047725 -0.05553828 0.106757246
0.069205604 0.030609448 -0.0029510767 -0.03172965 -0.12975293 0.0045633623 0.05432222 -0.078781046
-0.0814779 -0.04822405 0.08898576 0.064140975 -0.046882115 -0.09508371 -0.115176626 -0.02861364
-0.05611971 0.03797846 0.040477734 0.10960146 0.0033612046 0.007274314 -0.049314797 0.03602819
0.016494654 0.072789654 -0.081222 0.061266705 0.050564315 0.09965059 0.1029785 0.09204165
0.023748588 0.11876514 -0.004054769 0.059550744 -0.044047184 -0.06375031 -0.07632382 0.07299082
-0.091535635 0.115372285 -0.12521158 0.03724555 -0.12059916 0.11455202 0.025529824 -0.05413944
-0.07598539 0.037954785 -0.08277739 -0.06944742 -0.11469359 -0.10604976 0.0570663 0.06982791
-0.07808439 0.021923082 -0.035567068 -0.104833424 -0.11018178 -0.114717096 -0.09217705 0.10982767
0.009137591 0.09276193 -0.08489617 -0.040435776 0.06561698 -0.11126332 -0.04279355 0.091452315
-0.029436093 0.044555373 0.0297212 -0.09444243 -0.020695988 -0.10221345 -0.099324755 -0.01834898
0.024575958 -0.1143517 0.09920931 0.04501104 0.10151919 -0.11108939 -0.11844783 -0.081606366
-0.044471804 -0.033012062 0.07246468 0.11347439 -0.028412703 0.05091155 0.11522948 -0.04209664
0.09390915 0.056691844 0.04448238 -0.1001789 -0.1101974 -0.120737344 -0.072778985 0.072359934
0.02420509 0.063287765 -0.06383126 -0.0038541146 0.009231103 -0.053355888 0.04019866 0.034933984
0.022924015 -0.016925791 -0.012478118 -0.027010541 -0.10189749 -0.077266745 -0.049550157 0.027517864
0.05239639 -0.109829485 0.10190107 0.07357617 -0.12300763 0.02085242 0.03358847 -0.11135906
0.05504971 -0.06275923 -0.12166684 -0.050838698 0.05031655 -0.022088418 -0.12565538 0.08558082
0.10328225 0.007309632 -0.05457605 -0.06468359 0.0040241843 -0.06363357 0.08674433 0.025499072

lstm.weight_hh_l0 f4 [256, 64]
00000000: 1bc0 0e3d c2dc 90bd 11df d83c 0846 6b3d
00000010: 6322 993c c6da 72bd 462c 5bbc b91e 8bbd
00000020: 14bb d1bd e701 8fbd 3d1b a7bd bd83 df3b
00000030: 7d51 a43d b694 873c d035 dd3d d4a2 09be
00000040: 54dc e33d 1087 b4bd 6b6e b4bd f4b3 e3bc
00000050: 84bf d43d 2a99 043e 54f0 79bd ec55 9fbd
00000060: 187e c13d 5268 533d 1d0e 01bd 53a2 e93d
00000070: 488f 983d f032 aabd 88ea 0f3e b67c bd3d
00000080: 48d6 bf3d a19a 0b3d 9028 fe3d 29f6 233d
00000090: bf66 e8bd dfdf 783d 03cd e2bd e48b ee3d
000000a0: bffd 8dbd ac93 ea3c afeb a1bd b377 323c
000000b0: 203b 603d dc6b 273d 81a9 89bd 01d7 0c3d
000000c0: 3cd8 3b3c ab5a aabd 8776 74bc 7078 35bd
000000d0: 66ed cc3d d1a1 87bd ee69 15bd 20bc c33d
000000e0: b5b0 c33d f021 ea3d 8207 163c b215 653d
000000f0: 2b7d 6cbb a316 e6bd 4254 903d 88f1 d63d
00000100: c477 d43d 432f a13d 4a90 023c a3c6 fe3c
00000110: f876 3bbd a96c a6bd d247 09bd 72c8 9b3d
00000120: ab51 ba3d 17b0 ce3d 4985 d43c 3926 9a3d
00000130: 0a29 ac3b a17c 2d3c ce18 853c 664b e7bd
00000140: bee1 30bc 4b3a b63d 0138 2b3d 9943 d6bc
00000150: 7283 023e 55c1 bb3d 95b1 d5bd 1b20 c93b
00000160: ffc4 603d 7b57 6eb9 c252 d43d 07b4 dbbd
00000170: 86c5 5dbd 603f e6bd bfcb ddbd 2138 bfbd
00000180: eb50 e73d f3fe 16bd d804 a63d 74cd d63d
00000190: 2dcd 5fbd a2cc b03d bb51 173b e799 643d
000001a0: 54a9 c7bc 46c7 a83c bb90 1ebd 0ea1 b7bd
000001b0: 91d5 9dbd 66ba e4bc 4258 d13d d671 0cbe
000001c0: 0fe7 e53d 790d 063d b935 12bd ce4f 973d
000001d0: a25a 6f3d 5397 393d dc19 b13c a568 053e
000001e0: 687e eb3c 999d 413c f37d 583b 8696 d2bb
000001f0: c05a 49bd ab97 acbd 0bfe 20bd fb58 08be
00000200: 9894 7abd 801c 06bb e69a f53d 4a34 debd
00000210: f9d4 64bd 4c7c a7bc 82cd 143d 9fda a93d
00000220: 1547 593c 3529 dfbc cfe7 c2bd a0e0 fb3d
00000230: eff1 bbbc 5991 0bbd 1d3c ab3c 6eb2 de3d
00000240: 1f73 20bb c788 5bbc 5b43 9abc 74d3 e03d
00000250: ecbc 91bb 7990 b8bd 0706 45bd d444 2ebc
00000260: 9ea5 81bd 9f10 4a3d 7e9c c43d 28b8 8ebd
00000270: 8b7f 0d3b 1cba acbd 835d 343d ab4e 2fbd
00000280: 2efa fa3d 682f 053e 48be 1cbd 8a23 ad3d
00000290: 29dd e23c 9443 a5bd d829 eebd f3b0 c23d
000002a0: c068 85bd 317f 1c3d 13b9 e83d 9cd9 37bd
000002b0: 100a bcbd a4af 4cbd af3f b13d 4a70 b7bd
000002c0: e1f0 93bd 4686 6e3d 5431 47bd f787 68bd
000002d0: dea8 c1bd c6be 9a3c b546 f53d 3a04 da3c
000002e0: 7a76 f13d f1f7 e63d b22e e9bd 5d71 9c3d
000002f0: 62c4 6ebd 2006 cabd fb01 4a3d c2ae 7d3d
00000300: 6a6b d7bd 6ad8 32bd e039 9dbc 49b3 cb3c
00000310: 1fb0 8fbd 1522 b1bd ac5c 703b ed6a 82bd
00000320: 568b 36bd e1b2 c8bc 7e92 aa3d 8ff5 f0bd
00000330: df0e cebd 8d6c a53d 3380 f53d 9cda 9a3d
00000340: 7e68 80bc e661 1fbb 2b98 763d 0e83 f2bd
00000350: 92f0 9d3d ac33 97bd 3c0e 00bd 62ef b9bd
00000360: 07d5 bdbd f8d7 e83c e8b4 fd3d 3221 ef3d
00000370: a7a7 60bc b106 e4bc 39be 7bbc 95cb 153d
00000380: c5f2 d13d 3c30 923d 03c7 5ebd 9c8f 52bd
00000390: 83ac 203c 6635 c53d 227c 30bd a69e 12bd
000003a0: f6e5 dfbc 6fc7 693d a132 103d 6dd2 713d
000003b0: 8443 c23a 0277 a73c c394 07be 6e34 e4bc
000003c0: 2fae ce3d aff9 b53d fdd6 643c 5fce 4b3c
000003d0: 9045 7c3d 14ed c5bc 6c01 f1bb 7b49 d3bd
000003e0: b6e3 e9bd c14d 233d 6a8b e63d 04af be3c
000003f0: b4d3 a73c 6287 663d a47b a8bd a488 803d
0.034851175 -0.07073356 0.026473554 0.057439834 0.018693155 -0.05929067 -0.013377255 -0.06792969
-0.102407604 -0.06982785 -0.08159492 0.0068211243 0.08023355 0.016550403 0.108012795 -0.1344102
0.11126009 -0.08814824 -0.08810123 -0.02779577 0.10388091 0.12949052 -0.06102021 -0.0778006
0.094478786 0.05161316 -0.0315076 0.11407914 0.07449204 -0.08310497 0.1405431 0.09252302
0.09367043 0.034083012 0.124100804 0.04002968 -0.11347722 0.060760375 -0.11074259 0.11647776
-0.06933164 0.028634869 -0.07906281 0.010892796 0.054743886 0.040874347 -0.067217834 0.03438473
0.0114651285 -0.08318075 -0.014920837 -0.04430431 0.10006218 -0.06622661 -0.036477976 0.09557366
0.095551886 0.11432254 0.009157063 0.055928893 -0.0036085348 -0.11234786 0.07047321 0.10495287
0.10374406 0.078703426 0.0079689715 0.031100577 -0.045767754 -0.08126194 -0.03351576 0.07606591
0.09097608 0.1009218 0.025942462 0.07526822 0.0052539157 0.010588796 0.01624718 -0.11293678
-0.010796009 0.08897837 0.041801456 -0.02615528 0.12745455 0.091677345 -0.10434262 0.0061378605
0.05487537 -0.00022730038 0.10367347 -0.10727697 -0.05414345 -0.112425566 -0.10829877 -0.093368776
0.11294731 -0.036864232 0.081063926 0.10488406 -0.05463903 0.086327806 0.0023089487 0.055810835
-0.024372734 0.020602833 -0.038712244 -0.089662656 -0.0770675 -0.027920913 0.10221912 -0.137153
0.112257116 0.032727692 -0.035695765 0.073882684 0.058436044 0.04531033 0.021618776 0.130282
0.028746799 0.011817359 0.0033034056 -0.006426635 -0.04915881 -0.08427366 -0.039304774 -0.13315193
-0.061176866 -0.0020463765 0.11992435 -0.10849817 -0.05586717 -0.020445012 0.0363288 0.08293652
0.013261576 -0.027241329 -0.0951687 0.12298703 -0.022942511 -0.03407416 0.020902688 0.108738765
-0.002448268 -0.0133993095 -0.018830946 0.109778315 -0.00444757 -0.09011931 -0.04810145 -0.010636527
-0.06330417 0.049332257 0.09600161 -0.06968719 0.0021590914 -0.08433935 0.044034492 -0.042799633
0.12254749 0.13006365 -0.038267404 0.08454044 0.027693348 -0.0806953 -0.11629075 0.09506407
-0.0651412 0.038207237 0.11363425 -0.044885263 -0.09181607 -0.04997219 0.08654725 -0.08956964
-0.072236784 0.058233522 -0.048631027 -0.05677029 -0.09456037 0.018889796 0.11976377 0.026613344
0.11790176 0.1127776 -0.113858595 0.0763881 -0.058292754 -0.098644495 0.049318295 0.06193424
-0.105185345 -0.04366342 -0.019192636 0.024865763 -0.07016014 -0.08649079 0.003667633 -0.06368051
-0.044566475 -0.024499359 0.083287224 -0.117655866 -0.1006143 0.08077345 0.11987343 0.07561228
-0.015674826 -0.0024319827 0.060203712 -0.11841403 0.07711901 -0.073829025 -0.031263575 -0.09078862
-0.09269147 0.028423294 0.12388021 0.116762534 -0.013711846 -0.027835222 -0.015365177 0.036571104
0.10251383 0.07138106 -0.05438901 -0.051406488 0.009806755 0.096293256 -0.043087132 -0.03579583
-0.027331334 0.05707496 0.035204533 0.05903857 0.0014821147 0.02044249 -0.13240342 -0.027857032
0.10091817 0.08885514 0.013967273 0.012439339 0.061589777 -0.0241609 -0.007354906 -0.1031675
-0.114203855 0.039869074 0.1125706 0.023276813 0.02048669 0.056281455 -0.082267076 0.06276062

lstm.bias_ih_l0 f4 [256]
00000000: c90d e1bb 02a9 abbb c2ca a8bb b9da bf3b
00000010: 9a63 733c b66e 9bbb 8336 c53b 1a97 22bb
00000020: cac5 cdba 6bc0 87bb 89a0 9b3a 13d0 fc3a
00000030: 4d6a 283c 71ef 8cbc 7c1d b83a b261 a63b
00000040: 39fe efbb 2dc7 ee3b 92a6 52bb fd88 efbb
00000050: bb43 ea3a 34d0 a93b 0452 893c 66ea 86bc
00000060: 3d9c 05bb 5f82 713b f4df 63bc c580 3abc
00000070: c115 a03b 6b36 283b 3c00 1dbc ad3a ec39
00000080: 67c9 39bb 9d8b 6f3c 7131 1dbb e525 bd3b
00000090: 23c8 293b 3ef4 28bc 8e01 64bb 6dba 893c
000000a0: ade0 adbb 4b66 853c b047 f7bb 3dc9 3dbc
000000b0: 12dc 733c 101a 19bc 9a75 273c 0e17 0a3c
000000c0: 1034 7f3c 49e5 0e3c 7eaa 1339 40fe b0bb
000000d0: 494d cbbb c0b4 e33b 5553 c33b 600d 523c
000000e0: 1a75 823b 64bb 573c 8580 f2bb 8d29 c9bb
000000f0: 0d32 9e3a a71b 2e3b 39ca 9ebb 7a49 90bb
00000100: 017b 1cbc 9261 e3bb 9219 903b 9a0a 173b
00000110: a32d b53c 49c0 00bc f060 ab3b 7ed8 e2bb
00000120: 039a ddbb 3dfa 26bc 3478 58bb 9beb c7ba
00000130: f40f 6d3b 9fb3 54bc 6ed1 893c b1b1 173c
00000140: 55ef aa3a d9b2 7b3c 2727 b1bb be83 06bc
00000150: 02f6 553b 3522 0c3b fcb0 b13c f820 36bc
00000160: 574e e83b 2dfe 473b 21c4 12bc a774 1abc
00000170: 00f6 aa3b ca80 4dbc f1a4 f1bb 247f e1ba
00000180: b8e1 96bb 945f a03c 62ed c7bb 3488 523b
00000190: bdd3 deba f874 0abc b26b f73b e751 c83c
000001a0: 6d88 e9bb f054 a83c 30f0 1fbc fb30 39bc
000001b0: 9d55 413c 600f 23bc 47e0 213c 7d62 653c
000001c0: 3ca0 773c f05c 403c 5763 21bb 28cb 4fba
000001d0: 2dbc b9bb 2cf7 dd3b e0b8 4c3c 0de2 813b
000001e0: 722e 0e3a 0ce2 ad3c 902a 2fbc 0be7 b938
000001f0: 63c2 523a 2571 b63b 4ddc 2eba 52f0 48bc
00000200: 6726 b63b 0fda 103c a8ca b4bb 85ac e23a
00000210: 53c3 b03a 4dd7 03bc 884f 1d3b 2137 823b
00000220: 3426 573b fdf1 893b 6bf7 643a b0d1 0abc
00000230: e4ce a03b 1abc a2ba 96e7 81bb c788 943b
00000240: ef15 e63b e02e c53a c82e 93b8 efc4 8f3b
00000250: ac61 d43b 0a3e 1a39 b870 1e3b f6a2 763c
00000260: cbb2 af3b 12d4 693b f371 83bb 7f91 813c
00000270: 195e 55bb 30ad 1cba 55ea 143b 67a4 73bb
00000280: df57 2f3a 4b34 adbb a083 023b 5c6e 1cbc
00000290: d1c7 613b dc55 523c 7ea9 a13c e1cb 343b
000002a0: 7dda 8c3b 9c7a 313b 17c7 853a c494 503c
000002b0: 4304 95ba 4513 f9ba 6404 a8b9 7c93 81bb
000002c0: 088c c0bb 7deb d33b 12de 2c3b d0c1 3c3a
000002d0: 2cb8 7dbb 5db4 9ebb 1eba 33bc 9816 ffba
000002e0: c11d 043b 883a 8ab9 0a43 fd3b 05e3 023c
000002f0: 15ec 6cbc 4707 b93b 459b 283b 28e0 e1bb
00000300: 841b b2bb 1fd4 f3bb 220a bc3a 0013 323b
00000310: 415c 6d3c 8feb 9fbb f57b 833b 1c99 61bb
00000320: 0faa cbbb ced9 e1bb bdf7 c83b 00d4 263a
00000330: cbe3 e13b 66b2 96bc 9f35 2f3b e11f 033c
00000340: 7c13 7dbb 3768 763c 0d7b 86bb f387 c7bb
00000350: 60b1 1b3b b05d d33b 6bf7 303c 8c61 83bc
00000360: b129 27bb 0806 063c 7745 0ebc ba2c 3bbc
00000370: 1080 033c 36f3 68bb 55aa 93bb 0999 803a
00000380: 24ce 5cb9 0575 323c a73e b1bb 6beb 6f3b
00000390: 0f3f 153b 14fc 01bc fb3e 1bbb a638 bc3c
000003a0: 28e7 5dbb ddf8 9c3c 659a 34bc ae47 27bc
000003b0: 3818 023c 28e7 d3bb a64a 4b3c b910 953b
000003c0: a5c1 7f3c f1fd ad3b 1eca 313b 5ec9 d1bb
000003d0: c390 1abb 5112 5e3b bc1b 233c 504a fe3b
000003e0: 7399 ee3b 3fa9 5f3c ad4a d6bb fa00 03bb
000003f0: c075 83ba a71b 493b 32e6 86bb dd78 d9bb
-0.0068680984 -0.005238653 -0.0051511237 0.005854931 0.01485529 -0.0047434224 0.006018461 -0.0024809302
-0.0015699205 -0.004142811 0.0011873405 0.0019288085 0.01027925 -0.017204018 0.0014046873 0.005077564
-0.007324007 0.007286927 -0.003214274 -0.0073100314 0.0017872968 0.0051822904 0.01676274 -0.016469192
-0.0020387315 0.003685139 -0.013908375 -0.01138324 0.004885406 0.0025667201 -0.009582575 0.00045057145
-0.0028348805 0.014620689 -0.0023985768 0.0057723396 0.0025906644 -0.010312138 -0.0034790966 0.016812528
-0.0053063245 0.016284129 -0.0075463876 -0.0115836235 0.014884012 -0.009344593 0.0102209095 0.008428348
0.0155763775 0.008721658 0.00014082526 -0.0054014027 -0.0062042815 0.0069490373 0.0059608617 0.012820572
0.0039812448 0.013167236 -0.0074005746 -0.0061389864 0.001206936 0.0026566775 -0.004845884 -0.0044032903
-0.009550811 -0.0069391215 0.0043975795 0.002304709 0.022116488 -0.007858344 0.0052300617 -0.0069227805
-0.0067627444 -0.010191497 -0.003303063 -0.0015252711 0.003617284 -0.012982278 0.016823497 0.0092586735
0.0013041297 0.015362465 -0.0054062787 -0.008210121 0.0032647853 0.0021382694 0.021690838 -0.011116259
0.007089417 0.003051649 -0.008957894 -0.009427226 0.0052173138 -0.012542913 -0.007374399 -0.0017204029
-0.0046045445 0.019576825 -0.0061012963 0.003212464 -0.0017000359 -0.008450739 0.00755068 0.024453117
-0.007126859 0.020548314 -0.009761855 -0.011303182 0.011800197 -0.009952396 0.009880132 0.014000532
0.015113886 0.011740908 -0.0024625862 -0.0007926696 -0.0056681843 0.00677385 0.0124952495 0.003963715
0.0005423791 0.021225952 -0.0106913 8.8645225e-05 0.000803983 0.005567687 -0.00066704006 -0.012264328
0.005558777 0.008841052 -0.0055173226 0.0017293846 0.0013485946 -0.008046937 0.0024003703 0.003973857
0.0032829167 0.0042097555 0.0008734378 -0.008472845 0.004907476 -0.0012415678 -0.003964375 0.0045329067
0.0070216577 0.0015043877 -7.01822e-05 0.00438749 0.00648137 0.00014709696 0.0024176072 0.015053501
0.00536189 0.0035679382 -0.0040113865 0.015816448 -0.0032557307 -0.00059767347 0.002272268 -0.003717685
0.0006688814 -0.005285775 0.001991488 -0.009547796 0.0034451375 0.012837853 0.01973414 0.0027587342
0.004298507 0.0027081138 0.0010206428 0.012730781 -0.0011369068 -0.0019002935 -0.00032046728 -0.003954349
-0.005876068 0.0064672814 0.0026377481 0.0007200511 -0.0038714511 -0.0048432783 -0.010969667 -0.001946169
0.0020159336 -0.0002636502 0.007728939 0.007988696 -0.014460583 0.0056466195 0.0025727313 -0.0068931766
-0.005435409 -0.0074410583 0.0014346282 0.002717197 0.014487327 -0.0048803757 0.0040125796 -0.0034423536
-0.006215341 -0.0068924194 0.0061330483 0.0006363988 0.00689361 -0.018395614 0.0026734842 0.008003206
-0.003861635 0.015039495 -0.0041040243 -0.0060892045 0.0023756847 0.0064503774 0.010801177 -0.016037725
-0.0025507028 0.008180149 -0.008683554 -0.011424238 0.008026138 -0.0035545356 -0.004506389 0.0009811233
-0.00021057628 0.010892157 -0.00540908 0.0036608826 0.0022773182 -0.007933635 -0.0023688662 0.02297623
-0.0033859704 0.019161636 -0.011023139 -0.010209961 0.0079403445 -0.006466765 0.012407934 0.0045491126
0.015610133 0.005309813 0.0027128528 -0.0064021787 -0.002358482 0.003388543 0.009955343 0.0077603236
0.007281476 0.013651191 -0.0065396638 -0.0019989596 -0.0010029599 0.0030686648 -0.004116797 -0.0066367225

lstm.bias_hh_l0 f4 [256]
00000000: c90d e1bb 02a9 abbb c2ca a8bb b9da bf3b
00000010: 9a63 733c b66e 9bbb 8336 c53b 1a97 22bb
00000020: cac5 cdba 6bc0 87bb 89a0 9b3a 13d0 fc3a
00000030: 4d6a 283c 71ef 8cbc 7c1d b83a b261 a63b
00000040: 39fe efbb 2dc7 ee3b 92a6 52bb fd88 efbb
00000050: bb43 ea3a 34d0 a93b 0452 893c 66ea 86bc
00000060: 3d9c 05bb 5f82 713b f4df 63bc c580 3abc
00000070: c115 a03b 6b36 283b 3c00 1dbc ad3a ec39
00000080: 67c9 39bb 9d8b 6f3c 7131 1dbb e525 bd3b
00000090: 23c8 293b 3ef4 28bc 8e01 64bb 6dba 893c
000000a0: ade0 adbb 4b66 853c b047 f7bb 3dc9 3dbc
000000b0: 12dc 733c 101a 19bc 9a75 273c 0e17 0a3c
000000c0: 1034 7f3c 49e5 0e3c 7eaa 1339 40fe b0bb
000000d0: 494d cbbb c0b4 e33b 5553 c33b 600d 523c
000000e0: 1a75 823b 64bb 573c 8580 f2bb 8d29 c9bb
000000f0: 0d32 9e3a a71b 2e3b 39ca 9ebb 7a49 90bb
00000100: 017b 1cbc 9261 e3bb 9219 903b 9a0a 173b
00000110: a32d b53c 49c0 00bc f060 ab3b 7ed8 e2bb
00000120: 039a ddbb 3dfa 26bc 3478 58bb 9beb c7ba
00000130: f40f 6d3b 9fb3 54bc 6ed1 893c b1b1 173c
00000140: 55ef aa3a d9b2 7b3c 2727 b1bb be83 06bc
00000150: 02f6 553b 3522 0c3b fcb0 b13c f820 36bc
00000160: 574e e83b 2dfe 473b 21c4 12bc a774 1abc
00000170: 00f6 aa3b ca80 4dbc f1a4 f1bb 247f e1ba
00000180: b8e1 96bb 945f a03c 62ed c7bb 3488 523b
00000190: bdd3 deba f874 0abc b26b f73b e751 c83c
000001a0: 6d88 e9bb f054 a83c 30f0 1fbc fb30 39bc
000001b0: 9d55 413c 600f 23bc 47e0 213c 7d62 653c
000001c0: 3ca0 773c f05c 403c 5763 21bb 28cb 4fba
000001d0: 2dbc b9bb 2cf7 dd3b e0b8 4c3c 0de2 813b
000001e0: 722e 0e3a 0ce2 ad3c 902a 2fbc 0be7 b938
000001f0: 63c2 523a 2571 b63b 4ddc 2eba 52f0 48bc
00000200: 6726 b63b 0fda 103c a8ca b4bb 85ac e23a
00000210: 53c3 b03a 4dd7 03bc 884f 1d3b 2137 823b
00000220: 3426 573b fdf1 893b 6bf7 643a b0d1 0abc
00000230: e4ce a03b 1abc a2ba 96e7 81bb c788 943b
00000240: ef15 e63b e02e c53a c82e 93b8 efc4 8f3b
00000250: ac61 d43b 0a3e 1a39 b870 1e3b f6a2 763c
00000260: cbb2 af3b 12d4 693b f371 83bb 7f91 813c
00000270: 195e 55bb 30ad 1cba 55ea 143b 67a4 73bb
00000280: df57 2f3a 4b34 adbb a083 023b 5c6e 1cbc
00000290: d1c7 613b dc55 523c 7ea9 a13c e1cb 343b
000002a0: 7dda 8c3b 9c7a 313b 17c7 853a c494 503c
000002b0: 4304 95ba 4513 f9ba 6404 a8b9 7c93 81bb
000002c0: 088c c0bb 7deb d33b 12de 2c3b d0c1 3c3a
000002d0: 2cb8 7dbb 5db4 9ebb 1eba 33bc 9816 ffba
000002e0: c11d 043b 883a 8ab9 0a43 fd3b 05e3 023c
000002f0: 15ec 6cbc 4707 b93b 459b 283b 28e0 e1bb
00000300: 841b b2bb 1fd4 f3bb 220a bc3a 0013 323b
00000310: 415c 6d3c 8feb 9fbb f57b 833b 1c99 61bb
00000320: 0faa cbbb ced9 e1bb bdf7 c83b 00d4 263a
00000330: cbe3 e13b 66b2 96bc 9f35 2f3b e11f 033c
00000340: 7c13 7dbb 3768 763c 0d7b 86bb f387 c7bb
00000350: 60b1 1b3b b05d d33b 6bf7 303c 8c61 83bc
00000360: b129 27bb 0806 063c 7745 0ebc ba2c 3bbc
00000370: 1080 033c 36f3 68bb 55aa 93bb 0999 803a
00000380: 24ce 5cb9 0575 323c a73e b1bb 6beb 6f3b
00000390: 0f3f 153b 14fc 01bc fb3e 1bbb a638 bc3c
000003a0: 28e7 5dbb ddf8 9c3c 659a 34bc ae47 27bc
000003b0: 3818 023c 28e7 d3bb a64a 4b3c b910 953b
000003c0: a5c1 7f3c f1fd ad3b 1eca 313b 5ec9 d1bb
000003d0: c390 1abb 5112 5e3b bc1b 233c 504a fe3b
000003e0: 7399 ee3b 3fa9 5f3c ad4a d6bb fa00 03bb
000003f0: c075 83ba a71b 493b 32e6 86bb dd78 d9bb
-0.0068680984 -0.005238653 -0.0051511237 0.005854931 0.01485529 -0.0047434224 0.006018461 -0.0024809302
-0.0015699205 -0.004142811 0.0011873405 0.0019288085 0.01027925 -0.017204018 0.0014046873 0.005077564
-0.007324007 0.007286927 -0.003214274 -0.0073100314 0.0017872968 0.0051822904 0.01676274 -0.016469192
-0.0020387315 0.003685139 -0.013908375 -0.01138324 0.004885406 0.0025667201 -0.009582575 0.00045057145
-0.0028348805 0.014620689 -0.0023985768 0.0057723396 0.0025906644 -0.010312138 -0.0034790966 0.016812528
-0.0053063245 0.016284129 -0.0075463876 -0.0115836235 0.014884012 -0.009344593 0.0102209095 0.008428348
0.0155763775 0.008721658 0.00014082526 -0.0054014027 -0.0062042815 0.0069490373 0.0059608617 0.012820572
0.0039812448 0.013167236 -0.0074005746 -0.0061389864 0.001206936 0.0026566775 -0.004845884 -0.0044032903
-0.009550811 -0.0069391215 0.0043975795 0.002304709 0.022116488 -0.007858344 0.0052300617 -0.0069227805
-0.0067627444 -0.010191497 -0.003303063 -0.0015252711 0.003617284 -0.012982278 0.016823497 0.0092586735
0.0013041297 0.015362465 -0.0054062787 -0.008210121 0.0032647853 0.0021382694 0.021690838 -0.011116259
0.007089417 0.003051649 -0.008957894 -0.009427226 0.0052173138 -0.012542913 -0.007374399 -0.0017204029
-0.0046045445 0.019576825 -0.0061012963 0.003212464 -0.0017000359 -0.008450739 0.00755068 0.024453117
-0.007126859 0.020548314 -0.009761855 -0.011303182 0.011800197 -0.009952396 0.009880132 0.014000532
0.015113886 0.011740908 -0.0024625862 -0.0007926696 -0.0056681843 0.00677385 0.0124952495 0.003963715
0.0005423791 0.021225952 -0.0106913 8.8645225e-05 0.000803983 0.005567687 -0.00066704006 -0.012264328
0.005558777 0.008841052 -0.0055173226 0.0017293846 0.0013485946 -0.008046937 0.0024003703 0.003973857
0.0032829167 0.0042097555 0.0008734378 -0.008472845 0.004907476 -0.0012415678 -0.003964375 0.0045329067
0.0070216577 0.0015043877 -7.01822e-05 0.00438749 0.00648137 0.00014709696 0.0024176072 0.015053501
0.00536189 0.0035679382 -0.0040113865 0.015816448 -0.0032557307 -0.00059767347 0.002272268 -0.003717685
0.0006688814 -0.005285775 0.001991488 -0.009547796 0.0034451375 0.012837853 0.01973414 0.0027587342
0.004298507 0.0027081138 0.0010206428 0.012730781 -0.0011369068 -0.0019002935 -0.00032046728 -0.003954349
-0.005876068 0.0064672814 0.0026377481 0.0007200511 -0.0038714511 -0.0048432783 -0.010969667 -0.001946169
0.0020159336 -0.0002636502 0.007728939 0.007988696 -0.014460583 0.0056466195 0.0025727313 -0.0068931766
-0.005435409 -0.0074410583 0.0014346282 0.002717197 0.014487327 -0.0048803757 0.0040125796 -0.0034423536
-0.006215341 -0.0068924194 0.0061330483 0.0006363988 0.00689361 -0.018395614 0.0026734842 0.008003206
-0.003861635 0.015039495 -0.0041040243 -0.0060892045 0.0023756847 0.0064503774 0.010801177 -0.016037725
-0.0025507028 0.008180149 -0.008683554 -0.011424238 0.008026138 -0.0035545356 -0.004506389 0.0009811233
-0.00021057628 0.010892157 -0.00540908 0.0036608826 0.0022773182 -0.007933635 -0.0023688662 0.02297623
-0.0033859704 0.019161636 -0.011023139 -0.010209961 0.0079403445 -0.006466765 0.012407934 0.0045491126
0.015610133 0.005309813 0.0027128528 -0.0064021787 -0.002358482 0.003388543 0.009955343 0.0077603236
0.007281476 0.013651191 -0.0065396638 -0.0019989596 -0.0010029599 0.0030686648 -0.004116797 -0.0066367225

lstm.weight_ih_l0_reverse f4 [256, 128]
00000000: 1cca a23c cc63 3eba 3712 53bd 7013 e63b
00000010: 7fb3 1a3b 8549 b6bd 4ddf c9bd 3487 b7bd
00000020: ec45 c1bd 6d23 bb3d 6b72 34bd a1c8 573d
00000030: c0e9 8e3d c1fd a6bd fa61 c3bd 6e48 b9bd
00000040: 2337 e43d 019c c5bc 590f 353d bd5d fe3b
00000050: e014 b2bd 754a 943d 284c 22bd 29d8 103d
00000060: 8219 03be c7e2 d73d b45f 983d f896 9fbd
00000070: 332d cd3d 2ac3 ab3d bcd0 bb3d 9a5c c4bb
00000080: 9728 4dbd afbb 9d3d 5195 993c 2a0f 3dbd
00000090: a97f 363d 2e7a 993b 46e0 a93d 8f50 6f3d
000000a0: 6e5d 173d 4bfe b1bd effd b1bd c62f b8bc
000000b0: 9a30 3abb 69d2 733c 4707 efbd 1667 acbd
000000c0: f748 8f3d b449 1cbd 4336 c83d c98f a73d
000000d0: 2e27 2ebd 5507 c13d eee4 993d 4cfd 9ebd
000000e0: 1d18 7f3d 7aea e6bd f7df d03d 5d47 c53d
000000f0: 11da c53d fb76 943d 503f 433d a91e 05be
00000100: ea98 46bd e4ca 753d 2799 723c 4fe8 bc3c
00000110: 55c5 c2bd d09f af3d bf66 efbb ef73 bc3d
00000120: 0620 d5ba 87e5 9c3d 8777 c83d c4fc 02be
00000130: 80ee a1bb f171 e8bd 9df8 b13d fabd 71bd
00000140: 48e2 99bc 20ef b5bc 0aec 6dbd 9336 8fbd
00000150: 6a03 5bbd 9028 00be b233 acbc 10d3 e0bd
00000160: d705 d4bd 1da0 5c3c 3cc5 cdbc f985 a8bd
00000170: bdd3 bfba f1fa 1dbd 3e5f e1bd ac3f 083c
00000180: a128 5d3d 1387 0c3c 05af 6e3d 4e07 6b3d
00000190: 1cee be3c 6352 a8bd 40b1 6a3d 0403 91bd
000001a0: fa48 ebbb a370 e33d 675b cb3d 3184 bb3d
000001b0: 2224 b4bb b353 13bd 4200 9c3c e996 c1bc
000001c0: df34 f6bc e10f 973b 5d12 463c c93d 7fbd
000001d0: 3e84 dc3d a923 3fbd ff92 f438 43d9 f03b
000001e0: 1adb ea3d e806 e23c ddba 94bc 7237 cebd
000001f0: b1c6 1bbd 7fff 823d 3158 e6bc bd5b 2bbd
00000200: 5002 f13d d896 86bd f0d4 42bd 54dd 9a3d
00000210: 5690 af3d 6eac 93bc 546e 913d e9d1 cf3d
00000220: e11f 3d3c bc25 843d d6df 0a3d e644 e1bc
00000230: 5606 d83d 5b75 19bb bff4 153d 009b e13b
00000240: 9657 493b 7bba e43d b344 0abd dd88 cdbc
00000250: e015 b8bd f26b 60bd bfb6 a9bd b2a9 4c3d
00000260: 45c4 e53d 951f fa3d a8a7 23bd b318 98bc
00000270: 6b14 c2bc eb05 d1bd 70ae c73d 1169 dc3d
00000280: d296 ec3d 6550 1ebc 9e5d 7cbc 6eaf cd3d
00000290: 47e4 51bd ae9e e2bd 7576 07bd 6a0a 91bc
000002a0: 0ef0 3d3d ff8e 01be 814c afbc aaea 67bd
000002b0: 9430 163b 5853 80bc 11b4 fcbd 61e4 7fbd
000002c0: d2c4 bcbd 7346 dc3d 41b3 c0bd 4fdb f63d
000002d0: e4b2 913d 8c9b 013e 47fb a0bd bdbe afbd
000002e0: 984f 723c 97db ae3c 5270 7e3d e093 3abd
000002f0: 5e72 a3bd 45f1 d8bd 9a32 8c3d f818 f03d
00000300: f23d 85ba 213c 2fbd f9d5 483d b47a dfbc
00000310: 5cc3 7f3d 4c5f 603d 7ed7 983d 322a 943d
00000320: 2577 cf3b 8f8c 983d 0e8e e7bc e9d5 c3bc
00000330: 76d0 b2bd c3f9 acbd 90d3 233d e8b8 a2bd
00000340: 4732 ab3d 3a27 903d 04e5 e7bd 086d b7bd
00000350: 531f 323d 6a6b ce3b 9c57 a9bd d774 3d3d
00000360: ff37 42bc 0b08 b23d 7a49 28bd 522a 123d
00000370: 4739 233d 8aa1 853d 7244 bf3c 9ae5 c83d
00000380: 979a ba3d 5928 703d 9648 a13d be40 b83d
00000390: 3a6c 943c 7685 b7bd 9188 ea3d a5b5 1cbd
000003a0: 5087 c7bd 9d5d 49bd 6518 ac3b b921 fd3d
000003b0: 11c6 b93c 2864 0d3d fb05 52bd 9a8d 28bd
000003c0: df6b ab3c 13cf 4abd 437e 513d 3c46 c4bd
000003d0: b463 d2bd a6d2 c4bd 52e9 28bd eb63 9c3d
000003e0: f6ac 903d d425 09bd b55e fb3b 1441 1a3d
000003f0: e425 6fbd 8d17 68bd 8ca8 78bd c19d d83d
0.019871764 -0.00072627957 -0.051531043 0.00702136 0.0023605523 -0.089007415 -0.09857044 -0.08961335
-0.09437165 0.09137616 -0.04405443 0.05268157 0.06978178 -0.081538685 -0.09540172 -0.09047018
0.11143329 -0.02412224 0.04420409 0.0077626393 -0.08695388 0.07240764 -0.03962341 0.035362396
-0.12802699 0.10541301 0.07440129 -0.07792467 0.10018387 0.08386834 0.09170672 -0.0059924843
-0.050087538 0.077018134 0.018747957 -0.04615704 0.04455534 0.0046837544 0.0829473 0.058426436
0.036954336 -0.08691081 -0.08691012 -0.022483718 -0.0028410316 0.014881709 -0.1167131 -0.084180996
0.06996339 -0.038156226 0.097759746 0.08181722 -0.042517833 0.094252266 0.07514368 -0.07763156
0.062278856 -0.112751916 0.10198968 0.09632752 0.096607335 0.07249256 0.0476678 -0.12999977
-0.048485674 0.060007945 0.014807022 0.023059992 -0.09510294 0.08575404 -0.0073059495 0.092018
-0.0016260154 0.07660966 0.09788423 -0.12791735 -0.0049417615 -0.113498576 0.08689997 -0.059019066
-0.018784657 -0.02220875 -0.058086433 -0.06992831 -0.053470053 -0.12515473 -0.021020744 -0.10977757
-0.10352676 0.013465908 -0.025118463 -0.08228678 -0.0014635246 -0.038569394 -0.11004494 0.008315962
0.053993825 0.008577126 0.05827238 0.057380013 0.023306899 -0.08218839 0.057297945 -0.07080653
-0.0071803303 0.11105468 0.09929543 0.09156073 -0.0054974714 -0.035968494 0.019043092 -0.02363153
-0.030054508 0.004610047 0.012089339 -0.062314782 0.10767411 -0.046664868 0.00011662207 0.0073501184
0.114675716 0.027591184 -0.01815551 -0.10069169 -0.038031284 0.06396388 -0.028118225 -0.041835535
0.11768019 -0.0657174 -0.047566354 0.07561746 0.08572452 -0.018026557 0.071011215 0.10147459
0.011543245 0.0645251 0.033904873 -0.027498674 0.105480835 -0.0023415897 0.03661036 0.0068849325
0.0030722371 0.11168381 -0.033756923 -0.025089676 -0.08988547 -0.054790445 -0.08286809 0.04996652
0.11219076 0.12213055 -0.03995481 -0.018566465 -0.023691377 -0.10206207 0.09750068 0.10762227
0.11552204 -0.009662722 -0.015403179 0.10043226 -0.051243093 -0.11065422 -0.033071954 -0.017705161
0.046371512 -0.12652205 -0.021398785 -0.056620277 0.0022917138 -0.015664741 -0.123390324 -0.06247366
-0.09217228 0.107556246 -0.0940919 0.120535485 0.07114199 0.12656993 -0.07860427 -0.08581302
0.014789484 0.021344943 0.062118836 -0.04555118 -0.07980798 -0.105928935 0.06845589 0.117235124
-0.0010165556 -0.042781953 0.049032185 -0.02728019 0.06244217 0.054778382 0.07462977 0.072346106
0.006331342 0.074486844 -0.02826598 -0.023905711 -0.08731167 -0.08446076 0.039996684 -0.07945424
0.08359199 0.07038732 -0.11322978 -0.08956343 0.043486904 0.006299426 -0.08268663 0.046254005
-0.011854171 0.0869294 -0.041085698 0.03568489 0.039849546 0.06524952 0.023348067 0.09809418
0.09111517 0.05863223 0.07875173 0.089967236 0.018118013 -0.089610025 0.11451829 -0.038259167
-0.09742606 -0.049161542 0.0052519315 0.12359948 0.022677453 0.034519345 -0.051275235 -0.041150667
0.02092546 -0.049513888 0.051145803 -0.09583709 -0.10272923 -0.096104905 -0.041238137 0.07636245
0.0706424 -0.03348334 0.007671202 0.03765972 -0.058385745 -0.056663085 -0.060707614 0.10576964
