models/wesad/baseline/model_wesad_baseline.pth (torch, 856605 bytes, 30 tensors)

input_proj.weight f4 [128, 14]
0	0xbddc945a	-0.10770483
1	0xbd3e5954	-0.04647191
2	0x3e2e7e00	0.17040253
3	0x3d0d5d46	0.03451278
4	0xbdf57a32	-0.119861975
5	0x3d67a001	0.056549076
6	0xbdd38343	-0.103277706
7	0x3d6f7073	0.05845685
8	0xbe2330ab	-0.15936534
9	0x3dc7f730	0.09763944
10	0x3e0b9824	0.13632256
11	0xbc506666	-0.012719726
12	0x3dbcac91	0.09212602
13	0xbe07d2ae	-0.13263962
14	0x3e407253	0.18793611
15	0x3d1c967a	0.038229443
16	0x3db69908	0.08915907
17	0xbdd586b5	-0.10426084
18	0xbd8615cc	-0.06547126
19	0x3e4c7e0f	0.19969963
20	0xbe453fc4	-0.19262606
21	0x3e449f86	0.19201478
22	0xbbb18eaf	-0.0054186205
23	0x3e3d75fa	0.18502036
24	0xbe171564	-0.14754254
25	0x3e0f0621	0.13967182
26	0xbe0e9542	-0.13924125
27	0x3d1625dc	0.0366572
28	0xbc35cec4	-0.01109666
29	0x3dff1023	0.1245425
30	0xbd0e2e56	-0.03471216
31	0xbbb833ca	-0.005621408
32	0xbe3f8e4c	-0.18706626
33	0x3c8c4f13	0.01712755
34	0x3e22a2a4	0.15882355
35	0xbe1a5d46	-0.15074643
36	0xbe00f6f7	-0.1259421
37	0xbcf1187c	-0.02943062
38	0x3e1fa2f7	0.1558951
39	0xbe041669	-0.12899174
40	0x3e3d52dd	0.18488641
41	0x3dbde235	0.09271661
42	0xbdce2cd7	-0.10067146
43	0x3c4b23fd	0.012398717
44	0xbca9a0c2	-0.020706538
45	0xbdb95f67	-0.090514
46	0x3c406282	0.011742236
47	0x3e107945	0.1410876
48	0xbd15612a	-0.036469616
49	0x3cd82cb6	0.026388507
50	0xbb525fc6	-0.0032100542
51	0x3d7185bb	0.058965426
52	0x3cd50eeb	0.02600809
53	0x3dd492ca	0.1037956
54	0x3e14a08c	0.14514369
55	0x3da1b0f0	0.07895076
56	0x3e1bab38	0.15202034
57	0x3d059454	0.03261216
58	0xbcdc07eb	-0.026859244
59	0xbe26e701	-0.16299058
60	0xbdacda23	-0.08440044
61	0x3db95468	0.09049302
62	0x3c0863fc	0.008324619
63	0x3d38fd8e	0.045163684
64	0xbdac91fe	-0.08426283
65	0xbdd69f4a	-0.10479601
66	0x3d3a1256	0.045427643
67	0xbdf8a030	-0.12139928
68	0x3ca7a897	0.020466132
69	0x3e1045bf	0.14089106
70	0x3e228482	0.1587086
71	0xbe5cb16c	-0.21552056
72	0x3e29f949	0.16599001
73	0xbe3ba998	-0.18326414
74	0xbcc763d2	-0.02433959
75	0x3e32491f	0.17410706
76	0xbc1ae995	-0.009455104
77	0xbc89f2e1	-0.016839446
78	0x3c5734cb	0.013135145
79	0xbd95440c	-0.072883695
80	0xbdb234eb	-0.087014996
81	0xbdbeac3f	-0.09310197
82	0xbdfa6ed7	-0.12228172
83	0xbdbb6e2b	-0.09151872
84	0x3d1caca2	0.038250573
85	0x3defc955	0.11708323
86	0xbe41e26d	-0.18934031
87	0xbe47e38a	-0.19520393
88	0x3e393fad	0.18090697
89	0x3dce322e	0.10068165
90	0x3e1659c2	0.14682677
91	0xbcf221b8	-0.029557094
92	0xbe3febad	-0.18742247
93	0xbe473067	-0.19452058
94	0x3e4b29fc	0.19840235
95	0x3d7fb916	0.06243237
96	0xbe021d37	-0.12706457
97	0x3d5e01c4	0.054200903
98	0x3ddeec96	0.10884969
99	0xbe0c07a4	-0.1367479
100	0xbcadfd41	-0.021238925
101	0xbe2a17fd	-0.16610713
102	0x3e1a5adb	0.15073721
103	0x3d1935a6	0.03740468
104	0x3d8990fe	0.06717108
105	0xbe46ca77	-0.19413172
106	0xbe00f735	-0.12594302
107	0xbc9f59c9	-0.019451993
108	0xbe0011c5	-0.12506779
109	0x3bd37719	0.0064534065
110	0xbe5392c6	-0.20661458
111	0x3cb55acb	0.02213802
112	0x3e1f0b75	0.15531714
113	0x3d6d0696	0.05786761
114	0x3d9564b0	0.07294595
115	0x3e3f1b68	0.18662798
116	0xbe3f0ad3	-0.18656473
117	0xbd170582	-0.036870487
118	0xbb0dd3e4	-0.002164119
119	0xbddf2f9c	-0.10897753
120	0xbca8bf6c	-0.02059909
121	0x3da7739a	0.08176346
122	0xbda4adc0	-0.08040953
123	0xbe35e3a2	-0.17762616
124	0xbd906b4c	-0.07051715
125	0xbe383a52	-0.17990997
126	0xbe2c87ff	-0.16848753
127	0x3d0595cc	0.03261356
128	0x3e1b62b4	0.15174371
129	0xbbba1e24	-0.0056798626
130	0xbd6a8858	-0.057258934
131	0xbd814bb2	-0.06313266
132	0xbdc78916	-0.09742944
133	0xbe26ea74	-0.16300374
134	0xbca911da	-0.020638395
135	0xbe5b1b87	-0.2139722
136	0xbdda6640	-0.10664034
137	0xbd808268	-0.06274873
138	0xbdf16ed9	-0.11788721
139	0x3dfb85a9	0.12281353
140	0x3daaacef	0.08333766
141	0xbcb367fc	-0.02190017
142	0x3d6b47e5	0.05744161
143	0x3de6ecdf	0.11275648
144	0x3da4cbf4	0.080467135
145	0xbdf6b9e0	-0.120471716
146	0x3d426b01	0.047465328
147	0x3dc56ef7	0.096403055
148	0xbe15e349	-0.14637484
149	0x3d405de5	0.046964545
150	0x3dc62d55	0.09676615
151	0xbe457d69	-0.19286121
152	0xbdd36175	-0.10321323
153	0xbe273caa	-0.16331735
154	0x3d817100	0.06320381
155	0x3e286b1e	0.16447112
156	0x3d827180	0.06369305
157	0xbd9fba68	-0.07799226
158	0x3dbb4c70	0.09145439
159	0x3cfa0525	0.030520031
160	0xbd8ac5e6	-0.067760274
161	0xbdbc1886	-0.09184365
162	0xbe2f7d32	-0.17137602
163	0x3e51b740	0.2048006
164	0xbd9d7aa4	-0.076894075
165	0x3d90555e	0.070475325
166	0xbd1a1299	-0.037615392
167	0xbe20f312	-0.15717724
168	0xbd984900	-0.07435799
169	0x3dc30e4d	0.09524212
170	0x3e337dde	0.17528483
171	0x3d8970e5	0.06710986
172	0xbe0bf759	-0.13668574
173	0x3dbe7d8e	0.093012914
174	0xbe3b8bc8	-0.18315041
175	0xbd8c4446	-0.068489596
176	0x3e46e460	0.19423056
177	0x3e1e52ef	0.15461324
178	0x3dc1ad9a	0.0945694
179	0xbe233ce7	-0.15941201
180	0x3e32f6f3	0.17477016
181	0x3d7a66d0	0.061133206
182	0x3da046c8	0.078260005
183	0x3db5fe1d	0.08886359
184	0xbd9a8184	-0.075442344
185	0xbe590533	-0.2119339
186	0xba468840	-0.00075734034
187	0xbd51fbd6	-0.05126556
188	0x3df60401	0.120124824
189	0xbdacf4a9	-0.08445103
190	0xbdd5fcb5	-0.10448591
191	0xbe3f8a1c	-0.18705028
192	0xbdb5ffb7	-0.08886664
193	0xbd2fd753	-0.04292996
194	0x3de2b38b	0.11069401
195	0xbc09d61f	-0.008412867
196	0xbdf352b6	-0.1188101
197	0x3d894fd2	0.06704678
198	0xbe1601b2	-0.14649084
199	0x3bd34249	0.006447111
200	0x3e3795b2	0.17928198
201	0x3e229eed	0.15880938
202	0x3e1355a2	0.14388135
203	0x3c9d63d8	0.019212648
204	0x3ddfbad6	0.10924308
205	0xbdc9be7b	-0.098507844
206	0x3e28cc82	0.16484264
207	0xbdc34f3d	-0.09536598
208	0xbd964503	-0.07337382
209	0xbdee79a6	-0.11644296
210	0x3e3e5db2	0.1859043
211	0xbcac69df	-0.021046577
212	0xbd005cfc	-0.031338677
213	0x3dfb9927	0.12285071
214	0xbe4b51c4	-0.1985541
215	0x3e4aaac8	0.1979171
216	0x3cc9c667	0.024630738
217	0x3d3cb63a	0.046072222
218	0xbe188c80	-0.14897346
219	0xbe47949a	-0.19490281
220	0x3e0b5615	0.13607056
221	0x3e0eb66a	0.13936773
222	0x3cd58493	0.026064193
223	0x3c9ee5dd	0.019396717
224	0xbd387868	-0.045036703
225	0xbdc3e2f4	-0.09564772
226	0x3db2f485	0.08738045
227	0x3e4bf599	0.19917907
228	0xbdca3ead	-0.09875236
229	0x3e30c8e4	0.17264134
230	0x3d4798ca	0.048729695
231	0x3e4980d7	0.19678055
232	0xbdcb53c1	-0.09928084
233	0x3dd1abdc	0.10237858
234	0xbe3dcc34	-0.18534929
235	0xbe313980	-0.17307091
236	0x3de2aee6	0.110685155
237	0x3e063c94	0.13109046
238	0xbd218762	-0.03943575
239	0xbd363a9e	-0.044489495
240	0xbcd0d6c9	-0.025493043
241	0xbc24de04	-0.010062698
242	0x3d887b88	0.06664187
243	0xbd5ea79b	-0.05435906
244	0xbda2ae07	-0.07943349
245	0x3cfdbd5c	0.030974083
246	0xbd9f0b8d	-0.07765875
247	0xbe117886	-0.14206132
248	0xbdfdb207	-0.12387472
249	0x3d9e62a6	0.077336594
250	0x3e256533	0.16151886
251	0x3e053fcf	0.13012622
252	0xbe2fedf7	-0.1718062
253	0x3abb104c	0.0014271825
254	0x3d741f2d	0.059600044
255	0x3da68a07	0.081317954

input_proj.bias f4 [128]
0	0x3c85a5b2	0.016314361
1	0xbc42c80d	-0.011888516
2	0x3bf4cba3	0.0074705645
3	0xbb68cac2	-0.0035521244
4	0xbc2e8748	-0.010652371
5	0xbc2b2e9e	-0.010448126
6	0x3c78bf36	0.015182307
7	0xbaed1658	-0.0018088324
8	0xbbb3afcd	-0.0054836036
9	0xbafbb018	-0.001920226
10	0xbbb2e928	-0.0054599233
11	0xbc3c9ca8	-0.011511959
12	0x3c0e544b	0.008687089
13	0xbbaac89f	-0.005211904
14	0x3c9c9208	0.019112602
15	0x3bd3f55b	0.0064684576
16	0x3ad7381b	0.0016419919
17	0xbac8fefb	-0.0015334779
18	0xbc733bb4	-0.014845777
19	0x3ad277e9	0.0016057465
20	0x3ab98c6a	0.0014156227
21	0x3b117c8f	0.0022199487
22	0x3c15cf50	0.009143665
23	0x3bb6c959	0.0055782017
24	0xbb122dfb	-0.0022305239
25	0xba257202	-0.0006311239
26	0xbaa1ce30	-0.0012344774
27	0xbbe9f05d	-0.0071392492
28	0xbc8aff30	-0.016967386
29	0x3bcb8e76	0.006212051
30	0x3c96b0ac	0.01839479
31	0xb8062c2e	-3.1989235e-05
32	0xbc13eb5e	-0.009028284
33	0xbae7025f	-0.0017624608
34	0x3bd9e31a	0.006649387
35	0xbb1f85d5	-0.0024341245
36	0x3b571fcd	0.0032825351
37	0x39d02b72	0.0003970522
38	0x3c025f70	0.007957324
39	0xbb1900b9	-0.0023346378
40	0xba6668ce	-0.0008789421
41	0xbc7eac6f	-0.015544041
42	0x3c14e6ae	0.009088201
43	0x3be71825	0.007052439
44	0x3b136943	0.002249316
45	0x3b60e227	0.0034314485
46	0xbb080b33	-0.0020758628
47	0x3b7335fd	0.0037111037
48	0xbbea429b	-0.0071490533
49	0x3c972657	0.018450899
50	0xbac7b543	-0.0015236515
51	0xbae135de	-0.0017182191
52	0xbc194894	-0.009355683
53	0xbbeec0a0	-0.0072861463
54	0x3cb5a2ec	0.022172414
55	0xbc104652	-0.008805828
56	0xba6d5c92	-0.00090546266
57	0xbbbca6ad	-0.005757174
58	0xbc34c8fc	-0.0110342465
59	0xba05e3c4	-0.0005107487
60	0xba97d9bb	-0.0011585274
61	0x3c4e1c40	0.0125799775
62	0xbc21f371	-0.009884701
63	0x3bcb3ed6	0.006202559
64	0xbc980fe5	-0.018562267
65	0xbbedf45b	-0.0072617955
66	0xbbd2a960	-0.0064288825
67	0x3c8852df	0.016641079
68	0x3a82ddb4	0.0009984286
69	0xbbe64cca	-0.007028197
70	0x3af5fc27	0.0018767164
71	0xbb7b2d21	-0.003832646
72	0x3c6094ff	0.013707398
73	0x3bf8bfe0	0.0075912327
74	0x3cca023f	0.024659274
75	0x3c1685b1	0.009187148
76	0xbb9fe983	-0.0048801317
77	0xbb7c6b2f	-0.0038516035
78	0xb9057cec	-0.00012730405
79	0xbc404618	-0.011735462
80	0xbc06835f	-0.008210032
81	0x3c1e3955	0.009657224
82	0xbc404763	-0.01173577
83	0x3b88f0e2	0.004179106
84	0xba36224f	-0.00069478614
85	0xbb5fdb80	-0.0034157932
86	0xba641d72	-0.00087018975
87	0xbc153f82	-0.00910938
88	0xbc3b5fe9	-0.011436441
89	0x3b9afffb	0.0047302223
90	0x3cd5bd97	0.02609138
91	0x3c82827a	0.015931357
92	0xbb625977	-0.0034538188
93	0x3bb4172e	0.0054959273
94	0xbc83c55f	-0.016085325
95	0x3bb57696	0.005537818
96	0x3a9d48a7	0.0011999801
97	0xbc25f698	-0.010129593
98	0x3c015604	0.007894043
99	0xbcc2dbc1	-0.023786427
100	0x3b734776	0.0037121451
101	0xbc703077	-0.014659992
102	0xbc4451cc	-0.0119823925
103	0x3c688eca	0.0141942
104	0x3b96702f	0.00459101
105	0xbba58910	-0.0050517395
106	0xbc155de9	-0.009116628
107	0xbbbd5cc3	-0.0057788803
108	0x3c55998a	0.013037095
109	0x3c1744f8	0.009232752
110	0x3c025147	0.007953948
111	0x3c950835	0.01819239
112	0xbb4e3cd9	-0.0031469373
113	0x3b48d864	0.0030646557
114	0x3c966027	0.018356396
115	0x3b965e34	0.0045888666
116	0xbc539364	-0.012913559
117	0xbbffe494	-0.007809231
118	0x3bbf14d7	0.0058313417
119	0x3ada3f33	0.0016650915
120	0xbb646aba	-0.0034853653
121	0x3b9e43b8	0.00482985
122	0xbbe851b6	-0.007089819
123	0x3a0e7ba1	0.0005435292
124	0x3b7438d2	0.0037265313
125	0xbbb35e83	-0.005473913
126	0x3b899205	0.004198315
127	0xbc2b92ad	-0.010471982

input_norm.weight f4 [128]
0	0x3f8047d5	1.0021921
1	0x3f7e2160	0.99269676
2	0x3f7df6bc	0.9920461
3	0x3f7d8f36	0.9904665
4	0x3f7bef3e	0.9841193
5	0x3f801667	1.0006837
6	0x3f80a4bf	1.0050277
7	0x3f808277	1.0039815
8	0x3f7f3859	0.99695355
9	0x3f7e0603	0.99227923
10	0x3f7d6c0f	0.9899301
11	0x3f8118eb	1.0085729
12	0x3f8048f2	1.0022261
13	0x3f7ff5ec	0.9998462
14	0x3f81688c	1.011003
15	0x3f7e19cb	0.99258107
16	0x3f7ffc1f	0.9999408
17	0x3f802c96	1.0013607
18	0x3f801b3b	1.000831
19	0x3f7e13b5	0.9924882
20	0x3f7d1584	0.98860955
21	0x3f81427c	1.0098414
22	0x3f80e010	1.0068378
23	0x3f7d1a46	0.98868215
24	0x3f8014d3	1.0006355
25	0x3f821801	1.0163575
26	0x3f7e0ce8	0.99238443
27	0x3f81e6bd	1.0148541
28	0x3f7f2ef2	0.9968101
29	0x3f805266	1.0025146
30	0x3f809f4f	1.0048617
31	0x3f7d58d2	0.98963654
32	0x3f7d9d13	0.990678
33	0x3f80246c	1.0011115
34	0x3f8180a3	1.0117382
35	0x3f7fe1b8	0.99953794
36	0x3f80177b	1.0007166
37	0x3f7d7356	0.99004114
38	0x3f809259	1.0044662
39	0x3f7f695b	0.99770135
40	0x3f7b18f2	0.9808494
41	0x3f7e0aa0	0.9923496
42	0x3f7f739a	0.9978577
43	0x3f82455f	1.017742
44	0x3f7f1601	0.9964295
45	0x3f80dd97	1.0067624
46	0x3f7d4be9	0.98943955
47	0x3f7efea8	0.99607325
48	0x3f80053a	1.0001595
49	0x3f80bd0f	1.0057696
50	0x3f7dacca	0.9909178
51	0x3f8003d1	1.0001165
52	0x3f7e3d3f	0.99312204
53	0x3f80449a	1.0020936
54	0x3f80db71	1.0066968
55	0x3f8018bc	1.0007548
56	0x3f7de137	0.99171776
57	0x3f80340b	1.0015882
58	0x3f7d612e	0.9897641
59	0x3f7e4926	0.99330366
60	0x3f802f0e	1.001436
61	0x3f802d34	1.0013795
62	0x3f7ca434	0.98688054
63	0x3f80a251	1.0049535
64	0x3f7ac636	0.97958696
65	0x3f7d31dc	0.98904204
66	0x3f7dde4e	0.99167335
67	0x3f82519a	1.0181153
68	0x3f7d4537	0.9893374
69	0x3f7dacbc	0.99091697
70	0x3f810f13	1.0082725
71	0x3f805eff	1.002899
72	0x3f8202d5	1.0157114
73	0x3f80aec9	1.005334
74	0x3f823aba	1.0174172
75	0x3f80c9ef	1.0061625
76	0x3f7c45a4	0.98543763
77	0x3f821ba3	1.0164684
78	0x3f7e83fd	0.9942015
79	0x3f7f9fe5	0.99853355
80	0x3f7cd326	0.98759687
81	0x3f81546c	1.0103889
82	0x3f7e52de	0.99345195
83	0x3f82456e	1.0177438
84	0x3f7d4806	0.98938024
85	0x3f7d7dd6	0.99020135
86	0x3f7e92d4	0.9944279
87	0x3f7c5b34	0.98576665
88	0x3f7dbf37	0.99119896
89	0x3f7f9bd6	0.9984716
90	0x3f81f988	1.0154276
91	0x3f80cd2b	1.0062612
92	0x3f7f931f	0.99833864
93	0x3f800fba	1.0004799
94	0x3f7d4d88	0.9894643
95	0x3f8140c7	1.0097893
96	0x3f8074b9	1.0035621
97	0x3f7bed1c	0.98408675
98	0x3f7f9b27	0.9984612
99	0x3f7cd898	0.98767996
100	0x3f800fbc	1.0004802
101	0x3f7cc75c	0.987417
102	0x3f7efcdc	0.9960458
103	0x3f82259e	1.016773
104	0x3f803e1d	1.0018955
105	0x3f7e4ebb	0.99338883
106	0x3f7d680c	0.9898689
107	0x3f7d6784	0.9898608
108	0x3f7f4d7c	0.99727607
109	0x3f7efb79	0.99602467
110	0x3f8067e3	1.0031704
111	0x3f7f9f8e	0.99852836
112	0x3f81e35f	1.0147513
113	0x3f80df3d	1.0068127
114	0x3f8034ec	1.001615
115	0x3f80cb34	1.0062013
116	0x3f7aeb97	0.9801573
117	0x3f7d2032	0.9887725
118	0x3f80190b	1.0007643
119	0x3f8300e4	1.0234647
120	0x3f7fa86e	0.9986638
121	0x3f7f4094	0.99707913
122	0x3f7d5624	0.98959565
123	0x3f810d9e	1.0082281
124	0x3f7d3f19	0.98924404
125	0x3f7d0670	0.9883795
126	0x3f7f24e7	0.99665684
127	0x3f7c5e9f	0.9858188

input_norm.bias f4 [128]
0	0x3c77e908	0.015131243
1	0xbbafe71e	-0.0053681275
2	0x3b026ec5	0.001990245
3	0xbc43beb9	-0.011947327
4	0xbbe33906	-0.006934288
5	0xbc2c41a9	-0.0105137015
6	0x3be841ce	0.0070879227
7	0xbb94da5b	-0.0045426316
8	0x3a6611d0	0.0008776458
9	0xbb978eb3	-0.0046251654
10	0xbbb19c86	-0.0054202704
11	0x3abd9ef2	0.0014466925
12	0x3c096481	0.008385778
13	0xbbb43f66	-0.0055007217
14	0x3c78f0e6	0.015194153
15	0x3b4259bc	0.0029655537
16	0x3b8808de	0.0041514477
17	0xbb640740	-0.003479436
18	0xbb028c51	-0.001992006
19	0x3c12b680	0.008954644
20	0xbbb4fb38	-0.0055231117
21	0xbaa7f682	-0.0012814554
22	0x3c11179b	0.008855726
23	0xbbb638e0	-0.0055609792
24	0xbb210ba2	-0.0024573584
25	0x3c4d4899	0.012529516
26	0x3bb8d078	0.005640086
27	0x3b896e72	0.0041940743
28	0xbb59f366	-0.003325665
29	0x3b4196fb	0.0029539454
30	0x3c85edc2	0.016348723
31	0x3b570017	0.003280645
32	0xbc658c0b	-0.01401044
33	0x39525df7	0.00020062165
34	0x3c015b95	0.00789537
35	0xbb953dde	-0.0045544943
36	0x3b565d4c	0.0032709418
37	0xba25dad0	-0.0006326856
38	0x3bc550d1	0.006021597
39	0xbc037208	-0.008022793
40	0x3a2a654a	0.00065000786
41	0xbbfe8794	-0.007767627
42	0xba2ceb58	-0.0006596348
43	0x3b61085e	0.0034337263
44	0x3baaafeb	0.0052089593
45	0x3c0de7e7	0.008661247
46	0xbb122aac	-0.0022303266
47	0x3b599049	0.0033197573
48	0xba4dde22	-0.000785323
49	0x3bc2745f	0.0059342827
50	0xbbb3300b	-0.0054683737
51	0xbc0cd41c	-0.008595493
52	0xbbaf7c3c	-0.005355386
53	0x3992f3e2	0.00028028997
54	0x3cac722e	0.021050539
55	0xbbe52333	-0.0069927215
56	0xbac30143	-0.0014877695
57	0x3b3e301e	0.002902038
58	0xbc16ee58	-0.009212099
59	0xbac699dc	-0.0015152055
60	0xbb9dc397	-0.004814576
61	0x3c04be49	0.008102008
62	0xbbfe6c9d	-0.0077644126
63	0x3bd2784c	0.006423032
64	0xbc9f5d0b	-0.019453546
65	0xbb320226	-0.0027161925
66	0xbc1176cf	-0.008878424
67	0x3c7880b4	0.015167404
68	0xba524e40	-0.00080225244
69	0xbc06793d	-0.008207616
70	0xbc7f9813	-0.015600222
71	0x3a92baf0	0.0011194628
72	0x3c318d2a	0.010836879
73	0x3bd51697	0.006502937
74	0x3cc3aff5	0.023887614
75	0x3c41f4a8	0.011838116
76	0xbc05368e	-0.008130683
77	0x3c3037e6	0.010755515
78	0xba767534	-0.000940162
79	0xbc1e77e5	-0.00967214
80	0xbc89f654	-0.016841091
81	0x3c40413f	0.011734306
82	0xbb91e2a2	-0.0044520656
83	0x3be5cbc5	0.0070128166
84	0xbc201067	-0.009769536
85	0xbbc48306	-0.0059970645
86	0xbb14db0a	-0.0022713565
87	0xbc23a58d	-0.009988201
88	0xbc0a2753	-0.008432227
89	0xbbfd8faf	-0.0077380757
90	0x3cb682a4	0.022279091
91	0x3c4aad20	0.012370378
92	0xbb74b643	-0.0037340082
93	0xbb5b52c0	-0.003346607
94	0xbc857fdb	-0.016296318
95	0x3b838981	0.0040141945
96	0x38c8470c	9.549977e-05
97	0xbc3dd825	-0.011587177
98	0xb9af5f45	-0.00033449582
99	0xbc708a3d	-0.014681396
100	0x3ae21c52	0.0017250872
101	0xbc11614d	-0.008873296
102	0xbc6865a0	-0.014184386
103	0x3c8c02e6	0.017091226
104	0x3bd36554	0.0064512882
105	0xbb8a0ae4	-0.004212724
106	0xbbf1f88c	-0.0073843654
107	0xbbcadd4e	-0.0061909324
108	0x3c2bd0fb	0.010486837
109	0x3bd6e50c	0.0065580662
110	0x3c5d0e11	0.013492123
111	0x3c73d07f	0.014881252
112	0x3bd3612e	0.0064507937
113	0x3a4b2675	0.0007749566
114	0x3c032ff6	0.00800704
115	0x3b39cd60	0.0028351173
116	0xbc9820ed	-0.018570388
117	0xbc36af89	-0.011150249
118	0x3b7440d2	0.0037270081
119	0x3c3c0c9f	0.0114776185
120	0xbb3e7974	-0.002906409
121	0x3b8253f9	0.0039772955
122	0xbc05fc48	-0.008177824
123	0xb87fbcb0	-6.0972467e-05
124	0x3954feaf	0.00020312773
125	0xbb84b00b	-0.0040493063
126	0x3b4f37bc	0.0031618914
127	0xbc80eec3	-0.01573885

lstm.weight_ih_l0 f4 [256, 128]
0	0x3d549091	0.05189568
1	0xbbbfa722	-0.005848781
2	0x3d8c1ad3	0.06841054
3	0xbd8a1673	-0.06742563
4	0xbc175f1d	-0.009238985
5	0x3d8d100b	0.068878256
6	0xbdcaeb16	-0.0990812
7	0xbd1cdf0e	-0.03829866
8	0xbd84c5a2	-0.06483008
9	0xbd9bd075	-0.076081194
10	0xbd86a666	-0.06574707
11	0x3dfae327	0.12250357
12	0x3d14df27	0.036345627
13	0x3db1d3fb	0.0868301
14	0xbd845986	-0.06462388
15	0xbd58519c	-0.052812204
16	0xbdfa5752	-0.12223686
17	0xbc2fea89	-0.01073707
18	0xbdec2a22	-0.11531474
19	0x3d85b38a	0.06528385
20	0xbd48ce03	-0.049024593
21	0x3d8414d6	0.06449287
22	0x3daac35b	0.08338042
23	0x3dd1f0b5	0.10250989
24	0xbc5cc513	-0.0134747205
25	0xbd2df8d2	-0.04247362
26	0xbdd2a80b	-0.10285958
27	0x3e01669a	0.12636796
28	0xbdb63a92	-0.0889789
29	0x3d8a55c3	0.06754639
30	0x3da5c5f7	0.080943994
31	0x3cfa0ab0	0.030522674
32	0x3db84631	0.08997763
33	0x3cbf9170	0.02338478
34	0x3df02b0d	0.11726961
35	0xbdd9370e	-0.10606204
36	0xbdb0102f	-0.08596837
37	0x3d9b572b	0.07584985
38	0xbda474d0	-0.08030093
39	0xbce813c0	-0.02832973
40	0xbdc7ee45	-0.09762243
41	0xbd5244f7	-0.0513353
42	0x3d976727	0.073927216
43	0xbccf750b	-0.025324365
44	0x3dd4d97f	0.103930466
45	0xb9c744e7	-0.00038007574
46	0x3db26f41	0.08712626
47	0xbde244e8	-0.11048299
48	0x3d0614d6	0.032734714
49	0xbda03e9d	-0.078244425
50	0x3d4ca7ac	0.04996459
51	0x3c5a1b3f	0.01331216
52	0x3d8f6b9b	0.07002946
53	0xbd48f6ae	-0.049063377
54	0xbdbff91c	-0.09373686
55	0x3cd11ee3	0.025527423
56	0xbd882091	-0.066468365
57	0xbc622569	-0.013802865
58	0xbd817e52	-0.06322922
59	0x3de7e60e	0.11323176
60	0x3db029f0	0.08601749
61	0x3da93fd3	0.08264127
62	0x3daa00dc	0.08300945
63	0xbc27bcd8	-0.010237895
64	0xbc97b33d	-0.018518085
65	0xbdc4ccb6	-0.09609358
66	0xbd834bbb	-0.06410929
67	0x3dc419c9	0.09575231
68	0xbd05f11a	-0.032700635
69	0x3da1fa96	0.079091236
70	0x3da64628	0.0811885
71	0xbde1049f	-0.109872095
72	0x3d0fb0aa	0.03508059
73	0xbdffbc56	-0.12487094
74	0x3d1cbdbf	0.038266893
75	0xbdae5d0b	-0.0851384
76	0xbcdf4898	-0.027256295
77	0xbda52e8c	-0.08065519
78	0xbdf1a9a9	-0.11799938
79	0x3dd94e11	0.10610593
80	0xbd82a74e	-0.06379567
81	0x3df6b490	0.12046158
82	0xbdee67ce	-0.11640893
83	0xbdcf5da4	-0.101252824
84	0x3b156a03	0.0022798784
85	0xbd76a9af	-0.060220417
86	0xbd98701a	-0.07443257
87	0x3d5bae4a	0.053633012
88	0xbdcfd3dc	-0.10147831
89	0x3d4546bb	0.048163157
90	0x3d1bf32a	0.038073696
91	0xbd75a3fe	-0.05997085
92	0x3cd15a80	0.02555585
93	0xbd8f5a43	-0.06999638
94	0x3da5cff4	0.080963045
95	0x3d8937d9	0.06700105
96	0xbc378c30	-0.011202857
97	0x3dde75dd	0.108623244
98	0xbd9e044a	-0.07715662
99	0xbc1972d4	-0.009365756
100	0xbda3f90e	-0.08006488
101	0xbd478026	-0.048706196
102	0x3ca023f5	0.019548396
103	0x3dfcd60b	0.12345513
104	0xbd7a9982	-0.061181553
105	0xbde09257	-0.10965412
106	0xbdf6f4e2	-0.120584264
107	0x3d3c9e17	0.046049204
108	0xbce7b60c	-0.028285049
109	0xbba1d277	-0.0049384194
110	0x3d96554d	0.073404886
111	0x3d7890ec	0.060685083
112	0xbdec3230	-0.1153301
113	0x3d087f94	0.033324793
114	0x3d9c9a4a	0.07646616
115	0x3d65b6d0	0.056082547
116	0xbde1fa42	-0.11034061
117	0xbce5721c	-0.028008513
118	0x3db5445a	0.08850928
119	0x3dbc5232	0.09195365
120	0xbcddcbbc	-0.027074687
121	0x3d8d8225	0.06909589
122	0xbd51045f	-0.05102956
123	0x3d2d21fa	0.04226873
124	0x3caa185c	0.020763569
125	0x3d7bea08	0.061502486
126	0x3d51e097	0.051239576
127	0x3bc3f474	0.005980069
128	0x3d4f7e03	0.050657284
129	0xbc9a3f1d	-0.018828923
130	0x3d81d131	0.06338728
131	0xbdaa8cbf	-0.083276264
132	0xbdb5a804	-0.08869937
133	0x3db1cdad	0.08681808
134	0xbd3f88dc	-0.04676138
135	0x3dacfc64	0.08446577
136	0x3d82f583	0.06394484
137	0x3cbaa10e	0.022781875
138	0x3cb704b3	0.022341108
139	0xbd830430	-0.06397283
140	0x3dcdc92a	0.100481346
141	0xbd9b3075	-0.07577602
142	0x3c6c1574	0.014409412
143	0xbd2346ac	-0.03986232
144	0x3dc03f87	0.09387117
145	0x3ddeca3d	0.10878418
146	0xbd349298	-0.044085115
147	0x3da73640	0.08164644
148	0xbd516b4c	-0.051127717
149	0xbd5af790	-0.05345875
150	0x3da63eea	0.08117469
151	0xbdae7519	-0.08518428
152	0x3d587cb7	0.052853312
153	0xbc255265	-0.010090445
154	0xbcb3e5d3	-0.021960175
155	0x3dce6a83	0.10078909
156	0xbd3dc68a	-0.04633192
157	0xbd968b9c	-0.07350847
158	0xbd66b3fd	-0.056323994
159	0x3dfe6da2	0.124232545
160	0xbdec47fc	-0.115371674
161	0x3a30e95e	0.00067486416
162	0xba139ac9	-0.000563067
163	0x3d157e97	0.03649768
164	0x3c5fdae9	0.013663032
165	0xbdf206a7	-0.11817675
166	0xbded1ee9	-0.11578161
167	0xbdbfcc04	-0.09365085
168	0x3bac17fe	0.0052518835
169	0xbd81406d	-0.06311116
170	0xbc687452	-0.014187889
171	0xbc21e4a6	-0.009881174
172	0x3dfc3bfd	0.12316129
173	0xbd5e880f	-0.054328974
174	0xbbb8d6b5	-0.0056408294
175	0x3de5e3e4	0.11225107
176	0xbd884a1f	-0.066547625
177	0x3dbbd695	0.09171788
178	0x3d415f95	0.047210295
179	0xbd3ad94e	-0.045617394
180	0xbdbb0731	-0.09132231
181	0x3c6c4ecb	0.014423083
182	0x3d7cfb56	0.06176313
183	0xbc27218e	-0.010200871
184	0xbdbea673	-0.093090914
185	0x3dba458f	0.090952985
186	0x3e0239c6	0.12717351
187	0x3d45b90a	0.04827217
188	0x3dc80a56	0.097675964
189	0x3c9cc9bf	0.019139169
190	0x3d22d5b9	0.039754603
191	0x3cc1349f	0.023584662
192	0x3dd2aec3	0.102872394
193	0x3d3a53aa	0.045489945
194	0x3d873ea9	0.06603748
195	0xbc439201	-0.0119366655
196	0xbda7cbd4	-0.08193174
197	0xbdd61c47	-0.10454612
198	0xbdc3f693	-0.09568515
199	0x3dac5730	0.08415067
200	0x3da97051	0.08273376
201	0xbde939a5	-0.11387948
202	0x3ccb10b8	0.024788246
203	0xbd3655fe	-0.044515602
204	0xbd8f9a53	-0.07011857
205	0x3de41478	0.111367166
206	0xbba33cf6	-0.0049816323
207	0xbdc01e9d	-0.09380839
208	0x3d3a4117	0.04547223
209	0xbd40dfe5	-0.047088522
210	0x3dee9b02	0.11650659
211	0xbd7457d8	-0.059654087
212	0xbbb0c236	-0.0053942455
213	0x3d9a6a5c	0.07539818
214	0xbd8db891	-0.06919969
215	0xbdd1024a	-0.10205515
216	0xbce22c3e	-0.027608987
217	0xba9f8137	-0.0012169246
218	0x3c7b8548	0.015351601
219	0xbce0a4cb	-0.02742233
220	0x3d8e41b8	0.069461286
221	0xbd88a67d	-0.0667238
222	0xbd26b5af	-0.04070061
223	0x3d85dcdb	0.065362655
224	0x3cf29962	0.029614154
225	0xbd5d90ee	-0.054093294
226	0x3ddb6aec	0.10713753
227	0x3dc77a23	0.097400926
228	0xbdd029f9	-0.10164256
229	0x3d9900b5	0.07470838
230	0xbd96e64c	-0.073681444
231	0xbdad2c63	-0.08455732
232	0x3dd28acb	0.10280379
233	0xbde59390	-0.11209786
234	0xbb659da7	-0.0035036595
235	0x3db9c011	0.09069837
236	0x3c91dc91	0.01780537
237	0x3d301526	0.04298892
238	0xbd5e650c	-0.054295585
239	0x3d0c239d	0.03421365
240	0x3d52e826	0.051490925
241	0x3c77b193	0.015118021
242	0x3cd41dae	0.025893059
243	0xbdcfa90e	-0.101396665
244	0x3cc81b40	0.024427056
245	0x3dbf23e2	0.09333016
246	0xbd552b37	-0.052043166
247	0xbd3e5fe8	-0.046478182
248	0xbd07ac98	-0.033123583
249	0xbdadff0b	-0.08495911
250	0xbd918246	-0.07104926
251	0x3cb05535	0.021525005
252	0xbd2d40e6	-0.04229822
253	0xbdba2d7f	-0.09090709
254	0xbdb468d3	-0.08809056
255	0xbcac394b	-0.021023413

lstm.weight_hh_l0 f4 [256, 64]
0	0xbc987c12	-0.018613849
1	0x3d108392	0.035281725
2	0xbe08e129	-0.13367142
3	0xbd7e13f0	-0.062030733
4	0x3de1dcdf	0.11028456
5	0xbc803a8e	-0.015652921
6	0x3d86fc51	0.06591094
7	0xbc5a3e6e	-0.013320548
8	0xbd936251	-0.07196487
9	0x3cf4e8b9	0.029896127
10	0xbd2cbb45	-0.04217078
11	0x3db1be1a	0.08678837
12	0xbdba0f57	-0.09084957
13	0xbdd1ccc2	-0.102441326
14	0xbc20576e	-0.00978647
15	0xbe11551d	-0.14192624
16	0x3df79e5d	0.12090752
17	0x3e06f248	0.1317836
18	0xbdb98a4c	-0.09059581
19	0x3cd1e43a	0.025621522
20	0x3d3984f8	0.045292825
21	0xbd5c5727	-0.053794052
22	0xbd3a9f5f	-0.045562144
23	0xbd8ab303	-0.06772425
24	0xbdc200ff	-0.09472846
25	0x3d8c3e56	0.06847827
26	0x3ccd810e	0.025085952
27	0xbbae14f1	-0.005312555
28	0x3dbd3dda	0.09240313
29	0xbc741934	-0.014898587
30	0x3cf1da8d	0.029523158
31	0x3d4e8ede	0.050429218
32	0x3d8c4605	0.06849293
33	0x3df0ba4e	0.11754285
34	0x3d90500f	0.0704652
35	0xbd1524be	-0.036411993
36	0x3b9eca2d	0.0048458786
37	0xbb8f3131	-0.0043698777
38	0xbcb2666f	-0.02177736
39	0xbd191b2e	-0.037379436
40	0xbaeef7a6	-0.0018231764
41	0xbdd3c745	-0.10340742
42	0xbd93bdfa	-0.072139695
43	0x3dcdce04	0.1004906
44	0x3ce460c8	0.02787818
45	0xbd93e2a2	-0.07220961
46	0xbb44e9b8	-0.0030046534
47	0xbdc0dadd	-0.09416745
48	0xbdcc322c	-0.09970507
49	0xbdf52a9d	-0.119710185
50	0xbb98e794	-0.004666278
51	0x3dd0db2d	0.101980545
52	0x3c846d87	0.016165508
53	0x3db0e39a	0.086371616
54	0x3d895c86	0.067071006
55	0x3b7d19fa	0.003862022
56	0x3db8886c	0.090103954
57	0xbda53c30	-0.080681205
58	0x3dcf20cd	0.10113678
59	0xbb63199b	-0.0034652713
60	0x3cd91700	0.026500225
61	0xbd32f7ca	-0.04369334
62	0xbdcc0f95	-0.099639095
63	0xbd4d0c9f	-0.050060865
64	0xbd134f51	-0.035964314
65	0xbdb1e385	-0.08685974
66	0xbdc210d0	-0.09475863
67	0xbdf53ef4	-0.11974898
68	0x3dd756fe	0.10514639
69	0x3d97bb39	0.07408757
70	0xbdd33860	-0.10313487
71	0xbc80a121	-0.015701832
72	0x3e0353c5	0.12824924
73	0x3dad5710	0.084638715
74	0x3e01c5f2	0.12673166
75	0xbe097e5a	-0.13427106
76	0x3db9db08	0.0907498
77	0xb7c7c890	-2.3816043e-05
78	0xba09314b	-0.00052334805
79	0x3d41a6a4	0.04727806
80	0x3d98dc3c	0.074638814
81	0x3dcc3650	0.09971297
82	0xbd83db63	-0.06438329
83	0x3ca3c637	0.019991977
84	0x3ca8da90	0.020612031
85	0x3dc40003	0.09570315
86	0x3a7e5c76	0.0009703109
87	0x3c566c50	0.013087347
88	0x3d27207d	0.040802468
89	0xbdafb6d2	-0.08579792
90	0xbe047549	-0.12935366
91	0xbb3bc93f	-0.0028653888
92	0x3c889c58	0.016676113
93	0xbe06cdf4	-0.13164502
94	0xbd2e14e3	-0.042500388
95	0xbd754b27	-0.059886124
96	0x3d14e8d4	0.036354855
97	0xbd1ae713	-0.037818026
98	0xbd2eff33	-0.042723846
99	0xbdc8c1ed	-0.098026134
100	0x3a913eca	0.0011081335
101	0xbdcc1406	-0.09964757
102	0xbd32a535	-0.043614585
103	0xbb9863a1	-0.0046505486
104	0xbd686133	-0.05673332
105	0x3da422d6	0.08014457
106	0x3d8c4cf0	0.06850612
107	0x3db1bf23	0.086790346
108	0x3d9ca3cf	0.076484315
109	0x3d8a3ab3	0.06749477
110	0xbd1b5ade	-0.037928455
111	0xbdcc1d60	-0.0996654
112	0xbc7f6749	-0.01558859
113	0x3ddfcc73	0.109276675
114	0x3dbc0c84	0.09182075
115	0xbda37938	-0.07982105
116	0xbd1bad65	-0.03800716
117	0x3d2bc4a6	0.041935585
118	0x3c7a313e	0.015270529
119	0x3d13e259	0.036104534
120	0x3d5e3c3a	0.054256655
121	0x3dd930f7	0.106050424
122	0xbd64c39f	-0.05585062
123	0xbc1b30b5	-0.009472062
124	0x3dc65b1a	0.09685345
125	0xbdcbab59	-0.09944791
126	0xbdaee223	-0.08539226
127	0x3daaf779	0.08347983
128	0x3ddd075b	0.107924186
129	0xbc1713f7	-0.009221069
130	0xbd65d51f	-0.05611145
131	0xbdaa6a22	-0.083210245
132	0xbdccc68a	-0.09998806
133	0xbd034eb6	-0.032057486
134	0xbda4ed02	-0.08053018
135	0xbd1cda05	-0.038293857
136	0xbd35a203	-0.04434396
137	0x3de9ae8b	0.114102446
138	0x3df17a00	0.11790848
139	0xbc58dc31	-0.0132360915
140	0x3d29755c	0.04137169
141	0xbc91a49f	-0.017778693
142	0x3bdf1404	0.006807806
143	0xbd5ce448	-0.053928643
144	0xbd61bc0d	-0.05511098
145	0x3d30029e	0.042971246
146	0x3dd226a4	0.10261276
147	0x3ce39849	0.027782576
148	0xbdb6110d	-0.08889971
149	0x3e0d86c2	0.13820937
150	0xbcc0fa32	-0.023556802
151	0x3b29d780	0.0025915802
152	0xbd0e562b	-0.034750145
153	0x3d509602	0.05092431
154	0xbdac7ec0	-0.08422613
155	0x3d1f969e	0.038962
156	0x3d53b7fc	0.051689133
157	0x3d89df9e	0.06732105
158	0x3dbf1053	0.093292855
159	0x3db89b25	0.090139665
160	0xbdb80e02	-0.08987047
161	0x3d2b49d8	0.04181847
162	0x3d723d80	0.059140682
163	0xbd847c03	-0.06468966
164	0xbc810659	-0.015750097
165	0xbd459aaa	-0.048243202
166	0xbe023c9a	-0.1271843
167	0xbdc6df06	-0.09710507
168	0x3c954673	0.01822207
169	0x3da2f5b3	0.0795702
170	0x3d2f7095	0.042831976
171	0x3d84e428	0.0648883
172	0xbe06c6b1	-0.13161732
173	0x3b36d043	0.002789513
174	0xbceb48c2	-0.028721217
175	0xbd95ccb4	-0.07314435
176	0x3d193ff0	0.03741449
177	0xbdb9bb42	-0.0906892
178	0xbdc4e86d	-0.09614644
179	0xbd16f06f	-0.03685039
180	0x3dcc0041	0.09960986
181	0xbda5e612	-0.08100523
182	0xbd822b58	-0.063559234
183	0xbdcc05c5	-0.09962038
184	0xbde7e983	-0.11323836
185	0xbe132361	-0.14368965
186	0x3cb72979	0.022358643
187	0xbcb7dab8	-0.02244316
188	0x3d809a0d	0.06279383
189	0xbdbfeb8c	-0.09371099
190	0x3d9df83a	0.07713361
191	0x3e0f0de9	0.1397015
192	0xbd6f23f0	-0.058383882
193	0xbd694039	-0.056946013
194	0xbc19270e	-0.00934769
195	0xbddd52b6	-0.108067915
196	0xbdee0196	-0.11621396
197	0xbd960d68	-0.07326776
198	0xbcab8265	-0.0209362
199	0x3cfc617e	0.030808207
200	0x3d662edc	0.056197032
201	0xbbabba21	-0.005240694
202	0x3d6525ac	0.05594413
203	0x3dde56b7	0.10856383
204	0xbd028449	-0.03186444
205	0xbdc6dbb6	-0.09709875
206	0xbde830f3	-0.11337461
207	0x3cfef57c	0.031122915
208	0x3d819180	0.0632658
209	0xbd8630d8	-0.06552285
210	0x3dcd141a	0.100136
211	0x3ded6210	0.115909696
212	0x3c6b6de5	0.014369463
213	0xbde6dc02	-0.11272432
214	0x3d925a7f	0.07146167
215	0x3de2b5c8	0.11069828
216	0xbd20c73f	-0.039252516
217	0xbe008b43	-0.12553124
218	0xbb9066e9	-0.004406799
219	0xbdf82a30	-0.121174216
220	0xbcc8eb38	-0.024526224
221	0x3af514ad	0.0018698178
222	0xbce53099	-0.027977275
223	0x3d61d59f	0.055135366
224	0x3a480a92	0.00076309696
225	0x39fef422	0.00048628548
226	0xbbdbeb21	-0.006711379
227	0x3cd0640e	0.025438335
228	0xbb87e504	-0.004147174
229	0xbd645cb2	-0.055752464
230	0xbd741968	-0.05959454
231	0xbd6e8b26	-0.05823817
232	0xbc7fc026	-0.015609777
233	0x3dacf9e1	0.08446098
234	0xbd2ddf13	-0.04244907
235	0xbca02efd	-0.019553656
236	0x3b82f440	0.003996402
237	0xbcd112ee	-0.025521722
238	0xbdda0e47	-0.106472544
239	0xbd532a27	-0.05155387
240	0x3c8aa368	0.016923621
241	0x3d84f84f	0.064926736
242	0xbdb24e28	-0.08706313
243	0xbd479bdd	-0.048732627
244	0xbdc26f45	-0.09493879
245	0x3d51a68e	0.05118423
246	0xbbccdc78	-0.006251868
247	0x3d5fbea9	0.054625187
248	0x3d990c27	0.07473021
249	0xbd0e2c5e	-0.03471028
250	0xbcf9932a	-0.030465681
251	0xbd01117e	-0.031510822
252	0xbd899c86	-0.067193076
253	0xbd1d308f	-0.038376387
254	0x3df070c6	0.1174026
255	0xbd2b61d2	-0.041841336

lstm.bias_ih_l0 f4 [256]
0	0xbbccb1b0	-0.006246768
1	0xbb8af0cd	-0.0042401315
2	0x3c913d70	0.017729491
3	0xbc11023b	-0.008850629
4	0xbbeaab02	-0.007161499
5	0x39e11111	0.0004292806
6	0xbb060e61	-0.0020455348
7	0x3b4e9189	0.0031519851
8	0x3b73252d	0.0037101016
9	0xbbd6e3ba	-0.006557909
10	0x3c9bcffe	0.019020077
11	0x3c62cdce	0.013843013
12	0x39506ba4	0.00019876525
13	0xbbeedd4e	-0.007289565
14	0xbc59874b	-0.013276885
15	0x3b1508d6	0.0022740862
16	0x3abba8d3	0.0014317281
17	0x39b5faa8	0.00034709764
18	0xbb253aa2	-0.002521195
19	0x3c16f2e6	0.009213185
20	0x3a8b1856	0.0010612111
21	0x3c3bdfc3	0.011466923
22	0x3c527b86	0.012846833
23	0x3c668652	0.01407011
24	0x399f92cb	0.00030436213
25	0x3ad8a307	0.0016528078
26	0x3c7a0cb9	0.015261822
27	0xbbf6c754	-0.007531086
28	0xbbc382ba	-0.0059665116
29	0x3b886acc	0.004163122
30	0x3b61518c	0.003438088
31	0xbc0048e6	-0.00782988
32	0x3bb53542	0.0055300305
33	0xbac85692	-0.0015284589
34	0xbc8e3e3b	-0.017363658
35	0xbb81d08b	-0.003961628
36	0xbaf29110	-0.0018506367
37	0xbab783bd	-0.0014001053
38	0xbbbbf578	-0.0057360493
39	0x3bc0c2c4	0.005882593
40	0xbc277d39	-0.0102227265
41	0x3c362ae9	0.011118629
42	0xbb08c2e4	-0.0020868117
43	0x3ad8c5de	0.0016538461
44	0x3c756d05	0.014979606
45	0xbba5f0c0	-0.0050641
46	0xbc3d9edd	-0.0115735205
47	0xb973b2a8	-0.0002324084
48	0xbb1b8f25	-0.0023736444
49	0xbb4534cb	-0.0030091282
50	0x3be2aa0b	0.0069172434
51	0xbabf8c28	-0.0014613913
52	0x3bc7efe8	0.006101597
53	0xb79b5710	-1.8517982e-05
54	0xbba3ad5a	-0.0049950304
55	0x3c1caf7c	0.009563323
56	0x3b699178	0.0035639685
57	0x3b057990	0.0020366646
58	0xbba08197	-0.004898261
59	0xbb43569c	-0.0029806262
60	0xbbe930fa	-0.007116434
61	0xbc695721	-0.014241965
62	0xbbcf6c47	-0.0063300463
63	0xbc591b2c	-0.013251107
64	0xbc5ad2b7	-0.013355902
65	0xbb479b43	-0.0030457533
66	0x3cbcdd60	0.023054779
67	0xbba3604a	-0.004985844
68	0xbb6ea62e	-0.0036414969
69	0x3b55f412	0.0032646698
70	0x3b74d2e5	0.0037357148
71	0x3c237dd6	0.009978732
72	0x3b29b77e	0.0025896723
73	0xbc3f827c	-0.011688825
74	0x3c77e261	0.0151296565
75	0x3be3f470	0.0069566295
76	0xbbd9467e	-0.006630718
77	0x39f54bca	0.0004678651
78	0xbc59657c	-0.013268825
79	0x3aa8e155	0.0012884537
80	0x3bb71894	0.0055876467
81	0x3b633b29	0.0034672713
82	0x3b95e14b	0.004573976
83	0x3c40e62b	0.011773626
84	0x3aff6d57	0.0019487542
85	0x3c8643f3	0.016389823
86	0x3acf315f	0.001580756
87	0x3c2e414a	0.010635683
88	0x3994c1ee	0.0002837325
89	0xbba1ff37	-0.004943754
90	0x3c326cfb	0.010890241
91	0xbb9a716d	-0.0047132284
92	0xbc1f3af6	-0.009718647
93	0x3b9575d7	0.0045611667
94	0x398fe8f4	0.0002744865
95	0xbbbbaca9	-0.00572737
96	0x3bac527d	0.005258857
97	0x3ac23c7e	0.0014819053
98	0xbc9296bc	-0.017894141
99	0xbc18dfda	-0.009330714
100	0xbac5f7a0	-0.0015103705
101	0x3c720496	0.014771601
102	0xbbc00ac6	-0.0058606593
103	0x3ba9ca63	0.005181597
104	0xbc876a07	-0.01653005
105	0x3bf49d2d	0.007465026
106	0xbb96913e	-0.004594951
107	0x3bba1841	0.005679161
108	0x3cd5c225	0.026093552
109	0xbc1542bc	-0.009110149
110	0xbc36db5f	-0.011160701
111	0x3b2e90d7	0.0026636624
112	0xb93e39b6	-0.00018141311
113	0xbaad7dee	-0.0013236383
114	0x3cc174e9	0.023615317
115	0xbabe8775	-0.0014536219
116	0x3bb6a556	0.005573909
117	0x3b30f698	0.002700245
118	0xbbd22137	-0.006412651
119	0x3c9b7cd3	0.01898042
120	0xb9f04bcc	-0.0004583284
121	0xba810210	-0.0009842534
122	0xbb341b66	-0.002748215
123	0xbb4301e1	-0.0029755759
124	0xbad2cd54	-0.0016082921
125	0xbbf71830	-0.007540725
126	0xbc2fac10	-0.010722175
127	0xbc18e7a3	-0.00933257
128	0xbb131cf2	-0.0022447673
129	0xbbccecfb	-0.006253836
130	0xbc8a3e11	-0.016875299
131	0xba584541	-0.0008250066
132	0xba819f2d	-0.0009889357
133	0xbb55d752	-0.0032629562
134	0xb9077c38	-0.00012920878
135	0x3c0d0e2c	0.008609336
136	0x3b081d22	0.0020769318
137	0x3b6e0c22	0.003632315
138	0xbba14418	-0.0049214475
139	0x3c61bc42	0.013777794
140	0xbb2f467c	-0.0026744893
141	0xbbe30113	-0.0069276183
142	0x3b84fc11	0.004058369
143	0xbba51713	-0.005038151
144	0xbb980c96	-0.0046401722
145	0x3abed2a1	0.0014558622
146	0xbb654553	-0.0034983947
147	0xbb0ae09d	-0.002119101
148	0xba434364	-0.00074487017
149	0xbbb6132a	-0.0055564838
150	0x3b129fc4	0.002237306
151	0xbbdfb6ab	-0.0068271956
152	0x3ae715d8	0.0017630411
153	0xbb853330	-0.00406494
154	0x3bd16321	0.006389991
155	0x3a487208	0.00076463865
156	0x3a6adf93	0.0008959707
157	0x3c0642b7	0.008194617
158	0x3ac8ad4c	0.0015310436
159	0xb8b3f498	-8.580944e-05
160	0xbb82acd7	-0.0039878893
161	0x3c0ea48c	0.008706223
162	0x3c0da56a	0.008645395
163	0xbb8d2e3c	-0.00430849
164	0xbc11ba65	-0.008894538
165	0xbc1501f3	-0.009094703
166	0x3b87b959	0.004141968
167	0xbb996483	-0.0046811714
168	0x3c1a4e23	0.009418043
169	0x3bd028be	0.006352513
170	0xbbc80107	-0.006103638
171	0x3a80ea83	0.0009835515
172	0xbb8495ec	-0.0040461924
173	0x3af589dd	0.0018733103
174	0x3bbad027	0.005701083
175	0xbbb0dff3	-0.0053977906
176	0xbae061fe	-0.0017119048
177	0xbbc5c47d	-0.006035386
178	0xbb2f4efd	-0.0026749962
179	0x3b5effd0	0.0034026988
180	0xbb868fe4	-0.0041065086
181	0x3aec3a12	0.0018022677
182	0xbc44f22a	-0.012020627
183	0x3b513894	0.0031924592
184	0xbc0f12e7	-0.008732534
185	0xb9a747a8	-0.0003190611
186	0xbb44a345	-0.0030004543
187	0xbbd857a5	-0.006602245
188	0xbb9d8ad1	-0.004807808
189	0xbbcee88c	-0.006314343
190	0x3c05e23a	0.008171612
191	0x3c1351e9	0.008991697
192	0xbc0de798	-0.008661173
193	0x3afa6386	0.0019103147
194	0x3c3a894b	0.011385272
195	0xbc21c815	-0.009874363
196	0xbc0cd906	-0.008596664
197	0x3ae028ea	0.0017102037
198	0x3aa0cd48	0.001226821
199	0x3baec9ed	0.00533413
200	0xba49ec3a	-0.0007702742
201	0xbb611923	-0.0034347258
202	0x3c766d6e	0.0150407385
203	0x3c585e68	0.013206102
204	0x3b6164d9	0.0034392385
205	0xbc06f710	-0.008237615
206	0xbc528bca	-0.012850711
207	0x3c37f5ac	0.011228006
208	0xbb874ba8	-0.004128892
209	0xba0134cd	-0.00049288274
210	0x3bd82bff	0.0065970416
211	0x3bceacf0	0.006307237
212	0x3a73a5c4	0.00092944154
213	0x3c01ffdc	0.007934537
214	0x3c32141d	0.010869053
215	0x3c4080ec	0.011749487
216	0x3a0998bc	0.00052488944
217	0x3b9203f7	0.004456039
218	0x3c16c12f	0.009201332
219	0xbb297e43	-0.0025862611
220	0xbbbed7aa	-0.005824049
221	0x3adb078f	0.0016710627
222	0xbb3499f4	-0.0027557584
223	0xbc08cdd0	-0.008349851
224	0x3b02dc82	0.0019967859
225	0x3b5d4ecb	0.0033768888
226	0xbc8eff4d	-0.017455721
227	0xbba2bce4	-0.004966365
228	0xbb2ae20c	-0.0026074676
229	0x3a51d43e	0.0008004344
230	0xbc8b633c	-0.017015092
231	0x3a3a8015	0.00071144226
232	0xbc0e5d25	-0.0086892
233	0x3c40c92d	0.011766714
234	0x3946dcfa	0.00018965072
235	0x3b2a9b62	0.0026032557
236	0x3caf9d8d	0.02143743
237	0xbba13a8f	-0.004920311
238	0xbc2d9def	-0.010596736
239	0xbbb8d3ee	-0.0056404984
240	0x3b1bb320	0.002375789
241	0xba3f2272	-0.00072912045
242	0x3c951afa	0.01820134
243	0xb8472589	-4.7480255e-05
244	0x3b959b99	0.004565668
245	0x3b75b1a9	0.0037489927
246	0xbbc2ed7a	-0.0059487196
247	0x3c5df5dc	0.013547387
248	0x3a8010de	0.0009770652
249	0x3b92097b	0.0044566966
250	0xbaa9696a	-0.0012925093
251	0xbb372c16	-0.0027949861
252	0xbacce30a	-0.0015631628
253	0xbc6f2793	-0.014596838
254	0xbc41922d	-0.011814636
255	0xbc2430d0	-0.010021403

lstm.bias_hh_l0 f4 [256]
0	0xbbccb1ae	-0.006246767
1	0xbb8af0cb	-0.0042401305
2	0x3c913d70	0.017729491
3	0xbc110238	-0.008850627
4	0xbbeaab03	-0.0071614995
5	0x39e110e4	0.0004292793
6	0xbb060e5c	-0.0020455336
7	0x3b4e9180	0.003151983
8	0x3b73252d	0.0037101016
9	0xbbd6e3b8	-0.006557908
10	0x3c9bcffe	0.019020077
11	0x3c62cdcc	0.013843011
12	0x39506c5a	0.0001987679
13	0xbbeedd48	-0.0072895624
14	0xbc59874e	-0.013276888
15	0x3b1508d0	0.0022740848
16	0x3abba8cb	0.0014317272
17	0x39b5fa9e	0.00034709735
18	0xbb253aa9	-0.0025211966
19	0x3c16f2e4	0.009213183
20	0x3a8b1856	0.0010612111
21	0x3c3bdfc4	0.011466924
22	0x3c527b89	0.012846836
23	0x3c668652	0.01407011
24	0x399f92ed	0.00030436311
25	0x3ad8a2ee	0.0016528049
26	0x3c7a0cbb	0.015261824
27	0xbbf6c756	-0.007531087
28	0xbbc382b8	-0.0059665106
29	0x3b886acf	0.004163123
30	0x3b61517c	0.0034380844
31	0xbc0048e5	-0.007829879
32	0x3bb53545	0.005530032
33	0xbac856a5	-0.0015284611
34	0xbc8e3e3b	-0.017363658
35	0xbb81d08b	-0.003961628
36	0xbaf2911b	-0.001850638
37	0xbab783cc	-0.001400107
38	0xbbbbf57e	-0.005736052
39	0x3bc0c2cf	0.005882598
40	0xbc277d39	-0.0102227265
41	0x3c362aeb	0.011118631
42	0xbb08c2eb	-0.0020868133
43	0x3ad8c5d6	0.0016538452
44	0x3c756d0e	0.014979614
45	0xbba5f0b9	-0.005064097
46	0xbc3d9ed9	-0.011573517
47	0xb973b152	-0.00023240343
48	0xbb1b8f2c	-0.002373646
49	0xbb4534cf	-0.003009129
50	0x3be2aa0f	0.006917245
51	0xbabf8c12	-0.0014613888
52	0x3bc7efe3	0.006101595
53	0xb79b5208	-1.8515639e-05
54	0xbba3ad64	-0.004995035
55	0x3c1caf7f	0.009563326
56	0x3b699169	0.003563965
57	0x3b057985	0.002036662
58	0xbba08195	-0.00489826
59	0xbb435693	-0.002980624
60	0xbbe930fc	-0.007116435
61	0xbc69571d	-0.014241961
62	0xbbcf6c4a	-0.0063300477
63	0xbc591b2c	-0.013251107
64	0xbc5ad2b6	-0.013355901
65	0xbb479b48	-0.0030457545
66	0x3cbcdd60	0.023054779
67	0xbba36044	-0.004985841
68	0xbb6ea625	-0.0036414948
69	0x3b55f411	0.0032646696
70	0x3b74d2ee	0.003735717
71	0x3c237dd5	0.009978731
72	0x3b29b77e	0.0025896723
73	0xbc3f8279	-0.011688822
74	0x3c77e261	0.0151296565
75	0x3be3f46b	0.006956627
76	0xbbd94680	-0.0066307187
77	0x39f54b87	0.00046786314
78	0xbc59657d	-0.013268826
79	0x3aa8e150	0.0012884531
80	0x3bb71893	0.0055876463
81	0x3b633b27	0.0034672709
82	0x3b95e149	0.004573975
83	0x3c40e62c	0.011773627
84	0x3aff6d65	0.0019487558
85	0x3c8643f1	0.016389819
86	0x3acf318b	0.0015807612
87	0x3c2e4147	0.0106356805
88	0x3994c1d3	0.0002837317
89	0xbba1ff34	-0.0049437527
90	0x3c326cf7	0.010890237
91	0xbb9a716e	-0.004713229
92	0xbc1f3af8	-0.009718649
93	0x3b9575d2	0.0045611644
94	0x398fe87e	0.00027448306
95	0xbbbbacab	-0.0057273707
96	0x3bac5277	0.005258854
97	0x3ac23c55	0.0014819006
98	0xbc9296bb	-0.01789414
99	0xbc18dfdd	-0.009330717
100	0xbac5f793	-0.001510369
101	0x3c720493	0.014771598
102	0xbbc00ac1	-0.005860657
103	0x3ba9ca63	0.005181597
104	0xbc876a0a	-0.016530056
105	0x3bf49d35	0.0074650296
106	0xbb969140	-0.004594952
107	0x3bba1844	0.005679162
108	0x3cd5c225	0.026093552
109	0xbc1542bb	-0.009110148
110	0xbc36db60	-0.0111607015
111	0x3b2e90d4	0.0026636617
112	0xb93e394f	-0.00018141161
113	0xbaad7e12	-0.0013236424
114	0x3cc174ea	0.02361532
115	0xbabe8789	-0.0014536242
116	0x3bb6a54d	0.0055739046
117	0x3b30f6a0	0.0027002469
118	0xbbd2213d	-0.0064126537
119	0x3c9b7cd3	0.01898042
120	0xb9f04be2	-0.00045832904
121	0xba8101fd	-0.0009842511
122	0xbb341b59	-0.002748212
123	0xbb4301d6	-0.0029755733
124	0xbad2cd60	-0.0016082935
125	0xbbf7182e	-0.0075407242
126	0xbc2fac10	-0.010722175
127	0xbc18e7a3	-0.00933257
128	0xbb131cfe	-0.00224477
129	0xbbccecfc	-0.0062538367
130	0xbc8a3e12	-0.0168753
131	0xba584543	-0.0008250067
132	0xba819f50	-0.0009889398
133	0xbb55d759	-0.0032629578
134	0xb9077b76	-0.00012920596
135	0x3c0d0e2c	0.008609336
136	0x3b081d25	0.0020769325
137	0x3b6e0c20	0.0036323145
138	0xbba14415	-0.004921446
139	0x3c61bc42	0.013777794
140	0xbb2f4671	-0.0026744867
141	0xbbe30113	-0.0069276183
142	0x3b84fc10	0.0040583685
143	0xbba51715	-0.005038152
144	0xbb980c91	-0.00464017
145	0x3abed295	0.0014558608
146	0xbb65455e	-0.0034983973
147	0xbb0ae092	-0.0021190983
148	0xba43437a	-0.00074487145
149	0xbbb61322	-0.00555648
150	0x3b129fc2	0.0022373055
151	0xbbdfb6ac	-0.006827196
152	0x3ae715df	0.001763042
153	0xbb85333b	-0.004064945
154	0x3bd1631a	0.0063899877
155	0x3a4871e2	0.00076463644
156	0x3a6adf7b	0.0008959693
157	0x3c0642b4	0.008194614
158	0x3ac8ad38	0.0015310412
159	0xb8b3f580	-8.581113e-05
160	0xbb82ace4	-0.0039878953
161	0x3c0ea48b	0.008706222
162	0x3c0da56c	0.008645397
163	0xbb8d2e3e	-0.004308491
164	0xbc11ba66	-0.0088945385
165	0xbc1501f4	-0.009094704
166	0x3b87b959	0.004141968
167	0xbb996483	-0.0046811714
168	0x3c1a4e23	0.009418043
169	0x3bd028be	0.006352513
170	0xbbc8010d	-0.006103641
171	0x3a80ea8a	0.0009835523
172	0xbb8495ea	-0.0040461915
173	0x3af589f0	0.0018733125
174	0x3bbad026	0.0057010828
175	0xbbb0dfeb	-0.005397787
176	0xbae061e2	-0.0017119015
177	0xbbc5c47d	-0.006035386
178	0xbb2f4f06	-0.0026749982
179	0x3b5effd9	0.0034027009
180	0xbb868feb	-0.004106512
181	0x3aec39f5	0.0018022644
182	0xbc44f22d	-0.01202063
183	0x3b51388b	0.0031924571
184	0xbc0f12e7	-0.008732534
185	0xb9a7474c	-0.00031905842
186	0xbb44a33b	-0.003000452
187	0xbbd8579a	-0.00660224
188	0xbb9d8acf	-0.004807807
189	0xbbcee88a	-0.006314342
190	0x3c05e236	0.008171609
191	0x3c1351eb	0.008991699
192	0xbc0de796	-0.008661171
193	0x3afa6372	0.0019103123
194	0x3c3a8948	0.011385269
195	0xbc21c814	-0.0098743625
196	0xbc0cd907	-0.008596665
197	0x3ae028e5	0.0017102031
198	0x3aa0cd3d	0.0012268197
199	0x3baec9fc	0.005334137
200	0xba49ec50	-0.0007702755
201	0xbb611919	-0.0034347235
202	0x3c766d6e	0.0150407385
203	0x3c585e67	0.013206101
204	0x3b6164e8	0.003439242
205	0xbc06f712	-0.008237617
206	0xbc528bcd	-0.012850714
207	0x3c37f5ac	0.011228006
208	0xbb874bac	-0.004128894
209	0xba01350a	-0.0004928863
210	0x3bd82bf6	0.0065970374
211	0x3bceaceb	0.0063072345
212	0x3a73a5a9	0.00092943996
213	0x3c01ffde	0.007934539
214	0x3c321422	0.010869058
215	0x3c4080ee	0.011749489
216	0x3a0998ac	0.0005248885
217	0x3b9203fc	0.0044560414
218	0x3c16c131	0.009201334
219	0xbb297e53	-0.0025862649
220	0xbbbed7a7	-0.0058240476
221	0x3adb0789	0.001671062
222	0xbb3499f7	-0.002755759
223	0xbc08cdd0	-0.008349851
224	0x3b02dc80	0.0019967854
225	0x3b5d4ec8	0.003376888
226	0xbc8eff4b	-0.017455718
227	0xbba2bce9	-0.0049663675
228	0xbb2ae20b	-0.0026074674
229	0x3a51d3ec	0.0008004296
230	0xbc8b633c	-0.017015092
231	0x3a3a8019	0.0007114425
232	0xbc0e5d27	-0.008689201
233	0x3c40c92e	0.011766715
234	0x3946dc83	0.00018964898
235	0x3b2a9b6c	0.002603258
236	0x3caf9d8b	0.021437427
237	0xbba13a8d	-0.00492031
238	0xbc2d9def	-0.010596736
239	0xbbb8d3e8	-0.0056404956
240	0x3b1bb327	0.0023757906
241	0xba3f22b8	-0.0007291245
242	0x3c951af7	0.018201334
243	0xb84728f5	-4.748344e-05
244	0x3b959b9d	0.0045656697
245	0x3b75b1b0	0.0037489943
246	0xbbc2ed7e	-0.0059487214
247	0x3c5df5d5	0.01354738
248	0x3a8010d9	0.0009770646
249	0x3b920979	0.0044566956
250	0xbaa96976	-0.0012925107
251	0xbb372bfa	-0.0027949796
252	0xbacce33a	-0.0015631684
253	0xbc6f2793	-0.014596838
254	0xbc41922d	-0.011814636
255	0xbc2430d2	-0.010021405
