models/wesad/baseline/model_wesad_baseline.pth (torch, 856605 bytes, 30 tensors)

input_proj.weight f4 [128, 14]
00000000: 466c ddbd 628c 50bd c545 313e aab0 0e3d
00000010: 8692 f4bd ab9d 653d 1a0b d2bd bd12 673d
00000020: 540e 25be 1caf bd3d bdd7 073e 37a9 0fbc
00000030: 6de0 bc3d f4ba 0abe 3e3d 423e 82df 233d
00000040: df5d ac3d a33c d2bd 451a 8ebd b292 483e
00000050: a1e8 4abe 9710 443e 4ea0 f2bb 8520 3a3e
00000060: d44a 16be 4359 103e 814b 0cbe 7796 0a3d
00000070: cefb fbbb c27f f23d 9088 15bd c3ac bdbb
00000080: 80ce 3fbe 516d 623c 740f 243e 999b 1fbe
00000090: f12c 01be db48 0bbd 8452 1d3e 7fe7 04be
000000a0: 0bae 3d3e aaa2 c53d 19c4 d3bd 588e 8a3c
000000b0: 9237 8dbc 3b27 bcbd 95c7 763c e1f5 0f3e
000000c0: 1008 14bd 30a2 c33c 17da 19bb 20a3 713d
000000d0: abd0 c53c 01b7 d43d 3220 133e bbc5 9b3d
000000e0: ec35 1d3e df16 033d 055c bcbc d9b3 26be
000000f0: daf9 aabd f6d9 b73d 6198 2c3c d3b2 313d
00000100: 1bcc a9bd 3610 dcbd 3a80 2a3d 12a6 00be
00000110: e7e9 8f3c 5877 123e 83c5 223e 8ee8 56be
00000120: 21a1 2f3e 6f4d 3fbe fb13 aabc 1e0f 333e
00000130: 1a9d 29bc 23a1 87bc 7f74 833c 6c55 89bd
00000140: cfdf afbd 4544 bbbd d596 ffbd 627f b6bd
00000150: 3c58 173d bc72 e13d 45f6 45be 0cd7 45be
00000160: 83e5 3b3e 87e3 d63d ec4b 193e 83d7 ccbc
00000170: e141 3ebe 3b9c 4abe d5ec 463e 137a 7f3d
00000180: 0529 f5bd 66a7 603d f038 e13d 7775 07be
00000190: 5611 74bc 540b 29be 47f3 1a3e 7050 203d
000001a0: 1913 8a3d 8591 48be bce4 fbbd 2017 83bc
000001b0: 695e 00be 99ca 263c d0ce 51be aaa3 a53c
000001c0: 6c69 203e 4aab 843d 2ae6 843d 371d 433e
000001d0: b095 3dbe 5ec8 01bd 309f 5537 b7f6 d7bd
000001e0: a306 9bbc 62f3 ae3d 8f1f 9cbd 89cc 36be
000001f0: 80b4 90bd ed93 39be cd47 30be a85e f63c
00000200: d786 213e 5f86 1fbc 92d8 6abd 29e9 7ebd
00000210: ca36 cbbd 57c0 24be 5bec acbc 6cb7 54be
00000220: 38ce d4bd 4d8d 75bd 39fc f4bd 4a12 f63d
00000230: c854 ac3d a22e c3bc 9917 563d d6f9 e63d
00000240: 1749 9b3d 0702 f3bd 8e15 343d cd81 c93d
00000250: 4a8f 14be 2d9e 503d 6bd9 c73d ce84 44be
00000260: e6c0 d6bd 8869 25be e8cb 893d 0aca 2d3e
00000270: 9c99 773d cf34 a6bd 0ac2 bd3d c05c cb3c
00000280: 804c 8bbd 0cc2 c1bd ff2b 31be 4957 543e
00000290: 23d7 91bd fef8 923d b5e3 19bd 96c8 20be
000002a0: 831c 8cbd dd67 bd3d dc86 303e 9420 8e3d
000002b0: 19fd 0abe ba7e bc3d cb10 41be 459c 91bd
000002c0: 2718 473e f6f3 1b3e 4cbe c03d 6554 24be
000002d0: 43ef 333e 184b 793d 3ae8 9a3d 21f9 b73d
000002e0: fdd7 93bd 5660 59be dab0 e038 aebc 3ebd
000002f0: 4448 f23d 84a7 a9bd 0d13 d5bd 72fc 3cbe
00000300: 2b17 b9bd a497 36bd 058f e23d 8e18 2dbc
00000310: 0c28 ecbd 6b84 863d d5a7 13be 8e57 463b
00000320: 2812 383e 9e4d 203e cd0a 143e 916a 9f3c
00000330: 2671 e13d 09b3 d5bd 39e6 283e 6b1f bfbd
00000340: 8b76 8bbd 28cb f3bd 2d8d 403e 9f99 d3bc
00000350: 1099 ecbc adf5 ff3d 1d98 48be cd23 473e
00000360: 298e de3c 66b5 353d 4ad6 18be 138b 4abe
00000370: ac57 053e 4b52 0f3e f75c d03c ea26 af3c
00000380: 2a4a 32bd b222 c2bd 70a0 a73d 3160 4d3e
00000390: 0d43 cbbd 8e7b 303e 966f 373d 21e6 4c3e
000003a0: 2562 d1bd eabc d43d 1343 3dbe fb17 37be
000003b0: 5da2 eb3d a520 053e 079c 1ebd 093c 30bd
000003c0: 648b cabc cdc0 3cbc b1ce 953d 985b 5dbd
000003d0: d8e9 a6bd 16ad ef3c bd6e 9dbd 6837 08be
000003e0: 6382 ecbd f7d4 a33d 8a9a 233e 38e0 043e
000003f0: 37d3 30be 20df 973b d4bb 633d 7168 ad3d
-0.10811667 -0.05091513 0.17311771 0.03483645 -0.1194201 0.056058567 -0.10256024 0.056414355
-0.16118747 0.09261915 0.13265891 -0.008768371 0.09222493 -0.1354788 0.18968675 0.040008076
0.08416342 -0.10265472 -0.06938604 0.1958721 -0.19815303 0.19146954 -0.0074043637 0.18176468
-0.14676982 0.1409655 -0.13700677 0.0338349 -0.0076899296 0.11840774 -0.03650719 -0.005788417
-0.18731117 0.013820008 0.1602152 -0.155867 -0.126148 -0.034005027 0.15363508 -0.12978934
0.18523423 0.09650166 -0.10340137 0.016913578 -0.017238412 -0.0918717 0.0150622325 0.14058639
-0.0361405 0.023881048 -0.002347594 0.05899346 0.024147352 0.10386468 0.1436775 0.076060735
0.15352601 0.032004233 -0.022993097 -0.16279544 -0.08348437 0.089771196 0.010534377 0.04338343
-0.08290883 -0.107452795 0.041626193 -0.12563351 0.017567588 0.14303339 0.15895657 -0.2098715
0.1715131 -0.18681882 -0.02076148 0.17486235 -0.010352397 -0.016556328 0.01604676 -0.06705746
-0.0858761 -0.09143881 -0.12479941 -0.08911015 0.03694938 0.11008212 -0.19332226 -0.19320315
0.1834927 0.10492616 0.14970368 -0.025005108 -0.18579818 -0.1978616 0.19426282 0.06237228
-0.119707145 0.054847144 0.10997188 -0.13228403 -0.014896711 -0.16508228 0.15131865 0.03913921
0.06741924 -0.19586761 -0.12299487 -0.016002238 -0.12536015 0.010180139 -0.20489049 0.020219643
0.15665215 0.06477983 0.06489213 0.19054113 -0.18514132 -0.031685226 1.2732853e-05 -0.10545104
-0.018924063 0.08542515 -0.07623207 -0.17851461 -0.07065678 -0.18122835 -0.1721489 0.030074432
0.15774094 -0.009736626 -0.057335444 -0.062234078 -0.099225596 -0.16088997 -0.021108797 -0.20773095
-0.103908956 -0.059949208 -0.1196217 0.12015207 0.08414608 -0.023825947 0.0522686 0.11278121
0.075823 -0.11865621 0.04396587 0.09839211 -0.14507785 0.0509321 0.09758266 -0.19191286
-0.10486011 -0.16153538 0.06728345 0.16971603 0.060449228 -0.08115541 0.09265526 0.0248245
-0.068017006 -0.0946084 -0.1730194 0.20736422 -0.07121112 0.07176398 -0.037570674 -0.15701517
-0.06841376 0.09248326 0.17238945 0.069398075 -0.13573112 0.09203859 -0.18854062 -0.07109884
0.19442807 0.15229782 0.09411296 -0.16047819 0.1757174 0.06086263 0.07563825 0.089830644
-0.07218931 -0.21228155 0.000107140935 -0.046566658 0.1183019 -0.08283904 -0.10404024 -0.18455675
-0.09037622 -0.04457821 0.11062435 -0.010564936 -0.11531076 0.065682255 -0.14419492 0.003026459
0.17975676 0.15654609 0.14457245 0.019459995 0.110079095 -0.10434539 0.16494073 -0.093321644
-0.0680972 -0.11903983 0.18803854 -0.025830088 -0.02888158 0.12498031 -0.19589277 0.1944725
0.027167397 0.04436245 -0.14925495 -0.19779615 0.13021725 0.13996236 0.025434954 0.02138086
-0.04352776 -0.09479274 0.08184898 0.20056225 -0.09924898 0.17234632 0.04478415 0.20009662
-0.10223798 0.10387595 -0.18482618 -0.17880242 0.11505578 0.13000734 -0.038723018 -0.043026004
-0.02472467 -0.011520577 0.07314814 -0.05404243 -0.08150071 0.029257338 -0.07687137 -0.13302386
-0.11548307 0.07999604 0.1597692 0.12976158 -0.17268072 0.004634753 0.05559905 0.08467186

input_proj.bias f4 [128]
00000000: 0914 773c f10b 22bc c08d fa3b 1947 76bb
00000010: c5ea 2dbc 2e8c bbbb 2a89 4b3c b470 7f3a
00000020: 1853 9bbb 5bd7 28bb c021 e3bb e3af f9bb
00000030: 9346 a33b cd36 05bc ee91 773c 0117 e13b
00000040: 5094 a2b7 c4bb 6dbb 6726 41bc 317c 91ba
00000050: 7562 b1ba c0d7 3b3b 5605 023c a203 da3a
00000060: 904b bcb8 8714 0cba a7a3 a4bb f9e0 d5bb
00000070: da80 5dbc c5c0 d03b be1d b53c e65c 0c39
00000080: 6538 d1bb 3613 eeba 208b 223b e2d9 143a
00000090: 8e92 1b3a 66eb 683a 91d6 3b3c 90cb b9b9
000000a0: 7b86 6aba af37 40bc 2b25 b93b 4ba0 cb3b
000000b0: 339b 083a 6bdb 91b9 06d2 afbb 6a8f 923b
000000c0: 1263 7bbb 4467 7f3c b07c 20b8 6c4d 35bb
000000d0: 19de f5bb c3e4 e4bb c12b 973c 007c 08bc
000000e0: 4c29 7e39 a53c c9bb 838a aabb 5dba 8c3a
000000f0: 922c eb39 627b de3b 9fd5 1dbc 5cd7 c73b
00000100: cec9 90bc 12a2 d2bb afec b8bb 39c8 2f3c
00000110: dc18 32bb a722 ddbb ad2e 313b 8381 8fbb
00000120: c624 1c3c b4e3 cb3b 0da8 c13c c915 a53b
00000130: c016 99bb aaab 983a bcab 1b3b 20c4 24bc
00000140: ce07 cebb 770b 223c 82cd 2abc 6937 b03b
00000150: 03c6 dd3a 6f40 95ba ef0c aa39 8eed d6bb
00000160: 69e7 f6bb 6d64 c239 a861 a43c 258d 523c
00000170: aa32 38ba 8076 e439 87d7 4abc 2ba5 f23a
00000180: ab8d 933b 52a1 2bbc 38da 263c 06b0 aebc
00000190: 75f4 423b 55f8 86bc 58c7 4fbc 74b0 3a3c
000001a0: efb7 093b 5ff7 34bb 04da 21bc 1de7 9cbb
000001b0: 9961 4d3c 3496 1c3c ce20 f83b 4fd9 613c
000001c0: 3b9f 81bb aeb0 863b 0de5 5b3c 11d3 a63b
000001d0: 21c1 4dbc 4d7d 87bb 0423 2c3b 76c1 073b
000001e0: cb27 dcba ec37 c73a 45e2 11bc 578d f53a
000001f0: 4249 a73b b707 48bb beea 673b 61d6 1cbc
0.01508046 -0.009890542 0.0076462924 -0.0037578999 -0.010615055 -0.005723498 0.012422839 0.0009744272
-0.00474013 -0.0025763127 -0.0069315135 -0.0076198443 0.0049827783 -0.008130741 0.015110476 0.0068691974
-1.9380968e-05 -0.0036275247 -0.011788941 -0.0011099634 -0.0013533371 0.0028662533 0.0079358425 0.0016633163
-8.978613e-05 -0.0005343635 -0.0050243917 -0.006527063 -0.01351949 0.006370636 0.022108909 0.00013386048
-0.0063848966 -0.0018163684 0.0024802163 0.0005678219 0.0005934619 0.0008885175 0.011464731 -0.00035437616
-0.0008946431 -0.011732026 0.0056501827 0.006214177 0.0005211115 -0.00027820034 -0.005365613 0.0044726627
-0.003835861 0.015588585 -3.8263097e-05 -0.0027664555 -0.0075032827 -0.0069852783 0.01845348 -0.008330345
0.00024238712 -0.0061412626 -0.0052045 0.0010736693 0.000448559 0.0067896107 -0.009633451 0.006098671
-0.017674353 -0.0064280117 -0.0056434493 0.010728889 -0.0027175462 -0.0067485156 0.0027035878 -0.0043794527
0.009530252 0.0062222127 0.023639703 0.0050379974 -0.0046719015 0.001164784 0.0023753485 -0.0100565255
-0.0062875515 0.009890429 -0.010424973 0.005377699 0.0016919974 -0.0011387 0.00032434563 -0.0065590804
-0.0075349105 0.00037077387 0.020066097 0.012851034 -0.00070265925 0.00043575838 -0.012380487 0.0018512359
0.004502972 -0.0104754735 0.010183863 -0.021324169 0.0029747759 -0.016475836 -0.012681805 0.011394609
0.0021014174 -0.0027613265 -0.009878639 -0.004788293 0.012535476 0.009557296 0.00757227 0.013784721
-0.0039557493 0.0041104173 0.013421309 0.005091079 -0.012558253 -0.00413481 0.0026265988 0.0020714677
-0.0016796527 0.0015199161 -0.0089040445 0.0018734139 0.0051051686 -0.0030522177 0.003538772 -0.009572596

input_norm.weight f4 [128]
00000000: 818c 803f 4567 7e3f 585c 7e3f f88c 7d3f
00000010: b539 7c3f 60e3 7f3f 449f 803f 724f 803f
00000020: 3288 7f3f d8db 7d3f f74c 7d3f 97b0 813f
00000030: 6383 803f 5589 7f3f 373f 813f b50f 7e3f
00000040: 524a 803f 3e9b 7f3f 1f50 803f fdc4 7d3f
00000050: b26d 7c3f 740f 813f a559 813f 0345 7d3f
00000060: a62e 803f 93f5 813f 30a3 7d3f 6019 823f
00000070: 0bd4 7f3f 0429 803f 36e4 803f fa9a 7d3f
00000080: 6861 7d3f 3a00 803f 9dd1 803f e3ed 7f3f
00000090: 1c7a 7f3f 1f59 7d3f eebf 803f 14b0 7f3f
000000a0: 26c4 7b3f dc4d 7e3f 11fe 7e3f a89f 813f
000000b0: c261 7f3f e58c 803f b251 7d3f 442b 7f3f
000000c0: c13f 803f a697 803f 3172 7e3f 5bd9 7f3f
000000d0: 4f74 7e3f a02b 803f 059d 803f a67e 7f3f
000000e0: ed8f 7e3f 9131 803f 7f9e 7e3f 8fc7 7e3f
000000f0: 6d87 803f 5d09 803f 27e6 7c3f 1d53 803f
00000100: b4bc 7a3f 1983 7d3f edec 7d3f b68f 813f
00000110: 29c5 7c3f a016 7e3f 0b97 803f a6e7 7f3f
00000120: 6f36 813f f617 803f b102 823f d844 803f
00000130: 5ed7 7c3f 5c86 823f 73b0 7f3f 3412 803f
00000140: 2fdd 7d3f ba6d 813f 6746 7e3f 2127 823f
00000150: 0c88 7e3f 9939 7d3f 45db 7e3f de22 7d3f
00000160: 4b62 7e3f 78e0 7e3f 61dc 803f 3c82 803f
00000170: ee12 803f 5487 7e3f b63c 7e3f cfd4 803f
00000180: 6d89 803f cefd 7b3f 5734 803f 5d18 7d3f
00000190: 47e2 7f3f 819d 7c3f b20f 7f3f 869d 813f
000001a0: 003d 803f 43ba 7e3f df0c 7d3f a7cd 7d3f
000001b0: b30c 803f d563 7f3f b7cb 803f a9b4 7e3f
000001c0: f1cd 813f e5b9 803f 9906 803f d079 803f
000001d0: 4f0d 7b3f 87d4 7d3f 170f 803f a9b0 823f
000001e0: e99a 7f3f 1c45 7f3f bfb0 7d3f f491 803f
000001f0: fc7e 7e3f 592e 7e3f e273 7f3f d771 7c3f
1.0042878 0.99376327 0.99359655 0.99043226 0.98525554 0.9995632 1.0048604 1.0024245
0.9981719 0.9916358 0.98945564 1.0132016 1.0040096 0.9981893 1.0097417 0.9924272
1.0022681 0.99846256 1.0024451 0.99128705 0.9860488 1.0082841 1.0105482 0.9893343
1.0014236 1.0153068 0.9907713 1.0163994 0.99932927 1.0012517 1.0069644 0.990646
0.98976755 1.0000069 1.0063969 0.9997236 0.997957 0.98964113 1.0058572 0.9987805
0.98346174 0.99337554 0.99606425 1.0126848 0.9975854 1.0042998 0.9895278 0.99675393
1.0019456 1.004628 0.9939299 0.99941033 0.9939622 1.0013313 1.0047919 0.99802625
0.99438363 1.0015126 0.99460596 0.9952325 1.0041329 1.0002857 0.98788685 1.0025364
0.9794419 0.99028164 0.99189645 1.0121982 0.9873834 0.99253273 1.0046095 0.9996284
1.0094737 1.0007312 1.0157071 1.002101 0.98766124 1.0197253 0.99878615 1.0005555
0.99165624 1.0111611 0.99326175 1.0168191 0.9942634 0.9891601 0.9955333 0.9888133
0.99368733 0.9956126 1.0067254 1.0039744 1.0005777 0.99425244 0.9931139 1.0064944
1.0041939 0.9843415 1.0015973 0.988653 0.99954647 0.9867783 0.99633324 1.0126197
1.0018616 0.9950296 0.98847765 0.99141926 1.0003875 0.99761707 1.0062169 0.99494416
1.0140973 1.005673 1.0002013 1.0037174 0.9806718 0.99152416 1.0004605 1.0210162
0.9984575 0.9971483 0.9909782 1.0044541 0.9941251 0.9928947 0.997862 0.98611206

input_norm.bias f4 [128]
00000000: 7214 773c 9fad adbb 6628 493b 2bc0 22bc
00000010: cc56 f4bb 957c bfbb 8db2 0a3c 6dbb 40ba
00000020: db35 f83a 50ad afbb 4ffd c8bb b152 253b
00000030: 33a4 cd3b bdea 02bc 1091 4d3c 5329 683b
00000040: 3cea 3b3b b244 70bb e217 15b9 dfa2 cd3b
00000050: 7d69 abbb 5e07 a339 96a4 2a3c b6f9 bebb
00000060: 6124 063b 0806 2c3c b40d 943a 26d5 623b
00000070: 5d6a 9fb9 2b29 a13b 4a1c ab3c a928 373b
00000080: 0347 21bc 4a9a 03ba 5d21 933b f6a7 32ba
00000090: 210b ae39 4ad2 f7b8 0677 233c c869 e8bb
000000a0: f6dd 49b9 b1a3 06bc e20f 09bb 4daf 803b
000000b0: e8aa fc3a 4a03 863b 3a24 87bb e982 763b
000000c0: 9545 cc39 bdb9 b63b a848 7ebb babe cebb
000000d0: a844 cfbb 3a2a 9dba 2159 853c d2b2 00bc
000000e0: 8d17 9bba 5ad0 173a b639 8cbb f138 9fba
000000f0: b973 21bb 7f95 063b 96e6 25bc 7b86 d43b
00000100: 4a39 9ebc b02c a1bb 0580 24bc c3e3 1c3c
00000110: 0f9d 93bb b5b0 0dbc 27d0 34bc ad00 5dba
00000120: 3f31 e03b 6546 bb3b ac4e b93c 93ae ef3b
00000130: 2165 febb 7c4e 433c 9423 ac3a 328c 13bc
00000140: f291 5abc 6e3a 423c a168 b1bb 950d d53b
00000150: 4e4e a5bb 444a 57bb 4f6b 23ba 0d03 dfbb
00000160: 6022 a6bb a7e3 26bc 8abb 8b3c b070 133c
00000170: 28e4 d1ba 0dee eebb 2383 52bc 0141 253a
00000180: 020e 593b c6eb 3dbc a4b8 6d3b b713 71bc
00000190: 6b29 58b9 af89 3ebc eb91 7fbc 3a1f 5c3c
000001a0: cec5 703b 406e 80bb a33a 09bc 4deb c7bb
000001b0: 4e5b 163c 40ad df3b ee21 553c d19d 373c
000001c0: 6fcd 4d3b ce97 6a3b a2a1 9f3b a8fd 993b
000001d0: afa2 8cbc 6c55 e2bb 6823 5c3a ab8e 0c3c
000001e0: 9f73 31ba 710f 123b 130a 01bc 4af4 db3a
000001f0: 0fcc 133b d9fb baba 8fb8 803b d871 63bc
0.015080558 -0.0053002383 0.0030694245 -0.009933512 -0.007456636 -0.0058437088 0.008465421 -0.00073521474
0.0018936949 -0.0053612366 -0.0061337124 0.002522629 0.0062756776 -0.007990536 0.012546793 0.0035425022
0.002867355 -0.003666204 -0.00014218644 0.0062755193 -0.005231081 0.00031095272 0.010415217 -0.0058281077
0.002046846 0.010499485 0.0011295588 0.003461191 -0.0003040609 0.0049182377 0.020887513 0.002794782
-0.009843591 -0.0005020244 0.004490061 -0.0006815189 0.00033196158 -0.00011817047 0.009977108 -0.007092688
-0.0001925154 -0.008217738 -0.0020914008 0.0039271475 0.0019277008 0.0040897476 -0.0041241916 0.003761465
0.00038961755 0.005576341 -0.003880063 -0.0063093575 -0.006325323 -0.0011990734 0.016277852 -0.007855134
-0.001183258 0.00057912397 -0.0042793406 -0.0012147707 -0.0024635626 0.0020535884 -0.010125777 0.006485758
-0.019314427 -0.0049186572 -0.010040288 0.009575787 -0.004504807 -0.008648087 -0.0110359555 -0.00084305817
0.006841808 0.005715179 0.022620521 0.007314512 -0.0077635203 0.011920568 0.0013133162 -0.009005593
-0.01334046 0.011854751 -0.005414084 0.0065018632 -0.005044735 -0.0032850662 -0.0006233947 -0.0068057836
-0.005070016 -0.0101861125 0.017057199 0.008999035 -0.001601343 -0.0072915615 -0.012848648 0.0006303937
0.0033119922 -0.011591857 0.0036273384 -0.014714173 -0.00020614795 -0.011629506 -0.015598754 0.013435179
0.0036738995 -0.003919393 -0.0083757965 -0.006101048 0.009177042 0.006826073 0.013008578 0.01120706
0.0031402966 0.003579605 0.004871563 0.0046994276 -0.017167417 -0.0069071557 0.000839761 0.008578937
-0.0006769243 0.0022287036 -0.007875937 0.0016781178 0.0022552048 -0.001426573 0.003928251 -0.013882123

lstm.weight_ih_l0 f4 [256, 128]
00000000: f70d 4d3d f265 9abb 4af3 8c3d aa0d 8cbd
00000010: 0c65 05bc 82ca 933d 3af4 cdbd 9be8 17bd
00000020: 9ea3 8abd b552 9ebd b8ab 88bd 1c7b f63d
00000030: 2516 163d 23d1 af3d 7cba 87bd 64af 63bd
00000040: aa27 fbbd 9285 41bc 7833 f4bd ab30 853d
00000050: 27e1 43bd 355a 873d cdf6 aa3d 1385 d23d
00000060: 4910 2fbc 2350 39bd e338 d4bd 1ed4 ff3d
00000070: 0bb8 b7bd 3fca 883d 20b2 a53d eeab fb3c
00000080: 074d b33d 6b9e b33c 565c f53d bc5c e0bd
00000090: 20cf b2bd 415d 9c3d d49b abbd eec6 f4bc
000000a0: a6df c8bd 3185 57bd 6483 993d 1208 d2bc
000000b0: 4d11 ce3d 4d86 feba 6d33 af3d 457f e5bd
000000c0: c45c f63c f95c a4bd e5f6 513d 6274 533c
000000d0: 65aa 8c3d 3f55 4bbd 1f11 c2bd ebdc cd3c
000000e0: 8bf4 8abd 3071 70bc 3965 84bd 465c e63d
000000f0: 9bd1 b23d 579c af3d 6fc3 ab3d f48d 30bc
00000100: 501f a6bc 15ff cbbd c048 88bd 3e85 c33d
00000110: 7182 0abd dff7 a43d 4e05 a73d 3c1a e9bd
00000120: 618b 103d a272 01be 439b 113d d980 afbd
00000130: f6f1 eebc 07b4 abbd 8a96 efbd 4992 d73d
00000140: fec6 86bd f02a ed3d 6cd3 f4bd a85f d2bd
00000150: a9ad 7a3b 0d83 81bd 267e 9abd 158d 573d
00000160: e5db d3bd 7eb3 413d 8709 1d3d 1f31 7abd
00000170: 77a0 d93c 00dc 92bd 91df a43d c5cc 853d
00000180: 3772 4cbc 672c dd3d 09c1 9ebd 6653 24bc
00000190: 6100 a9bd d53e 45bd cb64 a23c 7aea fb3d
000001a0: 977a 84bd 14db dcbd de6d f7bd 27b4 343d
000001b0: bb15 eebc d7b8 dcbb fec9 8f3d 1033 713d
000001c0: 2649 ecbd e9db 0a3d d193 9d3d c743 633d
000001d0: 7e8d debd 66f8 dfbc 7e67 b23d 66c8 bc3d
000001e0: 6732 eebc 304e 8d3d 04bf 59bd 905d 233d
000001f0: af79 a13c d43c 803d 5302 503d b6c6 9b3b
00000200: 2676 543d 0148 74bc 3879 843d e200 a3bd
00000210: 6dec b0bd 3f77 b83d c1ef 32bd a68d af3d
00000220: d1cf 863d 8e59 9f3c 23c2 cc3c ccf3 7dbd
00000230: 5715 d13d 3c37 96bd d41b 803c 3386 11bd
00000240: 708c c53d 8de6 e43d 117c 31bd fc08 ab3d
00000250: 0b15 3dbd c06e 4bbd ce43 a93d c242 adbd
00000260: baf1 5f3d e5dc 15bc c04a aabc 762c d53d
00000270: 5109 3abd 11ae 96bd eb6d 62bd 5137 023e
00000280: 20e3 eabd cd57 7b3b faf1 dbba bdd5 1a3d
00000290: 9356 863c 56fe e7bd ed4c e6bd e45f bcbd
000002a0: f2d8 313b ab38 73bd da10 4fbc ce51 debb
000002b0: f166 fb3d da84 58bd ad51 42bb f08d ee3d
000002c0: b621 83bd f213 c23d c584 533d fded 3cbd
000002d0: 151e babd 23d2 843c 00ae 7f3d 9618 32bc
000002e0: 7b73 c6bd 71e8 c43d 40bf 053e fdc7 463d
000002f0: 6cfe ca3d 5d30 ad3c d6a9 2f3d 77dd ca3c
00000300: 6a30 d83d 2932 403d e382 873d cb4c 5fbc
00000310: ab45 a7bd 5ddb d0bd 2d1b bcbd 6204 ac3d
00000320: 6a26 b43d 050f e6bd 5b5d d13c 78a3 2abd
00000330: 53f8 8fbd 30f2 e73d 12e3 23bb e4b6 babd
00000340: 73ba 413d bbd3 3abd aa92 f63d 36ed 70bd
00000350: e3a8 80bb d35d 9d3d 1364 90bd eb50 ccbd
00000360: 07f3 e5bc 9da6 073a ec3a a83c d279 bfbc
00000370: 974e 943d 0494 8abd c53c 13bd f1ea 843d
00000380: bce6 e83c 5f43 4bbd a66e dd3d a4d5 c53d
00000390: 9e5a c6bd 9416 9c3d ec19 90bd a122 a3bd
000003a0: a065 d63d f883 dcbd 2e26 21bb b216 bf3d
000003b0: 3383 923c 1aab 3a3d ba3e 62bd 68cf 0a3d
000003c0: 0884 5a3d 1b59 ab3c d06f e23c ca78 cebd
000003d0: cf72 e43c 77f6 bf3d 81b5 4dbd 3c3e 37bd
000003e0: 5205 fdbc 0296 a9bd fe4d 8fbd 1933 be3c
000003f0: e9b7 39bd 0fb5 b6bd 780b b9bd c7a2 91bc
0.050062146 -0.00471186 0.06882341 -0.06838544 -0.008141767 0.0721636 -0.10056348 -0.037087064
-0.06769489 -0.07730619 -0.06673378 0.120352 0.036642212 0.085848115 -0.06627366 -0.055587187
-0.12263425 -0.011811631 -0.119238794 0.06503423 -0.047822144 0.066090025 0.08347855 0.10279288
-0.010685035 -0.04524244 -0.10362413 0.1249163 -0.0897065 0.066792004 0.08090615 0.03072163
0.08754926 0.021926126 0.11980502 -0.10955188 -0.08730912 0.07634974 -0.08379331 -0.029880013
-0.098082826 -0.052617256 0.07495764 -0.025638614 0.100618936 -0.0019418687 0.085547306 -0.11205915
0.030073531 -0.080255456 0.051260848 0.012906166 0.06868438 -0.049641844 -0.09475922 0.025129756
-0.06784924 -0.0146754235 -0.06464619 0.112480685 0.08731385 0.08574741 0.083868854 -0.010776032
-0.020278603 -0.099607624 -0.06654501 0.09546898 -0.033815805 0.0805509 0.08155309 -0.11381957
0.035289172 -0.12641385 0.03554846 -0.085694976 -0.02916811 -0.08383947 -0.11698635 0.105259486
-0.065809235 0.11580455 -0.11954388 -0.10272151 0.0038250482 -0.06323824 -0.07543592 0.05262478
-0.10344676 0.047290318 0.038339164 -0.061082 0.026565773 -0.07170868 0.080504544 0.06533197
-0.012478403 0.10799485 -0.07751662 -0.010029649 -0.082520254 -0.048155624 0.019823452 0.12300582
-0.06468695 -0.10783973 -0.120815024 0.04411712 -0.029063096 -0.006735902 0.07020949 0.058886588
-0.115373895 0.03390113 0.07694209 0.05548456 -0.10866831 -0.027340125 0.08711146 0.092179105
-0.029076768 0.06899679 -0.053160682 0.03988415 0.019711344 0.06261602 0.050783467 0.004753913
0.051870488 -0.014909745 0.06468433 -0.07959153 -0.08638845 0.090071194 -0.04368568 0.08571939
0.065826066 0.019451883 0.024994915 -0.06200008 0.102091484 -0.07334754 0.01563827 -0.035528373
0.09645927 0.111767866 -0.04333121 0.08351323 -0.046162646 -0.049666166 0.08264886 -0.08459999
0.054673888 -0.009146904 -0.020787597 0.10408871 -0.04541904 -0.07357419 -0.055280607 0.12716414
-0.11469102 0.0038351894 -0.0016780489 0.037801493 0.016398704 -0.113278076 -0.11245141 -0.09197977
0.0027137366 -0.059380215 -0.012638295 -0.006784654 0.12275494 -0.052861072 -0.0029650733 0.11648166
-0.06402914 0.094764605 0.05164029 -0.0461254 -0.09087769 0.016213482 0.0624218 -0.01087012
-0.09689995 0.09614647 0.13061237 0.048530567 0.09911808 0.021141225 0.042886578 0.024763806
0.10556109 0.046922836 0.066167615 -0.013629149 -0.08167585 -0.1019809 -0.09184871 0.083992735
0.087963894 -0.112333335 0.02555721 -0.041659802 -0.07029786 0.113254905 -0.002500717 -0.09116915
0.047296952 -0.04561208 0.12039693 -0.058819972 -0.003926383 0.07683911 -0.07050338 -0.099763714
-0.028069986 0.00051746686 0.020535909 -0.023373518 0.07241552 -0.06766513 -0.035946626 0.06490124
0.028430335 -0.049624797 0.1081212 0.09659889 -0.096852526 0.07621494 -0.07036194 -0.07965589
0.10468602 -0.107673585 -0.0024589407 0.09330501 0.017884826 0.04557333 -0.055235602 0.033889204
0.05334857 0.020916512 0.027641207 -0.100816324 0.027886776 0.09373181 -0.050221924 -0.044737086
-0.030886326 -0.08280565 -0.06997298 0.023217725 -0.045341406 -0.08921253 -0.090353906 -0.017777814

lstm.weight_hh_l0 f4 [256, 64]
00000000: 9f8f a1bc ba85 113d 87e1 0abe 15d3 81bd
00000010: 5de1 de3d 7d51 97bc 2694 8e3d 266f 77bc
00000020: afbc 90bd 940e f23c cb83 2abd d48f aa3d
00000030: b878 bcbd 55b3 d2bd 3818 2ebc 0310 13be
00000040: 24de fa3d f99a 0a3e c4d9 babd 01cb ad3c
00000050: 5517 483d 38df 62bd 7924 31bd 2918 84bd
00000060: a87f c5bd 5242 8d3d 991f c73c cca5 9cbb
00000070: ffd3 bc3d 392f 6fbc f2d6 ed3c 9f40 513d
00000080: c1b9 8c3d 8fef ef3d ba46 943d 322a 0fbd
00000090: 0afa e93b 7c5d 87bb 55c0 9cbc 1303 16bd
000000a0: 324f b9ba 5b96 d1bd 5991 9bbd bc0b ce3d
000000b0: 69d8 ef3c 434f 94bd 3e9e efba 73fb bcbd
000000c0: 853f c8bd a6ac f9bd e456 b4bb 654d d53d
000000d0: 6316 7d3c fe78 ac3d 3444 863d 14e2 c43a
000000e0: 962d bb3d 93ff a0bd 3416 d83d d5b2 92bb
000000f0: a8a3 ee3c 48c1 32bd b9e4 c9bd 9261 55bd
00000100: f7bf 0ebd 159f b6bd 2f70 cfbd 9e5c f1bd
00000110: 7ed7 df3d 59a0 9c3d d7e2 e0bd e7b2 4cbc
00000120: 8b26 003e d4d7 af3d 2872 033e 61b9 06be
00000130: 405d b63d 867a c2ba e9a0 e8ba 1971 453d
00000140: 0663 923d 41df c63d 13c3 89bd 63bc 9b3c
00000150: d017 ba3c 7b43 c43d a82b caba 8a3a d43b
00000160: ade7 2f3d 9adf b8bd 9537 03be c7eb b63a
00000170: 0c59 863c d392 05be ba65 3dbd cb66 81bd
00000180: 0b10 213d bae5 19bd 7fee 37bd b691 d1bd
00000190: 45b0 41bb a721 c7bd 30a6 42bd c160 e9bb
000001a0: d239 72bd f16a 9c3d 62fd 7f3d eb3f bc3d
000001b0: cdaf 983d 527b 873d 43f1 30bd caae cfbd
000001c0: 0852 a3bc 0885 dd3d 095c b73d 1a3d a4bd
000001d0: 98f1 0dbd 11dc 3c3d 983c a23c 26ce 223d
000001e0: 2142 5c3d e884 ce3d 0999 59bd dda9 cfbb
000001f0: 08a3 c23d 3d32 c9bd 0253 b0bd 35a1 b43d
00000200: 6ad6 e53d 1da5 c6bb 0223 5ebd fea1 a9bd
00000210: 8a61 d4bd 9cf2 07bd f866 a2bd cfb2 11bd
00000220: 265b 30bd 3519 eb3d 56d2 e63d 510a 89bc
00000230: 7025 2b3d ef5f a2bc 991a 0a3b 1cbd 5fbd
00000240: 67d4 61bd c946 423d 9f06 d23d 98d9 083d
00000250: dfd8 c4bd e8e0 0f3e cf9e c2bc 9d92 ac3b
00000260: da07 00bd 722f 553d 6e47 acbd 8a8f 153d
00000270: 893f 553d 15f6 843d d64d c23d a79d b73d
00000280: 39b4 b4bd 8971 353d 88c6 743d db41 8bbd
00000290: 278c 73bc 1d4b 5ebd 8734 04be 8b6e c9bd
000002a0: ce11 9e3c 35ea a03d 08eb 3b3d 1130 813d
000002b0: fc20 01be d951 fa3b 9acb e5bc 3102 9fbd
000002c0: e3b0 193d b4ea b7bd 33fa b4bd 9c8b 24bd
000002d0: 9efa c93d 1ab5 a8bd 7652 8dbd f40b c2bd
000002e0: 1122 e6bd b30e 11be ce04 ad3c af5b d7bc
000002f0: 4d3f 813d 1607 bebd e21c 9f3d 7764 113e
00000300: adb6 6bbd 1e3b 67bd 7b21 31bc 8e14 d8bd
00000310: 2c0b edbd e935 99bd dcff bdbc d5aa 163d
00000320: aea4 5d3d 6c5e 23ba 5672 723d 6b5c e83d
00000330: fc40 03bd 221e d2bd 2daf f0bd 61e2 e13c
00000340: 76f1 6f3d 1bb8 8abd 2a4a d33d c7d6 f43d
00000350: b94a 343c 105d dbbd 6b8e 8c3d 787e df3d
00000360: 7d97 17bd 51a8 03be 1558 f5ba e3ec f6bd
00000370: afb1 c3bc 8c24 8c3b 9707 08bd 4eb1 6b3d
00000380: ba8b 773b e7ba 8e3b 8e23 0bbc 0bc5 a13c
00000390: 4c79 26bc a525 73bd a638 80bd 1b24 74bd
000003a0: 4157 82bc b16f ac3d 1203 3abd f7eb 9dbc
000003b0: 610e 613b 96ff dbbc 4c9c debd 839e 5ebd
000003c0: f769 853c b888 763d 4365 aabd b7b9 45bd
000003d0: 89eb bfbd aa46 6e3d 6307 7dbb 5390 7a3d
000003e0: 301e 9e3d f722 1abd 3abc f7bc 03a6 f3bc
000003f0: 7f2a 97bd f67b 23bd 4f2f f23d b627 29bd
-0.019721804 0.035527922 -0.13562594 -0.06339089 0.108828284 -0.018471474 0.06961851 -0.015102183
-0.070672385 0.029547967 -0.041629594 0.08328214 -0.09202713 -0.10288111 -0.010625891 -0.14361577
0.12249401 0.1353568 -0.09123567 0.021214964 0.048850376 -0.05538866 -0.043247674 -0.06449921
-0.09643489 0.06897415 0.02430706 -0.0047805067 0.092201225 -0.014598661 0.029033158 0.051087018
0.06871367 0.11715614 0.072400525 -0.03495235 0.0071404027 -0.0041310173 -0.01913468 -0.036624026
-0.0014137982 -0.10233756 -0.07596082 0.10060832 0.029277997 -0.072416805 -0.0018281413 -0.09227648
-0.097777404 -0.12191133 -0.005503522 0.104151525 0.015447232 0.08421515 0.065559775 0.001502099
0.09139554 -0.07861247 0.1055111 -0.004476885 0.029130772 -0.04364136 -0.098580785 -0.052095003
-0.03485104 -0.08917061 -0.10128819 -0.117852435 0.10929774 0.076477714 -0.10980766 -0.0124938255
0.12514703 0.08586088 0.12836516 -0.13156654 0.08904505 -0.001483754 -0.001774815 0.04820356
0.071477935 0.09710551 -0.067266606 0.019010728 0.022716433 0.095831834 -0.0015424388 0.006476705
0.042945553 -0.090270236 -0.12814172 0.0013955765 0.016399883 -0.1304429 -0.046239592 -0.06318434
0.03932194 -0.0375726 -0.044905182 -0.1023287 -0.0029554528 -0.097232156 -0.04752177 -0.0071221297
-0.059137173 0.07637585 0.062497504 0.09191879 0.07455406 0.06615318 -0.043198835 -0.1014076
-0.019936576 0.10816389 0.08953101 -0.08019467 -0.03465423 0.04610831 0.019804284 0.03974738
0.053774003 0.100839436 -0.05312446 -0.006337388 0.09503752 -0.09824035 -0.086095825 0.0881981
0.11222537 -0.0060621635 -0.054232605 -0.08282851 -0.103701666 -0.033190355 -0.07929796 -0.035570916
-0.043055676 0.11479417 0.11270587 -0.016728552 0.04178375 -0.019821135 0.0021072982 -0.054623708
-0.055134203 0.047430787 0.10255169 0.03341064 -0.096116774 0.14050639 -0.023757366 0.005266501
-0.031257488 0.0520472 -0.08412062 0.036513843 0.052062545 0.06492249 0.09487502 0.08965617
-0.08823437 0.04429773 0.059759647 -0.0679967 -0.014864958 -0.054270852 -0.12910663 -0.098355375
0.0192956 0.078571714 0.04587844 0.06307996 -0.12610239 0.0076391515 -0.028051186 -0.0776409
0.037522208 -0.08980313 -0.08836784 -0.040172204 0.098622546 -0.082376674 -0.06900494 -0.09474936
-0.112369664 -0.14165764 0.021120455 -0.026288835 0.06310902 -0.09278695 0.07769181 0.1419848
-0.05754726 -0.056452863 -0.010811205 -0.105507955 -0.115743965 -0.07480986 -0.023193292 0.036784012
0.05411213 -0.00062320265 0.05919107 0.11345752 -0.032044396 -0.10259654 -0.11752162 0.027573766
0.058579884 -0.067733966 0.1031688 0.11955028 0.011004143 -0.1071111 0.068631016 0.10912794
-0.037009705 -0.12857176 -0.0018718267 -0.12056901 -0.023888437 0.0042768177 -0.033210363 0.057542138
0.0037772493 0.0043557766 -0.008492364 0.019747278 -0.010160755 -0.059362072 -0.06260805 -0.059604745
-0.015910747 0.08419741 -0.045413084 -0.019277556 0.0034340846 -0.026855271 -0.10869655 -0.054350387
0.01628588 0.06018898 -0.083200954 -0.048272815 -0.09371097 0.05817286 -0.003860914 0.061172795
0.077206016 -0.037631 -0.03024112 -0.029742246 -0.07381152 -0.03991314 0.1182543 -0.041297637

lstm.bias_ih_l0 f4 [256]
00000000: 37b6 00bc 06a4 b9b9 ac80 873c 9c06 c0bb
00000010: 2d1f debb 2397 f03a 405f 3ebb b017 b8ba
00000020: 47ec 0dba ea86 01bc 368d 9b3c 00c8 2f3c
00000030: f261 adba aec9 1dbc 1c4f 5dbc 1a95 ab3b
00000040: 54d3 963b 50b8 9139 86cd 86ba f941 503b
00000050: ceeb 71ba 0825 3a3c d342 393c eb55 6c3c
00000060: e2c6 42ba a099 3f3b a8b2 833c ceed 9cbb
00000070: 6436 acbb 7b09 893b 6082 943b 60bf ddbb
00000080: f657 613b 32ee a9ba a8bc 83bc c8a6 c6bb
00000090: f546 c83a 1adb ccba 68f4 e3b8 f011 8b3b
000000a0: aa00 32bc ac61 223c a040 2bbb 3c45 3e3b
000000b0: 36e1 373c aa97 85bb c5ba 3dbc 66ab f639
000000c0: a468 3fbb fd91 13ba 3606 da3b eb4b c2ba
000000d0: 6e05 a33b 125a 7dba 00cd 32bb 4d09 d23b
000000e0: 11d1 4f3b bfcb 483b 3e83 03bc 94fd 2bbb
000000f0: 8ea3 6eba cc0b 68bc 8855 ccbb da6a 72bc
00000100: 6dc0 64bc de4b b83a 22a7 a73c 2415 b1ba
00000110: 9f1d 6dbb 1ef8 e03b cfec 103b 58ea b03b
00000120: c19d f0ba 1264 4fbc 3e1b 7b3c e4df 903b
00000130: cacb e8bb aa54 14bb fa22 64bc 7347 513b
00000140: 0fc1 163c 8468 233b b5b1 983b 77b3 5a3b
00000150: dc06 a5b8 7179 843c d72b d03a 9e19 463c
00000160: 2441 83ba 5b20 a7bb 1172 4c3c e0fd 8cba
00000170: 8764 14bc 1d3b 9e3b a4f9 fa3a b1cf 8dbb
00000180: 1b6b 563b e91f a53a bd53 88bc 0e95 2abc
00000190: 141b 413b ffeb 353c f68c 02bb 6cf7 763b
000001a0: b3d2 86bc 0b4a f43b 5818 babb 1e93 e03b
000001b0: c0f6 c63c 408a efbb 5766 40bc 80a4 ba3a
000001c0: 05be e8ba f9ae cdb9 c297 a53c 8568 3ebb
000001d0: 1c72 9e3b 7b87 493a f5ef b3bb 7102 843c
000001e0: cdde b73a 69dc 5c3a 2c4c f4bb f682 55bb
000001f0: d068 953a c284 f1bb 5f26 24bc f1dd 49bc
00000200: d5c2 50bb e479 5ebb 9352 82bc 385b 4f3b
00000210: 7ca5 b6ba f839 a3bb 2024 93b9 0511 903b
00000220: 96ed 873b 0a83 493b c6af 9eba 4137 423c
00000230: ceca 17ba a260 3cbc 3c42 f73b ed56 cdbb
00000240: f960 03bc f480 deb9 01ca 1539 8d14 033b
00000250: f4b5 043b a1fa 25bb 8cc3 aa3b c6ed b7bb
00000260: 2f93 d139 f9b1 b8bb eb28 1c3c 9999 9c3a
00000270: 1c4b 0b3b a6b4 123c 84cc ea3a 0b33 7cba
00000280: a25d c5bb ce54 233c a3c6 c93b ee82 8abb
00000290: a01b 4fbc a5c4 01bc 2398 033b 8fcc 12bb
000002a0: f559 313c ac95 fe3b 8c14 4dbb 9d03 6a3b
000002b0: 0742 32bb 1851 76ba 0f90 0f3c 9cc8 e3bb
000002c0: 5496 4eba c28c cbbb 6b7f a6bb a93d 223b
000002d0: 900b 24bb 3ea8 513b 00db 33bc 61e1 0c3b
000002e0: fca4 55bc 3c10 d7ba 4bd6 07bb 07bc f0bb
000002f0: 3e0d 42bc 3326 12bc 714b e23b 258e b23b
00000300: fb0c 0bbc ceb8 863b 0c56 333c d4c7 e8bb
00000310: cd0c 01bc 1747 583b 1402 8c3a 6097 e43a
00000320: 9ac8 91bb 1975 a9bb 4071 7b3c e4fd 123c
00000330: 60f6 9a3a e392 22bc 4ed2 55bc aab3 4b3c
00000340: e78f 0eba 089a 4f38 c9e7 e53b 8d44 80ba
00000350: 30e7 06bb becb 053c f111 363c e7ba 453c
00000360: d24f e0ba 01ef 933b 04f2 303c 9672 4b3a
00000370: e94f adbb c3e8 0f3b 50da fbba e1e6 f1bb
00000380: 4d64 b13a 03fa 3d3b 4fc9 82bc 30c2 c9bb
00000390: 094a 173a 7b18 eeb9 4697 30bc 1421 85b7
000003a0: 339a 10bc efc6 3d3c 5ab9 ddba 0744 7d3b
000003b0: 17f1 913c 8e68 a8bb 50ec 30bc 1104 bfbb
000003c0: 18c5 dd3a 868b d23a db4b 813c 5360 1539
000003d0: e0e0 903b a477 853b 5943 95bb 236a 363c
000003e0: 95e3 a23a afbc b63b e8ae 8fbb 15b9 37bb
000003f0: 854c 823b 2d2f 69bc fedb 3cbc 8600 35bc
-0.007855943 -0.00035408157 0.016540848 -0.005860163 -0.006778619 0.0018355589 -0.0029048473 -0.0014045145
-0.0005413931 -0.007905701 0.018988233 0.010728836 -0.0013228043 -0.009630604 -0.013507631 0.00523628
0.004602829 0.0002779388 -0.001028464 0.0031777604 -0.0009228558 0.011361368 0.011307436 0.014424781
-0.00074301485 0.0029235855 0.0160764 -0.0047890907 -0.0052555073 0.0041820384 0.0045321435 -0.0067671984
0.0034384704 -0.0012964664 -0.01608117 -0.0060623623 0.0015279936 -0.0015629262 -0.00010869728 0.0042440817
-0.010864416 0.009910982 -0.0026131049 0.0029032966 0.011223128 -0.0040769177 -0.011580174 0.00047048478
-0.0029206658 -0.0005629359 0.0066535724 -0.0014823651 0.0049750125 -0.00096646056 -0.0027282834 0.0064098
0.0031710307 0.003063902 -0.008026896 -0.0026243674 -0.0009103351 -0.014162969 -0.006235782 -0.014795983
-0.0139618935 0.0014060696 0.020465437 -0.0013510329 -0.0036180986 0.0068655154 0.0022113805 0.0053990297
-0.0018357561 -0.012658136 0.015326319 0.004421221 -0.0071043717 -0.0022633472 -0.013924355 0.0031933456
0.009201302 0.0024934122 0.004659856 0.003337113 -7.869091e-05 0.016171189 0.0015882206 0.012091069
-0.001001392 -0.0051002926 0.012478367 -0.0010756813 -0.009057171 0.004828824 0.0019147885 -0.0043277373
0.0032717648 0.0012598011 -0.016641492 -0.010411514 0.0029465603 0.011103629 -0.0019920445 0.0037684096
-0.016457891 0.0074551157 -0.0056791715 0.0068534752 0.024287581 -0.007310182 -0.01174315 0.0014239699
-0.0017756826 -0.00039231012 0.020213965 -0.0029053998 0.0048353802 0.00076877297 -0.0054912516 0.016114445
0.0014028192 0.00084251777 -0.0074553695 -0.003257928 0.0011399034 -0.0073705623 -0.010018914 -0.012320981
-0.003185441 -0.0033947164 -0.015908515 0.0031640064 -0.0013934816 -0.0049812756 -0.0002806494 0.00439656
0.0041481955 0.0030748271 -0.0012106828 0.011853994 -0.0005790413 -0.011497648 0.0075457375 -0.006266466
-0.008018726 -0.00042439217 0.00014285 0.0020001263 0.0020250054 -0.0025326388 0.0052112993 -0.0056130616
0.00039973247 -0.0056364504 0.00953124 0.0011947631 0.0021254485 0.008954203 0.0017913734 -0.0009620643
-0.006023125 0.0099689495 0.0061577125 -0.004227034 -0.012640864 -0.007920419 0.0020079694 -0.0022399758
0.01082467 0.007769307 -0.0031292764 0.003570772 -0.00272 -0.0009396239 0.008762374 -0.0069514047
-0.0007880677 -0.006211848 -0.0050811074 0.002475599 -0.0025031306 0.003199115 -0.010977507 0.002149664
-0.013039824 -0.0016408036 -0.0020727094 -0.0073466334 -0.0118439775 -0.00892024 0.006905966 0.005449074
-0.0084869815 0.004111386 0.010945808 -0.0071038995 -0.007876587 0.0033001357 0.0010681772 0.0017440133
-0.0044489624 -0.00517143 0.015346825 0.008971665 0.0011822693 -0.009922716 -0.013050629 0.012432972
-0.0005438313 4.94961e-05 0.0070161563 -0.0009786055 -0.0020584576 0.008166252 0.011112676 0.012068487
-0.0017113632 0.0045145755 0.0107998885 0.000776091 -0.005289067 0.0021958805 -0.0019214842 -0.0073822592
0.001353392 0.002898813 -0.015965132 -0.006157182 0.0005771225 -0.00045413137 -0.010778254 -1.5870239e-05
-0.008825826 0.011583074 -0.0016916201 0.0038645284 0.017815156 -0.005139417 -0.010798529 -0.005829342
0.00169197 0.001606331 0.015783241 0.00014245631 0.0044213384 0.0040731 -0.0045551476 0.011133703
0.0012427444 0.005576692 -0.004384864 -0.0028033901 0.003976407 -0.014232439 -0.01152706 -0.011047488

lstm.bias_hh_l0 f4 [256]
00000000: 36b6 00bc bea3 b9b9 ac80 873c 9906 c0bb
00000010: 2d1f debb 1c97 f03a 385f 3ebb ca17 b8ba
00000020: 4aec 0dba e986 01bc 368d 9b3c ffc7 2f3c
00000030: d461 adba abc9 1dbc 1f4f 5dbc 1695 ab3b
00000040: 53d3 963b 5eb8 9139 93cd 86ba fa41 503b
00000050: d8eb 71ba 0925 3a3c d542 393c ec55 6c3c
00000060: dcc6 42ba 9599 3f3b a9b2 833c d0ed 9cbb
00000070: 6236 acbb 7d09 893b 5a82 943b 5dbf ddbb
00000080: fb57 613b 3cee a9ba a8bc 83bc c8a6 c6bb
00000090: ee46 c83a 24db ccba 08f5 e3b8 f711 8b3b
000000a0: aa00 32bc ad61 223c a640 2bbb 3b45 3e3b
000000b0: 3ee1 373c a597 85bb c4ba 3dbc f5ab f639
000000c0: a268 3fbb 0592 13ba 3806 da3b d34b c2ba
000000d0: 6905 a33b e459 7dba 12cd 32bb 5109 d23b
000000e0: 02d1 4f3b b5cb 483b 3d83 03bc 8afd 2bbb
000000f0: 90a3 6eba c90b 68bc 8955 ccbb da6a 72bc
00000100: 6cc0 64bc d84b b83a 22a7 a73c 0e15 b1ba
00000110: 951d 6dbb 1df8 e03b d2ec 103b 57ea b03b
00000120: c49d f0ba 0f64 4fbc 3f1b 7b3c e0df 903b
00000130: cccb e8bb ad54 14bb fb22 64bc 7147 513b
00000140: 0fc1 163c 8668 233b b3b1 983b 83b3 5a3b
00000150: 4e06 a5b8 6f79 843c 082c d03a 9a19 463c
00000160: 2941 83ba 5d20 a7bb 0f72 4c3c e2fd 8cba
00000170: 8964 14bc 1b3b 9e3b 86f9 fa3a b2cf 8dbb
00000180: 156b 563b c61f a53a bc53 88bc 0f95 2abc
00000190: 161b 413b 01ec 353c ea8c 02bb 69f7 763b
000001a0: b5d2 86bc 154a f43b 5a18 babb 2193 e03b
000001b0: c0f6 c63c 418a efbb 5666 40bc 74a4 ba3a
000001c0: e8bd e8ba 6caf cdb9 c397 a53c 8f68 3ebb
000001d0: 1672 9e3b 8987 493a fbef b3bb 7102 843c
000001e0: cade b73a 7edc 5c3a 284c f4bb f182 55bb
000001f0: cc68 953a c084 f1bb 5f26 24bc f1dd 49bc
00000200: e2c2 50bb e679 5ebb 9452 82bc 315b 4f3b
00000210: 93a5 b6ba fb39 a3bb bc23 93b9 0411 903b
00000220: 97ed 873b 0c83 493b c7af 9eba 4137 423c
00000230: a4ca 17ba a360 3cbc 3c42 f73b f256 cdbb
00000240: f860 03bc 1881 deb9 81c9 1539 9114 033b
00000250: edb5 043b 91fa 25bb 8dc3 aa3b c7ed b7bb
00000260: 2d93 d139 04b2 b8bb e828 1c3c 8a99 9c3a
00000270: 174b 0b3b a3b4 123c 6bcc ea3a 3633 7cba
00000280: af5d c5bb cd54 233c a6c6 c93b f182 8abb
00000290: 9f1b 4fbc a5c4 01bc 2598 033b 8bcc 12bb
000002a0: f559 313c ac95 fe3b 9014 4dbb a103 6a3b
000002b0: fe41 32bb 0851 76ba 0f90 0f3c 94c8 e3bb
000002c0: 3c96 4eba c28c cbbb 6f7f a6bb b33d 223b
000002d0: 9e0b 24bb 34a8 513b 03db 33bc 59e1 0c3b
000002e0: fca4 55bc 2c10 d7ba 41d6 07bb ffbb f0bb
000002f0: 3e0d 42bc 3226 12bc 6d4b e23b 278e b23b
00000300: f90c 0bbc cdb8 863b 0956 333c d2c7 e8bb
00000310: ce0c 01bc 1a47 583b 0602 8c3a 9597 e43a
00000320: 9bc8 91bb 1575 a9bb 4171 7b3c e5fd 123c
00000330: 7ef6 9a3a e592 22bc 51d2 55bc abb3 4b3c
00000340: 0290 0eba c496 4f38 c4e7 e53b 8b44 80ba
00000350: 38e7 06bb c0cb 053c f411 363c e9ba 453c
00000360: d94f e0ba 06ef 933b 03f2 303c 5d72 4b3a
00000370: e74f adbb bfe8 0f3b 54da fbba dde6 f1bb
00000380: 5064 b13a 03fa 3d3b 4dc9 82bc 34c2 c9bb
00000390: 024a 173a f618 eeb9 4797 30bc ac21 85b7
000003a0: 349a 10bc f2c6 3d3c 66b9 ddba 0e44 7d3b
000003b0: 15f1 913c 8c68 a8bb 50ec 30bc 0a04 bfbb
000003c0: 1dc5 dd3a 668b d23a d94b 813c 805f 1539
000003d0: e4e0 903b a677 853b 5c43 95bb 1e6a 363c
000003e0: 8fe3 a23a adbc b63b e8ae 8fbb ffb8 37bb
000003f0: 7b4c 823b 2d2f 69bc fedb 3cbc 8800 35bc
-0.0078559425 -0.00035407947 0.016540848 -0.0058601615 -0.006778619 0.0018355581 -0.0029048454 -0.0014045176
-0.0005413933 -0.0079057 0.018988233 0.010728835 -0.0013228008 -0.009630601 -0.0135076335 0.0052362783
0.0046028285 0.0002779392 -0.0010284655 0.0031777606 -0.0009228564 0.011361369 0.011307438 0.014424782
-0.0007430145 0.002923583 0.016076403 -0.0047890916 -0.0052555064 0.0041820393 0.0045321407 -0.006767197
0.0034384716 -0.0012964676 -0.01608117 -0.0060623623 0.0015279928 -0.0015629274 -0.00010869844 0.004244085
-0.010864416 0.009910983 -0.0026131063 0.0029032964 0.0112231355 -0.0040769153 -0.011580173 0.00047048894
-0.0029206653 -0.00056293636 0.0066535734 -0.0014823623 0.00497501 -0.0009664579 -0.0027282876 0.006409802
0.0031710272 0.0030638997 -0.008026895 -0.002624365 -0.0009103352 -0.014162966 -0.0062357825 -0.014795983
-0.013961893 0.0014060689 0.020465437 -0.0013510303 -0.0036180962 0.006865515 0.0022113812 0.0053990292
-0.0018357565 -0.012658133 0.01532632 0.004421219 -0.0071043726 -0.0022633479 -0.013924356 0.0031933452
0.009201302 0.0024934127 0.0046598553 0.0033371157 -7.8689874e-05 0.016171185 0.0015882263 0.012091065
-0.0010013926 -0.0051002936 0.012478366 -0.0010756815 -0.009057173 0.0048288233 0.001914785 -0.0043277377
0.0032717634 0.001259797 -0.01664149 -0.010411515 0.0029465607 0.011103631 -0.0019920417 0.003768409
-0.016457895 0.0074551203 -0.0056791725 0.0068534766 0.024287581 -0.0073101823 -0.011743149 0.0014239685
-0.0017756792 -0.00039231346 0.020213967 -0.002905402 0.0048353774 0.0007687738 -0.0054912544 0.016114445
0.0014028188 0.000842519 -0.0074553676 -0.0032579268 0.001139903 -0.0073705614 -0.010018914 -0.012320981
-0.003185444 -0.003394717 -0.015908517 0.0031640048 -0.0013934843 -0.004981277 -0.0002806465 0.0043965597
0.004148196 0.0030748276 -0.0012106829 0.011853994 -0.00057903887 -0.011497649 0.0075457375 -0.006266468
-0.008018725 -0.00042439322 0.00014284813 0.0020001272 0.0020250038 -0.0025326351 0.0052112998 -0.005613062
0.0003997324 -0.0056364555 0.009531237 0.0011947614 0.0021254474 0.0089542 0.0017913705 -0.0009620668
-0.006023131 0.009968949 0.006157714 -0.004227035 -0.012640863 -0.007920419 0.00200797 -0.002239975
0.01082467 0.007769307 -0.0031292774 0.003570773 -0.002719998 -0.000939623 0.008762374 -0.006951401
-0.0007880663 -0.006211848 -0.0050811092 0.0024756014 -0.0025031338 0.0031991126 -0.010977509 0.0021496622
-0.013039824 -0.0016408018 -0.002072707 -0.0073466296 -0.0118439775 -0.008920239 0.006905964 0.005449075
-0.00848698 0.0041113854 0.010945805 -0.0071038986 -0.007876588 0.0033001364 0.0010681755 0.0017440194
-0.004448963 -0.005171428 0.015346826 0.008971666 0.0011822728 -0.009922718 -0.013050632 0.012432973
-0.0005438329 4.9493057e-05 0.007016154 -0.0009786052 -0.0020584594 0.008166254 0.011112679 0.012068489
-0.001711364 0.004514578 0.010799888 0.0007760877 -0.005289066 0.0021958796 -0.0019214847 -0.0073822574
0.0013533924 0.002898813 -0.015965128 -0.006157184 0.0005771221 -0.00045413495 -0.010778255 -1.5870515e-05
-0.008825827 0.011583077 -0.0016916215 0.00386453 0.017815152 -0.005139416 -0.010798529 -0.005829339
0.0016919706 0.0016063272 0.015783237 0.00014245324 0.0044213403 0.004073101 -0.004555149 0.011133699
0.0012427437 0.005576691 -0.004384864 -0.002803385 0.0039764023 -0.014232439 -0.01152706 -0.01104749

lstm.weight_ih_l0_reverse f4 [256, 128]
00000000: 9e64 693d 7b55 353d dc12 92bd 0e49 bebd
00000010: f70b 843d a612 6cbd 30ef c83d ba44 a73b
00000020: 2f01 d3bd 027e ce3c 48eb c7bd 4f4d 99bd
00000030: c496 b8bc 1e50 39bd 1234 af3d 426d 403d
00000040: 034b 863d f96b ddbc b096 083e 66a2 073d
00000050: 63b3 a0bd 12f0 e83d d7ad 0bbd 5b17 103e
00000060: 079b 9e3c eda1 eabd 62d2 cebd 6940 593d
00000070: 8825 bf3d 277f 9f3c 7606 bd3d 605f 35bb
00000080: 47a9 cebc 1a4f e3bd 3e20 2ebd 2c51 39bc
00000090: 15c1 8cbd 53e2 8ebd bffd be3d a159 303d
000000a0: 2df0 f43d 0489 d7bc 71e7 bf3d 3823 4a3d
000000b0: 6baf e23c be7e 8d3d 4b8f 03bd b4a4 5b3d
000000c0: 1cd6 0e39 ab02 c83c 8aac 0bbd 1818 7ebd
000000d0: 4582 03bd 7cb6 8a3d 9666 bf3b 7af1 f0bb
000000e0: 17dd e43d 0e34 843d 974e d93d d9b9 fc3c
000000f0: fbab 393d dcf8 9ebc 8b30 cc3d eba4 43bd
00000100: 1b7c 3d3d b0c2 f73d 5479 5ebd ff5b a1bd
00000110: e0b9 cdbd 0701 5bbd a088 2b3d 18a6 1abd
00000120: 4ab6 a73d c312 0a3e 9e47 3ebd 7fb6 f13d
00000130: ae12 59bd 3ca0 c0bc 2f4d a7bd b718 8d3d
00000140: cb7d c13d c6d0 753b 666e 86bc 0229 e1bd
00000150: dcdb b83d a115 93bc 9380 373c c5c7 abbd
00000160: 3deb 5cbd a317 f03d f53b 33bd 85b7 b63b
00000170: 1886 843d 57d9 243d 86f1 97bc bb4f c2bd
00000180: bd24 633b 6856 ea3d acd5 773d 0a9b ef3d
00000190: f5df 973d daa2 a33c 6363 d53d 6dab c7bd
000001a0: 3a05 91bd 6227 c8bd 54ab e7bd e265 df3c
000001b0: 376e 493d 20f8 1f3d 7ffa fabd af63 74bc
000001c0: 4c72 53bd 01d1 0ebb 804e a93d 2919 d93d
000001d0: ae92 e4bd 03ec 8cbb 5a7a ad3d 9421 88bd
000001e0: 447b 2bbd 9502 ac3d f483 073c d29d 6b3c
000001f0: ad7d 9b3d c12d 893b 0cad 49bd 104e 6ebd
00000200: afd2 01bd bfc6 f63d a5e2 d33d 036d 9bbd
00000210: f7bb a3bc 9f36 543d 29fe 00be 3268 b43d
00000220: 11bb 6cbc 4c5f bb3d 26aa 98bd b50a bebd
00000230: ecfd adba 8527 6b3d dad9 d5bd a52f d93d
00000240: 0d15 21bd 4066 c5bd a94d bbbd 149c 163c
00000250: d699 bb3d edf6 e4bd 562c 90bd 90e9 f0bd
00000260: 01ce 663d f580 f9bb 1a79 f5bd 0cb3 3b3a
00000270: 9eab b2bd 838f 11bd ba6e cfbd c7d2 8fbd
00000280: 2497 923d 0e8c 103b f282 583d 000f ecbd
00000290: 475a 90bd 2313 eb3d 016a 88bb f4f4 d8bd
000002a0: 8afa 1dbc 9804 303c d1f0 90bc 9daf cebd
000002b0: 90e7 be3d 017c 343d 1a35 70bd dd89 f1bd
000002c0: 3add 8e3d e67c 80bd b9c0 c93c c4f7 c13d
000002d0: dc7a 45bd e9b8 9abd 52b9 d0bd 87cc ee3c
000002e0: 2f0d 6dbd ece5 9fbc 29b0 25bd 4d09 df3a
000002f0: 7c40 1a3d 2e41 f73d 9fbf 57bc b883 62bb
00000300: 5d06 dfbd f00a a13d 60d0 cd3c 3d35 c83d
00000310: afb1 a23d 77ed d53d a317 573d 8a28 e63c
00000320: 35b0 17bc 880a 1f3d c77f a53d c338 9cbd
00000330: 6c4a 48bd ec04 95bc 6e43 7b3d cecc a1bd
00000340: c890 92bd 52bc 5a3d f9f9 a33d eaae f43c
00000350: 9767 d43d 329b e53d 36b3 d5bc de41 bd3b
00000360: 9a76 a5bd 5b0b 9c3d baab 1a3d a674 bbbd
00000370: d8a6 273d 5db4 9f3d 5144 353d a87c 54bc
00000380: 0724 08bd 0e66 f9bd bcfd a4bd 82d0 c33c
00000390: 99e3 143d c71a 8cbd 8392 6e3d b206 0bbc
000003a0: f4b5 ee3c acec 83bd 6e35 3cbb 6aea c03a
000003b0: 1c85 d03d 93cb 0cbd ff8f b83b 52fb d33d
000003c0: 3bd6 c0bd 7ea0 e73a 1e75 f3bc 6f5f 943d
000003d0: ae75 5fbd b49d 9abd dc27 af3d cdb4 c1bc
000003e0: c727 80bd ee09 e5bd 555a 03be e662 763d
000003f0: d77d 0cbd 0e94 043d 188b 2d3c 8d9a 403d
0.05698072 0.044270974 -0.071325034 -0.09291278 0.064475946 -0.057634972 0.098112464 0.0051046284
-0.1030296 0.02520657 -0.09761673 -0.074854486 -0.022532828 -0.04524242 0.085548535 0.046979196
0.06557276 -0.027029024 0.13338733 0.03311386 -0.07846715 0.11373915 -0.034101333 0.1407141
0.019361032 -0.11456666 -0.10098721 0.053039942 0.093333304 0.01946981 0.09229748 -0.0027675256
-0.025227202 -0.11099072 -0.042511217 -0.011310857 -0.06872765 -0.06976762 0.09325742 0.043054227
0.119598724 -0.026310451 0.09370316 0.049349993 0.027671536 0.0690894 -0.032119077 0.05362387
0.00013621937 0.024415335 -0.034100093 -0.062034696 -0.032106657 0.067730874 0.0058410866 -0.007353005
0.11174982 0.06455241 0.10610693 0.030850338 0.04533003 -0.019405775 0.09970196 -0.0477647
0.046260934 0.120976806 -0.054314926 -0.07878875 -0.100452185 -0.053467777 0.041878343 -0.037756056
0.08189066 0.1348372 -0.04645502 0.118023865 -0.05299633 -0.023513906 -0.081690185 0.068894796
0.09447821 0.0037508472 -0.016410064 -0.1099415 0.0902631 -0.01795465 0.011200088 -0.083877124
-0.05393528 0.11723258 -0.04375835 0.0055760765 0.06470889 0.040246334 -0.018547785 -0.09487864
0.003465935 0.11442262 0.060506508 0.11699493 0.07415763 0.019975115 0.10419347 -0.09749494
-0.07081075 -0.09773137 -0.11311975 0.027270261 0.049177375 0.03905499 -0.122548096 -0.014916345
-0.051622674 -0.0021792057 0.08266926 0.10600502 -0.111607894 -0.0043005957 0.08470602 -0.066470295
-0.041865602 0.0839893 0.008271206 0.014380889 0.0759233 0.0041863625 -0.049237296 -0.058179915
-0.031695064 0.120496266 0.103459634 -0.07589152 -0.01998709 0.051809903 -0.12596954 0.08808936
-0.014448897 0.09149036 -0.07454328 -0.09279386 -0.0013274527 0.057410736 -0.104419425 0.106047906
-0.039326716 -0.09638643 -0.09145672 0.009192485 0.09160201 -0.1117991 -0.070397064 -0.117632985
0.056348804 -0.00761425 -0.11985989 0.0007160164 -0.0872414 -0.035537254 -0.10128541 -0.070226245
0.07157734 0.0022056135 0.052859254 -0.115262985 -0.07048469 0.114782594 -0.0041630273 -0.10593596
-0.009642253 0.010743283 -0.017692955 -0.10092089 0.09321511 0.04406357 -0.05864439 -0.117938735
0.06975789 -0.062738225 0.02462803 0.09471086 -0.04821287 -0.075548 -0.10191597 0.02915026
-0.0578739 -0.019518815 -0.040451203 0.0017016322 0.037659153 0.12072979 -0.013168245 -0.0034563374
-0.108898856 0.07863414 0.025123775 0.097757794 0.07944047 0.104456834 0.052512776 0.028095502
-0.00925832 0.038828403 0.08081012 -0.07628014 -0.0488991 -0.018190823 0.061343603 -0.079003915
-0.07156521 0.053402252 0.08006663 0.029868562 0.10371321 0.11211242 -0.026086431 0.0057756742
-0.08079262 0.076193534 0.037761427 -0.09153108 0.0409306 0.077980734 0.044254605 -0.0129691735
-0.033237483 -0.121776685 -0.080562085 0.023903135 0.036349867 -0.06841045 0.058245193 -0.008485483
0.029139496 -0.06441626 -0.002871837 0.0014718298 0.101816386 -0.03437383 0.0056324 0.1035067
-0.09415861 0.0017671732 -0.029718932 0.07244765 -0.054555587 -0.07549611 0.085525244 -0.023645783
-0.06257587 -0.111835346 -0.12827428 0.06015291 -0.034299698 0.03236776 0.010592245 0.04702239
