results/dp/wesad/seed_42/best_model.pth (torch, 335413 bytes, 30 tensors)

_module.mlp.0.weight f4 [128, 140]
0.05362166 0.07184097 -0.027902713 0.06381443 0.0041065402 0.0066364636 -0.011673514 0.03754281
0.07779412 -0.05570253 0.076150306 0.023581205 0.07499636 0.024080638 0.03457069 -0.016862644
0.06202841 0.023080323 -0.026812162 0.01987318 -0.03067329 -0.015712647 -0.014262338 0.06412639
-0.055804584 -0.029416176 -0.015023288 -0.05730797 0.007951018 -0.08032663 0.074048616 -0.053600337
0.04559045 0.02110024 -0.029765265 0.027392222 0.023355478 0.08516656 0.02674309 -0.008890875
0.028576938 -0.008386842 0.026440052 0.0858262 0.04605224 -0.052330185 0.06186026 0.026438301
0.06663794 -0.027772712 -0.08437891 -0.021504594 -0.06666963 0.06919387 0.008813835 0.005376371
0.029195787 0.0036028828 0.073606335 -0.048056297 0.022943888 -0.041113865 0.031269155 -0.025143625
0.04097245 0.004279057 0.07144574 -0.04862396 -0.030680496 -0.04420889 0.069444634 0.02200727
0.0781168 -0.059484623 -0.09151392 -0.057439476 -0.062044114 0.03930314 0.04343495 0.084248506
-0.05324401 -0.06724711 0.02966271 -0.016897425 0.03139118 -0.03642111 0.0534392 -0.054840215
-0.03078639 0.046893146 0.018058036 -0.015546932 0.035695314 0.064969346 -0.06949063 -0.055894546
0.087848924 -0.024990115 -0.016008997 -0.0653373 -0.053381503 0.030633535 -0.0073561934 -0.047837324
-0.008185372 -0.05840051 -0.063036785 -0.037081547 -0.05894038 -0.032895632 0.0795893 0.013717873
0.02371558 -0.07646113 -0.056725394 -0.035349023 0.018081242 -0.062278084 -0.027085563 -0.039747715
-0.0033824455 -0.024461057 -0.018535974 -0.050452862 -0.045233697 -0.05165292 -0.021707471 -0.06017102
0.09367277 -0.021325687 0.069395594 0.024979046 -0.08993187 0.06686353 -0.027400818 -0.05214087
-0.07408661 -0.08309917 0.033159986 -0.022303913 0.034201033 -0.07794421 0.07094156 -0.048843067
-0.033045046 0.020831646 0.04130026 0.08267452 0.07746723 -0.06910072 0.014324515 -0.0413757
-0.0022708236 -0.07144558 0.07372089 -0.063503094 0.03875534 0.025508929 0.0143762035 -0.06214214
0.077061586 0.012121633 0.0040915627 -0.08259474 0.0344708 -0.030112006 -0.05050232 0.05752965
0.009817103 -0.039990656 -0.038365804 -0.009865293 0.046921168 -0.011447839 -0.04747625 -0.033056322
-0.05852377 0.03424868 0.054513503 -0.06905897 0.03508896 0.028802807 0.00022608717 -0.028207261
0.054902993 0.0554227 0.024409557 -0.032139536 -0.0117067555 0.006981787 -0.016068917 -0.032046337
0.05711823 0.071980156 0.0150787905 -0.01562078 0.005191069 -0.0017382572 0.022278057 0.020255083
-0.087942295 -0.02641772 0.0580616 0.026822865 -0.0024869111 -0.03590898 -0.061608735 -0.06688756
-0.038342595 0.016285673 0.0655798 0.027157247 -0.0747511 -0.054979745 -0.013678359 0.07694412
0.011811236 -0.025094723 0.030775437 -0.016123975 -0.04740813 0.068749435 -0.040168878 -0.039670262
-0.08586067 0.06189652 0.057982378 0.019580955 -0.061210793 -0.09339851 -0.06894466 0.06276083
0.043327272 0.08035602 0.055876993 0.017515512 0.0033522947 -0.055039257 -0.06930876 -0.074516274
0.04220717 -0.046906773 -0.025124084 -0.047397543 -0.009745196 -0.056937292 -0.043532662 0.027643569
-0.0193883 0.034948446 -0.03072189 -0.07198156 -0.031471573 -0.034028556 -0.039816525 -0.087522335
00000000: 63a2 5b3d 5c21 933d 3b94 e4bc 24b1 823d
00000010: 2890 863b b176 d93b 4442 3fbc 7dc6 193d
00000020: 8652 9f3d 5628 64bd b1f4 9b3d 5f2d c13c
00000030: b197 993d c244 c53c ff99 0d3d 8723 8abc
00000040: 8111 7e3d f212 bd3c 2ea5 dbbc 14cd a23c
00000050: 8d46 fbbc cfb7 80bc 95ac 69bc b254 833d
00000060: 5993 64bd 31fa f0bc 3d24 76bc c3bb 6abd
00000070: fd44 023c 4a82 a4bd cda6 973d 078c 5bbd
00000080: 0dbd 3a3d 69da ac3c 49d6 f3bc a765 e03c
00000090: fd53 bf3c ce6b ae3d 5314 db3c 08ab 11bc
000000a0: 2f1a ea3c f768 09bc cf98 d83c a6c5 af3d
000000b0: 46a1 3c3d 2d58 56bd 2f61 7d3d 2395 d83c
000000c0: 7979 883d 9983 e3bc dace acbd 672a b0bc
000000d0: 168a 88bd 84b5 8d3d e767 103c 452c b03b
000000e0: 012c ef3c 581e 6c3b ebbe 963d aed6 44bd
000000f0: d2f4 bb3c 0367 28bd 1614 003d 01fa cdbc
00000100: bad2 273d 5537 8c3b 2552 923d eb29 47bd
00000110: aa55 fbbc 6214 35bd fd38 8e3d 9748 b43c
00000120: b3fb 9f3d 26a6 73bd a66b bbbd a845 6bbd
00000130: f821 7ebd 54fc 203d d9e8 313d 7b8a ac3d
00000140: 6416 5abd dab8 89bd 36ff f23c 786c 8abc
00000150: 0a94 003d 4d2e 15bd 10e3 5a3d 22a0 60bd
00000160: bd33 fcbc 0713 403d 72ee 933c 8fb8 7ebc
00000170: 4035 123d a60e 853d 1a51 8ebd aef1 64bd
00000180: 23ea b33d 12b8 ccbc 4d25 83bc 90cf 85bd
00000190: 90a6 5abd 2ef3 fa3c 390c f1bb 12f1 43bd
000001a0: f01b 06bc 6035 6fbd 6e19 81bd d2e2 17bd
000001b0: 786b 71bd 92bd 06bd b7ff a23d eec0 603c
000001c0: 2d47 c23c a797 9cbd e358 68bd 23ca 10bd
000001d0: 1d1f 943c 4e17 7fbd 8be2 ddbc 80ce 22bd
000001e0: 05ac 5dbb 8e62 c8bc c1d8 97bc a9a7 4ebd
000001f0: f846 39bd 0392 53bd ded3 b1bc e375 76bd
00000200: 82d7 bf3d 35b3 aebc 471f 8e3d dba0 cc3c
00000210: 332e b8bd bfef 883d ae77 e0bc aa91 55bd
00000220: b8ba 97bd e62f aabd c4d2 073d b2b6 b6bc
00000230: 6216 0c3d 37a1 9fbd cf49 913d ab0f 48bd
00000240: 3e5a 07bd 21a7 aa3c 762a 293d 4251 a93d
00000250: 24a7 9e3d ae84 8dbd 5fb1 6a3c 9179 29bd
00000260: 19d2 14bb 0f52 92bd fafa 963d e90d 82bd
00000270: ebbd 1e3d 1af8 d03c 2b8a 6b3c c288 7ebd
00000280: 77d2 9d3d d099 463c 8412 863b 6e27 a9bd
00000290: 4131 0d3d 74ad f6bc 85db 4ebd 36a4 6b3d
000002a0: ead7 203c 3ecd 23bd 7625 1dbd 0aa2 21bc
000002b0: 6930 403d b88f 3bbc 7576 42bd 1166 07bd
000002c0: 9fb6 6fbd 5848 0c3d 8d49 5f3d ca6e 8dbd
000002d0: 71b9 0f3d ddf3 eb3c d011 6d39 ea12 e7bc
000002e0: f6e1 603d ea02 633d 8df6 c73c bfa4 03bd
000002f0: b1cd 3fbc 79c7 e43b f6a2 83bc 0543 03bd
00000300: cef4 693d 556a 933d 080d 773c 4dee 7fbc
00000310: d819 aa3b 3cd6 e3ba 7980 b63c fded a53c
00000320: 171b b4bd f969 d8bc 00d2 6d3d a0bb db3c
00000330: 72fb 22bb 4b15 13bd 7159 7cbd 58fc 88bd
00000340: 200d 1dbd 8869 853c b44e 863d e078 de3c
00000350: 1b17 99bd 7132 61bd 321b 60bc e194 9d3d
00000360: ea83 413c 7393 cdbc c51c fc3c 6d16 84bc
00000370: 072f 42bd 81cc 8c3d 1f88 24bd 497d 22bd
00000380: b8d7 afbd 3587 7d3d ee7e 6d3d 3d68 a03c
00000390: 2bb8 7abd b847 bfbd dc32 8dbd c088 803d
000003a0: f077 313d b291 a43d 46df 643d b17c 8f3c
000003b0: 2cb2 5b3b d870 61bd c0f1 8dbd fd9b 98bd
000003c0: 6de1 2c3d 5121 40bd 06d1 cdbc ed23 42bd
000003d0: 51aa 1fbc 1437 69bd 4e4f 32bd c474 e23c
000003e0: 36d4 9ebc 1a26 0f3d 79ac fbbc 116b 93bd
000003f0: 56e8 00bd 8761 0bbd a716 23bd e93e b3bd

_module.mlp.0.bias f4 [128]
0.020026686 -0.051299438 0.07017886 -0.01797703 -0.038359858 0.0065193 0.06216942 -0.06614733
0.0057625114 -0.014925249 -0.016172318 0.030563936 0.007105052 -0.061191287 0.020809874 0.08014996
-0.053848717 0.079697154 -0.06323073 0.04294788 0.07121788 0.045406494 0.019565383 0.011565282
-0.015973222 0.072115555 -0.011430177 0.06823605 0.08780109 -0.07639518 0.05889221 0.026117153
-0.050538752 -0.047156814 -7.0190086e-05 0.09329624 0.05051257 -0.012724551 -0.027968014 -0.045142133
-0.030664908 -0.002792754 -0.09041008 -0.078826346 -0.06976058 0.022833878 0.028901469 0.021867333
0.05957647 0.017883424 -0.03631162 0.03167505 -0.040363006 0.06578305 -0.050461274 -0.05162643
-0.03472314 -0.054557953 -0.008520458 0.0011519769 -0.0048883017 -0.013267137 -0.06852244 -0.083998986
-0.06455573 -0.07000343 -0.08320002 0.072704464 0.047570255 0.051794015 0.051404096 0.016570982
-0.03519872 -0.023399249 -0.026850484 0.053878203 0.0018429437 -0.067435086 0.028750619 -0.06802547
0.049191482 0.012372659 -0.015005117 -0.059738073 0.030462518 0.0039753355 0.030637592 -0.061679382
-0.047576472 -0.04296602 -0.052598514 -0.05012418 -0.07196531 0.08802088 -0.093036756 -0.034025088
0.01920238 -0.037886064 -0.027795708 0.031438675 -0.027003596 -0.019222917 0.058388405 -0.008736263
-0.005047836 0.054503262 -0.023255132 -0.06218792 0.08795581 -0.0759892 -0.103198476 -0.046313506
-0.0037352126 0.056023568 -0.0415151 -0.047738355 0.086690746 0.0898143 0.04011422 -0.08050465
0.04499519 -0.0012423559 -0.06181693 0.046734802 -0.0355623 0.020203635 -0.06591628 0.07281882
00000000: 010f a43c 5c1f 52bd efb9 8f3d 9044 93bc
00000010: 3a1f 1dbd da9f d53b 5da5 7e3d 4078 87bd
00000020: 73d3 bc3b 0889 74bc cf7b 84bc 3861 fa3c
00000030: 7fd1 e83b b7a3 7abd 7879 aa3c aa25 a43d
00000040: 7990 5cbd 4338 a33d 1d7f 81bd 1eea 2f3d
00000050: aeda 913d 29fc 393d 9547 a03c 4f7c 3d3c
00000060: 46da 82bc 52b1 933d a345 3bbc 58bf 8b3d
00000070: 0fd1 b33d 1375 9cbd f538 713d a4f3 d53c
00000080: b901 4fbd 8127 41bd 0433 93b8 1912 bf3d
00000090: 45e6 4e3d a37a 50bc 2d1d e5bc f5e6 38bd
000000a0: f934 fbbc a306 37bb ec28 b9bd b56f a1bd
000000b0: a3de 8ebd 1d0e bb3c c6c2 ec3c 1f23 b33c
000000c0: 7506 743d 4280 923c 7ebb 14bd b2bd 013d
000000d0: ae53 25bd 44b9 863d 7bb0 4ebd 3c76 53bd
000000e0: da39 0ebd 2978 5fbd 6499 0bbc eefd 963a
000000f0: 0c2e a0bb 685e 59bc 7e55 8cbd a907 acbd
00000100: cb35 84bd f55d 8fbd c664 aabd 14e6 943d
00000110: 07d9 423d f625 543d 1a8d 523d debf 873c
00000120: 882c 10bd c8af bfbc 8cf5 dbbc 64af 5c3d
00000130: ee8e f13a 681b 8abd 6b86 eb3c f050 8bbd
00000140: 027d 493d b1b6 4a3c 06d8 75bc e9af 74bd
00000150: 888c f93c 8843 823b b0fb fa3c 85a3 7cbd
00000160: 8cdf 42bd 23fd 2fbd 8a71 57bd 034f 4dbd
00000170: 8c62 93bd 4b44 b43d 0e8a bebd e45d 0bbd
00000180: 4f4e 9d3c 6b2e 1bbd d3b3 e3bc d7c5 003d
00000190: a536 ddbc 6179 9dbc ae28 6f3d 8b22 0fbc
000001a0: 5168 a5bb d03e 5f3d 8c81 bebc c3b8 7ebd
000001b0: 2d22 b43d 3aa0 9bbd b959 d3bd 3bb3 3dbd
000001c0: 78ca 74bb f878 653d bd0b 2abd 4b89 43bd
000001d0: eb8a b13d 8ff0 b73d cf4e 243d 9fdf a4bd
000001e0: e04c 383d 8cd6 a2ba c033 7dbd fe6c 3f3d
000001f0: c6a9 11bd 1882 a53c 1dff 86bd 0922 953d

_module.mlp.1.weight f4 [128]
1.0028758 1.0027868 0.99044025 0.99613607 0.9983567 1.0008917 0.9931997 0.9816939
0.99274623 1.007129 1.0034604 0.98853505 1.0028791 0.99658614 1.0204153 1.0097468
0.97906804 0.987415 0.99670684 1.0094949 1.0003368 0.9994179 1.0047753 1.0200057
1.0059956 1.0065231 1.0127769 0.9899445 1.0024306 0.9991162 0.99755794 1.0084503
0.9940086 0.99894786 1.0059808 0.9940773 1.0112616 0.9998231 1.0185173 0.9964043
1.0049875 1.0008918 0.9879434 1.0020865 0.99862945 0.99308896 1.0073955 0.9874952
1.0052917 1.009137 0.99949497 0.9977918 0.9990113 0.9888532 0.98146296 0.99303454
0.9921917 0.98208004 1.0208309 0.99164754 0.9942626 1.00131 1.0031798 1.0080981
0.99540585 1.0093962 1.0022118 0.992526 0.99028623 0.9930021 1.0096925 0.9967321
1.0038546 0.99683464 0.99885035 1.0079901 0.9945668 0.99262637 1.01154 1.0028552
0.9982039 1.0053976 0.9991178 1.0068957 0.9975108 0.9908115 1.0089313 0.9953924
0.99594814 1.0101553 1.0030323 0.9942413 0.98926467 1.0186417 1.0139921 0.9927034
1.0188437 0.994994 0.9988423 1.0115178 1.0001011 0.9936512 0.99659127 1.0142324
0.9925698 1.0111084 1.0182494 0.99157876 1.0045164 1.0080283 1.0037711 1.015378
0.9827805 0.99915016 1.0017245 1.0181369 1.0015067 1.0003796 1.0076816 1.0111886
1.0005436 1.0080674 1.0041037 1.001501 0.9991717 0.9810462 0.99136573 1.0048825
00000000: 3c5e 803f 515b 803f 7e8d 7d3f c602 7f3f
00000010: 4e94 7f3f 381d 803f 5642 7e3f 4b50 7b3f
00000020: 9e24 7e3f 9ae9 803f 6471 803f a210 7d3f
00000030: 585e 803f 4520 7f3f f89c 823f 623f 813f
00000040: 34a4 7a3f 3bc7 7c3f 2e28 7f3f 2137 813f
00000050: 090b 803f dad9 7f3f 7a9c 803f 8c8f 823f
00000060: 77c4 803f c0d5 803f aca2 813f 016d 7d3f
00000070: a54f 803f 14c6 7f3f f55f 7f3f e614 813f
00000080: 5977 7e3f 0cbb 7f3f fbc3 803f da7b 7e3f
00000090: 0571 813f 68f4 7f3f c65e 823f 5a14 7f3f
000000a0: 6ea3 803f 391d 803f dce9 7c3f 5f44 803f
000000b0: 2ea6 7f3f 143b 7e3f 56f2 803f 7ccc 7c3f
000000c0: 66ad 803f 672b 813f e7de 7f3f 496f 7f3f
000000d0: 34bf 7f3f 7c25 7d3f 2841 7b3f 8337 7e3f
000000e0: 4600 7e3f 9969 7b3f 96aa 823f 9ddc 7d3f
000000f0: fe87 7e3f ed2a 803f 3268 803f 5c09 813f
00000100: ebd2 7e3f e533 813f 7a48 803f 2f16 7e3f
00000110: 6683 7d3f 6335 7e3f 9b3d 813f d629 7f3f
00000120: 4f7e 803f 8e30 7f3f a8b4 7f3f d205 813f
00000130: ee9b 7e3f c31c 7e3f 257a 813f 8f5d 803f
00000140: 4a8a 7f3f deb0 803f 2fc6 7f3f f5e1 803f
00000150: de5c 7f3f d3a5 7d3f a924 813f 09d2 7e3f
00000160: 75f6 7e3f c54c 813f 5d63 803f 9986 7e3f
00000170: 7340 7d3f da62 823f 7eca 813f cf21 7e3f
00000180: 7869 823f edb7 7e3f 21b4 7f3f 6a79 813f
00000190: 5003 803f ed5f 7e3f 9b20 7f3f 5ed2 813f
000001a0: 0e19 7e3f 006c 813f ff55 823f 1bd8 7d3f
000001b0: fe93 803f 1207 813f 927b 803f e8f7 813f
000001c0: 8197 7b3f 4ec8 7f3f 8238 803f 4f52 823f
000001d0: 5f31 803f 700c 803f b6fb 803f a16e 813f
000001e0: d011 803f 5a08 813f 7886 803f 2f31 803f
000001f0: b7c9 7f3f d825 7b3f 25ca 7d3f fd9f 803f

_module.mlp.1.bias f4 [128]
-0.008809182 -0.008769055 0.0018736856 0.00904129 0.00524314 0.0014135754 -0.013505316 -0.0047162934
0.0023971857 0.0075393757 -0.0070669665 -0.0027534806 0.023297537 0.0007152807 -0.009490525 0.0089773815
0.009922919 -0.0148514435 -0.029188277 -0.003283106 -0.014405235 0.0033090275 -0.00471198 0.01053039
0.0073114093 0.010200852 -7.237406e-05 0.0034090623 -0.0032436782 -0.008068854 0.013207591 -0.0023925093
-0.007315417 0.0042571016 0.013737103 -0.01018111 0.008813832 0.012240352 0.008916742 -0.0014477501
0.0037474923 -0.016712375 0.00053350965 0.0041017663 -0.0017351436 -0.0030936934 -0.0064683557 0.0044879117
-0.0116993 -0.0060533374 -0.026311358 0.007306668 0.00956466 0.007137646 0.0027534477 0.0095246965
-0.010893457 -0.0050792 0.0024225626 -0.0060520633 0.004928071 0.007980409 0.0011188914 0.008584121
0.008321108 -0.0033623702 -0.0037744117 -0.009689525 0.0006619537 0.001169373 0.0069396934 -0.010366602
-6.9814145e-05 -0.0058978964 0.008913793 0.02420468 0.00059739104 -0.0013183292 0.010465782 -0.006929361
-0.006483647 -0.0106221335 0.0050970195 -0.005762508 0.01101311 0.0060604447 0.010569593 -0.005446289
-0.004542306 -0.0034438448 -0.0009817054 -0.010958601 -0.0050491136 0.010055257 -0.01696987 -0.016320253
0.012273876 0.006211336 0.00017495296 -0.004008007 -0.00830452 -0.01649181 -0.0073768836 0.008099905
0.00092815794 -0.00312321 0.0038839346 -0.0039410116 0.010930277 0.0007606692 -0.013855092 -0.0023810202
0.012046961 -0.02235058 0.0076032286 0.005563122 0.0027075347 0.01598346 0.00028874757 -0.013543561
0.007982357 -0.0026764574 0.007207397 -0.0037605227 -0.00032207038 0.003196708 -0.004409179 -0.0010958498
00000000: 6354 10bc 15ac 0fbc 7596 f53a eb21 143c
00000010: a5ce ab3b b847 b93a 6745 5dbc 238b 9abb
00000020: 1a1a 1d3b de0c f73b 0392 e7bb bd73 34bb
00000030: 7ada be3c ad81 3b3a 267e 1bbc de15 133c
00000040: bd93 223c 7853 73bc 411c efbc 6129 57bb
00000050: ef03 6cbc 45dc 583b f466 9abb a887 2c3c
00000060: 8c94 ef3b 7921 273c 87c7 97b8 936a 5f3b
00000070: e493 54bb 3a33 04bc a764 583c a5cb 1cbb
00000080: 2ab6 efbb 287f 8b3b 9611 613c acce 26bc
00000090: e467 103c c28b 483c 8717 123c 6fc2 bdba
000000a0: 7d98 753b 64e8 88bc 3adb 0b3a 1c68 863b
000000b0: c26d e3ba 90bf 4abb 80f4 d3bb 550f 933b
000000c0: 6cae 3fbc 135b c6bb eb8a d7bc c66c ef3b
000000d0: 17b5 1c3c eae2 e93b 3073 343b 790d 1c3c
000000e0: 787a 32bc 6b6f a6bb dbc3 1e3b 6350 c6bb
000000f0: a87b a13b 43c0 023c c4a7 923a 6aa4 0c3c
00000100: 4255 083c 365b 5cbb 1f5c 77bb d0c0 1ebc
00000110: f686 2d3a a645 993a 5e66 e33b aed8 29bc
00000120: 2f69 92b8 2443 c1bb 280b 123c e548 c63c
00000130: 3c9a 1c3a cacb acba ac78 2b3c b10f e3bb
00000140: c674 d4bb 7508 2ebc e604 a73b 6cd3 bcbb
00000150: 5570 343c b296 c63b 162c 2d3c c976 b2bb
00000160: a0d7 94bb 21b2 61bb 91ac 80ba b48b 33bc
00000170: 0973 a5bb cebe 243c 6604 8bbc 0db2 85bc
00000180: 5e18 493c 7688 cb3b 9473 3739 9955 83bb
00000190: ae0f 08bc d519 87bc c9b9 f1bb 77b5 043c
000001a0: a04f 733a c5ae 4cbb 9c89 7e3b 9a23 81bb
000001b0: e814 333c a567 473a 7800 63bc e40a 1cbb
000001c0: 9e60 453c 9018 b7bc 8124 f93b da4a b63b
000001d0: e570 313b bfef 823c 0b63 9739 d0e5 5dbc
000001e0: 6fc8 023c 8167 2fbb 072c ec3b 1a73 76bb
000001f0: 8edb a8b9 dc7f 513b e07a 90bb 9ea2 8fba

_module.mlp.4.weight f4 [64, 128]
0.017053729 -0.0040582623 0.05886044 0.071476616 0.005185237 0.060630642 -0.038526922 -0.029202595
-0.034683876 -0.07592469 0.07579673 0.017289417 -0.035372727 -0.09211081 0.058629494 0.012079961
-0.06116468 0.0023460248 -0.027398076 0.031490438 -0.033431176 -0.061291408 -0.04203967 -0.044405695
0.015639741 0.06510037 0.033288404 0.054412063 -0.026742065 -0.036434274 -0.055334203 -0.07007667
-0.055575334 -0.0075161774 0.110299446 -0.077835344 0.07218551 0.044057366 0.06946362 0.067869805
0.052245464 0.083966345 0.04364192 -0.020761898 0.031243268 0.003950745 -0.0411784 0.05219695
0.053635783 0.08761096 -0.040584635 -0.009231099 0.022541953 0.04414882 -0.07188388 0.015894668
-0.0043653394 0.09927599 0.01618939 -0.02588711 -0.026867365 0.07939628 -0.03079635 0.02092785
0.05469653 -0.08906637 -0.012428764 -0.06583617 -0.027492678 0.020620467 -0.014966115 0.058922477
-0.058519788 0.045150455 -0.020989172 0.045629237 -0.019681532 0.07640307 0.009790087 0.041815404
-0.07576238 0.02379913 0.04541205 -0.0693481 0.07543207 0.048680097 -0.031235185 -0.035960134
0.054352023 -0.03713331 0.049918223 -0.0042499155 0.072899 -0.07250684 -0.024953978 0.02266657
-0.019747132 -0.00815305 -0.0176151 0.08723068 0.04489628 -0.07802449 0.022485208 0.09261488
0.04409988 0.08199894 -0.034748796 0.015231175 0.11531794 0.08629387 -0.030433234 0.020105911
0.009292674 0.08051203 -0.04654812 -0.014581468 0.050518855 -0.004641654 -0.05113086 0.07967466
-0.029582981 0.055100594 -0.034102846 -0.06621807 -0.05135524 0.011906401 0.06378156 6.150892e-05
0.05579352 0.013035932 0.03333519 0.09569837 0.051355 0.060266685 -0.045967817 -0.07317518
0.060417697 0.078655995 0.03527704 0.033254467 -0.027874943 0.027875388 -0.04776737 0.005236233
0.07747174 -0.058099557 -0.07544097 -0.0055064103 0.032885272 -0.094394594 0.042518992 0.02232774
0.0026902733 0.058332674 0.035948522 -0.016228857 -0.09569768 0.08103643 -0.029205877 -0.05136451
0.018910434 0.061056912 -0.000979834 -0.06199545 -0.089746565 0.03369023 0.026455332 0.056545068
0.09758063 -0.051949717 0.02861386 0.08794693 0.015666496 -0.043149423 -0.07151268 -0.0026962948
-0.054152895 -0.072691426 -0.092211105 0.035786327 -0.017393988 0.02835062 0.041101303 -0.09100199
-0.027410932 0.06299969 -0.018053241 0.063727215 -0.07570072 0.08035346 0.028357543 -0.06734631
0.016285624 0.058302946 0.033471372 0.021248471 -0.022159524 -0.029610438 -0.044257727 0.08551494
0.018076707 0.014412334 -0.055210948 -0.06919683 0.000118095726 0.047221936 0.056222517 -0.010700117
0.028269216 -0.023440007 -0.03201978 0.08139192 0.032314006 0.076146945 -0.088329874 0.021110168
-0.030349093 0.0559869 0.052724928 0.019583138 0.058251888 -0.053670395 -0.038641233 0.05452905
-0.056457117 0.026050529 0.030291734 -0.059395086 -0.047384355 -0.062053267 -0.07226975 -0.03112233
0.0302812 0.025431106 0.045021564 0.002676757 -0.07382544 -0.07967038 0.068938196 0.00600719
0.07173303 -0.08205555 -0.04752542 -0.0054784506 0.058152996 -0.065405585 -0.048321895 -0.0718452
0.040638737 0.011025834 -0.031033723 0.055755842 -0.07583412 -0.003112114 -0.04270978 -0.027433537
00000000: 43b4 8b3c 2cfb 84bb a517 713d 5562 923d
00000010: ece8 a93b d657 783d 68ce 1dbd 483a efbc
00000020: ae10 0ebd 677e 9bbd 513b 9b3d 89a2 8d3c
00000030: fee2 10bd 98a4 bcbd 7b25 703d 07eb 453c
00000040: d187 7abd c4bf 193b ee71 e0bc 1efc 003d
00000050: 21ef 08bd b30c 7bbd ca31 2cbd bfe2 35bd
00000060: ea1e 803c 5853 853d 6c59 083d 2fdf 5e3d
00000070: 2d12 dbbc 1b3c 15bd 1ea6 62bd 5b84 8fbd
00000080: f6a2 63bd 444a f6bb ade4 e13d 2368 9fbd
00000090: ffd5 933d 7f75 343d f142 8e3d 53ff 8a3d
000000a0: 57ff 553d 8cf6 ab3d dfc1 323d db14 aabc
000000b0: e2f1 ff3c 4075 813b afaa 28bd 78cc 553d
000000c0: 32b1 5b3d 606d b33d 133c 26bd 093e 17bc
000000d0: e7a9 b83c 65d5 343d db37 93bd 8935 823c
000000e0: 1f0b 8fbb 3651 cb3d 9d9f 843c 3411 d4bc
000000f0: f318 dcbc 849a a23d a148 fcbc e270 ab3c
00000100: 7809 603d 6e68 b6bd 04a2 4bbc 1dd5 86bd
00000110: 5338 e1bc 41ec a83c 7034 75bc b258 713d
00000120: 72b2 6fbd afef 383d 7cf1 abbc b9e5 3a3d
00000130: 2a3b a1bc 3679 9c3d 9a66 203c a146 2b3d
00000140: 4f29 9bbd 65f6 c23c fc01 3a3d 6006 8ebd
00000150: 217c 9a3d c864 473d eee0 ffbc ef4a 13bd
00000160: 3aa0 5e3d 1919 18bd 0d77 4c3d e042 8bbb
00000170: 124c 953d 777e 94bd 496c ccbc 3eaf b93c
00000180: bdc4 a1bc 5f94 05bc 8b4d 90bc 00a6 b23d
00000190: 29e5 373d 4ecb 9fbd e632 b83c dfac bd3d
000001a0: 13a2 343d 0fef a73d c154 0ebd 2e8c 793c
000001b0: d02b ec3d d7ba b03d 1e4f f9bc 27b5 a43c
000001c0: 4d40 183c 7ee3 a43d 3ea9 3ebd 1ce7 6ebc
000001d0: dcec 4e3d 0419 98bb 986e 51bd 782c a33d
000001e0: 0258 f2bc 29b1 613d 6daf 0bbd 579d 87bd
000001f0: df59 52bd 1113 433c e89f 823d 5afe 8038
00000200: bf87 643d a994 553c 7b8a 083d 82fd c33d
00000210: 9f59 523d 33da 763d c048 3cbd dedc 95bd
00000220: 8c78 773d 6516 a13d a87e 103d d635 083d
00000230: fe59 e4bc ed5a e43c b8a7 43bd b594 ab3b
00000240: 81a9 9e3d cdf9 6dbd cc80 9abd 1e6f b4bb
00000250: b5b2 063d f451 c1bd 6528 2e3d aae8 b63c
00000260: 4c4f 303b 3eee 6e3d c23e 133d 61f2 84bc
00000270: 25fd c3bd 6ef6 a53d 2a41 efbc 9863 52bd
00000280: 0eea 9a3c d016 7a3d c66d 80ba f1ee 7dbd
00000290: 0ccd b7bd c4fe 093d dab8 d83c cd9b 673d
000002a0: 5ad8 c73d 3ac9 54bd 9d67 ea3c 851d b43d
000002b0: 0657 803c 73bd 30bd 3d75 92bd 52b4 30bb
000002c0: 6dcf 5dbd 3edf 94bd 2dd9 bcbd af94 123d
000002d0: d67d 8ebc 8f3f e83c d759 283d 405f babd
000002e0: e48c e0bc fb05 813d 64e4 93bc 6a83 823d
000002f0: fb08 9bbd 5b90 a43d 144e e83c ddec 89bd
00000300: 6e69 853c 12cf 6e3d 4719 093d 4611 ae3c
00000310: e487 b5bc 9791 f2bc 9747 35bd 7522 af3d
00000320: 9a15 943c b621 6c3c e024 62bd 11b7 8dbd
00000330: 29aa f738 ca6b 413d 9549 663d 8b4f 2fbc
00000340: d894 e73c 4205 c0bc 2c27 03bd cfb0 a63d
00000350: b15b 043d eef2 9b3d 4be6 b4bd 3bef ac3c
00000360: a99e f8bc 8552 653d 18f6 573d d16c a03c
00000370: 8899 6e3d 7dd5 5bbd 4546 1ebd da59 5f3d
00000380: 943f 67bd eb67 d53c 5f26 f83c 4348 73bd
00000390: 1916 42bd 912b 7ebd 2a02 94bd 42f4 febc
000003a0: 4710 f83c e554 d03c 8868 383d 886c 2f3b
000003b0: cb31 97bd 392a a3bd 782f 8d3d f6d7 c43b
000003c0: c4e8 923d bd0c a8bd 04aa 42bd 9384 b3bb
000003d0: d631 6e3d 5df3 85bd 2eed 45bd 9423 93bd
000003e0: ce74 263d b3a5 343c 6f3a febc 3d60 643d
000003f0: eb4e 9bbd 9cf4 4bbb 73f0 2ebd 4cbc e0bc

_module.mlp.4.bias f4 [64]
0.03868735 0.0052044853 -0.046881884 -0.020104976 -0.083452575 -0.020189472 -0.028594032 -0.017598137
0.07920117 0.03032622 0.047629844 0.044360448 0.05608461 0.07653345 0.038659994 0.064662196
-0.09046342 0.015860982 0.071767874 -0.09430286 -0.078978404 -0.021013577 0.024315665 0.07040527
-0.07447925 0.09483234 0.00085997535 -0.014295009 -0.03767307 0.06492585 0.026870325 0.031807397
-0.06248702 -0.01765114 -0.085950375 -0.09708513 0.02946712 -0.027085904 -0.10291076 -0.07077919
0.09405918 0.08162972 -0.07058533 -0.035387617 0.067687035 -0.0019981333 0.0057398574 -0.046366505
0.035441283 -0.08130197 -0.07991655 0.029783934 0.042722262 0.034510024 -0.032259792 -0.030011032
-0.05095856 -0.036159113 -0.06271141 0.043112896 -0.032217275 -0.10430869 0.022969738 0.08116945
00000000: a076 1e3d 638a aa3b 3807 40bd 31b3 a4bc
00000010: 2fe9 aabd 6464 a5bc 083e eabc f829 90bc
00000020: 3934 a23d b16e f83c 8317 433d 4db3 353d
00000030: fab8 653d 92bd 9c3d f159 1e3d 9d6d 843d
00000040: e344 b9bd e4ee 813c 09fb 923d dc21 c1bd
00000050: 6ebf a1bd aa24 acbc a531 c73c a330 903d
00000060: 9488 98bd 7537 c23d f86f 613a 9d35 6abc
00000070: 144f 1abd d8f7 843d 281f dc3c 7948 023d
00000080: 64f2 7fbd 2099 90bc c006 b0bd 92d4 c6bd
00000090: 0865 f13c 42e3 ddbc e0c2 d2bd aef4 90bd
000000a0: 19a2 c03d 7c2d a73d 0b8f 90bd 9bf2 10bd
000000b0: 809f 8a3d 1df3 02bb 6a15 bc3b ceea 3dbd
000000c0: e12a 113d a681 a6bd 4aab a3bd 70fd f33c
000000d0: 8afd 2e3d 625a 0d3d d822 04bd b2d9 f5bc
000000e0: ecb9 50bd 941b 14bd d76e 80bd 2697 303d
000000f0: 43f6 03bd cb9f d5bd 082b bc3c 2b3c a63d

_module.mlp.5.weight f4 [64]
1.0290984 0.9973171 1.0051942 0.99681455 1.0195228 1.0085099 1.0014162 1.0196152
1.0178305 0.9947856 1.007874 1.0304638 0.9982553 1.0235286 1.041506 0.9888239
1.0045154 0.98786414 1.0042374 1.0105408 1.0051177 1.0009027 1.012753 1.0134814
0.99885595 1.0230222 1.0017623 1.0195069 0.9976641 1.0310998 0.9872667 1.0264235
1.03392 0.9829768 0.99402875 1.0066291 1.0105814 1.0013194 0.99839485 1.004363
0.99665767 0.9973492 0.9922259 0.99808687 1.0056474 1.0298197 1.0390209 1.0019846
1.0036308 0.998719 1.0280776 0.98820037 1.0257373 0.98425704 1.006023 1.0346148
1.0248972 1.0230993 1.0281986 1.019494 1.0077561 0.9768056 1.0070593 1.0028661
00000000: 7fb9 833f 2c50 7f3f 34aa 803f 3d2f 7f3f
00000010: b97f 823f da16 813f 682e 803f c082 823f
00000020: 4548 823f 45aa 7e3f 0402 813f 3de6 833f
00000030: a98d 7f3f fc02 833f 1250 853f 9023 7d3f
00000040: f693 803f aae4 7c3f da8a 803f 6759 813f
00000050: b2a7 803f 941d 803f e4a1 813f c2b9 813f
00000060: 06b5 7f3f 64f2 823f bf39 803f 347f 823f
00000070: ea66 7f3f 14fb 833f 83bd 7c3f d861 833f
00000080: 7e57 843f 5ea4 7b3f ab78 7e3f 39d9 803f
00000090: bb5a 813f 3c2b 803f ce96 7f3f f78e 803f
000000a0: f524 7f3f 4752 7f3f 8402 7e3f 9f82 7f3f
000000b0: 0eb9 803f 22d1 833f a3fe 843f 0841 803f
000000c0: f976 803f 0cac 7f3f 0c98 833f b3fa 7c3f
000000d0: 5c4b 833f 45f8 7b3f 5dc5 803f 426e 843f
000000e0: d52f 833f ebf4 823f 039c 833f c87e 823f
000000f0: 27fe 803f ef0f 7a3f 52e7 803f eb5d 803f

_module.mlp.5.bias f4 [64]
0.016045138 0.007554788 0.016532635 -0.0014256309 0.017359363 -0.009026629 -0.0104257725 0.020251589
0.019200023 0.0001865734 0.023857554 0.0339728 0.0089917 0.011171287 0.033238478 -0.008276447
0.004805593 0.00829297 0.0018459081 0.006345457 -0.006399853 -0.0035311978 -0.01237082 0.020945309
-0.014083109 0.012525155 0.0050265016 0.009453302 0.008608793 0.005288898 -0.0025558022 0.029365871
0.029795622 -0.0036257233 0.009873289 0.0017199973 0.005348369 -0.012587466 0.0052891327 -0.0039915326
0.011087999 0.0075636366 -0.0006607313 0.0068114474 -0.007351764 0.021105092 0.024386823 -0.0023697028
-0.0065015918 0.0062631057 0.011803403 -0.0020103292 -0.0044686836 -0.00416207 0.0144538 0.016216699
0.023621397 0.028899081 0.02507604 0.014303652 0.008658814 -0.0067723794 0.016547546 0.009580433
00000000: 1871 833c 288e f73b 736f 873c 3cdc baba
00000010: 3935 8e3c 6de4 13bc dcd0 2abc a9e6 a53c
00000020: 5e49 9d3c eaa2 4339 eb70 c33c 1027 0b3d
00000030: ec51 133c c607 373c 1225 083d ef99 07bc
00000040: 3c78 9d3b 3ddf 073c 66f2 f13a 8ded cf3b
00000050: dcb5 d1bb ab6b 67bb fbae 4abc 7f95 ab3c
00000060: d7bc 66bc 4f36 4d3c 5ab5 a43b 06e2 1a3c
00000070: e50b 0d3c 7e4e ad3b 3f7f 27bb b290 f03c
00000080: f315 f43c 8b9d 6dbb 93c3 213c 8871 e13a
00000090: 5f41 af3b a93b 4ebc 7650 ad3b 67cb 82bb
000000a0: 70aa 353c 62d8 f73b ed34 2dba 9032 df3b
000000b0: 11e7 f0bb 96e4 ac3c e0c6 c73c 044d 1bbb
000000c0: 4e0b d5bb bd3a cd3b 0f63 413c babf 03bb
000000d0: 096e 92bb f961 88bb a2cf 6c3c e2d8 843c
000000e0: a981 c13c c4bd ec3c 446c cd3c dd59 6a3c
000000f0: b3dd 0d3c d6ea ddbb b88e 873c 40f7 1c3c

_module.mlp.8.weight f4 [2, 64]
0.04084528 -0.079796016 0.10942268 -0.06913677 0.11864718 -0.084805705 0.13416873 -0.068659775
0.1594891 0.085304946 0.13208242 0.062071837 -0.056740373 0.051079217 0.1476799 -0.104437396
0.035533763 0.042681783 0.12059499 -0.06462172 -0.07645146 0.034010436 -0.055290196 -0.016650612
0.03810349 0.13923438 -0.067650095 0.029594071 -0.030048113 0.019441538 -0.056053314 0.16777793
0.10965453 0.048388515 -0.020741796 0.046324003 -0.049446035 -0.11566491 -0.060741898 -0.047108445
-0.08252532 0.082528114 0.016867768 -0.07840329 -0.09050636 0.15239461 0.15741572 -0.058804262
0.09646409 -0.01881689 -0.079627424 0.076965116 -0.120953344 -0.11599406 0.018850515 0.12839182
0.1309832 0.14672509 0.10451534 0.068964824 -0.0045010205 -0.056657404 0.11563351 0.1370483
-0.15232182 -0.14351393 -0.067132436 -0.063251294 -0.08939239 0.1126038 -0.04157638 0.15731166
-0.057381377 -0.02053642 -0.04442399 -0.07537369 -0.037808992 -0.09747576 -0.13654073 0.009497479
0.012684308 0.0057121105 -0.007920992 -0.060619753 -0.13287835 0.06051794 0.034539223 -0.1475297
0.111624554 -0.0721628 -0.12840062 -0.10907598 -0.048556797 -0.13352434 0.024024209 -0.11448189
-0.10921674 0.090503484 -0.0570733 0.029653013 -0.094778664 -0.01517151 -0.09909061 -0.06483635
-0.09893395 -0.049429692 0.0048664236 0.08582068 0.089442134 -0.101598136 -0.13559595 -0.031780936
0.13532174 0.014217939 0.15202779 0.077183 0.10941803 -0.011310083 -0.007300563 -0.1303644
-0.016713928 0.00523775 -0.1190382 -0.1288176 -0.039170858 -0.020023854 -0.04401501 0.018510727
00000000: 614d 273d 186c a3bd 0019 e03d 9497 8dbd
00000010: 4bfd f23d 9dae adbd 8763 093e 7f9d 8cbd
00000020: 1c51 233e 5cb4 ae3d 9d40 073e 0a3f 7e3d
00000030: 9868 68bd 7138 513d 6639 173e 46e3 d5bd
00000040: da8b 113d 18d3 2e3d 82fa f63d 6458 84bd
00000050: 9592 9cbd 874e 0b3d f977 62bd dd66 88bc
00000060: 6812 1c3d 7593 0e3e 228c 8abd 446f f23c
00000070: 7627 f6bc dc43 9f3c 2998 65bd facd 2b3e
00000080: 8e92 e03d 0933 463d b3ea a9bc 3dbe 3d3d
00000090: ed87 4abd b9e1 ecbd 7fcc 78bd c9f4 40bd
000000a0: 0903 a9bd 8004 a93d 462e 8a3c e791 a0bd
000000b0: 665b b9bd 550d 1c3e 9631 213e bddc 70bd
000000c0: f78e c53d e125 9abc b413 a3bd e39f 9d3d
000000d0: 63b6 f7bd 4b8e edbd 656c 9a3c 2579 033e
000000e0: 7620 063e 1a3f 163e 230c d63d 6e3d 8d3d
000000f0: 4c7d 93bb 9811 68bd 43d1 ec3d 6456 0c3e
00000100: 40fa 1bbe 51f5 12be bb7c 89bd e589 81bd
00000110: 5b13 b7bd d29c e63d ff4b 2abd 4f16 213e
00000120: bc08 6bbd ff3b a8bc eef5 35bd 855d 9abd
00000130: 9add 1abd 5fa1 c7bd 55d1 0bbe 509b 1b3c
00000140: d8d1 4f3c a82c bb3b 0cc7 01bc 6b4c 78bd
00000150: 4311 08be a9e1 773d 0079 0d3d 0712 17be
00000160: 6a9b e43d 17ca 93bd 747b 03be 3a63 dfbd
00000170: 7ee3 46bd 9bba 08be 6bce c43c 7b75 eabd
00000180: 07ad dfbd e459 b93d b1c5 69bd e0ea f23c
00000190: 511b c2bd ed91 78bc 05f0 cabd ecc8 84bd
000001a0: e29d cabd ca76 4abd 8576 9f3b c1c2 af3d
000001b0: 702d b73d af12 d0bd aad9 0abe ba2c 02bd
000001c0: c891 0a3e 5cf2 683c 2cad 1b3e 1f12 9e3d
000001d0: 8f16 e03d ed4d 39bc 9039 efbb 3f7e 05be
000001e0: a6eb 88bc 6ea1 ab3b 4dca f3bd c3e8 03be
000001f0: 9f71 20bd 1109 a4bc 1549 34bd cfa3 973c

_module.mlp.8.bias f4 [2]
-0.03157301 0.0881993
00000000: b352 01bd d6a1 b43d

exp_avg f4 [128, 140]
0.0007552556 0.00035406314 0.000745032 -8.7726796e-05 -0.00028048613 -0.0009699758 -0.0006066195 0.0008920823
4.978836e-05 5.0642993e-05 0.0001787571 0.00015782865 -0.0003098641 -0.0015612915 0.0010055831 0.00020223169
-0.00034791735 -0.00016347249 -0.00050159654 -7.7859695e-05 -0.00028325908 0.00041579854 -0.00037839386 0.0002639908
-0.00039907524 0.0003820257 -0.00038226187 0.00027175562 0.00025116125 -0.0001320122 0.00024820762 -0.0007713754
-9.8504424e-05 -0.0009346137 0.00030973455 0.0001952499 -0.0006711615 -0.000613005 8.529548e-05 0.000924947
-0.00018631107 -0.0005080559 -3.0119869e-05 -0.000350282 0.00047861616 -0.0003006294 -0.00015227242 0.0006080806
-8.987284e-05 0.00033135293 -0.0006357046 0.00046440313 -0.0011335282 0.00031857257 0.0008175421 0.001422699
-0.0003008347 -0.0001056828 0.0005089055 0.00065879384 -0.0008354545 -0.00047059252 -9.4606796e-05 0.0009943089
-0.00037332502 -6.280077e-05 -0.0004777469 0.00025423465 0.00036643632 -0.00016771497 -0.00018034008 -0.00039407652
0.00055764633 0.00018922666 0.00020744372 -0.0010032976 0.00016339489 0.0005090596 -4.288074e-05 0.00051833614
0.00037248156 0.00028009867 0.001463124 0.0003624356 -0.0007996988 -0.00019512931 0.0006749257 5.981028e-05
0.0003566029 -0.0009950101 -0.00084126176 0.0016558239 6.0095666e-05 0.0004834586 0.00033914324 -0.00015222745
0.00014740428 0.00036653006 -0.00021096328 -0.0006102876 -0.00050323585 0.0004144075 0.0010747676 -0.0009732884
0.0011093974 -9.1563e-05 -0.00019592987 0.00093971076 0.00029956017 -0.00015106957 -0.00085961644 -0.00016578387
-0.00044941582 0.00041548625 0.0003113394 -0.00010278111 -0.0007624141 -0.00034638346 -0.0004064825 -0.00062046107
-0.00028305018 0.0011947039 0.0006015493 -0.00022720848 0.00039240913 0.00023316556 -0.00063566 -0.0006370489
-0.0009669336 0.0007486923 -0.00013289446 0.00025322195 -0.0003911551 0.00024483923 6.926069e-05 0.00021281785
-3.675152e-05 0.00013284654 0.00020729005 -6.1639876e-05 0.000558415 -5.3597207e-05 -0.00014839694 -0.00011189077
0.000510054 -0.00045651133 -0.00012739924 -0.0012031612 -0.00013534438 -0.00025636193 0.000558801 0.000386929
-3.4209977e-06 0.00039738842 0.00014531228 0.00039050123 -0.00033177412 -0.00010172067 -0.00015783728 0.00014812808
-1.6272867e-05 0.00039697302 -0.00050926156 0.00016489576 -0.0003618189 -0.00043680423 -0.00022263115 0.00056710734
-0.0005573274 2.5858943e-05 0.00041431084 -0.0009748393 0.0003033675 1.9879157e-05 -0.0002123949 1.0099392e-05
0.0002520662 -0.00075191335 0.00013828039 0.00017019593 -0.0005903161 0.00040690316 0.0010843077 0.00014501355
-0.00041316575 0.00013172052 0.00018738977 0.0007075702 4.0700044e-05 -0.00035511452 0.00028244065 0.00040091065
1.1208323e-05 -0.000484592 0.00024268556 3.6183446e-05 0.0002917631 -0.00027853565 1.581241e-05 -0.0007469391
0.00026473525 -0.00084384717 -9.350932e-05 0.00015340096 -0.0004044976 -0.00019515955 -0.00019111781 -0.00078575907
0.00013872984 0.00027970085 -0.0003562827 -8.760403e-05 0.00027384784 0.0008664697 0.0004672726 -0.0001563302
0.0005043413 0.00041748083 0.00015987559 -6.533749e-05 -7.847578e-05 0.00042172408 0.0001309755 0.00026951716
0.0002649214 -0.00051431434 -0.00085791264 0.000693349 0.00023454973 -3.545458e-05 0.00027106132 0.00016638734
0.00026621274 -0.0003957618 -0.00043477086 0.00086455815 -0.0010530171 0.00014425785 -0.0011832619 3.4396526e-05
-0.0008432288 0.0006611112 -0.0010819584 0.0005427332 0.0007566056 0.00049623783 -0.00036498703 3.509359e-05
-0.0007490736 -0.00019958991 1.4880669e-05 -0.0003925623 -8.8466724e-05 -0.0002082304 0.00071179715 0.00015033859
00000000: 58fc 453a 8da1 b939 404e 433a f7f9 b7b8
00000010: 360e 93b9 f945 7eba 8c05 1fba a1da 693a
00000020: d8d3 5038 8069 5438 be70 3b39 ce7e 2539
00000030: 4175 a2b9 40a4 ccba c5cd 833a 280e 5439
00000040: ad68 b6b9 d069 2bb9 937d 03ba 9b48 a3b8
00000050: 6482 94b9 89ff d939 2a63 c6b9 3f68 8a39
00000060: f93a d1b9 9f4a c839 526a c8b9 6c7a 8e39
00000070: 4bae 8339 c16c 0ab9 dd21 8239 2036 4aba
00000080: 2994 ceb8 dd00 75ba de63 a239 ffbb 4c39
00000090: e3f0 2fba 12b2 20ba aae0 b238 2478 723a
000000a0: 7f5c 43b9 0e2f 05ba eda9 fcb7 0ea6 b7b9
000000b0: c6ee fa39 cc9d 9db9 51ab 1fb9 9967 1f3a
000000c0: 1d7a bcb8 70b9 ad39 6aa5 26ba 227b f339
000000d0: e592 94ba 1606 a739 5250 563a db79 ba3a
000000e0: 5ab9 9db9 05a2 ddb8 1268 053a e8b2 2c3a
000000f0: 6702 5bba dcb9 f6b9 a367 c6b8 7853 823a
00000100: d6ba c3b9 e8b3 83b8 1a7a fab9 cc4a 8539
00000110: 401e c039 a5dc 2fb9 ac19 3db9 0e9c ceb9
00000120: 032f 123a 256b 4639 4085 5939 1581 83ba
00000130: fb54 2b39 6972 053a d8da 33b8 f3e0 073a
00000140: a149 c339 35da 9239 4bc6 bf3a 4805 be39
00000150: e1a2 51ba a09b 4cb9 7fed 303a cddc 7a38
00000160: 6ef6 ba39 006b 82ba 1f88 5cba 3b08 d93a
00000170: 3b0f 7c38 b778 fd39 09cf b139 3f9f 1fb9
00000180: 8990 1a39 d52a c039 0636 5db9 b5fb 1fba
00000190: 96eb 03ba d544 d939 37df 8c3a 4724 7fba
000001a0: 3369 913a 8305 c0b8 8672 4db9 ec56 763a
000001b0: 490e 9d39 6e68 1eb9 e257 61ba 45d6 2db9
000001c0: 929f ebb9 9fd5 d939 443b a339 308c d7b8
000001d0: bfdc 47ba cd9a b5b9 281d d5b9 70a6 22ba
000001e0: 5a66 94b9 9c97 9c3a 4ab1 1d3a d03e 6eb9
000001f0: 43bc cd39 e77d 7439 6ca2 26ba a1ff 26ba
00000200: d179 7dba e443 443a 9659 0bb9 e0c2 8439
00000210: f313 cdb9 c45d 8039 0d40 9138 db27 5f39
00000220: a525 1ab8 b94c 0b39 005c 5939 a844 81b8
00000230: 9962 123a 90cd 60b8 009b 1bb9 e6a6 eab8
00000240: 25b5 053a ea57 efb9 7996 05b9 64b3 9dba
00000250: 3beb 0db9 5168 86b9 807c 123a bbdc ca39
00000260: 4b94 65b6 9258 d039 f85e 1839 30bc cc39
00000270: f8f1 adb9 de52 d5b8 1f81 25b9 d452 1b39
00000280: b781 88b7 d120 d039 f77f 05ba dee7 2c39
00000290: 83b2 bdb9 df02 e5b9 1872 69b9 eea9 143a
000002a0: 9c19 12ba a8eb d837 dc37 d939 5c8c 7fba
000002b0: 4c0d 9f39 2ac2 a637 52b6 5eb9 8f70 2937
000002c0: c127 8439 0d1c 45ba 5cff 1039 9f76 3239
000002d0: 71bf 1aba 9e55 d539 541f 8e3a c70e 1839
000002e0: 2b9e d8b9 751e 0a39 0f7e 4439 3b7c 393a
000002f0: 57b5 2a38 aa2e bab9 8b14 9439 5131 d239
00000300: 610b 3c37 d610 feb9 6979 7e39 aec3 1738
00000310: c8f7 9839 6c08 92b9 e4a4 8437 3cce 43ba
00000320: 2acc 8a39 a035 5dba 6f1a c4b8 42da 2039
00000330: c012 d4b9 bea3 4cb9 cc66 48b9 66fb 4dba
00000340: 0278 1139 d0a4 9239 74cb bab9 0eb8 b7b8
00000350: 3c93 8f39 cc23 633a 44fc f439 92ec 23b9
00000360: c635 043a 54e1 da39 47a4 2739 cc05 89b8
00000370: 5d93 a4b8 d91a dd39 7856 0939 fb4d 8d39
00000380: 26e5 8a39 0dd3 06ba 8be5 60ba ddc1 353a
00000390: 77f1 7539 11b5 14b8 3c1d 8e39 4378 2e39
000003a0: 7892 8b39 407e cfb9 f5f1 e3b9 84a3 623a
000003b0: 6405 8aba ec43 1739 ae17 9bba fd44 1038
000003c0: 200c 5dba 6c4e 2d3a 80d0 8dba 3546 0e3a
000003d0: f156 463a f515 023a bb5b bfb9 7531 1338
000003e0: 7a5d 44ba 0249 51b9 fda7 7937 d2d0 cdb9
000003f0: 3687 b9b8 6c58 5ab9 e697 3a3a 35a4 1d39

exp_avg_sq f4 [128, 140]
3.868567e-07 3.7762476e-07 4.7707806e-07 3.53628e-07 4.146342e-07 4.3021421e-07 5.312755e-07 3.3730083e-07
3.4024225e-07 3.7311736e-07 3.4733614e-07 2.900222e-07 3.7040562e-07 4.0145207e-07 3.1886714e-07 3.1160636e-07
3.9016797e-07 4.2455002e-07 3.6289777e-07 3.047021e-07 3.227231e-07 3.6634816e-07 1.8974536e-07 3.734491e-07
3.7174576e-07 3.0485015e-07 4.4047178e-07 2.5641913e-07 3.5560123e-07 3.8861032e-07 3.4552414e-07 3.7716708e-07
3.7761106e-07 5.151219e-07 2.6277647e-07 4.716716e-07 3.4630662e-07 3.4642832e-07 3.9274983e-07 3.9805002e-07
3.2253052e-07 2.5227132e-07 3.6136763e-07 3.9201657e-07 2.5798647e-07 4.4398118e-07 4.606793e-07 5.2180866e-07
5.654276e-07 5.244985e-07 3.1932217e-07 3.5000178e-07 3.6701144e-07 3.5364133e-07 4.5959123e-07 5.1543304e-07
4.3836337e-07 2.1634057e-07 3.0282501e-07 4.1469292e-07 3.0958418e-07 4.044029e-07 3.327987e-07 3.3175317e-07
3.8118745e-07 4.4209608e-07 2.46316e-07 3.905624e-07 4.4911607e-07 4.2431992e-07 3.0982176e-07 3.9416844e-07
3.129719e-07 2.9520524e-07 3.838274e-07 4.570845e-07 3.5263727e-07 2.9946813e-07 3.8257284e-07 3.1919473e-07
2.921484e-07 4.0701883e-07 4.242446e-07 3.5697815e-07 3.0989648e-07 3.5500796e-07 4.7675542e-07 3.782767e-07
3.3401017e-07 4.0607645e-07 3.424173e-07 3.739687e-07 4.171966e-07 3.0346814e-07 2.944383e-07 3.4735086e-07
4.986521e-07 4.337514e-07 4.4349406e-07 4.9027255e-07 2.9981663e-07 4.1377837e-07 3.4980363e-07 3.327555e-07
4.652856e-07 4.2683246e-07 3.9506284e-07 3.775299e-07 3.1532775e-07 3.7779844e-07 4.461904e-07 3.600598e-07
3.6134688e-07 2.8471902e-07 2.7884164e-07 3.9088542e-07 3.6886127e-07 3.0723606e-07 3.900856e-07 2.7108499e-07
2.9630806e-07 3.7493848e-07 3.5027955e-07 3.8002477e-07 4.288563e-07 3.196183e-07 3.1478734e-07 2.8673875e-07
3.603255e-07 2.342495e-07 3.9094417e-07 3.3862744e-07 2.935596e-07 3.723522e-07 3.280325e-07 2.569182e-07
2.3056394e-07 2.8785612e-07 3.7692422e-07 3.0124372e-07 3.3847408e-07 3.0613703e-07 3.9739353e-07 2.8022436e-07
4.0100878e-07 3.983172e-07 2.8102136e-07 3.5468346e-07 3.575483e-07 6.380321e-07 4.144842e-07 3.64486e-07
4.7199532e-07 3.4685823e-07 4.3984645e-07 2.7772415e-07 2.48192e-07 3.8179647e-07 2.8275554e-07 3.4047503e-07
3.7390578e-07 2.7929872e-07 3.49257e-07 2.7083289e-07 3.122524e-07 3.6628006e-07 3.2986978e-07 3.51798e-07
3.1144845e-07 2.7335548e-07 3.6719013e-07 4.0247966e-07 4.461639e-07 3.5389027e-07 3.0610494e-07 3.1791228e-07
3.8966365e-07 2.831635e-07 4.995756e-07 3.56623e-07 3.6186222e-07 4.1929755e-07 4.8628925e-07 3.2112735e-07
3.8412875e-07 4.2566882e-07 2.8556312e-07 3.4693622e-07 2.5100377e-07 4.3061004e-07 3.642421e-07 3.161596e-07
4.2501512e-07 2.6311042e-07 3.6800913e-07 3.151562e-07 3.992408e-07 3.4592242e-07 3.5845085e-07 4.177073e-07
2.949199e-07 3.9309543e-07 3.8455428e-07 2.9189917e-07 3.2202163e-07 3.1429556e-07 2.6499424e-07 3.8909812e-07
2.967672e-07 3.070207e-07 3.117974e-07 4.4316917e-07 3.380709e-07 2.3320271e-07 4.119669e-07 3.0440245e-07
2.917745e-07 3.9721277e-07 2.922818e-07 3.7486583e-07 5.33816e-07 3.4117465e-07 3.3796258e-07 3.616972e-07
3.3062125e-07 3.2728448e-07 2.9001595e-07 3.305536e-07 3.0535818e-07 7.9307665e-07 2.4234865e-07 2.4986497e-07
3.8526585e-07 4.2017422e-07 3.0081935e-07 3.7701193e-07 4.1901654e-07 4.174806e-07 3.3395202e-07 3.35057e-07
3.7491685e-07 3.918515e-07 3.6455955e-07 3.7523625e-07 3.9484794e-07 4.0261526e-07 4.646009e-07 3.0748282e-07
4.485921e-07 4.009264e-07 3.460053e-07 4.1885468e-07 4.3112036e-07 2.5251677e-07 3.001885e-07 3.3211643e-07
00000000: 2eb1 cf34 5abc ca34 8e10 0035 43da bd34
00000010: e49a de34 31f8 e634 f99c 0e35 4616 b534
00000020: 8aaa b634 dc50 c834 8479 ba34 59b4 9b34
00000030: 29dc c634 2787 d734 c430 ab34 da4a a734
00000040: 4778 d134 b6ed e334 4ad4 c234 f095 a334
00000050: ba42 ad34 82ae c434 cfbc 4b34 747e c834
00000060: 5994 c734 49aa a334 fb79 ec34 faa9 8934
00000070: 76e9 be34 32a2 d034 7a80 b934 737d ca34
00000080: 78ba ca34 e846 0a35 b913 8d34 0d3a fd34
00000090: 05ec b934 bffc b934 20db d234 94b3 d534
000000a0: 4228 ad34 e86f 8734 fd01 c234 5976 d234
000000b0: 6481 8a34 4f5c ee34 4853 f734 6b12 0c35
000000c0: e4c7 1735 43cb 0c35 4e6f ab34 e1e7 bb34
000000d0: ab09 c534 18dc bd34 bdbd f634 4a5c 0a35
000000e0: 3458 eb34 3e4b 6834 f493 a234 f6a2 de34
000000f0: ed34 a634 b61c d934 81ab b234 cf1b b234
00000100: 01a6 cc34 3959 ed34 6a3d 8434 7dae d134
00000110: 0b1e f134 16ce e334 9455 a634 199e d334
00000120: 8806 a834 b37c 9e34 d610 ce34 3765 f534
00000130: 1952 bd34 96c6 a034 6964 cd34 ca5d ab34
00000140: 92d8 9c34 3e84 da34 bcc3 e334 b4a6 bf34
00000150: d95f a634 ec97 be34 c4f4 ff34 f415 cb34
00000160: 0252 b334 b902 da34 7ad5 b734 dec5 c834
00000170: 10fb df34 58ec a234 4b13 9e34 8a7b ba34
00000180: 1ddb 0535 57de e834 5c19 ee34 469b 0335
00000190: 7cf6 a034 4425 de34 a5cc bb34 91a5 b234
000001a0: 5ecc f934 6827 e534 0619 d434 50af ca34
000001b0: 514a a934 39d4 ca34 f18b ef34 3e4e c134
000001c0: 23ff c134 7cdb 9834 b4b3 9534 e2da d134
000001d0: e807 c634 34f2 a434 f56c d134 a389 9134
000001e0: 4514 9f34 274b c934 0e0e bc34 3506 cc34
000001f0: 903d e634 0198 ab34 0b00 a934 13f1 9934
00000200: c272 c134 0386 7b34 f5e2 d134 9acc b534
00000210: 869a 9d34 b2e7 c734 721c b034 92ee 8934
00000220: ef90 7734 a58a 9a34 125c ca34 9fba a134
00000230: 86b7 b534 275b a434 5a59 d534 be71 9634
00000240: 3a4a d734 4dd8 d534 48df 9634 536b be34
00000250: 10f5 bf34 3b45 2b35 4686 de34 93ae c334
00000260: 8b66 fd34 d537 ba34 0924 ec34 1e1a 9534
00000270: 403f 8534 b5f9 cc34 a0cd 9734 88ca b634
00000280: 38bd c834 86f2 9534 8481 bb34 fd66 9134
00000290: a5a3 a734 26a5 c434 f518 b134 c0de bc34
000002a0: 2635 a734 b1c1 9234 3a22 c534 6214 d834
000002b0: 4d88 ef34 4ffe bd34 be56 a434 88ad aa34
000002c0: f732 d134 b205 9834 931a 0635 e475 bf34
000002d0: f745 c234 d11b e134 8b89 0235 6867 ac34
000002e0: 413a ce34 7a87 e434 7f4f 9934 8d42 ba34
000002f0: b2c1 8634 982e e734 0e8d c334 a5bc a934
00000300: a22d e434 9f41 8d34 ca92 c534 bd32 a934
00000310: 3d57 d634 37b7 b934 1c71 c034 4141 e034
00000320: 7b55 9e34 a00a d334 bd74 ce34 51b6 9c34
00000330: 51e2 ac34 74bc a834 8844 8e34 3de5 d034
00000340: 6053 9f34 9bd4 a434 1c65 a734 b5ec ed34
00000350: 1c80 b534 4666 7a34 4d2c dd34 c16c a334
00000360: 2fa5 9c34 8240 d534 e8ea 9c34 2b41 c934
00000370: 8e4b 0f35 b02a b734 3971 b534 492f c234
00000380: 3d80 b134 a3b5 af34 7db3 9b34 f176 b134
00000390: 1cf0 a334 d0e3 5435 251c 8234 2e25 8634
000003a0: 89d6 ce34 4e94 e134 4c80 a134 2068 ca34
000003b0: 32f5 e034 1922 e034 044a b334 e2e1 b334
000003c0: 2e48 c934 a95f d234 afb8 c334 1474 c934
000003d0: 7dfb d334 0527 d834 436e f934 1e14 a534
000003e0: 07d6 f034 e83e d734 9bc2 b934 f3de e034
000003f0: bb74 e734 a491 8734 9829 a134 bc4d b234

exp_avg f4 [128]
-0.00025383124 -0.0010237511 0.00053613144 -0.000112050395 0.0006901869 0.00091291225 0.0005725036 -0.00017033628
-0.00041147714 -0.00048926217 -0.0012581738 -0.000316323 0.00014110676 -0.0011216231 -0.001698663 -0.00033651336
-2.7931252e-05 0.00024391807 3.1124724e-05 0.000632278 -0.0015145546 0.00017429084 0.00033424128 5.0459548e-08
-0.00087068917 0.0009985168 -0.0003972987 -0.0005593411 -0.0005615414 0.00060442014 -0.0005687174 -0.00015363803
0.00056221924 0.0008825076 -0.00088052754 0.0006019453 0.00083077495 -0.0003326487 -0.00041877717 -0.00067344104
-0.0012545383 -0.00028676575 3.362876e-05 -0.00061221607 0.0010221843 0.0012673133 0.0007093759 0.000434822
0.00065129 0.00036050708 0.0009119915 0.00027043658 2.8334032e-05 0.00096028566 0.0007934837 -0.0001845669
-0.000109039356 -0.00048566464 0.00018884409 -0.0006619219 0.0010685126 -0.000857875 0.00014277502 0.00019971734
0.0009317183 -0.00064840564 0.00031319656 -6.0377606e-05 0.00028984383 -0.0008577221 -0.0006702777 7.6402604e-05
0.00038799908 0.0008442775 0.0001287673 -0.0014209384 -0.0003333625 0.00077418215 0.00013096009 0.0005599106
-0.00036577502 0.0007467784 -0.00052539824 0.00045468294 -0.0005418632 0.00044442908 -0.00026935173 0.0011409917
0.00028365786 0.0002675389 -0.00013168778 0.0002707473 0.00026744668 -0.00013128552 9.521111e-05 -0.0003454899
0.00014187723 0.00058825675 0.00064271485 8.397895e-05 0.0005911863 0.0006283874 0.00090520777 -0.0005131764
0.000119374134 0.0006124391 -0.001522757 0.00043179234 0.00043654622 -0.0009424007 0.00021039406 -0.00020024573
0.0011981021 -0.000541884 -0.0009281505 -0.0009673956 -0.00059460616 -0.00011639815 0.00071591965 -0.0002898675
0.00035433008 4.9744554e-05 -0.00042748268 -0.00052182644 -0.0012580466 -2.1003134e-05 0.00022830669 0.00047431418
00000000: a714 85b9 632f 86ba 2c8b 0c3a 99fc eab8
00000010: a9ed 343a 8150 6f3a 1114 163a 4c9c 32b9
00000020: 87bb d7b9 d441 00ba 4fe9 a4ba 28d8 a5b9
00000030: 0ff6 1339 6d03 93ba aca5 deba 0f6e b0b9
00000040: e84d eab7 42c4 7f39 eb8b 0238 75bf 253a
00000050: 0584 c6ba d7c1 3639 1b3d af39 dcb8 5833
00000060: f63e 64ba aae0 823a 874c d0b9 bfa0 12ba
00000070: 6834 13ba f371 1e3a fb15 15ba e519 21b9
00000080: e561 133a 1558 673a 34d3 66ba decb 1d3a
00000090: 5dc8 593a 5a67 aeb9 528f dbb9 dd89 30ba
000000a0: 526f a4ba 0c59 96b9 9b0c 0d38 207d 20ba
000000b0: d0fa 853a fa1b a63a 69f5 393a d2f8 e339
000000c0: 55bb 2a3a 7102 bd39 b712 6f3a 62c9 8d39
000000d0: dfae ed37 aebb 7b3a ca01 503a 4d88 41b9
000000e0: 0fac e4b8 cea0 feb9 7304 4639 d484 2dba
000000f0: 550d 8c3a 04e3 60ba e1b5 1539 376b 5139
00000100: 8f3e 743a c4f9 29ba 8834 a439 f63d 7db8
00000110: 2ef6 9739 c1d8 60ba 93b5 2fba 563a a038
00000120: 5b6c cb39 8152 5d3a b505 0739 c83e baba
00000130: 28c7 aeb9 7cf2 4a3a 5552 0939 f7c6 123a
00000140: 7ec5 bfb9 73c3 433a e1ba 09ba 8362 ee39
00000150: d30b 0eba 4302 e939 c737 8db9 548d 953a
00000160: eab7 9439 7744 8c39 ab15 0ab9 16f3 8d39
00000170: 1638 8c39 b0a9 09b9 13ac c738 df22 b5b9
00000180: e1c4 1439 3e35 1a3a dd7b 283a db1d b038
00000190: d7f9 1a3a 5dba 243a 774b 6d3a af86 06ba
000001a0: 8058 fa38 188c 203a 3f97 c7ba 3062 e239
000001b0: 3ee0 e439 710b 77ba 3a9d 5c39 0ef9 51b9
000001c0: a309 9d3a 380d 0eba 204f 73ba d298 7dba
000001d0: 58df 1bba c81a f4b8 8eac 3b3a 5bf9 97b9
000001e0: 61c5 b939 cfa4 5038 c11f e0b9 2ecb 08ba
000001f0: 0ae5 a4ba e32f b0b7 9c65 6f39 5fad f839

exp_avg_sq f4 [128]
3.3060257e-07 3.6295665e-07 4.1004282e-07 2.9772912e-07 3.9078162e-07 4.3098538e-07 3.8427686e-07 2.442233e-07
3.985585e-07 4.1124852e-07 3.6156922e-07 2.8872395e-07 4.974907e-07 4.5790642e-07 3.3838057e-07 4.9060884e-07
3.7086852e-07 3.4553815e-07 4.114238e-07 4.3107144e-07 5.0185184e-07 2.9290874e-07 4.2637618e-07 3.875262e-07
2.9751453e-07 4.9953724e-07 4.2835336e-07 4.4474092e-07 3.1615085e-07 3.6094247e-07 3.864861e-07 3.4996881e-07
3.9737287e-07 2.8474813e-07 3.2415025e-07 4.7012173e-07 3.2474733e-07 3.519858e-07 5.0505383e-07 3.8837166e-07
3.722988e-07 5.490681e-07 3.932868e-07 4.3812014e-07 3.1930153e-07 3.39194e-07 3.9924663e-07 3.5578023e-07
3.389559e-07 4.1317938e-07 3.3251158e-07 3.7193465e-07 4.3395985e-07 3.7277644e-07 2.756923e-07 3.1855254e-07
4.3653958e-07 3.305993e-07 5.06829e-07 3.0358194e-07 3.86311e-07 5.238604e-07 3.9267906e-07 2.8740945e-07
4.4969954e-07 3.651202e-07 3.101151e-07 3.7665524e-07 3.4309375e-07 4.864744e-07 4.3487225e-07 4.389009e-07
3.8658442e-07 4.4858206e-07 3.0145756e-07 4.1774206e-07 3.693061e-07 3.3081952e-07 4.480164e-07 3.725155e-07
3.506833e-07 4.069078e-07 3.567175e-07 4.3352472e-07 3.2489623e-07 3.5680435e-07 3.6599556e-07 4.0322612e-07
3.047267e-07 4.6246967e-07 2.3706185e-07 2.2189296e-07 3.9221254e-07 3.9262721e-07 3.7993973e-07 3.3607094e-07
2.1566963e-07 3.7723728e-07 3.7764465e-07 3.2134236e-07 3.0082015e-07 3.1739444e-07 3.0073795e-07 4.1640988e-07
2.859278e-07 2.9645747e-07 4.0520493e-07 4.3366413e-07 7.3055486e-07 4.0969945e-07 4.5029435e-07 3.7093682e-07
3.5901755e-07 4.589264e-07 3.8543288e-07 3.6346037e-07 4.1437545e-07 2.8295486e-07 2.714685e-07 4.1564164e-07
2.57379e-07 4.1933478e-07 3.8049177e-07 3.1106998e-07 4.1872113e-07 2.546966e-07 4.1069507e-07 3.4809798e-07
00000000: ac7d b134 62dc c234 db23 dc34 94d7 9f34
00000010: 9ecc d134 2e62 e734 9c4e ce34 cb1d 8334
00000020: 77f9 d534 91c9 dc34 b21d c234 eb01 9b34
00000030: 4d8b 0535 2ed6 f534 acaa b534 62b2 0335
00000040: c81b c734 6782 b934 a8e1 dc34 026e e734
00000050: ffb6 0635 1241 9d34 b2e8 e434 320d d034
00000060: 16ba 9f34 f017 0635 70f8 e534 bac4 ee34
00000070: 71bb a934 8ec7 c134 3f7e cf34 59e3 bb34
00000080: 8356 d534 7cdf 9834 df06 ae34 0a65 fc34
00000090: ef58 ae34 8ff8 bc34 0993 0735 6581 d034
000000a0: 5ce0 c734 ac63 1335 ed24 d334 c636 eb34
000000b0: 786c ab34 781a b634 0a58 d634 1002 bf34
000000c0: bff9 b534 f1d2 dd34 0b84 b234 4fae c734
000000d0: fdfa e834 0122 c834 dc02 9434 8705 ab34
000000e0: 8b5d ea34 397d b134 060d 0835 fcfb a234
000000f0: 2e66 cf34 6a9f 0c35 66d1 d234 414d 9a34
00000100: 3c6e f134 bd05 c434 e57d a634 1a37 ca34
00000110: 7232 b834 4496 0235 6378 e934 15a2 eb34
00000120: c28b cf34 a6d4 f034 03d8 a134 0846 e034
00000130: 0b45 c634 7d9b b134 e886 f034 24fe c734
00000140: 8c45 bc34 fb74 da34 e182 bf34 2fbf e834
00000150: 666d ae34 d18e bf34 0c7e c434 fa7a d834
00000160: 5299 a334 5949 f834 118b 7e34 7941 6e34
00000170: 4891 d234 46ca d234 85fa cb34 3d6d b434
00000180: d192 6734 1987 ca34 16bf ca34 f584 ac34
00000190: 6880 a134 5c66 aa34 1c75 a134 f08e df34
000001a0: 9e81 9934 ce28 9f34 f18a d934 58d2 e834
000001b0: 591b 4435 aaf4 db34 fcbf f134 2b25 c734
000001c0: ffbe c034 5d62 f634 7eed ce34 9d21 c334
000001d0: 5477 de34 05e9 9734 59be 9134 5a25 df34
000001e0: e72d 8a34 ef20 e134 6446 cc34 2201 a734
000001f0: 98cc e034 3cbd 8834 807d dc34 39e2 ba34
