models/wesad/baseline_torch/model_wesad_binary.pth (torch, 117781 bytes, 20 tensors)

conv1.weight f4 [32, 14, 7]
00000000: 046d 953d 02a9 063b 6cb6 66bd 140f 113e
00000010: 7047 c2bb 5f4c 1a3d 0fbf 363e 166a dabd
00000020: d256 bf3d 46b8 54bd 6dc7 4b3d 07e3 b13d
00000030: 4e70 cc3d 48a1 463d b332 2e3d 851f f13c
00000040: 68c1 1fbc e02b c83d e0c7 203e cfeb f33c
00000050: b550 b3bd 832c a7bc 5636 0bbd db80 8b3d
00000060: 4b36 e6bd 9dff 41bd 23dc 7abd c7b2 d1bd
00000070: dd44 3bbd f77d c23d 79b9 4d3d 141c fd3d
00000080: c0bf 493c 70cb b43d 554f a03d 6ab1 a93d
00000090: 10d5 9bbc 3a68 c83d a2e6 5bbc 88cd 2fbd
000000a0: eae5 833d ae77 5e3d 67e2 36bd ee80 01bb
000000b0: c71d a9bd 6320 293e c736 653d 01dc f83d
000000c0: 6ca2 c3bd b3ec 1d3e edd6 173e 0dc2 143e
000000d0: 6b24 83bd a971 113e dff8 b9bd 114d 9bbd
000000e0: c215 7ebd cad7 013e 7241 16bd 5277 693d
000000f0: 7026 44bc c21f a43d ae99 c03d b516 ce3d
00000100: e65a 6a3d ef1b b43d 9092 cd3d db00 de3c
00000110: 32f5 993d ea62 c53d 833c 093d 454a 8fbd
00000120: 6c55 9c3d a38c 98bb a691 6e3d 166b 8ebd
00000130: 66bd 1bbe 684b 9bbd cd76 4d3a 837b adbd
00000140: 2853 50bd 8879 983d 882a 653d 2b8b 03bd
00000150: 1f8b 10bc 9758 07be ef85 25bc 0ecd f9bb
00000160: cde5 adbd f765 fe3d b037 78bd 854f 22bc
00000170: 19a0 f4bd 5b82 bd3a c1c3 fbbd dbe3 86bc
00000180: 81f6 303d c403 c83d ebc2 1cbb 6491 0b3d
00000190: 60d7 523b 1334 c1bd f6a4 693d 17f9 1fbe
000001a0: 06b1 43bd 2661 7a3c 0a88 eebc 32f5 8f3d
000001b0: cff1 a8bd 51fb 6b3d 228b 8cbd fdc7 c6bd
000001c0: e32e 9ebc 758a d5bb a85d 67bd ad99 053e
000001d0: a807 29bd af87 17bd 8839 313c 1168 09bd
000001e0: d702 423d c465 283e 4ea9 073d 0ebb 16bc
000001f0: dee2 fd3d 3154 7c3d 28b3 be3d 931c 693d
00000200: 02ae 69bd 7d7e bfbd bfd2 06bd 35b1 d7bd
00000210: 5e82 dcbd 4620 bc3d 721f d53b 44f4 843c
00000220: 7b07 9fbd 0eb7 c83d 1b28 0e3e 478c fa3d
00000230: 79da 5bbd 9b61 173d 3471 33bd a227 b03d
00000240: 539c b83d b312 57bd 27ae a3bd 2f06 b0bd
00000250: 34ba 8e3d 2293 3c3d 87a5 dd3d a7e0 1bbb
00000260: 2fa2 003e 4393 163e bd33 e2bd d7bc a9bc
00000270: 51f6 e53c 9246 cf3d 2a2c dfbd 349d 8d3d
00000280: fdd2 d13c eca7 a83d 4469 0abe b239 bd3d
00000290: 8f8a a83d d9cd 99bc 891f 4cbd 0979 673d
000002a0: a195 5cbd 0ac3 2dbd 29bf bdbd a2f2 e73d
000002b0: b0dc a13d 87d2 f23b b84f 64bb 1abd b0bd
000002c0: 9b78 e03d cd71 753d ee82 3d3d 2707 5a3d
000002d0: b738 f4bd 09af 57bd 2dc4 a23d a52f 5cbd
000002e0: 89e3 d13d bea1 ddbd 239c ba3d 4744 fb3d
000002f0: f0ae 03be 3c04 bf3d 3cff 973c 39e1 423d
00000300: a61a 76bd e161 a53d 4c52 763c 0f81 e3bd
00000310: 52ee f33d e9ea 453d a9cc ccbc aa03 ecbc
00000320: 1b77 4b3c c54c 6abd 9890 413e ecf9 18bd
00000330: cc69 8a3c a0d5 44bd 4daa 18be 1cdc 0dbe
00000340: 919e 7cbd d87b 82bd 5073 c13d dfdf 9b3b
00000350: 5344 ef3d 6c7a c63d 1b54 113b 4567 7bbd
00000360: 981a 39bb 319b febc 3b60 fabd f753 363d
00000370: 0e0d 683d 8ebe 41bd 1153 e23d 0df6 10bb
00000380: 8be2 8dbc 88a9 20bd 3c3a 053e 9c0f a83d
00000390: be80 99bd e07d 98bd 6ff4 a0bd b567 003e
000003a0: ca59 ec3d 7970 913d 6a1a 903d 882b bcbd
000003b0: 09bb c63d 7404 48bc 52ce 12bd b968 85bc
000003c0: c9ed 8cbd fe54 ce3d 6392 62bb 9674 913d
000003d0: d0c9 b8bd acbc bbbd c494 b4bc bcf6 813d
000003e0: c0a3 9abd c929 63bd e091 683d b8d1 133e
000003f0: fa1c 8c3d 39ea bd3d dfdf d1bc 9097 90bd
0.07296184 0.0020547514 -0.056326315 0.14165908 -0.005928926 0.03767049 0.1784632 -0.106647655
0.093427315 -0.05193355 0.049750734 0.0868588 0.09982358 0.048493654 0.04252882 0.029433975
-0.0097507015 0.097739935 0.15701246 0.029775528 -0.08755628 -0.020406967 -0.033987366 0.068116866
-0.11240824 -0.047362912 -0.061245095 -0.10239177 -0.04571997 0.09496682 0.05022571 0.12358871
0.012313783 0.08827865 0.078276314 0.08285792 -0.019022495 0.09785505 -0.013421686 -0.04292062
0.06440337 0.054313354 -0.044649508 -0.0019760686 -0.08257633 0.16516261 0.055960443 0.121513374
-0.09552464 0.15422325 0.14828081 0.1452715 -0.064034306 0.14203514 -0.090806715 -0.075830586
-0.06203247 0.12679973 -0.036683507 0.05699856 -0.011972055 0.0801387 0.09404312 0.10062925
0.057215594 0.087943904 0.1003772 0.027100017 0.075174704 0.09638007 0.033504974 -0.06996588
0.076334804 -0.004655437 0.05824437 -0.06954019 -0.15208969 -0.07582742 0.0007837832 -0.084708236
-0.050860554 0.07445055 0.055948764 -0.032115143 -0.008822232 -0.13217388 -0.010102733 -0.0076233214
-0.08491097 0.12421792 -0.060599983 -0.009906654 -0.11944599 0.0014458405 -0.122931965 -0.016466072
0.043203834 0.09766343 -0.002391989 0.034074202 0.003217183 -0.094337605 0.057042085 -0.15622364
-0.047776245 0.015281951 -0.029117603 0.07029189 -0.08249246 0.05761272 -0.06862475 -0.097061135
-0.019309467 -0.0065167495 -0.056485802 0.13046904 -0.041267067 -0.036994632 0.010816939 -0.03354651
0.04736599 0.1644507 0.033120446 -0.009199871 0.12396787 0.06160373 0.09311515 0.056912016
-0.057050712 -0.093502976 -0.032915827 -0.105318464 -0.10767053 0.09185843 0.0065039927 0.016229756
-0.07765099 0.0980054 0.13882487 0.12233787 -0.05367515 0.03695832 -0.04380913 0.08601309
0.090141915 -0.052508067 -0.07992201 -0.085949294 0.06969109 0.046038754 0.108225875 -0.0023785026
0.12561868 0.14704613 -0.110450245 -0.020719929 0.028071554 0.10120882 -0.108970955 0.0691475
0.025613302 0.082351536 -0.13516718 0.0923952 0.08229553 -0.018774914 -0.04983476 0.056511912
-0.053853635 -0.042422332 -0.092649765 0.113255754 0.07903421 0.0074103507 -0.0034837555 -0.08629818
0.10960504 0.059922982 0.046267442 0.053229477 -0.1192488 -0.05265716 0.07947574 -0.053756375
0.10248477 -0.108218655 0.09111812 0.12268882 -0.12859702 0.093269795 0.018554322 0.04757807
-0.060084008 0.080753095 0.01503427 -0.111086 0.1191069 0.04831973 -0.024999933 -0.02881034
0.012418534 -0.05720212 0.18902814 -0.03734772 0.016896151 -0.04805529 -0.14908715 -0.13853496
-0.06167466 -0.063712776 0.09445822 0.004756912 0.11682954 0.09691319 0.0022175375 -0.061377782
-0.002824461 -0.03107986 -0.12225386 0.04451367 0.056653075 -0.047300868 0.11051 -0.0022119314
-0.017319938 -0.039224178 0.13010496 0.08206102 -0.07495259 -0.07445884 -0.07859122 0.12539561
0.115405634 0.071015306 0.07036288 -0.091879904 0.09703643 -0.012208093 -0.035841294 -0.016285287
-0.068812914 0.10074805 -0.0034572117 0.07102315 -0.09022868 -0.09166846 -0.022043593 0.06345889
-0.07550764 -0.05545977 0.056779742 0.1443547 0.06841464 0.0927319 -0.025619445 -0.07060158

conv1.bias f4 [32]
00000000: 79c9 2bb6 82af a437 06a8 04b8 a045 f734
00000010: ec71 62b8 2b96 c637 9961 2437 fcf0 a936
00000020: 56cd 0837 cef6 3db7 f6b4 a837 9859 d6b7
00000030: 84dc 5437 98a6 0eb7 d90c 5337 9320 5b36
00000040: da4e 0a36 9e19 0fb8 443b 01b8 9696 9536
00000050: 4404 c9b7 c971 5237 ff87 f6b7 00da 2432
00000060: 3406 9b36 600d eeb6 97f2 8cb7 8a78 5e37
00000070: f0c2 5835 a09e 9d36 679c f9b7 3194 4637
-2.5598258e-06 1.963205e-05 -3.1627736e-05 4.6057994e-07 -5.3988697e-05 2.3673367e-05 9.7978855e-06 5.0646468e-06
8.15404e-06 -1.1322742e-05 2.0111427e-05 -2.5552508e-05 1.26875275e-05 -8.502648e-06 1.2579571e-05 3.2652504e-06
2.06095e-06 -3.4117715e-05 -3.0811192e-05 4.4580765e-06 -2.3963054e-05 1.2543468e-05 -2.9388813e-05 9.595624e-09
4.620082e-06 -7.09451e-06 -1.6802265e-05 1.3260296e-05 8.074994e-07 4.697431e-06 -2.9755944e-05 1.1836223e-05

bn1.weight f4 [32]
00000000: c625 783f 2cf7 783f 30ba 823f 14c3 763f
00000010: 89a9 793f 4ce7 7d3f 22f0 7e3f e635 763f
00000020: bd85 7f3f 325d 7f3f b64e 803f 8da3 803f
00000030: 9d62 7d3f 5c17 823f 0827 813f 238c 793f
00000040: 452a 7c3f b9a6 803f 1820 7b3f 47d7 773f
00000050: ca0c 793f 2177 763f c9e3 803f 674f 7a3f
00000060: 9cee 833f f374 863f 1722 7d3f 0ccc 7b3f
00000070: 397d 803f 75b9 763f b104 833f 47ca 733f
0.9693264 0.97252154 1.021307 0.96391416 0.97524315 0.99181056 0.99585164 0.9617599
0.99813443 0.9975158 1.0024021 1.0049912 0.98978597 1.0163379 1.0090036 0.97479457
0.98502 1.005088 0.98095846 0.9681286 0.9728514 0.96275526 1.0069515 0.9777741
1.0307193 1.050444 0.9888014 0.98358226 1.0038215 0.96376735 1.0235807 0.95230526

bn1.bias f4 [32]
00000000: c934 1ebc 45bf 32bd 2b5e d0bc bb40 bbbc
00000010: 65ed 83bc 4799 92bc ee04 f0bc 40bc 1cbd
00000020: 12c7 a83b ddbd d53a 8429 e1bc be3f 3cbd
00000030: 7800 923c 3e29 25bc fb31 cbbb 7a89 65bd
00000040: e58d 9dbc 8c25 003d 66a2 9e3c 9171 a3bc
00000050: 6141 4dbd 9d82 d9bc 5f47 20bd 9cce 8dbd
00000060: 2719 55bc a21c 9abc c9a0 09bc 4388 a6bc
00000070: d5e4 f1bc 8d84 7b3b 6887 abbc 6961 38bc
-0.00965614 -0.04363944 -0.025435528 -0.022858014 -0.01610441 -0.017895354 -0.029299226 -0.038265467
0.005150684 0.0016307194 -0.027485617 -0.045959227 0.01782249 -0.010080634 -0.0062010265 -0.05603931
-0.0192327 0.031285807 0.019364547 -0.019951614 -0.05011118 -0.02655154 -0.039130565 -0.06924173
-0.013006485 -0.018812481 -0.008400151 -0.020328647 -0.02952806 0.0038378567 -0.02093859 -0.011253693

bn1.running_mean f4 [32]
00000000: 9bc2 a53d 9be3 a3bc bb25 d8bd aa6a 343d
00000010: 7b8e 5d3d 3650 5bbc 35c9 963c 5893 cfbb
00000020: 4c28 05be 9435 873d 92fa f6bd 269c 9dbc
00000030: 4bcd 683d 99ff 7f3d 05aa b53d 7701 a9bd
00000040: ee15 413d f1e6 a7bd a09c 76bd 718a c1bd
00000050: 6c8d a13d 45f1 7a3c edc6 6a3c 6333 7ebd
00000060: 8d2b 0c3e aa40 d33c 558a dcbc b115 b33b
00000070: ba54 903c 8717 8f3d cedc 5c3c 18a9 6ebb
0.08093759 -0.020005992 -0.105540715 0.044047035 0.054090958 -0.013385823 0.01840649 -0.0063347034
-0.13003653 0.06602016 -0.12059511 -0.019239496 0.056836408 0.062499616 0.08870319 -0.082522325
0.047140054 -0.081983455 -0.060207963 -0.09450234 0.07888302 0.015316312 0.014329654 -0.062060725
0.13688488 0.02578767 -0.02692143 0.0054652323 0.017618526 0.06986909 0.013480378 -0.0036416706

bn1.running_var f4 [32]
00000000: 34fb a23f e506 333f 5df1 5c3f 2a2e ff3e
00000010: 3339 fa3e 8676 323f 2213 0a3f 5c89 633f
00000020: c343 753f 10d9 f23e 2f69 c03f a7fe 5a3f
00000030: c5d6 d33e 793c 433f 9c60 dc3e 75cb c83f
00000040: 4804 d23e eb4f 323f da26 de3e 4a41 5a3f
00000050: fafd 713f cde1 363f 285d d03e 7fc0 b13f
00000060: ee01 a33f 6d87 223f b343 2f3f 659f 333f
00000070: efe1 843f 6f1c 6c3f 4da4 c63e 8169 213f
1.2732911 0.69932395 0.8630579 0.49839908 0.48871765 0.697121 0.53935444 0.8888147
0.9580652 0.4743123 1.50321 0.8554482 0.41374794 0.7626415 0.43042457 1.568709
0.4101889 0.69653195 0.43389016 0.85255873 0.9452816 0.71438295 0.40696073 1.388687
1.2734964 0.63487893 0.68462676 0.7016509 1.038145 0.92230886 0.38797227 0.6305161

conv2.weight f4 [64, 32, 5]
00000000: c8a7 a4bd b7a7 94bd ffb0 e33d 2255 bbbd
00000010: e13d 643d b1de 38bd 5ce5 e13d 0b9c dfbc
00000020: 4afb e5bc 97bd a33d 1887 8dbd 93c5 73bd
00000030: b417 85bd b510 a73d 0aaf fd3d c140 a1bd
00000040: 7702 973d 9b1c e5bd 52c7 ba3d 757f c3bd
00000050: f71c c93d e0ec 82bd 1ac2 7bbd b90f 153d
00000060: 3bf1 c4bd e282 973d 997e aebc 5032 513d
00000070: 8dd9 903d ebfe 603d d51a 23bd ef7b 783c
00000080: 8da1 f9bd 7aa9 a0bd cbf6 d0bd 1c38 7f3a
00000090: 27f2 5dbd 1e69 8fbd 791d a9bc 2003 3bbd
000000a0: ebba cc3d 7932 a63c 66bf 163e a9dd e13d
000000b0: daee aa3c 2342 4fbd 1832 01be 1ae8 f23c
000000c0: ecd1 49bc 4279 923d 75ac a5bd 43b5 af3c
000000d0: a2e2 19bd b583 84bd 1e8c 093c 8661 f63c
000000e0: 8832 1f3d e875 35bd 655e b7bd acc3 303d
000000f0: 1905 aabd e5fd 9abc a781 a03d 5ee7 d1bd
00000100: 6a30 52bd 33c9 7d3c 83c5 67bd e364 6d3b
00000110: 5566 763d cdf8 743c a4cd 5f3d 40d2 d6bd
00000120: c827 eabd 6d61 ccbd d692 ac3c 463d c1bd
00000130: e3bc 583d f6b9 273d e506 fa3c b164 d1bb
00000140: 2c17 c1bd cebd 6fba 1d1d c5bd ffa1 debd
00000150: 3c6d 43bd 2194 05bc b71a 36bd 5df2 ed3c
00000160: 19d0 b6bd e31e 0e3e e005 97bc 0a53 a2bc
00000170: b848 8e3c d952 cb3d 8a34 893d 2ffb b93d
00000180: 1300 56bc 7253 0d3c df54 633c c851 e43d
00000190: a4bd 3e3d c760 703d bdbd 7e3d 6fd0 b0bd
000001a0: e94b 20bd af22 0e3d 7485 1a3d 182d fbbd
000001b0: 76dc 653d 4bc1 0539 b1f6 383d 756e f73c
000001c0: 8320 61bd 6885 b43d 92c0 3c3d 0304 d03d
000001d0: 0edb c43d 5482 3fbd e527 10bb 2d18 49bd
000001e0: 205d fa3c cdb6 bcbd 26ed 363d 4821 a5bd
000001f0: 5d74 c13d 4090 9c3d e2c5 d4bd d7d3 53ba
00000200: 77bc b43c f019 56bc b622 acbd 44cb 32bd
00000210: 8d4a 99bd d66c abbc 06f8 ed3d 2959 84bd
00000220: fd4f 9a3c 3f03 94bc 3f32 a83c c798 373d
00000230: a618 66bc cbce 49bb b924 64bd 5cd6 b63d
00000240: 53d7 193d 8565 763c a936 b9bc 7ce4 a9bd
00000250: bf99 adbd f5c9 163d 81d8 313d 3184 b93d
00000260: 5986 a73d 0796 483c 16ee d73d ad12 34bd
00000270: 137d b2bd e814 143c 5f59 cebc d95e cb3d
00000280: efdb da3d 567e 66bd 988f 233c 52d0 043d
00000290: eb91 a5bd 0313 4c3d e32b 163d 8325 cc3c
000002a0: 2385 29bd 7bc3 ba3d 3a27 afbd b4a4 fb3c
000002b0: 9555 85bb 8d0e debd dceb e2b9 7d5d 4bbd
000002c0: 7c5b 86bd 5a80 61bd 92ef 5b3d 0b5b 3d3d
000002d0: ec3b 4cbc f6a8 1e3d 4fba 8c3b ba8e 9c3b
000002e0: 1533 0c3d a89e bbbc 85c9 a53d b0cb a2bc
000002f0: f206 003c 5f20 8b3d 4cd3 ec3d 17f2 6d3d
00000300: 7163 8f3d 5613 053d c46f 643d d47a eb3d
00000310: a46d 7cbd f06b 4fbd 8d43 50bd a36b 533d
00000320: 7871 9e3d 4ed1 d9bd 7c15 32bd 7c0c 92bd
00000330: bcd9 15bc a9eb 08bc bd11 24bc e803 b2ba
00000340: dfea d0bd 4372 e63d 7a86 53bd fe77 783b
00000350: c6d2 29bc 63f2 cbbb 4eed c53d 6c70 81bd
00000360: 2b10 c0bc d472 7a3d 5f94 3c3d 6ded 93bd
00000370: 09a5 3e3d 8692 af3d 0214 473b da1f 0f3d
00000380: 9880 1b3d cd07 e83d 1a15 003d d9bb 473d
00000390: ce57 98bc 4db0 7fbd a5e7 8a3c 00f2 21bd
000003a0: fd20 adbd cf69 ecbc dad0 03bd f062 233c
000003b0: c1c7 f8bc 35de 0d3d 1035 88bc 9f09 ce3d
000003c0: e969 33bd a2b9 1b3d 1c4d ce3d 6d9a 1c3d
000003d0: 2a17 a1bd 2fac f53d 6cbf 96bb a42f 823d
000003e0: f35e d3bd f879 9b3b 2da3 e43d c146 553d
000003f0: fb3a 53bd 4dcb 7b3d 02c9 153e a186 02bd
-0.08039814 -0.072585516 0.11117744 -0.09147097 0.055723075 -0.04513425 0.11030075 -0.027296087
-0.028073926 0.07995146 -0.06910533 -0.059514593 -0.06498662 0.081574835 0.12386902 -0.07873679
0.07373517 -0.11187097 0.091200486 -0.09545795 0.09819978 -0.063928366 -0.061464407 0.036391947
-0.096163236 0.07398011 -0.0213006 0.051073372 0.070727445 0.05493061 -0.03982051 0.015166267
-0.121890165 -0.07844825 -0.10203322 0.0009735839 -0.054186013 -0.070024714 -0.020643936 -0.045657277
0.09996589 0.02028774 0.1472145 0.110286064 0.020865846 -0.050600182 -0.12616765 0.02965169
-0.012318116 0.07152034 -0.08089534 0.021448737 -0.03756965 -0.064704336 0.008395223 0.0300758
0.03886655 -0.044301897 -0.08953551 0.043155357 -0.083017536 -0.018919894 0.07837229 -0.10249208
-0.051315702 0.015489864 -0.056584846 0.0036223463 0.060156185 0.014951897 0.054639474 -0.10489321
-0.11433369 -0.0997952 0.02106611 -0.09435515 0.05291451 0.04094883 0.030520866 -0.006390177
-0.09428248 -0.00091454096 -0.096246935 -0.10870742 -0.047711596 -0.008152992 -0.04445907 0.029046232
-0.0892641 0.1387897 -0.018435419 -0.019814987 0.01736866 0.09927911 0.06699474 0.090811126
-0.013061541 0.008625852 0.013875215 0.11148411 0.046567574 0.058686044 0.062192667 -0.086335056
-0.039134894 0.034701046 0.037724927 -0.1226446 0.05611845 0.00012755876 0.04515714 0.030204037
-0.054962646 0.08814508 0.046082087 0.10157015 0.09612094 -0.04675515 -0.0021996435 -0.04909532
0.030561984 -0.09214554 0.044659756 -0.080629885 0.09446023 0.07644701 -0.10389306 -0.0008080578
0.022062523 -0.013067707 -0.08405058 -0.04365088 -0.074849226 -0.02092592 0.11619572 -0.064623185
0.01883697 -0.018067954 0.020531772 0.044823434 -0.014043963 -0.0030793424 -0.055699084 0.089276046
0.037558865 0.015038853 -0.022609072 -0.08295533 -0.0847659 0.036813695 0.043419365 0.09058417
0.08179922 0.012242801 0.10543458 -0.043963123 -0.08715262 0.009038188 -0.0251891 0.099302
0.1068648 -0.056272827 0.009982966 0.032425232 -0.08084472 0.04982282 0.036662947 0.02492023
-0.041386735 0.09119316 -0.08552404 0.030718185 -0.00406904 -0.10842619 -0.00043281808 -0.049649704
-0.06560418 -0.055054046 0.05369527 0.046229403 -0.012465458 0.038735352 0.0042946707 0.0047777565
0.034228403 -0.022902802 0.080950774 -0.019872516 0.007814156 0.06793284 0.11563739 0.058092203
0.07001389 0.032489143 0.05577065 0.11498037 -0.061628 -0.050640047 -0.05084567 0.051616322
0.07736486 -0.10635625 -0.04347752 -0.071312875 -0.00914615 -0.008356967 -0.010013995 -0.0013581486
-0.10201048 0.112522624 -0.05164192 0.0037913318 -0.010365194 -0.006223963 0.09664403 -0.06320271
-0.02344521 0.061144665 0.046039935 -0.0722302 0.04654411 0.08572869 0.0030376916 0.034942485
0.037964433 0.11329613 0.031270124 0.04876313 -0.018596556 -0.062423993 0.01695616 -0.03953743
-0.08453558 -0.028859047 -0.0321816 0.009972319 -0.030368688 0.03463574 -0.016626865 0.10060429
-0.043802176 0.03801883 0.10073301 0.03823321 -0.07865746 0.11995732 -0.004600456 0.06356743
-0.103208445 0.0047447644 0.11163936 0.05206943 -0.05156992 0.06147318 0.1462746 -0.031866673

conv2.bias f4 [64]
00000000: fc09 4fb6 40fc 7cb6 0208 80b5 e5b1 a8b7
00000010: c88b cdb5 a825 0b37 624b 7c36 2a94 bfb6
00000020: 20b0 03b5 8cfb 3d36 7c5b a336 dc0a 0eb8
00000030: 609c cfb5 2015 8cb7 5708 cbb6 8862 d634
00000040: 1cac 4ab7 88c5 6f36 cabc 3b37 5e03 9035
00000050: 38e8 03b4 7005 03b7 00c9 9fb2 96bd 9bb5
00000060: bfaa 8bb7 d8d5 a137 8128 6737 d2b7 5eb7
00000070: 56d6 0a37 4a5c cdb6 2384 74b7 f906 8736
00000080: 4cb2 f8b6 a317 b6b6 b45b 08b6 c2a8 4837
00000090: 76c5 1237 661b 10b7 16e3 75b7 69d0 a8b7
000000a0: 26e9 3b36 e88c 5cb7 e0ff dcb6 61aa 5f36
000000b0: b0d3 aa36 5e79 ccb6 4d0a 25b7 e8b8 f634
000000c0: ab73 8937 c650 4c37 7433 b2b6 635c 0938
000000d0: 8941 8f36 86d5 1037 4ecc b0b6 d0f1 c1b6
000000e0: 4cad 1037 270d ddb6 d09c ed36 71b1 4337
000000f0: 4ae9 5136 e892 91b6 8c13 ef36 a900 2137
-3.0851215e-06 -3.7697755e-06 -9.539074e-07 -2.011e-05 -1.5314372e-06 8.293813e-06 3.7594805e-06 -5.709492e-06
-4.90576e-07 2.8309614e-06 4.8684287e-06 -3.386555e-05 -1.5468213e-06 -1.6699138e-05 -6.0508423e-06 3.9932297e-07
-1.2080211e-05 3.5728754e-06 1.1190024e-05 1.0729816e-06 -1.2284806e-07 -7.8094745e-06 -1.860144e-08 -1.1603577e-06
-1.6649601e-05 1.9292274e-05 1.37781035e-05 -1.327503e-05 8.275345e-06 -6.12022e-06 -1.4574299e-05 4.0241252e-06
-7.4117324e-06 -5.4267744e-06 -2.0318957e-06 1.1960221e-05 8.748253e-06 -8.589448e-06 -1.46560105e-05 -2.012421e-05
2.8000882e-06 -1.3145829e-05 -6.5862987e-06 3.3328763e-06 5.0910385e-06 -6.0938028e-06 -9.837165e-06 4.5955608e-07
1.6385535e-05 1.2178154e-05 -5.3108033e-06 3.2749387e-05 4.2693614e-06 8.632784e-06 -5.268993e-06 -5.779999e-06
8.623418e-06 -6.5878444e-06 7.081406e-06 1.16642195e-05 3.127922e-06 -4.338439e-06 7.1250306e-06 9.5965015e-06

bn2.weight f4 [64]
00000000: eabe 7f3f 0546 833f 1ff9 793f 9da9 7a3f
00000010: cc6a 813f bf36 813f af2b 7b3f 1552 7a3f
00000020: ae45 733f 3128 783f d71e 733f 7e11 813f
00000030: fd6b 7a3f aba8 793f bc6d 793f 0fd5 823f
00000040: f702 7c3f 51d1 793f 115c 803f 252f 7e3f
00000050: 88b4 743f 1ef9 7e3f 3202 7f3f a252 7e3f
00000060: d82a 843f 07e4 7d3f f49a 803f 4d9c 803f
00000070: 9f63 803f 2b23 7c3f 199d 823f 7ecf 7b3f
00000080: ab2d 843f 4d85 7e3f 12ac 7d3f c0c4 823f
00000090: a17a 7f3f 457d 823f 77eb 7f3f e8a1 793f
000000a0: de86 803f b1cf 7a3f ca44 7e3f 1cdc 7e3f
000000b0: 5b14 773f 3185 7c3f fe24 803f 265e 7c3f
000000c0: 0f11 7f3f b18c 833f b5a1 753f b050 7e3f
000000d0: b157 803f d37e 7c3f 0be4 7b3f d145 7a3f
000000e0: b0de 813f 3de5 7b3f 5421 783f 2a21 803f
000000f0: 1447 7a3f 6e63 7f3f 4235 793f ad96 7b3f
0.99900687 1.0255743 0.97645754 0.9791506 1.0110717 1.0094832 0.9811353 0.977815
0.950282 0.9693633 0.9496893 1.0083463 0.9782103 0.9752299 0.97433066 1.022127
0.98442024 0.97585016 1.0028096 0.99290687 0.9558797 0.9959887 0.99612725 0.9934484
1.0325575 0.9917607 1.0047288 1.0047699 1.0030402 0.9849116 1.0204192 0.9836348
1.0326437 0.9942215 0.99090683 1.0216293 0.9979649 1.0194479 0.99968666 0.97512674
1.0041158 0.9797316 0.99323714 0.9955461 0.96515435 0.98640734 1.0011289 0.9858116
0.99635404 1.0277311 0.9594987 0.9934187 1.0026761 0.9863102 0.9839484 0.9776278
1.0146084 0.98396665 0.96925855 1.0010121 0.97764707 0.9976109 0.9734689 0.9827679

bn2.bias f4 [64]
00000000: 7d26 2139 c003 673b 2373 a03c 244b f2bc
00000010: 8830 8ebb 5919 41ba cc47 043a c080 3dbb
00000020: f7e2 44bd 1e81 333b b34d 47bd 47ba 5bbc
00000030: 8178 c0bc c7ef b6bc 44d1 e4bc 3188 263c
00000040: 20a0 abbc c768 12bd 9895 f43b 9f0f 9fbc
00000050: 9667 b7bc 3f12 57bc 83a8 303b 6311 a6bc
00000060: 6add 803c 221d 8c3b 670a 083c a6d8 f6bc
00000070: 8d63 c8bb 4867 37bc e94b 293c eaf1 3cbb
00000080: ec06 4c3c 8b0d 6c3c ffe9 c1bb 573c db3c
00000090: 0972 203c 3643 a03b 1973 aebc 78d6 dfbc
000000a0: 2a7c 473c ee31 89bc dd83 b5bb 1767 d33c
000000b0: f13c 2ebd 473f eabc 20be e2bb 9816 1fba
000000c0: 52ea dfba 73aa d73c 3926 bbbc 2a2c f4bb
000000d0: e1e0 79bb 82fc b0bc 3602 3bbc 24f6 b4bc
000000e0: 3c02 533c 87a6 b6bc 915f 25bd 209d 95bc
000000f0: a062 04bd 1019 b23b 0bf7 12bd fa62 483b
0.00015368494 0.0035250038 0.019586151 -0.029576845 -0.0043392815 -0.0007366143 0.0005046099 -0.0028915852
-0.048068013 0.0027390192 -0.048658084 -0.013411111 -0.02349496 -0.022331132 -0.027931817 0.0101643065
-0.020950377 -0.035744455 0.007464122 -0.019416628 -0.02238826 -0.013126909 0.002695591 -0.020271963
0.015730578 0.004275934 0.008303261 -0.030132603 -0.006115383 -0.011194058 0.01033304 -0.0028830715
0.012452822 0.014407526 -0.005917787 0.02676217 0.009792813 0.0048908247 -0.021295117 -0.027323946
0.012175599 -0.016747441 -0.005539401 0.025805993 -0.042538587 -0.028594626 -0.0069196373 -0.00060687354
-0.0017083383 0.026326394 -0.022845374 -0.007451554 -0.0038128423 -0.02160478 -0.011414101 -0.022090025
0.012878951 -0.022296203 -0.040374342 -0.0182634 -0.03232062 0.0054351166 -0.03588013 0.0030576573

bn2.running_mean f4 [64]
00000000: 8fcf 2abe 6ba2 463f bf9b 2bbf 7e69 d33e
00000010: 6a32 943f 830f a2bf c0f6 5a3f f2fc 843e
00000020: 2127 183f cde2 e4bd 999f 893f b322 a93f
00000030: 570d a73f 382e 853e 0293 5ebf d201 eabe
00000040: b215 163e 80f9 813f 8c64 c63e 221c 5c3f
00000050: 2879 1f3e 4707 9b3f 1a62 a13c 62db a23f
00000060: 3c23 a83e be29 02bf 0f52 fa3d bc90 5b3f
00000070: 0107 a1be 8b2a 85be e399 4b3f ae65 c13c
00000080: 5732 15bf 3e9f 3e3f 3ca0 a23d 21a3 86be
00000090: 9c6d 103c c863 93be b0f1 7c3f 7349 fd3e
000000a0: b463 6abe 3819 703e 68ab 3e3f 513f e53e
000000b0: ede0 1ebf 85cb b03f c11c b63e 2a80 123f
000000c0: 20de 9d3f d6cd 8bbe c6eb 9d3e 3c4d b33d
000000d0: 1d45 8c3f 512d a63f 93ef 8d3f 2cf6 f7bd
000000e0: 0fd4 833f bfc1 473e c88d 04be c7df b23f
000000f0: 018a c13f 3540 893f d993 903f eea9 b03d
-0.1668074 0.7759158 -0.67034525 0.41291422 1.1577885 -1.2660984 0.8553276 0.25974232
0.59434706 -0.11176071 1.075183 1.3213714 1.3050946 0.26011825 -0.86943066 -0.45704514
0.14656714 1.0154266 0.38748586 0.8598043 0.15573561 1.2111596 0.019700099 1.27232
0.32839382 -0.50844944 0.12222683 0.8576772 -0.31450656 -0.2600902 0.7953169 0.023608055
-0.5827994 0.74461734 0.079407185 -0.26296332 0.008815195 -0.28787065 0.98806286 0.494701
-0.22889596 0.2344712 0.74480295 0.4477487 -0.6206196 1.3812109 0.35568812 0.5722681
1.2333412 -0.27305478 0.30843943 0.08754966 1.0958592 1.298258 1.1088737 -0.121075004
1.029909 0.19507502 -0.1294471 1.3974541 1.512024 1.072272 1.129512 0.086261615

bn2.running_var f4 [64]
00000000: 741e 753f a650 f83e aafa 3f3f f40e 013f
00000010: 19eb 8e3f 0021 363f 5dfc 023f 520b fd3e
00000020: 3046 283f 0b03 1f3f 800d 3a3f 873b 633f
00000030: c1c0 313f 9ecf e63e c0a6 fb3e 9fed 7f3f
00000040: 691f 123f a9d4 1d3f fda6 fa3e 32a7 233f
00000050: 0c6e fc3e 6cac 433f d23b 493f d571 9f3f
00000060: 9eb9 e73e 61ab 043f 3794 4d3f 92c5 193f
00000070: aefd 323f 99a9 253f fda2 273f 3d80 ff3e
00000080: 7e67 4b3f 84fa 113f b049 f53e 3eb2 fc3e
00000090: a164 d73e 7544 0b3f 52b1 533f bfa5 fc3e
000000a0: 7cab 2e3f c04f 093f 502f 223f 3e65 0f3f
000000b0: 541e 1a3f 16e7 9f3f ccb8 3b3f efff 253f
000000c0: 52d8 503f a2e7 5c3f a0b5 0f3f 4de4 083f
000000d0: 449a 113f f6e2 273f e9d9 3d3f a28d 363f
000000e0: b240 e43e 307d 123f ccb5 333f b515 a03f
000000f0: c094 923f b3e5 2c3f 2587 3a3f 7e1f 373f
0.9574959 0.4849903 0.7499186 0.5041344 1.1165496 0.71144104 0.51166326 0.494227
0.657321 0.6211402 0.7267685 0.88762707 0.69434744 0.45080274 0.49150658 0.99971956
0.5707918 0.6165262 0.48955527 0.63926995 0.4930271 0.7643497 0.78606904 1.2456614
0.45258802 0.51824003 0.8030428 0.60067093 0.69918334 0.6471191 0.65483075 0.49902526
0.7945479 0.5702288 0.47907782 0.49354738 0.4206896 0.5440133 0.82692444 0.49345204
0.68230414 0.53637314 0.63353443 0.5601386 0.6020253 1.2492397 0.7332885 0.6484365
0.8158008 0.86290944 0.5613651 0.5347336 0.56876016 0.6558069 0.7416063 0.71309865
0.4458061 0.5722227 0.70199275 1.2506624 1.1451645 0.67537993 0.72862464 0.7153243

lstm.weight_ih_l0 f4 [128, 64]
00000000: b5fc ae3d 3b9a b33d 852e bc3d c6d7 e53b
00000010: 921f 50be d72e 9d3d 173d 043e 4247 52bd
00000020: d78b 613d 910a 34be 7801 583d 3c76 ab3c
00000030: ee04 70bd 31dc a33d e81a 3a3c 0f96 123e
00000040: be98 163e 61b7 8fbd c95a c23d 6324 cabc
00000050: 664e ee3c baff cbbd d447 ca3d 986b 2ebe
00000060: 58ea 283e 0b1b 163e 753a 1d3c 4fcb 0ebe
00000070: eb2e 593b efee 29bd ed08 0f3e 6a8c 3d3d
00000080: 56bf 84bd 6c81 14be 377e b5bc 2f92 a7bd
00000090: cc5a 26be 7913 28be 0506 f33c 51aa 223e
000000a0: 6e79 1f3e cede b3bc 3eba 0a3e d668 2bbd
000000b0: 9f9d 193e ff92 2bbe 5e3a ea3d 4257 c9bd
000000c0: 3e5e 963d c770 38bd 74fd bb3d 3135 7cbd
000000d0: 7f90 23be a291 0a3e 11cf 22be 62b0 f5bd
000000e0: a1c4 f23d 5486 343e 851d d03d 4d35 c33d
000000f0: 3102 003d b1e7 71bd c082 d63c 5322 783b
00000100: 8b3a b43c 4508 bbbd 985a 46bd 2330 73bd
00000110: d519 90bd a1b6 18be c48f 483d 5ff1 e23d
00000120: 4eab 7cbd a9e3 7bbd fcd1 f9bc dfe4 fb3d
00000130: 7a11 23be 66b6 353d bbf5 2ebd 3cf7 ff3d
00000140: 360e 29be 0214 643c a414 bd3d c72d afbd
00000150: 4a1b 923d aef4 34be d0a9 1d3e 5af4 03be
00000160: 800a 32be 18eb 113e 5242 413d 2a4a 893d
00000170: f7d7 aabd a4ae 2d3d 80ef 35be 3e46 36be
00000180: b196 0d3d b108 efbd 2413 18bd 0843 8c3b
00000190: a8e0 12be 6e9e c4bc c756 dc3c c14f 693d
000001a0: d8f9 bebd 1a26 2ebe 402e bc3d e890 783d
000001b0: c171 373d 314e 943d b7bf 3bbd f883 10bd
000001c0: fb2d 0d3e eb08 ff3d a324 193e e3b4 75bd
000001d0: 9270 033e a3ce c63b 59d1 20be 3c53 283d
000001e0: 6230 3ebe a47d 17be 5e7e 023e f697 06be
000001f0: e923 0fbe 2da0 b33d 221f 333d 37ea 0bbb
00000200: 1d8c b3bd 8a50 a23d 1dfe 2b3e feb4 c03d
00000210: 311c 0ebe e9d7 9f3d 98f1 91ba 343d 203e
00000220: 63a2 c8bd 4f4d b3bd 5e5a 29bd d75c f5bd
00000230: c8ad 83bd b5e9 843c f75b 1cbd 98d0 4f3e
00000240: ce44 353e 5a39 56bd 68f0 283e 455f 2a3e
00000250: 6ee6 a33d 78a4 193e 2e93 193e 889e 233e
00000260: 76a8 343d e25b 703d 3e84 b2bd ce9d 11b9
00000270: 8666 04bc 739d bdbd 0202 1ebe 4556 bebd
00000280: 5b57 e43d 657a 1dbd 93b0 d1bd dcad 40bd
00000290: 1ba0 81bd 72a8 783c 1d81 c9bd 1d6d d63b
000002a0: 3210 adbd 2c16 ecbc 0a79 3b3e d642 1abd
000002b0: b87e 91bd ffe6 56bd d7f0 ff3c df97 78bd
000002c0: 875e 413a bd26 70bd 367a 513d e035 d73d
000002d0: 3043 043e 1541 93bd 8c70 1bbd 9937 f0bd
000002e0: 145b b23d 72df 133e 1eb0 d93c 2c68 99bd
000002f0: 5d66 2f3d 9c7d df3d efc3 4abd 42e4 e5ba
00000300: 2da2 1abe 3245 d03c db58 20be 81c1 a13c
00000310: 3f0e 81bd b4cf d13d 06a0 f03d 49e8 b6bd
00000320: bd98 cf3b d130 223e 7f02 97bd 0631 4a3d
00000330: 9121 c53c c77f f93d 9432 723d a1ae a53d
00000340: 97be 013e d0bb c63d f8ac 103e d4ee 16be
00000350: cffb 73bd 603e dc3d ef88 91bd 4434 0dbd
00000360: b47c 623d dd5b 0f3e 49e6 003d 356e dd3d
00000370: a518 34be 0c72 2ebd ddea 213d 4151 83bd
00000380: 3196 3abe 018e 88bd 3949 6c3c 91d8 94bd
00000390: 4c02 1b3d bb54 8b3d 67fb c0bd 02f9 923d
000003a0: b0fb c5bd f467 5a3d 2bf0 9a3c dadb 31be
000003b0: a102 3f3c d96c 233e 4759 fb3d 5611 16be
000003c0: 81b2 c5bd d527 df3d c0b3 273e 3e59 94bd
000003d0: 2b22 62bd ac9c d2bd 9f8c 113e 743d 453d
000003e0: 3daa 1c3e cfa7 08be 3b9a 073c db34 273d
000003f0: 510a aebc 9af5 ef3c 29f5 48bd e4bb 143e
0.08544294 0.087696515 0.091885604 0.0070142476 -0.20324543 0.076749496 0.12913929 -0.051337488
0.055065002 -0.17582156 0.052735776 0.020930402 -0.05859845 0.080009826 0.011358954 0.14315055
0.14706704 -0.070173986 0.09489972 -0.024675554 0.029090118 -0.09960885 0.098769814 -0.17033231
0.16495645 0.14658754 0.009596457 -0.13944744 0.0033139538 -0.04148763 0.13968249 0.046276487
-0.06481807 -0.14502496 -0.02215491 -0.08182179 -0.16245574 -0.16413678 0.029665956 0.15885283
0.15573665 -0.021956827 0.13547608 -0.041848026 0.15001534 -0.16755293 0.11436914 -0.09831096
0.07342194 -0.045029428 0.09179202 -0.061574165 -0.1597309 0.13532117 -0.15899302 -0.11996533
0.1185391 0.17629367 0.101618804 0.09531651 0.03125209 -0.05905885 0.026185393 0.0037862256
0.022000572 -0.09132437 -0.04842624 -0.05937208 -0.07036177 -0.14913417 0.04896523 0.11081194
-0.061686806 -0.06149641 -0.030495636 0.12299513 -0.15924636 0.0443634 -0.042714816 0.12498328
-0.16509327 0.013920786 0.092324525 -0.08553653 0.07134111 -0.17671463 0.1539681 -0.12886181
-0.17386818 0.14249837 0.04718239 0.06703599 -0.08341973 0.04240288 -0.17767143 -0.17800233
0.03456754 -0.1167158 -0.03712763 0.0042804517 -0.14343512 -0.024001326 0.026896847 0.056960825
-0.09324998 -0.17006722 0.09188509 0.06068507 0.04478622 0.07241476 -0.04583713 -0.035282105
0.13787071 0.12452873 0.14955382 -0.05998696 0.12835911 0.0060671135 -0.1570486 0.041095003
-0.18573144 -0.14794022 0.12743518 -0.13143906 -0.13978542 0.087707855 0.043730862 -0.002134932
-0.08766959 0.07925518 0.16796155 0.094095215 -0.13877942 0.078048535 -0.0011134623 0.15648347
-0.09796598 -0.0875498 -0.041345946 -0.119805984 -0.064296305 0.016224721 -0.038173642 0.20294416
0.17702028 -0.05230079 0.16497958 0.16637905 0.08002935 0.15004146 0.14997551 0.15978444
0.04410597 0.058681376 -0.087166294 -0.00013887064 -0.008081084 -0.09258547 -0.15430453 -0.09293798
0.11149474 -0.038446803 -0.10238757 -0.047040805 -0.06329366 0.015176879 -0.098390795 0.006543769
-0.08450355 -0.028819166 0.18307891 -0.037661396 -0.07104248 -0.05246639 0.031242771 -0.06069171
0.00073764514 -0.058630694 0.05114194 0.10508323 0.12916255 -0.07190148 -0.03794913 -0.117293544
0.08708778 0.14440706 0.026573237 -0.07490572 0.04282223 0.1091263 -0.049503263 -0.001753934
-0.15100928 0.02542362 -0.15658896 0.01974559 -0.06301545 0.10244694 0.11749272 -0.08931024
0.0063353465 0.15838934 -0.07373523 0.04936316 0.024063857 0.12182575 0.059130266 0.080899484
0.1267036 0.09703791 0.14128482 -0.14739543 -0.059566315 0.107540846 -0.07106196 -0.034473673
0.055294707 0.13999887 0.031469617 0.10812036 -0.17587526 -0.042589232 0.039530624 -0.06411982
-0.18221356 -0.0666771 0.0144217545 -0.07267869 0.037843987 0.068032704 -0.09422951 0.07176401
-0.09667146 0.053321794 0.01891335 -0.17369023 0.011658342 0.15959491 0.12272888 -0.1465505
-0.096531875 0.10896269 0.16377163 -0.07243584 -0.055208366 -0.10283789 0.14213799 0.04815431
0.15299316 -0.13345264 0.0082765175 0.04082189 -0.021245154 0.029291917 -0.049061928 0.145248

lstm.weight_hh_l0 f4 [128, 32]
00000000: f1ae 6ebd f3d9 fd3d c695 9b3d a9d1 3fbd
00000010: 6eba 52bc 0022 9d3c 68fc c33c b44d 83bd
00000020: 2874 34be b6cc 3abe 147f dabd 26be d73d
00000030: 5294 063d bdb7 823d 3182 25be 729a a53d
00000040: 6445 3d3d 89d7 fd3d 03d6 d23d ce84 ebbd
00000050: db20 8dbd c411 1bbe 2252 d13d 14eb e0bd
00000060: 9a7f b9bd 3a53 4c3e 22a9 9c3d 35f8 a23d
00000070: ee3d 7b3d 1373 c1bd fab5 85bd c317 a53d
00000080: 9051 3bbc 88c0 943d ee20 bdbd 4a62 703d
00000090: b666 84bd 14c8 87bd 34c5 8ebc f0f4 15be
000000a0: 29e4 9f3d b94d 0c3e b5c7 4b3e 01cb 083e
000000b0: e1c4 db3c 08c5 e3bd 13c0 ebbd b23d a7bd
000000c0: e2e2 f13d 607b b73d f33e 093e 1e76 cabc
000000d0: f7d4 d93d be5d 173e 5419 a3bd 28ea d4bd
000000e0: 8c03 723d 7ffd e4bd 0b35 1dbd c810 76bd
000000f0: 516e df3d fcaa 27be dbb4 2cbe a6a5 35be
00000100: fdf8 cc3d 3d9e 21be bbf9 9bbc c314 983d
00000110: ba66 3cbd fd0d 2c3e 25a2 91bc 4800 4ebd
00000120: 0e7c b1bd 3bc4 8fbd df22 703e 00ff 963d
00000130: cd4d b93d 8722 c8bd cd85 643e cad8 00bd
00000140: 6a36 ca3d fec8 e43c 1230 97bc f482 8f3d
00000150: 6d22 48bb cb4e e0bc 127e 4bbd a632 b8bd
00000160: e4bf 8ebd 4593 dcbd ddc2 79bb d9f8 39bd
00000170: d4d6 013e 96ae b4bb 6d34 4dbc 70d1 d9bb
00000180: 4db6 9fbd a12a 24bd cbea 0b3d 0bd0 383d
00000190: ee30 853d 8cc6 bc3d fd87 c03c c8d8 27be
000001a0: 0620 50be c281 af3d a22a f9bc ebfc 9e3d
000001b0: df74 1b3e 452f bcbc 23a7 3a3e c490 a8bd
000001c0: f8b7 09be 40e6 dfbd b078 d5bd 759a 6e3d
000001d0: c1f9 ff3c 4038 5ebd 1552 3bbd 9fe8 fe3d
000001e0: 17cd 843d 1f35 ef3d 15c1 7abd 0281 45bd
000001f0: cd8e 703c 4df1 14be 26bd 17be 7caa dbbd
00000200: e85f aaba ba50 72bd 87cc 5cbd 85ed de3b
00000210: 6eee 4dbd 0b8b 86bc 5888 833d b1ff cdbd
00000220: 5547 37be af69 c03d 2237 c1bd f1f2 4ebe
00000230: f804 90bc 5561 863d dba0 5f3e 98b2 123e
00000240: c394 443d d640 91bc 71f6 bcbc 40e2 fb39
00000250: db9f cb3d 36bb c3bd f4da e43d 0cf6 e43a
00000260: 1652 0dbc cdfd 9c3d a4da afbc 08bf bdbd
00000270: c9d3 803c b71c 3d3e 8985 6c3d 171b e53c
00000280: 91b4 dabd afcf 873d bc37 39be cd39 7d3d
00000290: ffbf 793d ce16 313c d8ac 253c 00d6 d53d
000002a0: 25e1 4dbe f2c9 b53c e0f8 52be e7c8 283d
000002b0: 0529 cd3d b042 c8bd fcff 0c3e 8d8a 603e
000002c0: 263d ad3d dbb9 e23c fb16 01be 9c28 8cbd
000002d0: e9ce 6e3d 5061 b0bd 6097 9d3d 4908 4dba
000002e0: 4561 1a3d cf76 f1bc 2dba 833c e050 3fbe
000002f0: 5587 773d bc25 25be bebd a93d ba3c 7e3d
00000300: f8dd a1bd f9eb debd e386 15bc 17ab adbd
00000310: 0e3e c5bd b9e1 df3d a505 df3d 6292 66bd
00000320: 4741 253b bb04 3fbd 55b4 16be 6239 0bbe
00000330: 2f02 71ba 53b0 9f3d bb6f 003d 8940 9bbd
00000340: cbda 0fbe 3e03 213d 4f5c 133c 0bf0 f33d
00000350: 0316 ddbc 2087 423d 3bd4 74bc 0a52 ba3c
00000360: 4a22 2d3e 7aae cfbd c1ba f2bb 9f1f 613d
00000370: efde 593c 948a 23be 2da1 14be 92fc 083e
00000380: eb19 b8bc 76d2 d1bd 6729 22bd 34d7 813d
00000390: b579 323e 20c3 1a3e 4a1b c83c 649c 8b3b
000003a0: 29e1 c13d 893f fcbd 1f62 1a3e f39d 69bd
000003b0: 7bfe 00be ce70 0fbe c5cb 053e 0240 313e
000003c0: a4b9 e03d c50d 0abe 9a13 0c39 be1a cc3c
000003d0: 28d9 fc3d 209d 37bd 0d26 aabd ceec 12bd
000003e0: 067d 92bd e20f 973d 6d64 98bd 75ec 7fbd
000003f0: 205f f7bd 77e6 4f3e 2eae 35bc 4c29 f5bd
-0.058272306 0.12395086 0.075969264 -0.046830807 -0.012861831 0.019181252 0.023924068 -0.06411305
-0.17622435 -0.18242154 -0.106687695 0.10534315 0.032856293 0.063827015 -0.16162945 0.08086099
0.046208754 0.12394626 0.10294726 -0.1149994 -0.06891032 -0.15143496 0.10220744 -0.109823376
-0.09057541 0.19953623 0.07649447 0.07957498 0.061338358 -0.09445777 -0.0652885 0.08061173
-0.01143302 0.07263285 -0.092347965 0.058687486 -0.06464903 -0.06629959 -0.017428018 -0.14644217
0.0780719 0.13701524 0.19900401 0.1335869 0.026827278 -0.11121565 -0.115112446 -0.08166064
0.118108526 0.08959079 0.1340292 -0.024714526 0.10636323 0.14781854 -0.07963815 -0.10396224
0.059085414 -0.11181163 -0.038380664 -0.060074598 0.10909713 -0.16373819 -0.16865866 -0.17738971
0.10008428 -0.1578302 -0.01903998 0.07425835 -0.045996405 0.16802211 -0.017777512 -0.050293237
-0.0866624 -0.0701985 0.23450802 0.07372856 0.090480424 -0.097722106 0.22316666 -0.031456746
0.0987366 0.027927872 -0.018455539 0.07007399 -0.0030538097 -0.027381321 -0.049680777 -0.089940354
-0.06970194 -0.10770277 -0.0038110532 -0.045403335 0.12679607 -0.0055139763 -0.012524706 -0.0066472813
-0.07798443 -0.040079717 0.034159463 0.04512028 0.06503473 0.09217557 0.023502344 -0.16391289
-0.20324716 0.08569671 -0.030415837 0.07763084 0.15181302 -0.022971759 0.1822782 -0.08230737
-0.13449085 -0.109325886 -0.1042341 0.05825277 0.031247022 -0.054252863 -0.045732576 0.12446713
0.0648443 0.11680054 -0.061219294 -0.048218735 0.014682484 -0.14545174 -0.14818248 -0.10725877
-0.0012998553 -0.059159018 -0.05390599 0.006803217 -0.050276212 -0.016423723 0.0642249 -0.10058535
-0.17898305 0.093951575 -0.09434344 -0.20209862 -0.017580494 0.06561533 0.21838705 0.1432594
0.047993433 -0.017731111 -0.023066731 0.0004804302 0.099425994 -0.09557192 0.111745745 0.0017468347
-0.008625528 0.07665596 -0.02146656 -0.09264952 0.015725987 0.18467985 0.057744537 0.027967019
-0.106789716 0.066314094 -0.18087667 0.0618227 0.060974117 0.01080866 0.01011201 0.10441208
-0.20105417 0.022191022 -0.20602751 0.04120722 0.100175895 -0.09778345 0.13769525 0.21927853
0.08458929 0.027676513 -0.12606423 -0.06843683 0.058302794 -0.08612311 0.07694888 -0.0007821364
0.03769042 -0.029475598 0.016079986 -0.18683195 0.060431797 -0.16127676 0.082881436 0.062069632
-0.07903665 -0.10884852 -0.009126398 -0.084798984 -0.096309766 0.10931725 0.108897485 -0.056291945
0.002521591 -0.04663537 -0.14717229 -0.13596109 -0.0009193746 0.07797303 0.031356554 -0.075806685
-0.14048307 0.039309733 0.008994176 0.11911019 -0.026988035 0.047492146 -0.014943178 0.022744197
0.16907611 -0.10140701 -0.0074075167 0.054961797 0.01329778 -0.15970832 -0.14514609 0.13377598
-0.022473296 -0.1024522 -0.039590266 0.06339875 0.1742924 0.15113497 0.024427075 0.0042605866
0.09466774 -0.12316806 0.15076493 -0.057035398 -0.12597077 -0.14007875 0.13066013 0.17309573
0.10972908 -0.13481815 0.00013358743 0.024915095 0.12346107 -0.04482758 -0.08308039 -0.035870366
-0.071527526 0.07376076 -0.0744103 -0.062481362 -0.120786905 0.20302759 -0.011088891 -0.119707674

lstm.bias_ih_l0 f4 [128]
00000000: d1d6 66bc fc34 b5bc 818c 2a3d 7ac6 51bc
00000010: 107f b8bc 3424 40bc 57ac dcbc 860c b1bc
00000020: 3213 353d 579e 1c3d 959b 173d ad1f 70bb
00000030: 3dbf 16bb 124f 863c 3991 a73c b346 283d
00000040: 5aaa 7e3c 316e 40bd 451e 2cbc 81eb 82bc
00000050: 20cb b3bc 2739 7f3d 1639 18bc 420f 84bb
00000060: c9e9 c7bc e13d ec3c fb5b 93bc 807d f73c
00000070: 9ecd 743c 5d18 b5bb 61bc 093d 5eeb a23c
00000080: 39cc 813c 8271 49bc baa8 8a3d 3b5e b63a
00000090: 08fc d83c deb9 1c3c 450f 28bc 6e78 6ebc
000000a0: d6cf bd3d 9ab7 203d a514 503d e7c9 a83c
000000b0: 16b9 003d d99f 543d ae0e 893d 3e6a 9a3d
000000c0: 8c12 313d b22e e6bc 7ce4 9fbc 69f5 dabc
000000d0: ff7f 7cbc 77a5 a83d 5c3f ba3a ddbd 8b3c
000000e0: ee7b e6ba 2246 633d 02d6 d3bb ab98 853d
000000f0: d5bb ce3c ccaa 4d3d 8e53 1e3d a624 9a3c
00000100: 5f85 4c3a faeb ffbc 183b 13bb 6620 ccbb
00000110: cfeb 833b ddeb 42bc ec74 5fbc 8f08 e6bb
00000120: 8b17 e53a 019c 463c 0bdf 7d3c 8a6f 1fbc
00000130: 7fd2 27bc 7b5b 123b e50d fd3b 9905 f13b
00000140: 252c 643c ffb9 343c a189 383c 1c90 893c
00000150: ea42 c2bb 5c65 7a3a b3f0 913b 70ee 01bb
00000160: 97d0 46bc 1f42 c83b 5541 60bc 1c1e a0bb
00000170: 8951 543b b5d1 c23b 03a4 a73b 28ff db3b
00000180: 750e d43a 4594 abbc db5b 1d3d 17ef 8fbc
00000190: 6490 c7bb da42 97b9 a85d 98bc d6d8 1fbc
000001a0: f25b 873d a39c 3b3d cafd 273d c4e6 363b
000001b0: 735f 083c f414 f43c e175 023d 1263 3d3d
000001c0: e522 833c e0fc 24bd 850c 90bb f8c4 8ebc
000001d0: 1c32 f6bc 6709 6c3d 7b8f b5bb a012 e4ba
000001e0: 6510 7ebc 80f5 0a3d 96d2 96bc cac3 093d
000001f0: 93be 863c 65de 84bb b9ec 953c 8846 aa3c
-0.014089302 -0.022119991 0.0416379 -0.012803668 -0.022521526 -0.0117273815 -0.026937647 -0.021612417
0.04420776 0.038236942 0.03701361 -0.0036639974 -0.002300217 0.016395126 0.02045499 0.04108305
0.015543545 -0.046980087 -0.010505264 -0.015981438 -0.021947443 0.062310364 -0.009290954 -0.004030139
-0.02440347 0.0288381 -0.017988196 0.03021121 0.014941601 -0.005526586 0.033626918 0.019887622
0.015844451 -0.012295129 0.06770463 0.0013913581 0.026487365 0.009565799 -0.010257547 -0.01455508
0.09268157 0.039237596 0.05080094 0.020604087 0.03142651 0.051910255 0.06692253 0.07539795
0.04323058 -0.028098438 -0.01951813 -0.026728349 -0.015411376 0.08234685 0.0014209556 0.017058307
-0.0017584541 0.055486806 -0.0064647207 0.0652326 0.02523605 0.050211713 0.038653903 0.018816303
0.0007801856 -0.031240452 -0.0022465643 -0.006229448 0.0040259133 -0.0118970545 -0.013638716 -0.007020063
0.001747833 0.012122155 0.015495072 -0.009731183 -0.010243057 0.0022332359 0.0077226036 0.0073554036
0.0139265405 0.011030673 0.011263282 0.01679235 -0.005928387 0.0009551847 0.0044537424 -0.0019825958
-0.012134693 0.006111398 -0.013687451 -0.004886402 0.0032397232 0.005945409 0.0051159873 0.0067137666
0.0016178625 -0.020944724 0.03841768 -0.017570062 -0.0060902108 -0.00028850773 -0.018599346 -0.009756288
0.06609334 0.045803677 0.041013516 0.0027908543 0.008323538 0.029795147 0.0318507 0.04623706
0.01600785 -0.040280223 -0.0043960237 -0.017427906 -0.03005319 0.057626154 -0.005540786 -0.001740057
-0.015506838 0.033925533 -0.018410962 0.033633985 0.016448295 -0.004054832 0.018301355 0.020785585

lstm.bias_hh_l0 f4 [128]
00000000: e7d6 66bc fe34 b5bc 838c 2a3d 7bc6 51bc
00000010: 0f7f b8bc 2524 40bc 50ac dcbc 850c b1bc
00000020: 3213 353d 539e 1c3d 959b 173d 9a1f 70bb
00000030: 43bf 16bb 104f 863c 3691 a73c b446 283d
00000040: 4aaa 7e3c 2f6e 40bd 451e 2cbc 81eb 82bc
00000050: 1dcb b3bc 2b39 7f3d 1539 18bc 420f 84bb
00000060: d5e9 c7bc dd3d ec3c ff5b 93bc 847d f73c
00000070: 94cd 743c 7118 b5bb 5fbc 093d 5eeb a23c
00000080: 37cc 813c 8771 49bc bba8 8a3d 395e b63a
00000090: 0ffc d83c f6b9 1c3c 4d0f 28bc 6678 6ebc
000000a0: d1cf bd3d 96b7 203d a514 503d eac9 a83c
000000b0: 17b9 003d d79f 543d ab0e 893d 3c6a 9a3d
000000c0: 8512 313d b32e e6bc 79e4 9fbc 6bf5 dabc
000000d0: fd7f 7cbc 7aa5 a83d 393f ba3a e5bd 8b3c
000000e0: 477c e6ba 2046 633d 13d6 d3bb ad98 853d
000000f0: d9bb ce3c c8aa 4d3d 8b53 1e3d a424 9a3c
00000100: 4b85 4c3a 00ec ffbc fc3a 13bb 6b20 ccbb
00000110: c3eb 833b deeb 42bc e674 5fbc 7f08 e6bb
00000120: 6917 e53a 029c 463c 1ddf 7d3c 8d6f 1fbc
00000130: 78d2 27bc 6e5b 123b fa0d fd3b b905 f13b
00000140: 2a2c 643c 0aba 343c a289 383c 0d90 893c
00000150: dd42 c2bb 9a65 7a3a c8f0 913b 65ee 01bb
00000160: 9ed0 46bc 2742 c83b 5841 60bc 0f1e a0bb
00000170: 8c51 543b c9d1 c23b 2fa4 a73b 31ff db3b
00000180: 890d d43a 4694 abbc d95b 1d3d 1def 8fbc
00000190: 6890 c7bb 0642 97b9 ac5d 98bc ced8 1fbc
000001a0: f25b 873d a39c 3b3d cafd 273d ade6 363b
000001b0: 645f 083c fb14 f43c e275 023d 1863 3d3d
000001c0: df22 833c e2fc 24bd 950c 90bb f4c4 8ebc
000001d0: 1c32 f6bc 6a09 6c3d 8f8f b5bb 3d12 e4ba
000001e0: 7410 7ebc 7ff5 0a3d 9bd2 96bc cbc3 093d
000001f0: 91be 863c 75de 84bb b9ec 953c 8546 aa3c
-0.014089323 -0.022119995 0.04163791 -0.012803669 -0.022521524 -0.0117273675 -0.026937634 -0.021612415
0.04420776 0.038236927 0.03701361 -0.003663993 -0.0023002184 0.016395122 0.020454984 0.041083053
0.01554353 -0.04698008 -0.010505264 -0.015981438 -0.021947438 0.06231038 -0.009290953 -0.004030139
-0.024403492 0.028838092 -0.017988203 0.030211218 0.014941592 -0.0055265953 0.03362691 0.019887622
0.015844448 -0.012295133 0.06770464 0.0013913579 0.026487378 0.009565821 -0.010257554 -0.014555072
0.092681535 0.03923758 0.05080094 0.020604093 0.031426515 0.051910248 0.06692251 0.07539794
0.043230552 -0.02809844 -0.019518124 -0.026728353 -0.015411374 0.08234687 0.0014209516 0.017058322
-0.0017584645 0.0554868 -0.0064647286 0.06523261 0.025236057 0.050211698 0.03865389 0.0188163
0.00078018446 -0.031240463 -0.0022465577 -0.0062294505 0.0040259077 -0.011897055 -0.013638711 -0.007020056
0.001747829 0.012122156 0.015495089 -0.009731186 -0.010243051 0.0022332328 0.0077226134 0.0073554185
0.013926545 0.011030683 0.011263283 0.016792322 -0.005928381 0.0009551883 0.004453752 -0.0019825932
-0.012134699 0.0061114016 -0.013687454 -0.0048863958 0.0032397239 0.0059454185 0.0051160078 0.006713771
0.001617835 -0.020944726 0.03841767 -0.017570073 -0.0060902126 -0.00028850156 -0.018599354 -0.00975628
0.06609334 0.045803677 0.041013516 0.002790849 0.008323524 0.02979516 0.031850703 0.04623708
0.016007839 -0.04028023 -0.004396031 -0.017427899 -0.03005319 0.057626165 -0.005540795 -0.0017400455
-0.015506852 0.03392553 -0.018410971 0.03363399 0.016448291 -0.0040548393 0.018301355 0.02078558

fc1.weight f4 [32, 32]
00000000: 1a41 30bd c028 6ebe 52bb ce3d e04c 1b3e
00000010: 3c0e 65be 08e3 9e3d 66a5 783d b2b3 59be
00000020: 7d56 39bc b8bf a63e c93d afbe 3d13 37be
00000030: e174 883e e5e8 813e 2514 763e eb54 66be
00000040: 72c0 2e3d 95a7 023e 6232 5dbe 1dbc d03d
00000050: 831c 453e 56c2 3fbc dba4 8c3e 4fa9 c53c
00000060: 3e92 853d 6799 9fbd 08e6 68be 314f 0ebd
00000070: 355c 913e 4539 f23d 1ee7 2a3e ff84 813d
00000080: 1866 8dbe 77cb 533c 4f5a 33be f24b 5a3e
00000090: ba71 7cbe 3ca0 1a3d e50b 5d3e 1a1a 713e
000000a0: 210a 283e 6d1c 093e 2026 26be 29a6 a93e
000000b0: c9f8 b03d 51a4 a83e f02b 193d 180e 89be
000000c0: fc91 c73d 75b9 30be 988b 5ebe 656a 2a3e
000000d0: 0e49 4bbe 8fa8 f53d caf4 553e da43 773e
000000e0: 01c2 853d daf8 d2bd ec7b e73c 93dc e23d
000000f0: 5721 2bbe 36bd a53d d7cb 6a3d 0d23 9c3d
00000100: 614c 3fbe 357a 62be 11ac 4d3d 1884 86be
00000110: b2b0 303d a6e6 54be 5c83 e83d 01a4 593e
00000120: 9cdc b93d c744 e9bd 4bc2 a6bd 6c19 af3e
00000130: 34b2 e0bd 8c92 b73d 0965 b3bd c81d 9b3d
00000140: 5cec 83bd 4b4f 0cbd c0dd 173e 29b3 4bbd
00000150: fb14 2abd b6bd aebd 62f4 06be 8f4f f33d
00000160: b087 59be e12e 0ebe 4c9c afbd 09bb e53d
00000170: b06e cb3d 4578 89be 5ddc c5bc a373 0dbd
00000180: 7c97 fcbd 4bc9 5cbe a07b 8bbe 664d 933d
00000190: 3269 903e d3c6 5e3e 5687 81be a4d3 9d3e
000001a0: da31 8d3d 6355 86be 7fc0 473e db9e 323e
000001b0: 90a1 60be 7367 b1bb 5a78 6d3c 39e4 a93e
000001c0: e573 293e 1468 e63d 9bf7 edbd 1a07 803e
000001d0: b003 3d3e ef56 55bd 8a30 4dbe bcab e8bd
000001e0: c8b3 9abe 8343 683e 472e 263e 1b24 2fbd
000001f0: dfda 6abc 1ed5 0b3e 8293 1ebe ae2d 04be
00000200: b653 7d3e 6cb8 6d3e 4b5c f73d 0cd1 4abe
00000210: d4f1 ec3d c75d 2c3d 3ec4 273d 70a8 00be
00000220: 2864 7b3e 2dce 82bd 2408 8fbe 27eb f7bd
00000230: 0bd8 08be 2a9e a3bb 644a dabd 07a6 37be
00000240: 009c 843e bb14 683e 9d48 893e 629d 2cbe
00000250: 4e6d 00be e1e8 95be f3a5 4e3e c70c 1e3e
00000260: 46b5 55be 906f e0bd 4b69 82be 7c38 8abb
00000270: 8fed 483e fb49 2d3e 17dc 503c dba4 e43d
00000280: 60bd e33d f760 213e b86e 88bd 9dfc 81be
00000290: c85c 063d 8800 d0bd 4998 bcbd 47b3 273e
000002a0: 5ec5 ae3d c4fc 963e 85a2 81be 3031 b83d
000002b0: b489 ea3d be24 9c3e fefe a4be ced2 0e3e
000002c0: eb6c 8c3c 7041 84be 1988 0bbe 844c 82bd
000002d0: 6754 1e3e 6434 8d3d 0698 3d3d f796 4dbb
000002e0: 453b ff3d d3c4 3fbe aad5 7fbe d1db 0fbe
000002f0: 5f88 823d f87e 25bd f580 4b3d aaaa 9b3e
00000300: 562d c53d 5bd0 17be 0887 9e3e ba67 413e
00000310: 125c 6cbe 621b 053e 1dd0 7dbd fb13 72be
00000320: ed9c 8d3d a70c 10be cecf 6cbe 2afe 333e
00000330: 6605 003d 43a5 6d3e c6e2 6dbe 971f 873e
00000340: 778f c3bd 1e51 5e3e f1ed 2c3e 6a26 993d
00000350: fc23 783e f5a4 61be 55b9 8a3e a45d 31be
00000360: abd6 963e 2bd4 97bc 6eec 8d3e f38c 8abe
00000370: 55a3 86be 678f 87be eef0 753c ece2 69be
00000380: b8ba abbc 38cd 283e 7166 5bbe 6442 453d
00000390: 196b 59bd 77d6 e1bd a32d 18be 1546 83be
000003a0: dedc 123d 9b40 023e 7633 d9bd 4994 52be
000003b0: 542c 3d3d 8f31 a0bd 2db0 a03e dcd3 a63e
000003c0: 19f7 403e c013 f4bc 9cb3 ddbd 7faf 4f3d
000003d0: 1a8d 8cbe 04af 723d 18b4 79bd af4d 9abe
000003e0: a800 d63d d09e 1bbe fa63 3ebd 5bf4 a3bd
000003f0: dd0b 95be b72d a73c 98bb 323e d27a 5bbe
-0.043030836 -0.23257732 0.10094322 0.15166044 -0.22368711 0.077581465 0.06070461 -0.21259955
-0.011312124 0.32568145 -0.34226826 -0.17878433 0.26651672 0.25372997 0.24031122 -0.22493331
0.042664 0.1275924 -0.21601251 0.1019213 0.19249158 -0.011704048 0.27469525 0.024128584
0.06522034 -0.07792931 -0.22744 -0.03474349 0.2839066 0.118273295 0.16689727 0.06324195
-0.27616954 0.012926928 -0.17514919 0.21318033 -0.24652758 0.037750468 0.21586569 0.23545113
0.16410114 0.1338975 -0.16225481 0.33134583 0.08641202 0.32937863 0.037395418 -0.26768565
0.09744641 -0.17258246 -0.21732938 0.16642149 -0.19852087 0.119950406 0.20894161 0.24146977
0.06531144 -0.10301371 0.028257333 0.110772274 -0.16711937 0.0809273 0.057323303 0.07623873
-0.1868148 -0.22116931 0.050212923 -0.26272655 0.04313726 -0.2079111 0.1135318 0.21253969
0.09075281 -0.11390071 -0.08142527 0.34199083 -0.109714895 0.089634985 -0.08759505 0.0757404
-0.06441566 -0.034255307 0.14830685 -0.049731407 -0.041523915 -0.08532278 -0.13179162 0.11880409
-0.21243167 -0.1388507 -0.08574733 0.11217315 0.09933221 -0.2684957 -0.024152929 -0.034534108
-0.12333581 -0.21561162 -0.27242756 0.07192497 0.28205258 0.21755533 -0.25298566 0.3082553
0.06894274 -0.2623702 0.19507025 0.17443411 -0.21936631 -0.0054139434 0.014494026 0.33181933
0.16548117 0.1125032 -0.116194926 0.25005418 0.18458438 -0.05208486 -0.20038047 -0.11360881
-0.30215287 0.22682004 0.16228591 -0.042759042 -0.0143344095 0.13655517 -0.15485957 -0.1290805
0.24738964 0.23214883 0.1207815 -0.19806308 0.115695626 0.04208162 0.040958636 -0.12564254
0.24549925 -0.06386981 -0.27935898 -0.121053986 -0.13363664 -0.00499322 -0.1065872 -0.17934428
0.2590027 0.22664158 0.26813212 -0.16856912 -0.12541696 -0.29279235 0.20180492 0.15434562
-0.20869932 -0.10958779 -0.25470957 -0.0042181592 0.19621871 0.16922753 0.012747786 0.11164256
0.11120105 0.15759645 -0.06661743 -0.2538804 0.032803327 -0.10156351 -0.092087336 0.16376983
0.085337386 0.2948972 -0.25319305 0.08993757 0.11452046 0.30496782 -0.32225794 0.13947603
0.01714178 -0.25831175 -0.13626136 -0.063622504 0.15461884 0.06894758 0.04628756 -0.00313705
0.12462477 -0.18727426 -0.2498385 -0.14048697 0.06373667 -0.04040429 0.04968353 0.30403644
0.09627788 -0.14825575 0.30962396 0.18887225 -0.23081997 0.12998727 -0.06196605 -0.23640434
0.06914697 -0.14067326 -0.23126146 0.17577425 0.03125515 0.23207574 -0.23231038 0.2639129
-0.09548848 0.21710631 0.16887642 0.0747803 0.24232477 -0.22035582 0.27094522 -0.17320877
0.29460654 -0.018533787 0.27719444 -0.2706066 -0.26296487 -0.26476595 0.015011055 -0.2284047
-0.020963058 0.16484535 -0.21425797 0.04815902 -0.053080652 -0.11027234 -0.14861159 -0.25639406
0.035855167 0.12719958 -0.106055185 -0.20564379 0.046184853 -0.078219526 0.3138441 0.3258351
0.1884426 -0.029794574 -0.108252734 0.050704475 -0.27451402 0.05924894 -0.060962766 -0.30137393
0.10449344 -0.15197301 -0.046482064 -0.080055915 -0.29110613 0.02040754 0.17454374 -0.21433571

fc1.bias f4 [32]
00000000: 1056 60bc 57b9 c73c 13ff 473d 5d22 18bb
00000010: de32 823b 616b 993c 73ae 2a3c 10fd ce3a
00000020: 9378 183c 2c98 4a3c bf59 543c c11f e3bb
00000030: f3fe 833c e1a7 793b 6650 f23a 9f89 193c
00000040: 1a67 993c 006b 743d ea2c f53c a5d1 1abb
00000050: 5364 cabb f726 c53c ca3c 2e3c 3cb4 1f3d
00000060: 96da 6cbb 1976 883c de48 ef3b 7485 d1bb
00000070: bdc4 793c f2a6 8ebc 060a 9abc 6c58 edb9
-0.013692394 0.02438037 0.048827242 -0.0023213841 0.003973349 0.01872796 0.0104175685 0.0015791971
0.009306091 0.012365382 0.01296085 -0.0069312756 0.01611278 0.0038094448 0.0018487095 0.00937119
0.01872592 0.059672356 0.029928643 -0.0023623493 -0.0061765104 0.024066431 0.01063461 0.038990244
-0.003614103 0.016657876 0.0073023876 -0.0063940827 0.01524466 -0.01741359 -0.018803608 -0.00045270042
