models/wesad/baseline_torch/model_wesad_binary.pth (torch, 117781 bytes, 20 tensors)

conv1.weight f4 [32, 14, 7]
00000000: 3a0b 453d 97ee 09bd b624 d53c 6862 34bc
00000010: b35a 8e3d 5820 0bbe 194a c1bd eab1 003b
00000020: 8aaf 29bd bee8 ba3d 2b64 d73d 7afe c33d
00000030: 3784 dd3d c9e0 a9bc 49e8 883d 58d5 1e3c
00000040: d209 673d f827 023e eaf9 23bd 117e 62bd
00000050: 2371 a73d a183 553d a235 a33d f813 62bb
00000060: 321c 84bd be4b 02bd 83f5 7bbb ccf1 fe3c
00000070: 095d 70bd 0e3d 92bd 9e70 57bc 9138 82bd
00000080: e505 7abd d003 f83d 7f93 70bd 2cb9 aabc
00000090: 7d39 fbbc 8d46 adbc 15cf 7f3d bb1a 5b3d
000000a0: b2ce 673d 1f08 1dbd 800d f1bc dc26 c43d
000000b0: fe26 4abd 4a7e bfbc b2d7 88bd f0ce 9cbb
000000c0: 12ac c43c 3f0e f5bd bef1 57bd e39a 443d
000000d0: 2ede 3bbd f1b0 8d3d 11a3 9d3d f41b 5fbd
000000e0: 81d5 94bd 555c 8b3d 746b c9bd 544c 883d
000000f0: 29d5 7c3d 0bc9 47bd 39f2 3ebd 424a b53c
00000100: fdb5 9b3c 8f96 823d 66f0 3ebd d8ec bd3d
00000110: 691f 473d e168 473d f01c 93bc 3479 b9bd
00000120: 3172 acbd 6b80 c4bd dd83 173d d4aa 703d
00000130: 9598 d9bd 337c e6bc 9eeb 3e3d 0489 3abd
00000140: ac06 82bd 38c3 a83d 3401 733d c757 28bd
00000150: ef7e 5abd f29d 903d 7f73 a13d 27be 823d
00000160: c475 5db9 f7fa 29bd 4c83 8fbc e23a 1e3d
00000170: 1dfd 99bc a5b2 a7bc 1431 9c3c d6bd 26bd
00000180: a666 053d ea8e 243d 5bd9 cfbd 1659 963d
00000190: 15bb 02bd 8d82 313d 377a 633d aaa0 10bd
000001a0: dcf0 b03d 02c8 16be 7a35 54bd 633a 22be
000001b0: d2c8 b2bd 332e ffbd 343b 03bd 68a3 70bc
000001c0: dd05 91bd b94d 653d e11d 92bc 6ef3 9bbd
000001d0: ee5a c83d 8914 8abc c55b bebc 9a31 863d
000001e0: b657 b23d f41d 783d e2d1 edbc 2a6e a43d
000001f0: d8ce a93b 3ccc a7bd 5f24 b1bd 77a1 06bd
00000200: b192 c3bd 52c9 9e3c f387 c2bd 28f2 cdbb
00000210: 9d87 883d 35af a23d 3159 48bd 4412 683d
00000220: e673 6cbc add8 e0bc b30f 303c f39b e53c
00000230: 28c3 e23b 4d63 55bd 74f0 dabd 1825 4e3b
00000240: 4224 96bc 268f 743d 176d a1bd e804 9b3d
00000250: d02f 063b cb4d cfbc a77b 463d 419f 673d
00000260: e3de 8e3d c7d2 53bc ad5c 043c 3094 1ebb
00000270: ac24 10bd 80a3 3eb8 f186 2d3d d34e 263c
00000280: db79 2fbd 6fad aabd 9b45 06be 6950 debc
00000290: 4b3d 06bd a9f6 0d3d 80e8 ccbd 055a eabc
000002a0: 43b8 6bbb e8a9 733c db4a 9e3c 5e9a b23d
000002b0: dc33 cd3d 59e8 7d3d ad04 143d 6b67 9b3d
000002c0: db9b 91bd c937 553d 49c9 b53d 6821 0dbd
000002d0: 80af 15bc 99a6 70bd 1c39 5ebd e17b b33d
000002e0: 4f1c a8bc 369b 423d 03e9 263b f6d8 b2bd
000002f0: 1a2e 87bb 220a 76bd 756d 9e3d b8a1 883d
00000300: 019e a0bc bb02 4c3d 4c56 793d a3eb 033d
00000310: ce08 5cbd 71cd 2fbd 5a50 4d3b 278a c63d
00000320: 0ccd 8d39 609a 36bc 5b6d 9cbd 97c5 463d
00000330: 88c6 0abd ed2d 41bd 7820 c33d c8b4 c83c
00000340: 52d4 6d3d 1c9f 003d cc18 0cbc 4a11 8d3c
00000350: 62bc dabc 68f5 81bd a252 183c 56f4 233d
00000360: 674f e1bc 99c0 53bd c820 9fbc 45d2 b2bd
00000370: dfcb 29bd dbb7 973d 1849 56bd d6f2 9a3c
00000380: c30a 333d b12f bfbd f7b3 34bd bd87 213d
00000390: b335 f23c 9ec7 893c 2e50 2abd 018e 9bbd
000003a0: 443e a43c 5ad5 05bd ad4d 4ebc afe6 9c3d
000003b0: 6308 97bc c1bc 1abd 6a34 f9bc daa3 3bbd
000003c0: a8bc 463d 4af5 8b3d 6b02 533d 6225 65bd
000003d0: 15ac 93bc c352 84bd d187 debb 60b8 803d
000003e0: 8cb1 103d 9021 0fbd c8c6 9b3d ed2d 1dbd
000003f0: 18a8 0a3b 3b81 5f3c 0ce2 fabc 0e3d a8bd
0.04810641 -0.033674803 0.026018482 -0.01100979 0.06950893 -0.13586557 -0.09437961 0.0019637295
-0.041427173 0.09126423 0.105171524 0.09570022 0.108162336 -0.020737069 0.0668493 0.00969442
0.05640585 0.1271056 -0.04003326 -0.055296008 0.08175876 0.052127484 0.07969214 -0.0034496766
-0.0645069 -0.031810515 -0.0038445897 0.031121157 -0.058682475 -0.071405515 -0.013149409 -0.063584454
-0.061040778 0.12110102 -0.058734413 -0.02084025 -0.030667061 -0.021151805 0.06245335 0.05349229
0.056593604 -0.038337823 -0.029425383 0.09577724 -0.049353592 -0.023375649 -0.066817656 -0.004785411
0.02400783 -0.11965608 -0.052720778 0.047999274 -0.045866184 0.069185145 0.07697118 -0.054470018
-0.07267285 0.0680472 -0.09834948 0.066551834 0.061726723 -0.048775714 -0.04661772 0.022130135
0.019007677 0.06376373 -0.04661598 0.0927369 0.04861394 0.048684005 -0.017958134 -0.09056321
-0.08420218 -0.09594806 0.03699099 0.058756664 -0.10624806 -0.028135395 0.04661142 -0.045540825
-0.06348929 0.0824036 0.05932732 -0.041099336 -0.05334371 0.07061376 0.07883357 0.06383925
-0.00021120074 -0.041499104 -0.017518662 0.038630374 -0.018797452 -0.020470927 0.019066371 -0.040708385
0.032568596 0.040175356 -0.10148879 0.073412105 -0.031916697 0.043337394 0.055536475 -0.03530947
0.0863969 -0.14724734 -0.05180881 -0.15842585 -0.0872971 -0.12459984 -0.032038882 -0.014687397
-0.070811965 0.055982325 -0.017836513 -0.0761479 0.097829685 -0.016855495 -0.023237118 0.065524295
0.08708136 0.06057544 -0.029030744 0.080288246 0.0051821284 -0.081932515 -0.08649515 -0.03286883
-0.095494635 0.019383106 -0.094985865 -0.006284971 0.06666491 0.07943574 -0.048913185 0.056658044
-0.014431929 -0.027447069 0.0107459305 0.028028464 0.006920237 -0.052096654 -0.10690394 0.0031455215
-0.018327836 0.05970683 -0.07882135 0.07569295 0.0020475276 -0.02530565 0.048457768 0.05654836
0.06976106 -0.012928671 0.008078736 -0.0024197213 -0.035191223 -4.54518e-05 0.04236502 0.010150629
-0.04284082 -0.08333861 -0.1311249 -0.027137952 -0.032773297 0.03465906 -0.10005283 -0.028607378
-0.0035967983 0.014872052 0.019322803 0.087208495 0.10019657 0.061989162 0.03613727 0.07588085
-0.07109805 0.052055154 0.08876283 -0.034455687 -0.009136081 -0.05875263 -0.054253682 0.087638624
-0.020521311 0.047511302 0.0025468476 -0.08732788 -0.004125369 -0.060068257 0.07735721 0.066714704
-0.019606592 0.04980729 0.060873315 0.032207143 -0.053719334 -0.042920534 0.003132841 0.09694319
0.00027046388 -0.011145204 -0.076380454 0.04852828 -0.03388074 -0.04716294 0.09527677 0.024500266
0.058063813 0.03140174 -0.008550834 0.017220158 -0.026701156 -0.06345636 0.009297045 0.04002794
-0.027503682 -0.051697347 -0.019424811 -0.08731512 -0.041454192 0.074081145 -0.0523158 0.018914621
0.043711435 -0.09335268 -0.04411694 0.03943609 0.029566621 0.016818818 -0.04158037 -0.075954445
0.020049222 -0.03267417 -0.012591762 0.07661187 -0.018436616 -0.037777666 -0.0304205 -0.045810558
0.04851976 0.068338946 0.051515978 -0.055943854 -0.018026391 -0.06461098 -0.006791093 0.06285167
0.035325572 -0.034944117 0.07606274 -0.038373876 0.002115732 0.013641651 -0.030625366 -0.0821477

conv1.bias f4 [32]
00000000: c2e7 6137 733d 0f39 44b3 6cba 759f 0abb
00000010: a932 0536 c56c b2b7 feb7 9f3a aca2 3b38
00000020: 4653 88b7 a091 6cb7 6d19 aa36 4ebf a936
00000030: 3dd1 7b3a 47ce 4636 6145 c337 9619 953a
00000040: ff67 a036 7164 153a 39fc aa37 0c3c fd3a
00000050: 29e3 ceb6 4e8d 4337 2c88 53b6 f4e3 2ab7
00000060: e3b7 1338 7af0 2a37 0b3b 3ab7 e983 2035
00000070: 4ecc 9d37 1fb6 0cb5 6028 cdb7 6fde 49b7
1.3465005e-05 0.00013660434 -0.0009029398 -0.0021152173 1.9848032e-06 -2.1269903e-05 0.0012185571 4.4735774e-05
-1.625124e-05 -1.4100602e-05 5.0693548e-06 5.0588633e-06 0.0009606069 2.9624368e-06 2.3278119e-05 0.0011375423
4.7804783e-06 0.0005698866 2.038303e-05 0.0019320264 -6.1657233e-06 1.1655806e-05 -3.1520713e-06 -1.0185864e-05
3.521879e-05 1.018878e-05 -1.1100211e-05 5.97966e-07 1.8810995e-05 -5.2419085e-07 -2.4456705e-05 -1.2032323e-05

bn1.weight f4 [32]
00000000: e263 7e3f def7 7c3f 4428 823f ea97 7d3f
00000010: a050 6b3f e5b3 7e3f 0c5e 7d3f 1c81 873f
00000020: a58e 7b3f 3717 743f 0697 763f cf91 7e3f
00000030: 74d4 803f 57c0 803f 4112 783f 9920 853f
00000040: d274 803f d594 7f3f e6e7 793f dd02 7f3f
00000050: f1a7 823f 078d 7b3f 7edc 723f 74ba 703f
00000060: f89b 783f fd7b 7d3f 3e2c 7f3f ebcc 723f
00000070: 6a04 7c3f 8442 773f 4d3b 823f 1e82 7e3f
0.9937116 0.98815715 1.0168538 0.9905993 0.919199 0.9949325 0.9897163 1.0586276
0.98264533 0.95347923 0.96324193 0.99441236 1.0064836 1.0058697 0.96902853 1.0400573
1.0035651 0.99836475 0.97619474 0.99613744 1.0207502 0.98262066 0.94867694 0.94034505
0.9711299 0.99017316 0.99676883 0.9484393 0.98444235 0.9658587 1.0174347 0.99417293

bn1.bias f4 [32]
00000000: a14a 24bd 7c0e 133c eaac fb3b e43d d7bc
00000010: aab6 afbc 8355 20bd 7823 c7bb 9a46 16bb
00000020: 0b31 f3bc 71d5 1bbd b59d 64bc 81fb acbb
00000030: fcaa d2bc cd4d 97bc 38e4 51bd 36d4 efbc
00000040: ed08 893c 89e1 bbbc 47e2 07bd ef11 03bd
00000050: 7075 70bc 4be5 023b a01d 6ebd 9f01 6fbd
00000060: 1c6f 18bd 854a c8bb 64a0 aabc 9318 91bd
00000070: c980 6ebd ee82 09bc f71a 12bc 1822 c2bc
-0.040110234 0.008975621 0.007680525 -0.026274629 -0.021449406 -0.03914405 -0.0060772263 -0.0022930265
-0.029686471 -0.03804535 -0.013953616 -0.005279005 -0.025716297 -0.018469715 -0.051243037 -0.029275995
0.016727889 -0.022934692 -0.03317478 -0.031999525 -0.014676437 0.0019973095 -0.05813372 -0.058351155
-0.037215337 -0.006112399 -0.020828433 -0.07084765 -0.058228288 -0.0083930325 -0.008917562 -0.023697898

bn1.running_mean f4 [32]
00000000: 0629 303e 355a 76be 9810 27bc 2a76 e03d
00000010: c6dc 88bd 6758 e8bd d3e3 c23b 39bd 2e3e
00000020: de3d 05be cd98 1a3b 1bc3 bbbd 87c2 38bd
00000030: 89d7 e33d 20cf fdbd 4b21 26be 9877 143d
00000040: e749 86bd f803 763d b791 36bd 6c80 20be
00000050: 2f33 033e 5d0d 573d 20ac 8d3d 7fc8 533c
00000060: 25a6 653d de4b d43d 5a92 1b3d 4b0f fe3d
00000070: 4fae 1bbe bc23 b63d 3636 fd3d 3479 d0bd
0.17203149 -0.24057849 -0.010196827 0.10960038 -0.06682734 -0.113449864 0.005947569 0.1706437
-0.13011882 0.0023589612 -0.09168073 -0.04510739 0.111250944 -0.123930216 -0.16223638 0.036246866
-0.065570645 0.06006238 -0.04457256 -0.15673989 0.12812494 0.05250298 0.06917596 0.01292622
0.05606665 0.10366033 0.03798137 0.12405261 -0.15203212 0.088935345 0.123638555 -0.10179368

bn1.running_var f4 [32]
00000000: 13a2 f93e f8d5 683f 7cad cc3e b9e1 b43e
00000010: 6bda 1d3f 9d61 f13e 040b 223f 646c 243f
00000020: 8f0e e63e de83 d63e 3c74 f03e 8e1a 173f
00000030: 8597 e03e 47e6 3e3f 9aca c43f 9f99 4d3f
00000040: b845 f03e 0a8e 6a3f 18f5 113f fac6 5d3f
00000050: c932 8a3e 7e8f 333f 6852 043f d352 2a3f
00000060: 63ba ab3e 75c8 9c3e c81f 3a3f 626e f23e
00000070: c0ee 663f 8d32 293f 29d8 bb3e b6b0 c93e
0.48756465 0.9095149 0.39976108 0.35328463 0.61661404 0.47144786 0.6329806 0.6422789
0.44932982 0.41897482 0.4696368 0.59024894 0.438656 0.74570125 1.5374329 0.8031253
0.4692819 0.91622984 0.5701461 0.8663174 0.2699187 0.70140827 0.5168824 0.6653263
0.3354064 0.30621687 0.72704744 0.4734984 0.90208054 0.6609276 0.36688355 0.39392632

conv2.weight f4 [64, 32, 5]
00000000: 31cc 613d aa45 e3bc 683f 0bbc 20ea c73c
00000010: 2f40 7c3d dc84 c13a f5d2 21bd 932d b8bc
00000020: 54f2 3038 98ee 97bd b356 8d3d 01c5 e73c
00000030: 761f 5f3c 5fce 363d f2c3 333d 043e 423d
00000040: 5e1b 463d 0e96 b53c 52a8 9a3d 9e89 1d3d
00000050: 5aaf 89bc 1056 803d c76e 2d3d 3938 9dbd
00000060: 6d2c 7c3c 1736 3dbc 6d3c 253c 5784 47bd
00000070: 78f7 6cbc 9a9f 193d 7fe3 4b3d 5d43 2e3d
00000080: 8b01 14bd 275b 13bd 704f 1ebd d0df dabc
00000090: 972a 953c 790f d33d 01a8 6ebd 6175 af3d
000000a0: e619 803d ea48 793d 3814 1c3d 03a8 443d
000000b0: 8651 09bc c3ee 23bc aa39 1c3d 7573 453d
000000c0: 2029 45bd 17b3 3c3d 9448 81bd 4f31 b0bd
000000d0: 593f 8ebd c94e 133d 43f5 bebd 1cde 953b
000000e0: d609 9a3d 983b 763d b8b6 493d 7ca6 23bd
000000f0: ffee 513d 7784 8ebc 577c 883c cd7a 63bd
00000100: 494d 3ebc fda1 95bb 6439 dabc dc90 243c
00000110: 442a 94bb 4ade 0ebd 2cae 5dbd 8cc1 503d
00000120: 260c 063c 1128 2fbd 49fd a7bc 7e6b 063d
00000130: eaa5 3fbb fcb8 a6bc e1a6 38bc ffcc 1cbd
00000140: c405 013c a16f 263d a569 adbc 1438 0fbd
00000150: fc94 273d 206e 0b3b a2a8 5c3d 2b61 153d
00000160: d6f1 f93c 731d 63bd ea84 b1bd ca00 1eba
00000170: 44ca 4cbc 016d 46bd a7f2 d9bc 8f90 acbd
00000180: 780f 35ba d0be e53c 0371 3d3d be30 d5bb
00000190: 35f7 c53d 6a6f 723c 1cd9 0f3c c9b0 403b
000001a0: 909e 743d 435c 413d 9cad 36bd e5a2 4ebd
000001b0: d478 aabb d080 8fbd 9ddb 03bd a8b6 6e3d
000001c0: bce4 383d 1fab cf3d 224d 403d c103 6ebd
000001d0: 8ce8 d8bc 2f90 19bd a1b2 9dbc 3158 783d
000001e0: bcb1 113d 910e 573c f6d7 c43b 6346 bcbd
000001f0: dd0f a0bd ea9a 9a3d a951 b3bd 6d9a 003d
00000200: e284 a33c 3909 9abb 36c2 9d3d f231 423d
00000210: 1dc0 803d b534 33bd 54fd 863d 4ad1 87bc
00000220: 4733 823c 1743 f3bc a6a7 873c d415 87bd
00000230: b592 53bd 7939 e5bc d8ba 39bd 9573 5b3d
00000240: 8d6f 9cbb 4eaa c13d d82f 4dbd bb33 1dbd
00000250: c05f 503d 0c26 2d3d f68b 8c3d b256 243c
00000260: 1f9e d23c db1e 04bb 0546 a5bd a418 4bbd
00000270: 887f 343d 4026 9fbc e3f4 73bd 4e2b 7bb9
00000280: b047 a3bd e10d 13bd fa17 aebc 16fa 353d
00000290: 9620 013c fdbe 3ebd 4de6 29bc 20b3 dcbc
000002a0: 51d5 30bd b3fe 27bc cd91 5a3d 5480 9b3c
000002b0: e218 153d f88a b93b fa41 583d d8c4 633b
000002c0: 8d46 8bbd a1f8 a2bd f812 68bd 0379 ed3c
000002d0: 0444 8ebd 7950 3dbc bcf3 163d d63c 1ebd
000002e0: c237 28bc 8a7c 1b3d d750 cd3c c9aa fcbc
000002f0: c6e9 693d 3a27 93bd d02d 08bd 3d36 21bb
00000300: b758 553d 23c2 6fbc 7d7c 99bd 7e4f a4bd
00000310: 4b0b a7bd b716 b7bd 78b7 afbb ec9c 9ebd
00000320: 3430 233d 154b 233d 7838 87bd f483 063a
00000330: 5a07 2b3c f9ea 52bd 11be 55bd 4505 333d
00000340: 0335 5f3d dfc5 27bd 67ec 61bd 1f9d 103c
00000350: 13de 61bc 0b61 3abc c5fd 2e3c c592 28bd
00000360: 1bc2 a5bc 253d f6ba a5f4 9cbc c814 173d
00000370: 6238 babd 6680 3dbd f910 4b3d 50e9 9038
00000380: b9cf 0abd 82e2 a0bd 2fe3 1d3c 65fd b53b
00000390: 093c d43c c419 33bd c995 8f3a 7a0d 803c
000003a0: 19bf 2fbc 899b 8fbd ec53 05bc 2aea 003e
000003b0: 3809 a53d 38f0 c03b 5a8c a93d 5f79 893c
000003c0: 825f 5fbd bbc9 693c f2f5 99bd a251 d5bd
000003d0: 416a 5fbd bbf3 c53b 3e6c fb3d bdcf e7bc
000003e0: 6619 123d 24ca 5c3d e9e6 85bd 78fd 873d
000003f0: 6e30 223d 36a0 69bd 6c37 a2bc 2c96 643c
0.055126373 -0.02774318 -0.008499004 0.024403632 0.061584648 0.0014764327 -0.039507825 -0.022482669
4.2187356e-05 -0.07418555 0.06901302 0.028292181 0.013618341 0.044630405 0.04388804 0.047422424
0.048365943 0.022166278 0.07551636 0.03846132 -0.016807247 0.06266415 0.042341974 -0.07676739
0.015391451 -0.011548541 0.010085207 -0.048710193 -0.014463298 0.037505724 0.049777504 0.04254471
-0.036134284 -0.0359756 -0.038649976 -0.02671805 0.018208785 0.103056855 -0.05826569 0.0856731
0.0625494 0.060860552 0.03810522 0.04801179 -0.008381253 -0.010005656 0.03814093 0.04820581
-0.048134923 0.04606923 -0.06312671 -0.08603155 -0.06945676 0.035963807 -0.09324124 0.0045735966
0.07521407 0.060115427 0.04924652 -0.039953694 0.051253315 -0.017397149 0.016660852 -0.055537034
-0.011615106 -0.0045664296 -0.026638694 0.010044303 -0.00452164 -0.03487996 -0.05412118 0.05096583
0.008181607 -0.04276282 -0.020506518 0.032817356 -0.002924318 -0.02035188 -0.011270256 -0.038281437
0.00787491 0.0406338 -0.02116854 -0.03496559 0.040913567 0.0021275356 0.05387176 0.03646962
0.030510824 -0.055448007 -0.086679295 -0.0006027339 -0.012499396 -0.048443798 -0.026604963 -0.0842601
-0.0006906907 0.028045088 0.046250354 -0.0065060547 0.096662916 0.014797071 0.00877979 0.0029402247
0.05972153 0.04720713 -0.04459916 -0.050448317 -0.005202392 -0.07006991 -0.03219186 0.058279663
0.045140013 0.10140061 0.04694856 -0.05810905 -0.026478074 -0.03749102 -0.019250216 0.06063098
0.03556989 0.0131260315 0.00600719 -0.09193113 -0.07815526 0.07549079 -0.0875581 0.031397272
0.019960824 -0.0047008065 0.077030584 0.047410913 0.06286643 -0.043751437 0.06591287 -0.016579289
0.015893592 -0.029695077 0.016559433 -0.0659596 -0.051653583 -0.027981507 -0.045344204 0.053577024
-0.00477404 0.09456311 -0.050094455 -0.038379412 0.050872564 0.042272612 0.06862633 0.010030435
0.025710164 -0.0020159993 -0.08069996 -0.049584046 0.044066936 -0.019427419 -0.059559714 -0.00023953358
-0.07972658 -0.035901908 -0.021251667 0.044427954 0.007881304 -0.04656886 -0.010369849 -0.026940882
-0.043172184 -0.010253596 0.053361703 0.01898209 0.036400683 0.0056623183 0.052797295 0.003475478
-0.06800566 -0.079575785 -0.056658715 0.028988367 -0.06946567 -0.011554831 0.036853537 -0.038632236
-0.0102672 0.037960567 0.025062962 -0.030843155 0.05710771 -0.07185216 -0.033246815 -0.002459898
0.05208656 -0.014633688 -0.074944474 -0.080229744 -0.08156451 -0.089398794 -0.0053624474 -0.07744774
0.039840892 0.039866526 -0.066025674 0.0005131357 0.0104387645 -0.05149362 -0.052183215 0.043706197
0.054493915 -0.04096019 -0.05515709 0.008826523 -0.013785857 -0.011375676 0.010680621 -0.041155595
-0.020234158 -0.0018786533 -0.019159624 0.036885053 -0.090927854 -0.04626503 0.049576733 6.909913e-05
-0.033889506 -0.07855703 0.009636684 0.0055538886 0.025907533 -0.043725744 0.0010954674 0.015631426
-0.010726714 -0.07012088 -0.008137684 0.12589327 0.08058399 0.0058880113 0.08278723 0.016781507
-0.054534443 0.014269288 -0.075176135 -0.10415961 -0.05454469 0.006041018 0.12276505 -0.0282973
0.035668753 0.053903714 -0.06538183 0.06640142 0.039596967 -0.057037555 -0.019801818 0.013951819

conv2.bias f4 [64]
00000000: c625 a635 10cf e7b7 78ca 6435 b794 05b7
00000010: 45ae 13b8 0279 91b6 5f0f 8336 e2db 30b7
00000020: f255 4ab6 0c77 e437 b4bd 00b6 3ce4 aeb7
00000030: b143 d3b5 6905 98b7 4cb5 b535 947b 0cb6
00000040: 196d 0838 3a54 36b8 3de7 ac36 12bd 59b6
00000050: 0f55 e537 0eaf e235 146c aab7 7079 fe36
00000060: 6e7d 4535 609e af36 2d8f 7bb8 4edb e035
00000070: 4855 1b37 21ec a5b6 7ccf 31b7 42bc 6cb7
00000080: 3f6d ef36 4e24 4bb7 b4dc 11b6 3513 a0b6
00000090: 1cc8 a536 be6e e636 4bb2 88b7 c8f5 e434
000000a0: 1e65 68b6 065e 1c36 28e3 07b7 8c98 4534
000000b0: f658 44b6 5d53 9c35 3901 8a37 1c16 0db8
000000c0: b10c cc36 6c0d cfb6 b640 94b7 4a24 bcb6
000000d0: e85a eb37 50cd 7537 54e4 96b6 401a 3cb6
000000e0: b963 4fb6 7c4f b6b6 5617 a537 7498 90b6
000000f0: 1e8c 44b7 9f8c 96b6 cb7a 5f37 765f 0637
1.2378957e-06 -2.7633767e-05 8.523125e-07 -7.962043e-06 -3.5209832e-05 -4.335424e-06 3.9058937e-06 -1.0541613e-05
-3.0150372e-06 2.7235154e-05 -1.9183908e-06 -2.0848696e-05 -1.5740426e-06 -1.8122331e-05 1.3538315e-06 -2.0933558e-06
3.2526532e-05 -4.3470623e-05 5.152919e-06 -3.2445573e-06 2.7338536e-05 1.688926e-06 -2.0315907e-05 7.583927e-06
7.3570743e-07 5.2338437e-06 -5.9976406e-05 1.6753127e-06 9.258576e-06 -4.944872e-06 -1.0598331e-05 -1.4110528e-05
7.135473e-06 -1.2108196e-05 -2.173515e-06 -4.7706076e-06 4.940679e-06 6.8674262e-06 -1.6295488e-05 4.264714e-07
-3.4629552e-06 2.330054e-06 -8.099516e-06 1.8402551e-07 -2.9258058e-06 1.1647168e-06 1.6451451e-05 -3.363761e-05
6.0811512e-06 -6.1706432e-06 -1.7673108e-05 -5.607061e-06 2.8056515e-05 1.4650941e-05 -4.4969293e-06 -2.8029463e-06
-3.090345e-06 -5.433276e-06 1.96804e-05 -4.3092823e-06 -1.1715134e-05 -4.486719e-06 1.3320426e-05 8.009249e-06

bn2.weight f4 [64]
00000000: eb8f 7b3f e984 823f 0792 823f 6cc8 813f
00000010: a0a8 833f eb55 7f3f 0a32 7a3f dfa8 763f
00000020: efeb 783f 81cb 823f c9b7 843f a6de 803f
00000030: 20a5 7c3f 92f6 7c3f 2482 7e3f dba7 813f
00000040: b461 7c3f 669b 7f3f 5d0d 813f aabc 803f
00000050: 2fc5 7d3f 2f40 7c3f a537 823f 1396 813f
00000060: fa3a 7b3f 59e5 813f 32b5 833f ba8f 823f
00000070: 1dfa 7e3f 5763 7e3f c801 823f 53e5 763f
00000080: 5ca4 7f3f d607 823f a9d0 7d3f 8da0 7b3f
00000090: d2cf 7c3f c9a1 7e3f 3a81 833f 7ee1 813f
000000a0: 1a94 7f3f aa2f 803f 1263 7b3f 8969 843f
000000b0: 7436 7c3f 0e72 823f a33e 813f c5cd 7c3f
000000c0: c72a 813f 1d7d 803f 53fb 7d3f dbf5 7e3f
000000d0: 4f4d 843f 99a0 803f 904e 7e3f a494 7e3f
000000e0: 6948 7a3f 9a1e 803f 4c77 843f e156 7c3f
000000f0: c0bb 7f3f 6890 833f a5ad 813f 7b56 7b3f
0.98266476 1.0196811 1.0200814 1.0139289 1.0285835 0.99740475 0.97732604 0.96351427
0.97235006 1.0218354 1.0368587 1.0067947 0.9868946 0.98813736 0.9941733 1.012935
0.98586583 0.99846494 1.0082203 1.0057576 0.99129003 0.98535436 1.0173231 1.0123924
0.98136866 1.0148116 1.0289671 1.0200112 0.9960039 0.9937033 1.0156794 0.9644367
0.9986017 1.0158641 0.99146515 0.98291856 0.9875461 0.99465615 1.0273812 1.014694
0.9983536 1.0014546 0.98198044 1.0344707 0.9852059 1.0191057 1.009724 0.9875148
1.009118 1.0038182 0.99211615 0.99593896 1.0336093 1.004901 0.99338627 0.9944556
0.9776674 1.0009339 1.0348907 0.98570067 0.9989586 1.0278444 1.0131117 0.98178834

bn2.bias f4 [64]
00000000: 3d73 aebb d843 803c 9b54 013d a8b3 a43b
00000010: 8162 f83c 1552 673c c423 9bbc 8745 87bb
00000020: 14f7 07bd 1bca 8c3c 35a8 25bb d545 613c
00000030: 1d48 adbc be63 84bc 10b5 cbbb 34e7 553c
00000040: 35d9 d7bc 0a7e 913b e16e 133b fc2b ca3a
00000050: 3a59 abbb 67d7 72bc 5e9e 363c 3294 7fbc
00000060: d295 2dbc 3baa a0bc ff09 203c 0876 24bb
00000070: 197d 61bc a8aa 74bc 25b4 aa3b a2d7 94bc
00000080: b053 de3b 0828 283c bd04 803a e7fc cebc
00000090: 4043 60bc eeb6 40bb 3710 8f3c 6201 3e3c
000000a0: c103 6cbc f3bd 41bc 455e edbc afe2 c03c
000000b0: 2ccc 7fbc f434 ad3c 892a 083c 8daf 0abc
000000c0: 8202 073b 2624 8abb 61a7 71bb dfce 8a39
000000d0: e2d1 643c 3abf bf3b 65f3 88bc f05b 6e3b
000000e0: 3bce e73b 7e95 c7bb bbc1 2d3d ecbb 02bc
000000f0: b6a4 bd3a ce66 1d3b 1bab 8ebb d115 00bd
-0.005323796 0.01565735 0.031574827 0.0050262995 0.030320408 0.014118691 -0.018937953 -0.0041281614
-0.033194616 0.017186215 -0.002527726 0.013749559 -0.02115255 -0.016160842 -0.0062166527 0.013055611
-0.02634869 0.004440074 0.002249651 0.0015424485 -0.0052291425 -0.014821864 0.011146156 -0.015599297
-0.010594802 -0.019612422 0.009768008 -0.0025094766 -0.013762736 -0.014933266 0.005209463 -0.018169228
0.0067848787 0.01026345 0.0009767037 -0.025267078 -0.013687909 -0.002940591 0.017463787 0.011597009
-0.014405192 -0.011825073 -0.028975615 0.023545591 -0.015612643 0.021143414 0.008310922 -0.008464706
0.002060086 -0.004215735 -0.0036873447 0.00026475542 0.013966056 0.0058516534 -0.016717622 0.0036370717
0.007074145 -0.006090819 0.042421084 -0.007979374 0.0014468643 0.0024017575 -0.0043538935 -0.031270806

bn2.running_mean f4 [64]
00000000: 5531 bf3e 8dbe f6be 7653 5ebf 0cde e1be
00000010: 61e4 10bf 0413 81bf 8349 493f 9200 67bf
00000020: b6d7 273f 92d8 6b3f 2d65 753f af11 27bf
00000030: 8d69 753f fb7a 1cbf 0ed7 e83d fb31 e53e
00000040: 4d7b 72bc 0930 1b3f ebea 42bf adef 603f
00000050: 67ef 45bf e193 513e 51b6 c73d bbc1 7c3f
00000060: d2ae 19bd cf62 8a3f 3f1e 813e 8877 383f
00000070: 6e60 6a3f da26 4d3f fc50 3b3f 1fef e4be
00000080: ae62 95be 59f1 52bf 70fb 8bbe 3b31 313f
00000090: 758c 0e3f cff4 bc3e 86d0 9bbe bdb6 ce3e
000000a0: 2043 283f 1009 233f e185 9b3f 866a 89be
000000b0: a4d4 6fbe e658 843e 42f2 703e ce63 5cbf
000000c0: 604e 663d 9f33 ce3e 8656 873f 5db8 6fbf
000000d0: 5cf2 0a3f 1971 963e 451c f03e 4a2f 92bf
000000e0: 10c8 83be 9e3b 733f 70b6 39bf a212 01bf
000000f0: ab45 f9bd 9276 523f a9ba ef3c b1cb 1e3f
0.37342325 -0.48192254 -0.868461 -0.4411472 -0.5659848 -1.0083928 0.78627795 -0.90235245
0.65563524 0.92127335 0.95857507 -0.6526136 0.9586418 -0.61125153 0.113691434 0.44764695
-0.014799905 0.6062017 -0.76139706 0.87865716 -0.77318424 0.20466568 0.09751571 0.9873311
-0.037520237 1.0811404 0.25218388 0.7205739 0.9155339 0.8013741 0.7317045 -0.44713685
-0.2917685 -0.8239952 -0.2734027 0.69215745 0.5568307 0.36905524 -0.30432528 0.40373793
0.65727425 0.63685703 1.2150232 -0.26839083 -0.2342096 0.25849074 0.23529914 -0.8608979
0.056227088 0.4027376 1.057328 -0.9364069 0.5427606 0.29383162 0.46896568 -1.1420681
-0.25738573 0.95012844 -0.72544 -0.50419056 -0.12171491 0.82212174 0.029263811 0.6202956

bn2.running_var f4 [64]
00000000: dd97 cf3e 7642 973e 0697 f73e 5fd6 0b3f
00000010: 12b6 633e 9a9d ed3e 06f9 173f b2e2 c83e
00000020: 304d 303f 7ad8 4c3f 3374 453f 8c18 333f
00000030: 96bc 1c3f fc91 653e 3fbb 273f 48a0 203f
00000040: 8cb5 f23e d357 253f b3f6 d63e 3531 493f
00000050: 4e59 c93e 15c2 a63e da1e 153f dc28 f13e
00000060: 11a9 c23e ee0b 0a3f 0c11 183f 81cc 8e3f
00000070: 242e db3e b876 5f3f d7f9 1a3f 5ce5 a73e
00000080: 69fe a13e 279a 803e 8496 503e 10ec f03e
00000090: ec08 dd3e dc35 f13e a8e8 753e 8faa d13e
000000a0: dcaf f33e 5482 653f 3347 0d3f 7df5 a43e
000000b0: a4e9 cf3e 2e04 b63e f040 dd3e 0432 ed3e
000000c0: afff e63e b5c8 303f 020a bf3e b6fa db3e
000000d0: 0214 d33e 849c e43e 2f82 1e3f 9292 b73e
000000e0: 9e54 d73e 3b6f 2e3f 4df4 b73e 409d 783e
000000f0: e5a3 d13e 1c1c 683f d46f af3e ce1e d93e
0.4054555 0.29542893 0.4835741 0.5462398 0.22237423 0.46409303 0.59364355 0.39235455
0.6886778 0.8001782 0.7713043 0.6995933 0.6122526 0.2241897 0.6552009 0.6274457
0.47404134 0.64587134 0.41985092 0.7859071 0.39325947 0.32569948 0.582502 0.47101486
0.38019612 0.53924453 0.5940101 1.115616 0.4280864 0.87290525 0.60537475 0.32792175
0.31639412 0.2511761 0.20369917 0.470551 0.4317087 0.47111404 0.24014533 0.40950438
0.47595108 0.8965199 0.55186766 0.32218543 0.4060794 0.35550064 0.43213606 0.4632722
0.45116946 0.69056255 0.37312323 0.42964715 0.41226202 0.44650662 0.61917394 0.35854012
0.42056745 0.68138474 0.35928574 0.24278736 0.40945354 0.9066789 0.34265006 0.42406315

lstm.weight_ih_l0 f4 [128, 64]
00000000: 41ef f6bc 46ee 673e c01c 593b 7716 26bd
00000010: 0fc2 2c3e f05c f43d 4e80 b43d 134e 1a3e
00000020: 6297 9bbd 41f0 0fbe adbb 9e3d 6a95 473e
00000030: 7191 113e 065b e0bd a9af 1f3e 35ac 743b
00000040: 32b4 db3d 6890 df3c b394 c03d da61 683d
00000050: a5af 9fbc 5bf4 77bc 74f7 0c3c 2d13 073e
00000060: 0c15 e63d ea42 853d 14dc ec3d d0f0 623b
00000070: 0e2b 8f3b b30e ac3d 66c3 463e a81b c53d
00000080: 7af9 a6bd 129e 9a3d 7c35 5e3e a5e0 06be
00000090: 1a8d f1bd e3f8 233e f24a 4dbd 8ca1 d6bd
000000a0: 29c4 0bbd bbdb 513d 4dec f6bc eee5 53bd
000000b0: 5a61 903a 3778 023d 3229 98bc c66a fc3d
000000c0: 5b9d 88bd ac78 31bb b1f5 edbc 04cb ccbd
000000d0: b696 0cbd 7f16 413d afa3 6cbd 0f80 ac3d
000000e0: f209 2d3d 75e2 e2bd 5b76 b73d 42ad 993d
000000f0: e923 debd 7267 c03d 5a2f 433e cd11 023e
00000100: 7a52 123c 0e9e a8bc 9c81 143e acdc 433e
00000110: 72b8 83bd 16ee de3d 453a f6bd f029 21bd
00000120: 0256 16be 40c8 513e 84e4 babd fc99 2cbd
00000130: 931d d43d 3d24 28bd d84d c6bd ddaa 123e
00000140: a8b4 f3bd 0897 b43d d752 aabc 4d7a a5bd
00000150: 988a 023e ba07 16bd 52f4 1e3e 3f3e c23b
00000160: 6749 be3d 03e6 4d3e de06 023e a9af fcbd
00000170: b787 80bd fe57 e43c c221 e4bb b0ae 043e
00000180: fe0e 023e e4b5 13be 8f78 a3bd 160b 233e
00000190: 43b0 4a3c aba0 e43d 7d6d 6fbd 65c7 e13c
000001a0: b85a 1f3e 9593 1a3e 6b8c e0bd b8f3 f8bd
000001b0: ba18 d9bd 545e babd 7ce5 a13d dfcf 7d3d
000001c0: 0ced 4cbd ebdc 21bb 348c 253e f6e6 1f3c
000001d0: 069e a5bd f43d d93d d37c 1e3e 8337 4f3e
000001e0: 7c7b 0b3e ea0e 353e f1c8 733d d5c1 2d3d
000001f0: 7cb7 173e d789 6e3d 4797 203e c19e 803d
00000200: 71e2 09bd d4db 8e3d c844 d73c bbae c23d
00000210: 0733 35bc 0449 babc c03c 3c3d 710a 1b3d
00000220: b8af b0bd 032e 3e3d bf3d d5bd bcf7 293e
00000230: 414c 333d c0c6 08be d3fd 08be 6404 70bd
00000240: 0a81 323e afb9 67bc c305 09bd a3e3 343c
00000250: f62f 573d 8a69 b83a e05b acbd 3694 cd3c
00000260: 3847 4fbc 42ee c0bd 9420 a63d 1196 c5bd
00000270: 1c94 02be d0d2 af3c c40c 13bd 3e1c a5bd
00000280: 65d9 8dbd 6c7c aa3d 64b9 af3d 1355 13be
00000290: 791b 8a3d 4e33 1d3c 3277 afbd b256 fdbd
000002a0: eec6 ba3d c902 683d 6f00 3d3d 60d2 993d
000002b0: 9aae 673d 0ad2 923c 4a85 f8bd 97f9 cbbd
000002c0: eb87 b9bd 55e0 86bd c815 003e b38a 473e
000002d0: d8c2 c3bc 085b eb3d cfe4 bebd f733 b73d
000002e0: 7641 1f3e 5fee 9abd 3d0d dd3d 4ae6 1abe
000002f0: b5c1 ebbc 86e7 4a3e 6204 063e ded8 013e
00000300: d4ab 82bd e60c fe3d 4eea 08bd 900e ffbd
00000310: 8e48 083e 95f8 e5bd 4cb8 423e f709 09be
00000320: eb2f a6bc fdcc 533d 06e0 9e3d 364d fd3d
00000330: 63cf c6bd c3fc 86bd 27ec 71bb 5998 c83c
00000340: 2590 543d 1e5d 2ebd 0966 f4bd fea4 03be
00000350: 68c8 d7bc 0742 c53d 8640 153e 6582 b73d
00000360: 736c e43d 6540 d23d 1858 b03d 1d64 fb3d
00000370: 77c9 a4bd 892f 2d3e 5dac 313e abdf 2a3e
00000380: e9d9 0bbe 59bf eb3d 3ba7 dcbd 3ef9 143e
00000390: b90a 363e 8d4e febc 69fe 073e 07c8 ec3d
000003a0: 8529 413e 8683 e6bd 566b 44bd a640 de3d
000003b0: 43e7 04be b923 cd3c 9f4f f3bd c1bc cb3d
000003c0: 8121 84bd 2e35 d1bc 0ba4 273c 7c3c 2c3e
000003d0: f074 5fbd 63cc 06be 8c33 be3c 1b95 303e
000003e0: 9d91 adbd 98f9 96bd b4f3 e73d d02c 413e
000003f0: c82a c9bb d7c5 103d 838d cebd 9408 653d
-0.030143382 0.22649488 0.0033128709 -0.040548768 0.16870902 0.11931789 0.08813535 0.15068845
-0.07597233 -0.14056493 0.0775064 0.1949059 0.14215638 -0.10954861 0.15594353 0.0037334089
0.10727729 0.027290538 0.09403362 0.056733944 -0.019492934 -0.0151339425 0.008603919 0.13190909
0.11234483 0.065069035 0.11565414 0.0034628399 0.004369146 0.08401241 0.19410476 0.09624416
-0.08153053 0.07549681 0.2170009 -0.13171633 -0.11794491 0.16012911 -0.0501203 -0.10480031
-0.03412262 0.051234942 -0.030141974 -0.05173295 0.0011015341 0.031852927 -0.018574331 0.12325053
-0.06670638 -0.0027079983 -0.029047819 -0.0999966 -0.034323417 0.047140595 -0.05777329 0.08422863
0.042245813 -0.110783495 0.089581214 0.075037494 -0.10846693 0.09394731 0.19061032 0.12702103
0.008930797 -0.020583179 0.14502567 0.19127148 -0.064316645 0.10885255 -0.12022833 -0.039346635
-0.14681247 0.20486546 -0.09125617 -0.04213904 0.10357203 -0.041050185 -0.09682816 0.14322992
-0.11899692 0.088178694 -0.020791454 -0.08079968 0.12748182 -0.036628462 0.15522888 0.0059278305
0.09291344 0.20107274 0.12697932 -0.12338192 -0.062758856 0.02787399 -0.006962032 0.12957263
0.12701032 -0.14424855 -0.07981979 0.15922198 0.012371126 0.111634575 -0.058454026 0.027560899
0.1556195 0.1509536 -0.109642826 -0.12155861 -0.10600419 -0.09100023 0.07905099 0.06196582
-0.050030753 -0.0024698328 0.16166764 0.009759655 -0.08086781 0.1060752 0.15477304 0.2023602
0.13621324 0.1768147 0.059517805 0.04242118 0.14816087 0.058236923 0.15682708 0.0628028
-0.033663217 0.06975523 0.026277915 0.095059834 -0.011059529 -0.022739895 0.045956373 0.037851755
-0.08627266 0.0464306 -0.10412168 0.1659841 0.043773893 -0.13357067 -0.13378076 -0.058597937
0.17432037 -0.0141433915 -0.03345276 0.011040601 0.052535973 0.0014069539 -0.08415961 0.025095087
-0.012651257 -0.09420444 0.081116825 -0.096477635 -0.12751812 0.021462828 -0.035900846 -0.080620274
-0.0692623 0.08324513 0.08580282 -0.14387922 0.06743521 0.0095947515 -0.085676566 -0.123700514
0.09119974 0.05664328 0.04614299 0.07510829 0.056562997 0.01792242 -0.12134798 -0.09959715
-0.090591274 -0.06585757 0.12508309 0.19486503 -0.02389662 0.11491972 -0.093209855 0.089454584
0.15552315 -0.07564997 0.107935406 -0.15126911 -0.02877889 0.19814882 0.1308761 0.12680385
-0.0638043 0.12404804 -0.033426575 -0.124539495 0.13308927 -0.11229054 0.19015616 -0.13382708
-0.020286521 0.051709164 0.07757573 0.123682424 -0.097075246 -0.06591179 -0.003691444 0.024486708
0.05189528 -0.042569272 -0.11933524 -0.12855908 -0.026340678 0.09631734 0.14575395 0.08960418
0.111534975 0.102661885 0.086105525 0.122749545 -0.08046239 0.16912664 0.17350908 0.16686885
-0.13657345 0.11511106 -0.10774084 0.14548203 0.17777528 -0.031043315 0.13280644 0.1156159
0.18863495 -0.11255555 -0.047953926 0.108521745 -0.12978844 0.025041448 -0.11880421 0.09948111
-0.06451703 -0.025538053 0.010231982 0.16819948 -0.05455488 -0.13163905 0.023217939 0.17244379
-0.08475039 -0.07371825 0.113257796 0.18864751 -0.006139133 0.035344925 -0.10085585 0.055916384

lstm.weight_hh_l0 f4 [128, 32]
00000000: e4ae 153e 62da 09bd 466b 56bc 18a1 e93d
00000010: 1d47 593d 612d 0a3e 7617 8f3d df78 cd3c
00000020: 4ddd 1c3e f933 c83d 2594 513e 9932 f23d
00000030: 8be7 943d 603b 93bd 62d7 083e 4158 03be
00000040: 709b 99bc 0d91 c73d 78e0 333d 2109 f83d
00000050: 1519 78bd 8702 b93c 5402 7cbd b9ec c73d
00000060: ec5a 33be 0ec9 853d dfeb 933d 942e f6bd
00000070: 3239 e33c 284d b3bd 32f6 d53d 6467 0e3e
00000080: 5aae d6bb fa71 0e3e bc5a b33d 8c3e 4d3d
00000090: 0c5b 1bbe 05d8 8e3d 67d4 d53d d423 a03d
000000a0: 2d41 fd3d de89 9abd 5c24 b33d db5c 3e3d
000000b0: 4cb2 00be 2a11 1abe 9e22 fdbd 4e66 b23d
000000c0: e102 093e 9466 413e 5c48 57be 5702 d43d
000000d0: d741 bdbc ed6e b53d 1bb5 83bd 0793 01be
000000e0: a47c dc3d 48f6 07bd 3eb2 63bd 2e91 f63d
000000f0: 7c73 fbbd 4573 bf3c 95e5 f9bd 4564 9d3d
00000100: 4320 f03d a3e3 853d 407c 033e 890d 27bc
00000110: 872e 1abb f95f 9fbd 7fa1 c5bc dbb9 3d3b
00000120: 639e 023e 4000 573d f574 063d 005a 8c3d
00000130: d6b7 0e3d ddcc d7bd b211 173e 81ab eebd
00000140: 42a1 b6bd 3ac4 9dbd 6a05 00be c632 fbbd
00000150: 9a7a a53d 7372 e03d 8360 283e 0e96 08be
00000160: f50b 9b3a a1f9 04bc db98 d33d 7102 453d
00000170: 8ea7 20be 89d9 d9bd fff2 86bc 5d8c da3d
00000180: eee8 20bd df4f 9f3c af88 ca3d 4dad 20be
00000190: 219d 1fbd a1a1 5a3c 7e44 a13d 0007 fcbd
000001a0: 44a8 6fbd 15f4 03be 9814 9e3d 9014 533d
000001b0: 0ff9 0abe c190 f83c 6d16 a13b d072 343b
000001c0: 8f38 b8bd 17de a33d c51a 303d bf2b 093d
000001d0: 0883 24bd abbd 07be 0662 0e3e a58e af3d
000001e0: a43d 0cbd a16b 86bc 6d48 0fbe 6625 27bd
000001f0: bc3c 013d d339 103e 2c3e 053d 1583 073e
00000200: ed8a 233d 5d6e ae3d 6285 203e 8b02 553d
00000210: caef c6bc 4ff4 a3bd 9912 ed3d 09ae be3d
00000220: db4a 30be 9690 ddbd b319 a3bb 0888 0b3e
00000230: cd4d 38be a363 49bd 8b89 a73d baf9 553d
00000240: 7878 f6bd 59c2 203d acc7 c4bd e706 b2bd
00000250: c084 b43c 6de3 8d3c 6cf2 c83d 815d 04be
00000260: 2c18 19be 8ac2 81bd 3700 49be 8193 753c
00000270: d08e 753c 842c c5bb ff77 9ebd a735 003e
00000280: 301f 0fbd c3fd 93bd 8806 ccbd a6b5 1f3d
00000290: ba7e c23c df40 193d 0534 f13d e1c5 0dbe
000002a0: e769 8e3d b016 90bd 42ab 9f3d 5710 10be
000002b0: c2f3 263d d0d1 03be b5b5 183d 13bc 82bd
000002c0: bb24 10bb af68 cd3b bd1a 493b 362f 62bd
000002d0: 8f5b 07be 489d 34bd 49d8 c0bd bf28 0f3d
000002e0: 520b cc3a aa85 98bd 193a 033e 9a05 15be
000002f0: dbe2 e4bc 7bd2 903d f3f6 cf3d 8760 bbbb
00000300: 482d f13d 3d12 083d d170 873d 06ba 413d
00000310: 3674 88bd 7141 613d e668 0dbe 92ef 93bd
00000320: a8ac b83d a5cd 1c3e 2056 953d 8d3d e83d
00000330: 7404 d93d 84bf ed3c 1749 143e 9995 cfbd
00000340: d61e 093e b7a4 fb3c b101 53bd 72de c83c
00000350: ba03 babd 1ea2 90bd 1ad8 253e 1bc1 d33d
00000360: a7ac 5dbd 016c 363a f77d 85bd 4e9c a0bd
00000370: f2d2 b53d f9e2 253e 7bac 2e3d 3825 45bd
00000380: 9614 09be fc45 27be 3d15 c3bd 7de7 15be
00000390: 389c 0b3e 6656 e03d 9614 cabd 4769 08be
000003a0: 35ff 0ebe 0e17 9e3c 1b7e 0bbe fc2b e7bd
000003b0: e631 ed3d a6bd 273e 37f1 773c 2f9c 3c3c
000003c0: 695e 74bd ccff f73c 1663 03bd a8c8 69bd
000003d0: efc0 c03c c1ae 203d 2774 7fbd 6d31 923c
000003e0: 1931 2d3e 986e babd b58b d73d 9b83 f43d
000003f0: 14b7 56bd 09f8 a7bc 4abe 81bc 8c51 e4bd
0.14617497 -0.03365553 -0.013087099 0.11407679 0.053046335 0.13493873 0.06986897 0.02508205
0.15318795 0.09775538 0.20466669 0.11826057 0.07270726 -0.07189059 0.13363412 -0.12826635
-0.018750876 0.09744463 0.043915242 0.12111116 -0.060570795 0.022584213 -0.061525658 0.09761948
-0.17515153 0.06532489 0.07222723 -0.12020603 0.027737234 -0.08754951 0.10447349 0.13906628
-0.006551546 0.13910666 0.087575406 0.050108477 -0.1517145 0.06974796 0.10440903 0.07819334
0.12365947 -0.07545827 0.087471694 0.046475273 -0.12568015 -0.1504561 -0.12360118 0.08710919
0.13380004 0.18886787 -0.21023697 0.10352009 -0.023102684 0.08859048 -0.064310275 -0.12653743
0.10765961 -0.033193856 -0.055589907 0.120394096 -0.12277886 0.023370394 -0.122019924 0.076851405
0.117249034 0.06537559 0.12840366 -0.010196098 -0.0023526268 -0.07781977 -0.024124859 0.002894989
0.12755732 0.052490473 0.032826383 0.06853104 0.03484329 -0.105371214 0.14752844 -0.116538055
-0.08917476 -0.07703443 -0.12502065 -0.12265544 0.08080025 0.109593295 0.16443066 -0.13338491
0.0011829125 -0.008116157 0.10331889 0.04809803 -0.15688917 -0.10637195 -0.016473291 0.106713034
-0.03928464 0.019447265 0.098893516 -0.15691109 -0.03896821 0.013344199 0.07874392 -0.12306023
-0.05851008 -0.12886079 0.07718772 0.05153328 -0.13571571 0.030342462 0.0049160034 0.0027534254
-0.08995163 0.08001345 0.04299428 0.033488985 -0.040164024 -0.13255946 0.1390458 0.08572129
-0.034238473 -0.016408743 -0.13992472 -0.04080715 0.03155206 0.14084558 0.032529995 0.13233598
0.03992741 0.08517144 0.15675882 0.05200438 -0.024284262 -0.080055825 0.11575813 0.09310538
-0.17216055 -0.10818593 -0.004977429 0.1362611 -0.17998429 -0.049167287 0.08180531 0.05224011
-0.12034696 0.039247844 -0.09608397 -0.08692723 0.022035956 0.01732036 0.09811863 -0.12926294
-0.14950627 -0.063359335 -0.19628988 0.014988781 0.014987662 -0.0060172696 -0.07737731 0.12520467
-0.034941852 -0.072261356 -0.09962183 0.038991593 0.023742069 0.03741538 0.117775 -0.13845016
0.06953793 -0.07035577 0.07796337 -0.14068733 0.04075981 -0.12873006 0.037282664 -0.063835286
-0.002199455 0.006268583 0.0030686103 -0.055220805 -0.1321852 -0.044095308 -0.09416253 0.034950968
0.0015567339 -0.074473694 0.12815131 -0.14552918 -0.027940204 0.07071396 0.10154524 -0.005718294
0.11776215 0.03322052 0.06613315 0.047296546 -0.066627905 0.05499405 -0.13809547 -0.07223429
0.090173066 0.15312822 0.07291818 0.11339865 0.105965525 0.029021986 0.14481007 -0.10135955
0.13390669 0.03071819 -0.051515285 0.024520133 -0.09082742 -0.070621714 0.16195717 0.10339566
-0.054119732 0.0006958843 -0.065181665 -0.07842313 0.08878125 0.16199864 0.04264496 -0.048131198
-0.13386759 -0.1633529 -0.09525535 -0.14639087 0.13633811 0.10953979 -0.09867208 -0.1332141
-0.13964541 0.019298103 -0.13622324 -0.11287686 0.11581783 0.16380939 0.015133194 0.011511846
-0.05966035 0.03027334 -0.032076918 -0.057076126 0.023529498 0.03922916 -0.06236663 0.017845834
0.1691326 -0.09103125 0.10524694 0.11939164 -0.05242069 -0.020504015 -0.015837807 -0.11148366

lstm.bias_ih_l0 f4 [128]
00000000: 94cf 403e 5271 4b3e 8f0d 44bd f755 07bc
00000010: 5df1 443e 7bee c9bd 8be8 2bbe 0ad3 79bd
00000020: 5515 09bd cf4a bd3c 1e85 773d dc31 9bbd
00000030: 8fb4 3e3d c874 e0bd 51d5 5dbd 16cb 0abc
00000040: 18d4 1b3e dd38 27bd 86ba 8a3b a255 20be
00000050: 2c7a fdba e3a2 acbd b148 323d 6155 003e
00000060: 139e 253e adbd 0a3e 4d29 083d fa46 203e
00000070: 7b7e d93d 1889 b43d 4a7b 253d 989d 1d3e
00000080: ae75 a83d 70f3 243e 9880 283e a70f f83d
00000090: 27ca d2bc 02be 8c3c d951 923c f49d 333e
000000a0: fd95 bfbd 1eed 1e3d 72f1 19be d063 353e
000000b0: 0bfc b23d ac0d 86bc 146f 3abb 577b 5abc
000000c0: 5d4a 02be 34c5 25be 321d 69bd ec30 313d
000000d0: 42f1 61ba e419 2d3e 6fb6 573e a079 cbbc
000000e0: 0a94 b93c 42cc 8d3d a881 013e 0623 923d
000000f0: 466c a7bd 1394 ae3d b699 123d 42f3 87bd
00000100: 84c6 953d f723 c9bd 0a4d 903d 7d62 27bd
00000110: 2537 f5bd b9d3 ee3d 74fa dbbc 8828 113e
00000120: f099 813d 68a5 29bd 37f8 1c3e c367 dcbd
00000130: 78a7 fb3d 6cf4 e0bd c398 9e3b d543 02be
00000140: f8d0 2ebe 1a2a 07be ae62 12be 662f 213e
00000150: 9e20 79bd 025c bf3d 6675 27be 8971 163e
00000160: 9ad0 15be 69d8 d33d aad1 b93c ec88 05bd
00000170: e22a 353c 74a5 013e c8b6 223e 6ad2 03be
00000180: 8018 babd fca5 743d 9c0a 5ebd aae2 b7bd
00000190: cc78 e5bd 8ed9 90bd 11e9 f13d aaed c53d
000001a0: db0b 2cbd f2cb 17be a483 c2bc cbce b3bd
000001b0: e228 fb3d 6d63 fb3d 8e38 e4bd 8953 373e
000001c0: f979 fc3d 865a 06be 4965 bf3d 9226 dd3d
000001d0: 5901 123e 1063 433c 0cb1 503b e03b d2bd
000001e0: 2485 023e 55cb 543d 6be2 103c 77cf af3d
000001f0: a669 fa3d 95db bc3d 6064 04bd 03ea 753a
0.18829185 0.19867447 -0.047864493 -0.008260242 0.19232698 -0.0985994 -0.16787927 -0.06099228
-0.03346761 0.02310696 0.060429685 -0.07577869 0.046558913 -0.10959774 -0.054158513 -0.008471271
0.15217626 -0.040825713 0.004233661 -0.15657666 -0.0019338778 -0.08429506 0.043526355 0.1253257
0.16173582 0.13548918 0.033242512 0.15652075 0.10619827 0.08815211 0.04040078 0.15392148
0.082255706 0.16108489 0.16455305 0.121123604 -0.02573116 0.017180447 0.017861294 0.17540723
-0.0935478 0.03880035 -0.1503351 0.17713857 0.0873948 -0.016363941 -0.0028447555 -0.013335071
-0.1272368 -0.16188508 -0.05691261 0.043259546 -0.0008619019 0.16904408 0.21065687 -0.024838269
0.022653598 0.06923725 0.12647116 0.071355864 -0.081749484 0.08524337 0.03579112 -0.066381946
0.073132545 -0.09821313 0.07045944 -0.04086541 -0.119734086 0.11661477 -0.026852824 0.14175618
0.063281894 -0.04141751 0.15329061 -0.107619785 0.122878015 -0.1098412 0.004839988 -0.12721188
-0.17071903 -0.13199654 -0.14295456 0.15740737 -0.06082212 0.09343721 -0.16353378 0.14691748
-0.14630356 0.10344011 0.022682983 -0.032601282 0.011057587 0.12660772 0.15890038 -0.12873235
-0.09086704 0.059728608 -0.054209337 -0.089787796 -0.11204681 -0.07072745 0.11812032 0.096644714
-0.042003494 -0.14823893 -0.023744412 -0.08779677 0.12263657 0.12274823 -0.111435995 0.1790296
0.12327952 -0.1312047 0.093454905 0.10798372 0.14258327 0.011925474 0.003184381 -0.102653265
0.12746102 0.051951725 0.008843045 0.08584493 0.12227182 0.092215694 -0.032322288 0.0009380879

lstm.bias_hh_l0 f4 [128]
00000000: 6833 973d 3f3b a13d 7fee cdbd 99d7 b9bc
00000010: e8c7 ed3d d5a7 13be 798b 9ebd b601 20be
00000020: 7891 373c 4788 03be 3d5e b8bc 6dd0 a63c
00000030: bc95 7abd 81e0 92bd 12c5 e23d c006 063e
00000040: 66a0 13bd 38fc 693d 604e 103e befd b73d
00000050: 2fe9 e6bd 3349 9abd 93d0 abbd 49a0 48bd
00000060: 0a84 2b3e c412 713e 64bf 243d f118 f53d
00000070: 4a25 3ebb bde3 6b3d 1f78 2cbe 71ef 0c3d
00000080: 221d 2b3e 72d0 c63d aded 443e d977 bfbd
00000090: e046 19be 5f47 c63d 7698 db3d 8dc7 aebd
000000a0: b984 aaba 5ce9 fa3d 6572 bebd 64c2 e2bd
000000b0: 0149 2c3e a197 3abd 09dd 80bd 5bc1 aa3d
000000c0: 2855 0ebe b22b b2bd f061 8b3c 5e9c 3c3e
000000d0: db9d 463e 5599 33be 28a8 fb3c 3150 b9bd
000000e0: 0f8a 21be 3dbe 83bd d32b 9abd 24b0 d53c
000000f0: 9ddf 243d 5b28 b2bd 6dd3 013d eac3 03be
00000100: f7d6 cb3d 6a57 edbd 4908 a53c 80f8 adbd
00000110: e29d 1b3e 8734 0abd 7f14 713d e65d 533d
00000120: 0aa5 cd3d ae2e 43ba fde7 b83d 849a 66bd
00000130: 52cb 9ebc f2d0 b8bd 9bea 223e a021 97bd
00000140: 2fce 063e b46a 0dbe 67e8 113e 463c febd
00000150: 5f92 07be 63b6 20be 7423 01bd b0c7 1b3d
00000160: 3ae3 7fbd 3ef2 4c3d 54ff 4cbc df82 34bd
00000170: 696c e3bd 022f 3cbd dec4 533d 8e60 083e
00000180: 4ef9 693e 9d50 b03d e989 0c3e 3438 d53d
00000190: 2ce1 3e3e 1d62 11be 790b 2d3e c02f 1cbd
000001a0: 9440 9b3d 804b 763d 373e f63d 1c45 1e3e
000001b0: 0e44 423e 272c bbbb 8fa6 20bd 810d fe3d
000001c0: 15df b73d 6018 6b3b 8aff 25ba be6b 9d3d
000001d0: cba2 e13c 57bd 1e3e 2039 273e 721c 4ebe
000001e0: 03dd 09be 6b20 133e ab3a 003c 794c 6cbd
000001f0: 7eca 8ebd 4ac1 9dbd 1883 293e 25ec f93c
0.07382852 0.078726284 -0.10055255 -0.022685813 0.11610395 -0.14419492 -0.07741446 -0.15625653
0.011204116 -0.12844954 -0.022505874 0.020363057 -0.061177954 -0.07171727 0.110727444 0.13088512
-0.03604164 0.0571253 0.14092398 0.08983944 -0.11274945 -0.07533493 -0.08389392 -0.048980985
0.16749588 0.23542315 0.040221587 0.11967648 -0.0029013925 0.057590235 -0.16842698 0.034408037
0.16710332 0.097077265 0.19231291 -0.09349031 -0.14968443 0.09681582 0.10722439 -0.08534155
-0.0013009525 0.12251541 -0.09299163 -0.11072233 0.16824724 -0.04555476 -0.06292159 0.08337661
-0.13899672 -0.086997405 0.017014474 0.18419024 0.19396155 -0.1753896 0.030719832 -0.090484984
-0.15775321 -0.064327694 -0.0752789 0.026084967 0.040252317 -0.086991034 0.031695772 -0.12867704
0.09953111 -0.115889385 0.020145552 -0.08494663 0.15196946 -0.0337415 0.058857437 0.05160322
0.10041244 -0.00074456155 0.09028623 -0.0562997 -0.01938406 -0.09024228 0.15909807 -0.0737946
0.1316459 -0.13810235 0.1424881 -0.1241384 -0.1323943 -0.15694575 -0.03152795 0.038032234
-0.06247256 0.050035708 -0.012512047 -0.04407012 -0.11104662 -0.045943268 0.05170142 0.13318083
0.22849008 0.08609126 0.13724484 0.104111105 0.18640584 -0.14197583 0.16898908 -0.038131475
0.07580677 0.060130596 0.12023585 0.1545605 0.18971273 -0.0057120505 -0.039221343 0.124049194
0.089780964 0.0035872683 -0.0006332329 0.07686566 0.027543446 0.15501915 0.16330385 -0.20128039
-0.13463216 0.14367835 0.0078264875 -0.057690118 -0.06972216 -0.077028826 0.16553915 0.03050811

fc1.weight f4 [32, 32]
00000000: a22a 4dbd 69ce 0dbe c575 51be 7793 7d3e
00000010: 0093 d1bd 99a1 bf3b 9509 b3bd ccd7 133e
00000020: 1b51 123c 3099 3d3e 7246 90bd c383 b3bd
00000030: 7a0a 88bd 3bb0 113e da6e 793b 72cb d33b
00000040: 5fd7 04be cc44 6a3e b534 993d 7af5 b63c
00000050: 441e 6f3e ce99 94bd 08e3 c6bd 66ed d9bd
00000060: 7df8 e73d e394 f8bb 00b1 1ebe 5ff6 a93b
00000070: 0dcc 833d eba9 1fbe 104a b3bd 31d1 0bbe
00000080: 8072 2d3e 1f6f ff3d 830f 713e dacc 87bd
00000090: bea1 c33c 3447 573d 366e c7bc f3df 93bc
000000a0: 6f85 3bbd 46d5 e63d f987 f5bd e56d 5ebe
000000b0: 7bd9 e2bd 5064 893a 997f b93d 08de 42bd
000000c0: 2eaf c23d 9b3e debc a411 18be 0c1c d93d
000000d0: 6d99 48be 6821 d53d c404 483e 6bf6 f6bd
000000e0: d9d7 60be efbb 0c3d 0c65 513e 8f70 1ebd
000000f0: 7e0d 583d 677f ab3a d254 41be 69ac b13d
00000100: 8808 a4bd 8d75 ce3d 4f36 b83d f929 4bbc
00000110: e8dc 29bc 8de8 f53d 6d9f 5dbd c9d9 9bbc
00000120: df25 743d cbeb d9bd 5700 453c f111 0d3e
00000130: e618 3fbe 46c0 103e fef8 033e 0677 ca3d
00000140: 9308 e5bd 0966 53bd 7666 9dbd 49f0 d5bc
00000150: 59b6 ae3d 5c29 893d c85d 64be 2216 24be
00000160: 820c 393e 4297 5b3e 01c4 e93c 5358 613d
00000170: 7fd4 69bd 4e7b d8bd 06cd ad3d 22d2 49bd
00000180: a4d2 1bbe 8611 cbbd 0600 e13d 32a2 fd3d
00000190: 1208 33be d890 bcbd 0ec8 f1bd 5525 aebd
000001a0: f8d6 f8bc 2fb9 39bd 5791 f7bc 50b6 4b3e
000001b0: b699 a23c baca c03d 3b3a 3abe 1108 7a3e
000001c0: 4cfc 1fbe 7033 293e 594b f33a 1a44 2dbd
000001d0: 58ef 4e3c 87fe 9e3c 6839 03bd 43d3 18be
000001e0: dca3 673d ce3e a9bd 03d4 23be e0ae 92bd
000001f0: 1c61 123d ad19 0dbe fab1 84bd f288 443d
00000200: dbba 58bc 7489 f83d 5827 1f3e 9da7 85bd
00000210: 6bdc 193c bcff bb3d 815f 363e e09c 193e
00000220: da24 3c3d 29a3 1bbe 83f0 423d fca7 31bd
00000230: 0214 d2bd 1f48 34bd 783a dabd 930e 11be
00000240: 4ebd 093d e3f4 0f3e 048b b3bd a5e4 1b3e
00000250: 3f75 35be ed21 b8bc dd37 dc3d 5d09 553d
00000260: cb0f e33d 3b49 4abe 566e 3a3e 9d6a e53d
00000270: e464 01bc d3da 963c fe69 0ebe 6d49 85bd
00000280: 4b1f 29be fc50 c53d ff2d 78bd d851 94bd
00000290: edd2 8fbd d9b2 a83d e47a 01be 15ee 14be
000002a0: 75e3 c7bd 5548 0f3e b5a7 28be 2f67 0fbd
000002b0: c1a7 43be 89d4 bbbd 0374 18be dbc2 01bd
000002c0: aaf7 29be f085 94bc ef9c 96bd a848 f9bc
000002d0: dfed a13d f3ba 563d 6e55 e63d 350a 843d
000002e0: 0908 09bd 69c2 393d bca3 febd b128 353d
000002f0: 1041 b8bd 84d4 8a3d 271d 303d 3d3e cfbd
00000300: 68b1 d23d 5e34 d1bd e319 173e 83a9 633d
00000310: 4955 753c 872a cdbd 01eb 08bd 5e56 eebc
00000320: 46d2 273e 26e6 853d 30b2 2d3e 829d 003e
00000330: 81a5 22bd 1f45 c03d 21c6 f93d 9279 b93d
00000340: fd4c 153e 96be e5bd 4889 85bd cc49 533d
00000350: 552e 3abe 09b8 f6bd 8766 fe3d 2d72 d8bd
00000360: 5921 bc3d 5666 1e3e 2cfa b1bd fd8d 133e
00000370: 3d6f fc3c 7778 333e 03a1 1dbe 11d9 123d
00000380: 6dba 0f3d 785d 51be d371 34be 1d09 013e
00000390: edc8 ebbd b39a 8cbd 151c 46bd ca52 123d
000003a0: b5c8 693d bf8e f23c 7a71 aabd 72a3 4e3e
000003b0: 5a6b 26be 78d4 d93d b3dc 06be 05b6 9e3d
000003c0: c580 e7bc 979a ed3c 061b 893d 7057 6ebb
000003d0: c656 30bd 8fad 5c3d 31c4 0bbe 4ac9 d03d
000003e0: 999b 8c3d 7f1a 1d3e b970 bdbd ce83 2bbe
000003f0: bd41 d23d 2f8c 32bd 3985 8bbd bf2b 3fbe
-0.050089486 -0.1384827 -0.20455082 0.24763285 -0.10233116 0.0058481214 -0.08742062 0.14437789
0.00893047 0.18515468 -0.070446864 -0.08765366 -0.06642623 0.14227383 0.0038060457 0.0064634616
-0.12972783 0.22877806 0.07480756 0.02233385 0.23351389 -0.072558984 -0.097112715 -0.10640983
0.11326692 -0.007586108 -0.15497208 0.0051868404 0.06435404 -0.15592162 -0.08754361 -0.13654019
0.1693821 0.124723665 0.23541074 -0.06630869 0.023880836 0.05255814 -0.024344545 -0.018051123
-0.04578155 0.112711474 -0.11988825 -0.21721609 -0.11076637 0.0010482166 0.090575404 -0.047575027
0.09506069 -0.027129462 -0.1485048 0.10601053 -0.19589777 0.10406762 0.19533068 -0.12058719
-0.2195734 0.034358915 0.20448703 -0.038681563 0.052747242 0.0013084234 -0.18880013 0.08675463
-0.0800944 0.10081015 0.089947335 -0.012400144 -0.01036761 0.12007246 -0.05410712 -0.019024746
0.05960643 -0.10640677 0.012024007 0.13776375 -0.18661842 0.14135846 0.12887952 0.09885983
-0.11183276 -0.05161098 -0.076855585 -0.026115553 0.08530874 0.06697342 -0.223014 -0.16024068
0.18071178 0.21444419 0.028535845 0.055015873 -0.057087418 -0.105703935 0.08486371 -0.049272664
-0.15217072 -0.09915452 0.109863326 0.12384452 -0.17483547 -0.09207314 -0.118057355 -0.08503214
-0.030375943 -0.04534262 -0.03022067 0.19893765 0.019848686 0.09413667 -0.18186276 0.2441714
-0.15623587 0.16523528 0.0018561884 -0.042301275 0.012630306 0.019408477 -0.03203717 -0.1492434
0.056552753 -0.08263932 -0.15998845 -0.07162261 0.035737142 -0.13779326 -0.06479259 0.047982164
-0.013228144 0.12135592 0.15542352 -0.0652611 0.009390931 0.09179637 0.1780987 0.1500125
0.045933582 -0.1519896 0.04759265 -0.043373093 -0.102577224 -0.044014093 -0.10655683 -0.14165716
0.0336278 0.1405826 -0.087667495 0.1522394 -0.17720507 -0.022477115 0.107528426 0.052010883
0.11086997 -0.19754498 0.18206152 0.112019755 -0.007897589 0.01841489 -0.1390762 -0.065081455
-0.16515844 0.09634587 -0.06059074 -0.07242173 -0.07022653 0.082372375 -0.12644535 -0.14543946
-0.09760181 0.13992436 -0.16470225 -0.035010513 -0.19106962 -0.09171397 -0.14888005 -0.03167997
-0.16598383 -0.018130273 -0.073541515 -0.030430153 0.079066984 0.052424382 0.11246763 0.06447259
-0.03345493 0.04535142 -0.124335736 0.04422826 -0.08996785 0.067788154 0.04299655 -0.10119293
0.10287744 -0.102150664 0.14755969 0.05558158 0.014973947 -0.10017877 -0.033427242 -0.029093917
0.16388807 0.06538038 0.16962504 0.12560084 -0.039708618 0.09388184 0.12195993 0.09056391
0.1458015 -0.11217992 -0.06520325 0.05158405 -0.18181737 -0.12046821 0.12421899 -0.10568652
0.09186048 0.15468726 -0.086902946 0.14409633 0.030814761 0.17526422 -0.15393452 0.035851542
0.0350899 -0.20445812 -0.17621545 0.12601133 -0.11512933 -0.06865444 -0.048366625 0.035723485
0.057076175 0.029609082 -0.08322425 0.20179537 -0.16251889 0.10636228 -0.13170128 0.07749561
-0.028259644 0.029004378 0.066946074 -0.0036368035 -0.043051504 0.053876456 -0.1364906 0.10194643
0.068656154 0.15342139 -0.09250016 -0.16749498 0.10266445 -0.04359072 -0.068125196 -0.18669032

fc1.bias f4 [32]
00000000: 563f fb3d 0949 08ba 021b 90bc 40d1 77bd
00000010: 2172 a73b 4cc4 73bc f284 b3bd 6f11 4bbc
00000020: 919f 983d 3f1a 0e3d 2647 c33d 8555 0d3e
00000030: d132 febd 1bcd 813d 1175 10be b84c c1bd
00000040: 2f23 ee3d 4339 193e a476 06bc a4fe 0a3c
00000050: d4d3 e7bd 4034 043e ea30 cfbd be4d 32be
00000060: e208 28bd 4813 f63d 6062 c7bd 09fb 05bd
00000070: 8202 04be 79bd 0ebe 4ad3 963d 9b15 273e
0.1226794 -0.00051988714 -0.017591003 -0.06050229 0.005110041 -0.014878344 -0.08765592 -0.012394293
0.0745231 0.034693 0.09535055 0.13802154 -0.12412036 0.06337949 -0.14107157 -0.09438461
0.116278045 0.1496325 -0.008206997 0.008483563 -0.113197 0.12910557 -0.101167515 -0.17412469
-0.041024096 0.12015396 -0.097355604 -0.03271011 -0.12891582 -0.13939466 0.07364519 0.16316836
