results/dp/sleep-edf/seed_456/best_model.pth (torch, 160245 bytes, 30 tensors)

_module.mlp.0.weight f4 [128, 24]
0.11354954 -0.12349944 0.062789656 0.07285119 0.13798913 0.07349018 0.16917758 -0.3211399
-0.29584226 -0.04589487 0.048512667 0.119319476 0.020054124 -0.05294719 -0.23041056 -0.21428967
-0.05008834 -0.010969309 0.06941843 0.06790424 0.08008005 0.26758987 -0.100186855 -0.19704959
0.026970653 0.18803896 -0.15167798 0.021431219 0.3120823 -0.3619704 -0.26793385 0.1974314
0.009934443 0.24330439 -0.20970526 0.04360729 -0.21072438 0.10560565 -0.042434752 0.35233974
0.09692877 -0.1409311 0.03473567 -0.05161354 -0.13620609 -0.030605461 -0.18432155 0.090884775
-0.017288089 0.36514547 -0.010457601 0.17371346 0.204431 0.0033364226 -0.17703304 -0.0022125186
-0.058925413 -0.096670546 0.099789605 -0.025104046 0.046469145 0.09204635 -0.027408674 -0.007468266
0.06516675 -0.2084854 0.19300371 -0.09766091 -0.084580116 -0.102923155 0.01286413 0.10574861
0.06861336 -0.26049253 0.10892194 -0.11351753 -0.23185986 0.03117115 0.115144275 0.32368648
-0.007146541 -0.08532881 -0.066577494 0.20543347 -0.09143845 -0.019004542 -0.19008109 -0.010708944
0.10930967 -0.107584044 -0.3156626 -0.14252323 0.0925405 0.250254 -0.074401565 -0.14459358
0.09704105 -0.23238492 0.06895246 -0.094477616 0.07112736 0.18962662 0.27408922 0.061274637
0.086973295 -0.1594485 0.14909539 0.20585893 0.04930973 -0.059930917 0.13425638 -0.08940554
-0.24457705 -0.038078245 -0.016466329 0.15292919 0.13103603 -0.116526626 0.010560273 -0.08520069
-0.101172484 -0.01148889 -0.1256055 -0.051068127 0.16571541 -0.46097124 0.19641596 0.21853368
0.08059053 -0.117494605 -0.040638454 -0.04181349 0.14205949 -0.065991476 0.12252441 0.24575052
-0.09997393 0.13643402 -0.1896901 0.16101563 0.22227775 0.005884141 -0.09609797 0.067239024
0.06840386 0.3194796 0.064871766 -0.029389255 0.21846566 -0.030384447 -0.25728166 -0.24847494
0.0007457013 0.06989118 0.09741947 -0.039185878 0.16782796 -0.0021622165 -0.17252807 -0.10910243
0.24468352 -0.13430338 0.019945737 -0.342562 0.23559897 -0.14917393 0.05811177 0.034067653
-0.069504626 0.047721546 -0.012519676 0.007987163 -0.19314489 0.08296761 -0.042591237 -0.09225937
-0.013104426 0.07756564 -0.1427486 0.006418853 -0.030733036 -0.13650522 0.10688208 0.09013048
0.007918374 0.034636702 0.09340081 -0.06279014 -0.15763716 0.081664145 -0.16928874 -0.12926278
0.06341347 -0.12056657 -0.034424886 0.09798683 -0.12165528 0.31916714 0.18398814 -0.081938766
-0.022757063 -0.048755158 -0.0629056 -0.1059681 0.20150153 0.070209235 -0.21191753 0.09384628
0.010578666 0.3545246 0.12400877 0.032607988 0.07874644 -0.29763034 -0.27367797 -0.15995868
0.013988758 0.07728495 0.08719843 0.23537616 -0.02285186 0.08100983 -0.29997596 0.14684227
-0.045122493 0.10913335 -0.049214996 0.0019686015 0.015373842 0.07955482 -0.13124962 -0.15535219
-0.23532683 0.2388033 0.08967812 0.17598566 -0.433497 -0.014657971 0.32862234 0.13491997
-0.010180395 -0.0809965 -0.029876385 0.079573356 0.287309 0.0014339678 -0.10487756 -0.23526976
-0.031213762 0.03248386 -0.012592488 -0.13862818 0.07408719 0.3560654 -0.21573703 -0.1257435
00000000: a98c e83d 46ed fcbd dd97 803d 0133 953d
00000010: 064d 0d3e 0582 963d e33c 2d3e 736c a4be
00000020: a378 97be 42fc 3bbd 38b5 463d c55d f43d
00000030: 8c48 a43c 27df 58bd bff0 6bbe c06e 5bbe
00000040: 6e29 4dbd 9eb8 33bc 402b 8e3d 6111 8b3d
00000050: 0201 a43d 8a01 893e c42e cdbd 5ec7 49be
00000060: 8ff1 dc3c 498d 403e 7951 1bbe 8690 af3c
00000070: 40c9 9f3e 2f54 b9be a02e 89be 752b 4a3e
00000080: 13c4 223c c924 793e fabc 56be 8f9d 323d
00000090: 22c8 57be c647 d83d 10d0 2dbd e065 b43e
000000a0: 9782 c63d 3e50 10be fd46 0e3d b868 53bd
000000b0: 9c79 0bbe 4eb8 fabc cabe 3cbe cc21 ba3d
000000c0: c09f 8dbc 59f4 ba3e 5c56 2bbc f1e1 313e
000000d0: 5c56 513e e2a7 5a3b 2648 35be e7ff 10bb
000000e0: c65b 71bd 35fb c5bd 7e5e cc3d 00a7 cdbc
000000f0: 6e56 3e3d cc82 bc3d 2888 e0bc 5bb8 f4bb
00000100: 2576 853d 327d 55be c4a2 453e 7102 c8bd
00000110: 5738 adbd 60c9 d2bd 12c4 523c ba92 d83d
00000120: 2985 8c3d 475f 85be 7712 df3d e17b e8bd
00000130: ac6c 6dbe a45a ff3c c3d0 eb3d 3cba a53e
00000140: 882d eabb dfc0 aebd c859 88bd 275d 523e
00000150: 1544 bbbd 6aaf 9bbc 9ea4 42be 9174 2fbc
00000160: c0dd df3d 0655 dcbd 879e a1be 9cf1 11be
00000170: e085 bd3d 4b21 803e d95f 98bd 5710 14be
00000180: 75bd c63d 50f6 6dbe f336 8d3d 7b7d c1bd
00000190: 39ab 913d 7b2d 423e 6c55 8c3e 1dfb 7a3d
000001a0: 0e1f b23d 7846 23be 76ac 183e afcc 523e
000001b0: 00f9 493d 1f7a 75bd 817a 093e 401a b7bd
000001c0: 6872 7abe eff7 1bbd 65e4 86bc 7899 1c3e
000001d0: 4f2e 063e 83a5 eebd ff04 2d3c b37d aebd
000001e0: 8533 cfbd e63b 3cbc ba9e 00be d02c 51bd
000001f0: 4db1 293e 6c04 ecbe 4421 493e 4bc7 5f3e
00000200: a60c a53d 03a1 f0bd 8274 26bd 9f44 2bbd
00000210: 0b78 113e 8a26 87bd 14ee fa3d 06a6 7b3e
00000220: 22bf ccbd 5cb5 0b3e 1f3e 42be 48e1 243e
00000230: c79c 633e c1cf c03b 03cf c4bd 9db4 893d
00000240: 5317 8c3d d592 a33e 7ddb 843d bcc1 f0bc
00000250: 76b5 5f3e cee8 f8bc 6cba 83be 3770 7ebe
00000260: 2b7b 433a 1b23 8f3d dc83 c73d 5f81 20bd
00000270: 18db 2b3e f9b3 0dbb 33ab 30be 1871 dfbd
00000280: 518e 7a3e d386 09be 3e65 a33c 4964 afbe
00000290: db40 713e 0dc1 18be 9b06 6e3d 868a 0b3d
000002a0: 7158 8ebd ab77 433d 541f 4dbc 97dc 023c
000002b0: c6c7 45be ecea a93d 2674 2ebd 7bf2 bcbd
000002c0: f2b3 56bc bcda 9e3d b02c 12be 3e55 d23b
000002d0: d9c3 fbbc 06c8 0bbe fee4 da3d 5496 b83d
000002e0: 11bc 013c 37df 0d3d ed48 bf3d 1e98 80bd
000002f0: a36b 21be 883f a73d 075a 2dbe 765d 04be
00000300: ecde 813d 9beb f6bd 1c01 0dbd 52ad c83d
00000310: 6726 f9bd e069 a33e 6367 3c3e 83cf a7bd
00000320: 056d babc 7db3 47bd a7d4 80bd ce05 d9bd
00000330: 6b56 4e3e dcc9 8f3d e900 59be 7a32 c03d
00000340: 2452 2d3c 4084 b53e 4ff8 fd3d f48f 053d
00000350: d045 a13d 0163 98be 851f 8cbe 35cc 23be
00000360: 1b31 653c 9247 9e3d 1795 b23d 7306 713e
00000370: d333 bbbc 7be8 a53d 7396 99be d25d 163e
00000380: 5dd2 38bd 4e81 df3d aa95 49bd a703 013b
00000390: 91e2 7b3c a3ed a23d 4d66 06be a514 1fbe
000003a0: 84f9 70be da88 743e 2aa9 b73d 9635 343e
000003b0: 52f3 ddbe fd27 70bc 3041 a83e 7628 0a3e
000003c0: accb 26bc 7ee1 a5bd 52bf f4bc 5bf7 a23d
000003d0: 2a1a 933e faf3 bb3a 0cca d6bd 8eea 70be
000003e0: 01b4 ffbc cc0d 053d b950 4ebc 8cf4 0dbe
000003f0: 06bb 973d 344e b63e 2bea 5cbe e7c2 00be

_module.mlp.0.bias f4 [128]
0.062738895 -0.024064846 0.15620315 -0.14038149 -0.16833495 0.06496452 0.27933338 -0.04616276
0.04578526 0.14739896 -0.03667059 -0.040804815 -0.048140276 -0.007017143 0.04992199 0.20833395
-0.08348063 0.15211876 0.13479245 -0.013685343 0.32998684 -0.028994719 -0.14013594 -0.13602646
0.1498225 0.0901659 -0.031180179 0.14980565 -0.066360265 -0.019016748 0.1040341 -0.22176169
0.12988436 0.03316239 -0.111662544 -0.15314153 -0.09190541 0.088776655 0.082371645 -0.08313259
0.038794387 0.08607521 0.18087997 0.1912133 -0.079277135 0.032553717 -0.13068601 -0.03160774
0.035359792 -0.0078470325 0.028090466 -0.08882062 -0.14639263 0.08439083 -0.057399668 0.011644943
0.18409264 0.034458313 -0.0017411646 0.115761764 -0.03131083 -0.30840567 0.058576576 -0.009237505
0.32765105 0.18521497 -0.1238839 -0.12848407 -0.19033417 -0.17836353 -0.2647424 -0.22778718
0.14215007 0.21804945 0.11075517 0.20419686 0.2671324 0.2915552 0.120533206 0.04065258
-0.14946046 -0.01806643 -0.007613136 0.08313881 -0.09527707 0.12456396 0.041512128 -0.28430545
0.09480763 -0.00994926 -0.28540146 -0.31664535 0.087924756 -0.2976896 0.116225764 0.18196003
-0.26969573 -0.18873996 0.080132544 -0.003696499 -0.13455439 -0.08790842 -0.104952626 0.27802333
-0.26434264 -0.28564134 0.20360829 -0.0068599917 0.32018512 0.023523025 0.42742097 0.034975745
0.3512098 -0.043943085 0.28008714 -0.12061277 -0.3252782 0.013183812 -0.067871235 -0.10254039
-0.06427788 0.10567896 0.3688107 -0.22775604 -0.14848135 0.43786597 0.112417236 -0.08930485
00000000: 407d 803d a423 c5bc b8f3 1f3e 2ac0 0fbe
00000010: ff5f 2cbe 1e0c 853d c904 8f3e 2a15 3dbd
00000020: 5389 3b3d c1ef 163e e733 16bd f322 27bd
00000030: bd2e 45bd 10f0 e5bb 007b 4c3d 7f55 553e
00000040: e4f7 aabd 05c5 1b3e 0807 0a3e 7d38 60bc
00000050: 09f4 a83e 5586 edbc cc7f 0fbe 854a 0bbe
00000060: 126b 193e e6a8 b83d 936d ffbc a766 193e
00000070: e4e7 87bd 03c9 9bbc d50f d53d 7f15 63be
00000080: 6800 053e 49d5 073d 55af e4bd 22d1 1cbe
00000090: e738 bcbd 89d0 b53d 77b2 a83d 6b41 aabd
000000a0: dde6 1e3d 3348 b03d 9938 393e 6bcd 433e
000000b0: 0d5c a2bd 0c57 053d 8ed2 05be 1e77 01bd
000000c0: 6ed5 103d d790 00bc fa1d e63c 96e7 b5bd
000000d0: f3e7 15be 19d5 ac3d ea1b 6bbd 6eca 3e3c
000000e0: c882 3c3e 2924 0d3d ca37 e4ba 8114 ed3d
000000f0: c93f 00bd 59e7 9dbe feed 6f3d e758 17bc
00000100: e1c1 a73e fea8 3d3e d8b6 fdbd 5491 03be
00000110: f6e6 42be eea4 36be 518c 87be 0b41 69be
00000120: ca8f 113e 5b48 5f3e 9bd3 e23d fb18 513e
00000130: 94c5 883e b946 953e 1dda f63d 5283 263d
00000140: 2a0c 19be 0d00 94bc 9d77 f9bb ae44 aa3d
00000150: a020 c3bd 641b ff3d 9f08 2a3d 7c90 91be
00000160: 812a c23d 3902 23bc 2420 92be 571f a2be
00000170: e511 b43d c56a 98be c607 ee3d bb53 3a3e
00000180: 8f15 8abe 0c45 41be 881c a43d f640 72bb
00000190: a0c8 09be 5409 b4bd 67f1 d6bd 1359 8e3e
000001a0: eb57 87be 953f 92be b17e 503e c8c9 e0bb
000001b0: 4eef a33e 5cb3 c03c ecd6 da3e ba42 0f3d
000001c0: c5d1 b33e aafd 33bd 9567 8f3e d403 f7bd
000001d0: dd8a a6be ea00 583c 1300 8bbd b200 d2bd
000001e0: 1fa4 83bd 366e d83d c2d4 bc3e e138 69be
000001f0: 7f0b 18be f82f e03e 023b e63d 76e5 b6bd

_module.mlp.1.weight f4 [128]
0.97747815 1.1640582 0.9107009 1.1481864 1.1991051 1.0898383 1.1493435 1.0660287
1.1413586 0.7944272 0.9643385 0.74638265 0.8968261 0.74206144 1.0314373 1.0282203
0.86685675 0.97557014 1.01793 0.97834474 1.1317477 0.93785495 0.93002754 0.8951111
0.88603586 0.9068677 0.90569735 0.87774986 1.1483126 0.9058121 1.1743056 0.93363196
0.96702886 1.0324038 0.9914298 0.99837387 1.1910075 0.9609108 1.1970661 0.9950796
1.0849811 0.9947132 0.9536242 0.74276215 1.0254217 1.0826626 0.94397455 1.0130576
0.92912376 1.0780824 0.7649276 1.1664945 0.96669024 1.2222633 0.928752 1.0200478
0.80344063 0.94693744 1.0167651 0.81017005 1.0199081 0.94390917 0.9474797 1.1210605
1.094971 0.9939116 1.0240214 1.0416085 0.9508364 1.012824 0.7956997 1.0020679
1.054263 0.8695043 1.1700933 0.77358884 0.91543424 1.1160617 1.2315347 0.84123945
0.98946977 0.9759132 0.98546916 0.8356578 1.10123 1.1563108 0.9192164 1.1701629
0.9693034 1.1305034 0.93456036 0.87594444 0.96339864 1.0122917 1.050882 1.0116961
1.0581135 1.0992067 0.70318866 0.9470804 1.0411508 1.0978183 1.021929 1.0667362
0.9295032 0.8850873 1.1556512 1.0715787 1.004611 1.0661261 1.1692624 0.87709534
1.1421516 1.0877755 0.9419632 0.97732085 1.1763974 1.331132 0.9811658 0.9757146
1.0448385 1.0800054 0.99203074 0.9413351 1.1582634 0.91722876 0.9789331 1.0769783
00000000: 023c 7a3f dcff 943f b223 693f c6f7 923f
00000010: 477c 993f d27f 8b3f b01d 933f a173 883f
00000020: 0a18 923f 955f 4b3f e3de 763f ef12 3f3f
00000030: 6596 653f bdf7 3d3f 2306 843f b99c 833f
00000040: 53ea 5d3f f7be 793f 884b 823f cd74 7a3f
00000050: 1cdd 903f 4317 703f 4916 6e3f 0026 653f
00000060: 3fd3 623f 7b28 683f c8db 673f 37b4 603f
00000070: e8fb 923f 4de3 673f a54f 963f 8102 6f3f
00000080: 348f 773f cf25 843f 58ce 7d3f 6e95 7f3f
00000090: ef72 983f 40fe 753f 7639 993f 89bd 7e3f
000000a0: a9e0 8a3f 86a5 7e3f b720 743f a925 3e3f
000000b0: 0541 833f b094 8a3f 51a8 713f dfab 813f
000000c0: 0edb 6d3f 9bfe 893f 4cd2 433f b14f 953f
000000d0: 0379 773f 2073 9c3f b1c2 6d3f ed90 823f
000000e0: 49ae 4d3f 7e6a 723f 5c25 823f 4e67 4f3f
000000f0: 598c 823f 08a4 713f 088e 723f e97e 8f3f
00000100: 0228 8c3f fe70 7e3f 2213 833f 6d53 853f
00000110: 046a 733f 38a4 813f fab2 4b3f c343 803f
00000120: 17f2 863f d597 5e3f 9ec5 953f eb09 463f
00000130: e659 6a3f 1cdb 8e3f eea2 9d3f 785b 573f
00000140: e44d 7d3f 73d5 793f b547 7c3f abed 553f
00000150: 1bf5 8c3f fe01 943f c451 6b3f e6c7 953f
00000160: 4524 783f 56b4 903f 593f 6f3f e53d 603f
00000170: 4ba1 763f c692 813f 4d83 863f 427f 813f
00000180: 4370 873f ceb2 8c3f 2c04 343f dc73 723f
00000190: 6e44 853f 4f85 8c3f 92ce 823f d08a 883f
000001a0: ecf3 6d3f 1595 623f 61ec 933f 7e29 893f
000001b0: 1897 803f d276 883f 64aa 953f 5289 603f
000001c0: 0632 923f 3a3c 8b3f 8024 713f b331 7a3f
000001d0: 3194 963f 8962 aa3f af2d 7b3f 6fc8 793f
000001e0: 45bd 853f 9e3d 8a3f baf5 7d3f 56fb 703f
000001f0: fa41 943f 81cf 6a3f 5c9b 7a3f 6dda 893f

_module.mlp.1.bias f4 [128]
-0.0004980514 0.1462355 0.14756013 -0.07205798 -0.2044227 -0.012189667 0.10434168 0.009814744
-0.0069923853 -0.12162954 -0.1646303 -0.02840696 -0.09571944 -0.107858546 -0.10856899 0.0051828516
0.026401425 -0.11741427 0.07702984 -0.06053613 0.09070743 0.00049323903 -0.12383895 -0.025439871
-0.014347828 -0.0072839283 -0.017497813 0.15433566 0.08355553 -0.1741636 -0.04121795 0.1300401
0.077354394 -0.025964104 0.07345426 -0.03391398 -0.20789781 -0.06644636 -0.07472916 -0.13136321
0.0034654487 -0.05055801 -0.22685991 -0.017582752 -0.016446497 0.13812439 -0.124183014 -0.05121087
0.16510697 0.052237988 -0.15040843 0.031086894 -0.043265276 0.018590568 0.04529588 -0.15535021
-0.06698494 -0.08411962 -0.08692768 0.03747975 0.010329229 0.057297964 0.04084512 0.121387176
-0.043902718 0.04925288 -0.15371364 0.018885534 -0.24586229 0.05715298 -0.037797038 -0.018166073
-0.1816675 -0.0019431536 0.19084665 0.034292527 0.08547753 0.1380819 -0.172147 -0.062258355
-0.06846308 -0.053291712 -0.07810674 -0.047166903 0.009402622 -0.14916196 0.014591049 0.056328796
0.15035778 -0.21178433 0.0055359 -0.12170264 -0.04006434 0.03361313 0.08178655 0.028598584
0.0739226 0.058523353 0.009150898 -0.14013289 -0.052634064 0.23856042 -0.16176899 -0.011784405
-0.054028526 0.012518342 -0.018201087 0.06420536 -0.21119317 -0.09096968 0.08095925 0.083634704
-0.046988077 -0.14199688 -0.0015608995 0.033063076 0.03193916 0.05964484 0.2113921 -0.18019979
-0.12546931 -0.14925796 -0.05427335 0.11579402 0.10662061 -0.01896877 -0.111596264 0.014963042
00000000: aa8f 02ba c2be 153e 011a 173e 2293 93bd
00000010: 2f54 51be 2bb7 47bc 17b1 d53d 05ce 203c
00000020: 6120 e5bb e918 f9bd d894 28be b7b5 e8bc
00000030: 8e08 c4bd f1e4 dcbd 6b59 debd e9d4 a93b
00000040: cd47 d83c e576 f0bd d2c1 9d3d bcf4 77bd
00000050: d1c4 b93d b64c 013a 479f fdbd 4767 d0bc
00000060: 2713 6bbc 05ae eebb 9357 8fbc 2b0a 1e3e
00000070: 291f ab3d f157 32be 27d4 28bd 3b29 053e
00000080: fb6b 9e3d acb2 d4bc 306f 963d 63e9 0abd
00000090: 2ae3 54be 0715 88bd 9a0b 99bd 1484 06be
000000a0: 951c 633b ea15 4fbd f74d 68be b409 90bc
000000b0: ceba 86bc 7b70 0d3e aa53 febd 7dc2 51bd
000000c0: cd11 293e 80f7 553d ab04 1abe f1a9 fe3c
000000d0: ee36 31bd 3f4b 983c 2c88 393d 2014 1fbe
000000e0: 662f 89bd e846 acbd 2407 b2bd 5e84 193d
000000f0: ed3b 293c 45b1 6a3d 364d 273d d799 f83d
00000100: 56d3 33bd 63bd 493d 1c67 1dbe d6b5 9a3c
00000110: 53c3 7bbe 3e19 6a3d 11d1 1abd 04d1 94bc
00000120: 0c07 3abe 6ab1 feba 4e6d 433e 5276 0c3d
00000130: d80e af3d 5765 0d3e 4e47 30be 9e02 7fbd
00000140: 5f36 8cbd 6948 5abd 6df6 9fbd 1532 41bd
00000150: 740d 1a3c eabd 18be 4c0f 6f3c 06b9 663d
00000160: 64f7 193e fedd 58be 7f66 b53b 3c3f f9bd
00000170: 811a 24bd ecad 093d b57f a73d 9447 ea3c
00000180: bb64 973d 2fb6 6f3d a6ed 153c ff7e 0fbe
00000190: d196 57bd 2f49 743e c5a6 25be 6113 41bc
000001a0: 044d 5dbd bb19 4d3c 721a 95bc 1a7e 833d
000001b0: 0643 58be 504e babd f7cd a53d ac48 ab3d
000001c0: 9276 40bd a167 11be 1997 ccba 266d 073d
000001d0: a3d2 023d 264e 743d 2c77 583e 4b86 38be
000001e0: 077b 00be 14d7 18be bb4d 5ebd 6a25 ed3d
000001f0: e85b da3d 6564 9bbc 958c e4bd 8c27 753c

_module.mlp.4.weight f4 [64, 128]
0.118254595 0.27391666 -0.02383806 -0.08785207 0.09428166 0.2511149 -0.1326651 0.07404597
-0.03950898 -0.10842494 0.13287291 0.16837078 -0.050381955 -0.061451238 -0.14881943 0.057193555
-0.056765407 0.083654635 -0.05837349 0.15411894 0.026444979 0.051143523 -0.13075997 0.060524862
-0.07871165 -0.004403182 -0.0060254005 -0.1007944 -0.10046835 0.10275647 -0.2511149 0.14259163
-0.009084195 0.16713262 0.08020043 0.055450507 0.15925866 -0.044502813 -0.13366142 0.014831302
0.041333463 -0.08851401 0.18839578 0.1156344 0.071487755 -0.023297552 0.09006476 -0.13646853
-0.14802136 -0.05796952 -0.12780207 0.11598567 0.03903976 0.032799456 0.077902965 -0.045155406
0.17385902 -0.047100026 0.013358456 0.09857536 0.013325192 -0.053344987 -0.011159206 -0.031229481
0.07331258 -0.12095929 -0.07791451 -0.1430147 -0.22310603 -0.12385546 -0.03932613 -0.2543482
0.08544021 0.1312168 -0.022653323 0.21245441 -0.034105774 -0.031061534 -0.11847665 0.11716337
-0.090083495 -0.16819915 0.01429477 -0.020397302 0.028265994 0.08153096 -0.078684136 -0.08461677
0.09124778 0.10141913 0.0540755 0.020514973 0.010547894 -0.0056188405 -0.07759158 -0.0032966225
0.02704475 0.37740824 0.005915574 -0.06157845 -0.06466378 0.10496588 0.013070031 0.027325448
-0.1505339 0.05751183 -0.16116664 -0.082496986 0.060646754 0.05611015 -0.07020561 -0.09811278
-0.002941255 0.10200262 -0.16840725 0.030229244 0.0048628426 0.12834805 0.013014199 -0.045566052
-0.055952515 -0.16861326 0.16782553 -0.084084414 -0.22487883 -0.087187134 0.19786811 0.124987215
0.08570799 -0.07292739 -0.17100027 -0.13609312 -0.09365891 -0.0014052928 -0.3359721 0.2128566
-0.18148041 -0.20322633 0.0849654 0.08097679 0.12263039 -0.040602688 -0.08386627 -0.016580086
0.049489964 0.060993675 0.03651559 -0.19088706 -0.0573042 0.051988132 -0.10522633 0.0702496
-0.011009889 -0.095017746 0.116257355 -0.054921795 0.007704812 -0.08057837 -0.066788025 -0.14150912
-0.108079314 -0.17588033 0.09560983 -0.2196594 0.11966805 -0.022984961 -0.18859017 0.04316792
-0.12069234 -0.044969577 0.0969094 0.013507939 0.046608653 -0.13110888 0.091407366 0.22959615
0.08798861 0.014530623 0.18881518 -0.11358621 0.23380011 -0.12208586 -0.15351842 -0.06314745
-0.0011333975 -0.14001144 -0.03737158 0.0017054266 0.15275393 -0.011242528 -0.09916055 -0.10691178
-0.1576786 0.0044498746 0.14360544 -0.0762829 -0.018318225 0.09100988 -0.054926965 0.18289901
-0.14975017 0.122016996 0.03588141 0.19257988 0.03949926 -0.03050674 -0.045676745 -0.07864698
0.026849754 0.06968297 0.09835596 0.14620347 0.04255436 -0.076517574 -0.13483024 -0.013196103
-0.12223945 -0.036966592 0.06157689 0.14133745 -0.0017862369 0.03991759 -0.12831704 0.12829065
-0.017944725 0.35851663 0.038987048 0.011225448 0.16074906 -0.117638774 -0.033119757 -0.043814115
0.055542763 0.037362855 -0.10025239 -0.14705239 -0.029768024 0.12651865 -0.065024324 0.03970262
0.0040668556 0.023616664 0.14910187 0.10263883 -0.0006781332 -0.2531532 -0.10803417 -0.012842669
0.090163805 0.10079946 0.11457151 0.007398348 -0.007896621 0.12157748 0.05040553 -0.07848911
00000000: 772f f23d ce3e 8c3e 0948 c3bc c9eb b3bd
00000010: be16 c13d 2292 803e 5cd9 07be 6aa5 973d
00000020: 2bd4 21bd e50d debd d60f 083e 6469 2c3e
00000030: 4f5d 4ebd 4bb4 7bbd 1f64 18be ca43 6a3d
00000040: d882 68bd 1f53 ab3d 0a19 6fbd 5bd1 1d3e
00000050: 24a3 d83c df7b 513d f1e5 05be ebe8 773d
00000060: 9333 a1bd 9148 90bb b970 c5bb 4b6d cebd
00000070: 5ac2 cdbd fc71 d23d 2292 80be 8a03 123e
00000080: e0d5 14bc d024 2b3e 1f40 a43d 1220 633d
00000090: b414 233e 9548 36bd 8ade 08be fdfe 723c
000000a0: 474d 293d d546 b5bd d3ea 403e bad1 ec3d
000000b0: 2c68 923d 82da bebc df73 b83d 68be 0bbe
000000c0: e992 17be 7371 6dbd 8cde 02be e589 ed3d
000000d0: 28e8 1f3d b958 063d 978b 9f3d e0f4 38bd
000000e0: 1908 323e f5eb 40bd 6ddd 5a3c e1e1 c93d
000000f0: e851 5a3c 4680 5abd 1ad5 36bc f8d4 ffbc
00000100: e824 963d 81b9 f7bd a591 9fbd 7272 12be
00000110: e875 64be eea7 fdbd 7014 21bd ed39 82be
00000120: 47fb ae3d b25d 063e 7693 b9bc a68d 593e
00000130: 7fb2 0bbd c274 febc e3a3 f2bd 59f3 ef3d
00000140: b27d b8bd 663c 2cbe 9c34 6a3c 3e18 a7bc
00000150: 168e e73c b4f9 a63d 2625 a1bd 8f4b adbd
00000160: 1ee0 ba3d d5b4 cf3d 467e 5d3d 040f a83c
00000170: 13d1 2c3c 401e b8bb 56e8 9ebd 260c 58bb
00000180: f48c dd3c a73b c13e 6ed7 c13b af39 7cbd
00000190: 726e 84bd 5af8 d63d af23 563c 9ed9 df3c
000001a0: 8f25 1abe 8691 6b3d de08 25be 2ef4 a8bd
000001b0: bb68 783d c2d3 653d f5c7 8fbd 5aef c8bd
000001c0: 12c2 40bb c0e6 d03d f372 2cbe 52a3 f73c
000001d0: 7b58 9f3b ac6d 033e 8239 553c 78a3 3abd
000001e0: 772e 65bd f4a8 2cbe 75da 2b3e 7334 acbd
000001f0: a346 66be 2b8f b2bd f09d 4a3e 4cf9 ff3d
00000200: ac87 af3d f55a 95bd b21a 2fbe ff5b 0bbe
00000210: 3ed0 bfbd cd31 b8ba 8904 acbe 15f7 593e
00000220: 00d6 39be 901a 50be 5702 ae3d 29d7 a53d
00000230: a425 fb3d 014f 26bd 14c2 abbd f6d2 87bc
00000240: fdb5 4a3d 81d4 793d 5f91 153d e677 43be
00000250: cfb7 6abd 82f1 543d e780 d7bd 06df 8f3d
00000260: d262 34bc aa98 c2bd 5618 ee3d adf5 60bd
00000270: a678 fc3b 4606 a5bd 29c8 88bd c4e7 10be
00000280: b058 ddbd f919 34be 16cf c33d 65ee 60be
00000290: 8614 f53d f54a bcbc c81d 41be d8d0 303d
000002a0: 8c2d f7bd 0532 38bd 6f78 c63d 6750 5d3c
000002b0: b7e8 3e3d 6841 06be c933 bb3d 411b 6b3e
000002c0: 5f33 b43d da11 6e3c c458 413e e39f e8bd
000002d0: 4c69 6f3e 2708 fabd ef33 1dbe 7353 81bd
000002e0: 828e 94ba 295f 0fbe f112 19bd 9f88 df3a
000002f0: 876b 1c3e 9532 38bc b014 cbbd 90f4 dabd
00000300: 8076 21be 41d0 913b 4e0d 133e 363a 9cbd
00000310: 1a10 96bc 6363 ba3d 19fb 60bd e149 3b3e
00000320: 1c58 19be 0ce4 f93d 63f8 123d a933 453e
00000330: fac9 213d 45e9 f9bc 8a17 3bbd ab11 a1bd
00000340: 04f4 db3c f2b5 8e3d d96e c93d 5db6 153e
00000350: 7b4d 2e3d 3fb5 9cbd f010 0abe 7834 58bc
00000360: ad58 fabd 486a 17bd 0d38 7c3d c4ba 103e
00000370: 2a20 eaba a080 233d 8b65 03be a05e 033e
00000380: d100 93bc 7e8f b73e e2b0 1f3d f1ea 373c
00000390: 679b 243e 99ec f0bd 95a8 07bd 6e76 33bd
000003a0: cf80 633d cb09 193d 2051 cdbd e794 16be
000003b0: 12dc f3bc 1b8e 013e 792b 85bd 379f 223d
000003c0: 4243 853b bc77 c13c 29ae 183e 4f34 d23d
000003d0: c0c4 31ba 4c9d 81be 0541 ddbd 0f6a 52bc
000003e0: cda7 b83d f36f ce3d 78a4 ea3d d76d f23b
000003f0: d460 01bc 9dfd f83d 0776 4e3d e6be a0bd

_module.mlp.4.bias f4 [64]
0.050212815 0.11670102 -0.024029557 -0.1187991 0.10633267 0.067683905 -0.021969438 -0.042903483
-0.0054288865 0.034991316 -0.07234191 0.014271855 -0.09615434 -0.11229949 -0.024293443 0.014803358
0.013438244 -0.02988985 0.1180781 0.11053766 -0.07547882 0.0159428 -0.18464102 0.073285
-0.032535005 0.0012521581 0.018962022 -0.018999316 0.06358979 -0.06378508 -0.11191493 -0.011064776
-0.07142892 -0.040779896 0.14207938 -0.120264456 0.06676396 0.14000171 -0.023461873 -0.058854643
-0.079981595 0.23485215 0.061759677 0.12606218 -0.06898538 0.010116631 -0.11277337 0.17294726
-0.008133288 0.052279297 -0.07228842 0.07924907 0.08326406 0.016320603 0.10792804 0.075986885
0.010172066 -0.11304932 0.048472643 -0.08788353 0.044157986 -0.011671231 0.17102171 -0.13845031
00000000: f4ab 4d3d f200 ef3d a2d9 c4bc f14c f3bd
00000010: f1c4 d93d dc9d 8a3d 40f9 b3bc 90bb 2fbd
00000020: cde4 b1bb 0e53 0f3d ff27 94bd 80d4 693c
00000030: 91ec c4bd 46fd e5bd 0b03 c7bc c989 723c
00000040: 152c 5c3c 8fdb f4bc eed2 f13d 9261 e23d
00000050: a494 9abd 7a9a 823c 8912 3dbe 7216 963d
00000060: 6d43 05bd 741f a43a 3e56 9b3c 74a4 9bbc
00000070: 5d3b 823d c1a1 82bd a833 e5bd 0949 35bc
00000080: 5349 92bd d208 27bd 427d 113e 364d f6bd
00000090: 8bbb 883d 9c5c 0f3e 1d33 c0bc 9111 71bd
000000a0: 64cd a3bd 157d 703e b7f7 7c3d 7216 013e
000000b0: 3548 8dbd 3ac0 253c baf5 e6bd 1619 313e
000000c0: 7b41 05bc d122 563d f30b 94bd 564d a23d
000000d0: 5986 aa3d c9b2 853c 6009 dd3d 039f 9b3d
000000e0: bda8 263c 6786 e7bd 408b 463d 48fc b3bd
000000f0: 01df 343d b138 3fbc 5120 2f3e ebc5 0dbe

_module.mlp.5.weight f4 [64]
0.96736544 1.133057 1.3219585 1.0454953 0.98694813 1.0095202 1.2361463 1.1545271
1.2922744 1.0534716 0.9760314 0.9750123 0.9638299 1.1075659 0.9943492 0.9105335
1.1020048 1.2902108 0.90609884 1.0997602 1.0751534 0.8478911 1.0271037 1.2271057
0.8959888 1.1211059 1.2268335 1.1798104 1.0940094 1.0506045 0.9703054 1.0818713
1.1072665 1.3499964 1.0302659 1.2459434 0.96461815 1.0582505 1.1339204 1.1944853
1.0392017 0.98547834 0.9936655 0.92814755 1.0690358 1.1885293 1.0662324 1.1508224
0.9869537 1.0012648 1.1053545 1.0895478 1.0198523 1.0844734 1.2464774 1.0224975
1.0566869 1.2561725 0.99117607 1.2736332 1.0890411 1.0291474 1.1953477 1.1642643
00000000: 43a5 773f 0308 913f f035 a93f cad2 853f
00000010: a2a8 7c3f f537 813f 0b3a 9e3f 8bc7 933f
00000020: 3f69 a53f 28d8 863f 32dd 793f 689a 793f
00000030: 8ebd 763f b8c4 8d3f ab8d 7e3f b918 693f
00000040: 7e0e 8d3f a125 a53f 18f6 673f f1c4 8c3f
00000050: a09e 893f 640f 593f 2278 833f cd11 9d3f
00000060: 865f 653f 6680 8f3f e108 9d3f 0704 973f
00000070: 8008 8c3f 357a 863f ef65 783f c27a 8a3f
00000080: e9ba 8d3f afcc ac3f c1df 833f 137b 9f3f
00000090: 37f1 763f c174 873f 4e24 913f e5e4 983f
000000a0: 9004 853f 4f48 7c3f dd60 7e3f 149b 6d3f
000000b0: 2ad6 883f ba21 983f 4e7a 883f 264e 933f
000000c0: ffa8 7c3f 7229 803f 427c 8d3f 4d76 8b3f
000000d0: 858a 823f 06d0 8a3f 928c 9f3f 33e1 823f
000000e0: 8441 873f 43ca a03f b7bd 7d3f 6a06 a33f
000000f0: b365 8b3f 1abb 833f 2701 993f 9d06 953f

_module.mlp.5.bias f4 [64]
-0.08086225 -0.045690697 -0.083349936 -0.12208279 0.15496878 0.038830023 -0.042060867 -0.016589606
0.223397 -0.023846919 -0.013251774 0.09958349 0.08578204 0.14999253 0.034936614 0.044894822
-0.020896718 0.2023022 -0.13863288 -0.024094643 -0.05883089 0.01695188 -0.006069638 0.014238559
-0.06492047 0.013978582 -0.06989359 -0.026696386 0.15087005 -0.011974085 -0.099334024 -0.1026198
0.12186868 0.014486571 0.041605182 -0.08525529 -0.039678458 0.15764828 0.0816949 -0.06936213
0.014213977 -0.16473506 -0.056550466 0.023535345 0.03993073 0.023547066 0.12700827 -0.023280522
0.17521445 -0.122186475 -0.01592063 0.032325346 0.22823101 -0.08067309 -0.06800437 -0.053032327
0.12753728 0.06869243 0.23617211 0.0025301245 -0.049668454 0.0056652427 0.032505557 0.13738045
00000000: 1b9b a5bd 2b26 3bbd 5fb3 aabd 8b06 fabd
00000010: 23b0 1e3e 3b0c 1f3d 0448 2cbd ede6 87bc
00000020: 2fc2 643e 9d5a c3bc f81d 59bc 6ef2 cb3d
00000030: 7fae af3d a497 193e b219 0f3d a2e3 373d
00000040: 982f abbc 4f28 4f3e c7f5 0dbe 2162 c5bc
00000050: a9f8 70bd abde 8a3c d0e3 c6bb d848 693c
00000060: 06f5 84bd 6c06 653c 5f24 8fbd 61b2 dabc
00000070: ae7d 1a3e f42e 44bc a36f cbbd 542a d2bd
00000080: 4996 f93d 1559 6d3c 326a 2a3d 539a aebd
00000090: e185 22bd 8d6e 213e a84f a73d bb0d 8ebd
000000a0: bee1 683c 4fb0 28be 76a1 67bd 32cd c03c
000000b0: 688e 233d c7e5 c03c 750e 023e cbb6 bebc
000000c0: 6b6b 333e e73c fabd fb6b 82bc 9567 043d
000000d0: 64b5 693e ef37 a5bd e045 8bbd 6d38 59bd
000000e0: 2299 023e 9eae 8c3d 1ad7 713e 72d0 253b
000000f0: 2671 4bbd 80a3 b93b 8c24 053d 76ad 0c3e

_module.mlp.8.weight f4 [5, 64]
0.15905304 -0.36980483 -0.36963585 -0.17703833 -0.054389644 -0.1143496 0.4366474 -0.04435499
0.39371422 0.22744842 0.1881609 -0.14248446 -0.18190242 0.13185064 -0.26844808 -0.043384198
-0.033517513 -0.6257794 0.07533358 0.16953802 -0.1272405 -0.25403798 0.23927267 -0.46246237
0.116113625 0.030574782 -0.1732559 0.37463298 0.39031726 -0.1803865 0.19423144 0.11743336
0.43246633 0.20495409 0.33817464 -0.25909063 0.16530034 -0.13157557 -0.24550429 -0.017095374
-0.06338868 -0.030182647 -0.2646339 -0.07754643 -0.019302564 -0.14172591 -0.18742467 -0.047880065
0.2152357 0.010142017 -0.079272166 -0.2751003 0.023580562 -0.16923687 0.37129217 -0.16213714
-0.2960966 0.4883873 0.1780015 0.09876311 0.15168451 -0.1777775 0.13759807 0.38913116
0.12743084 -0.026105808 -0.00095224474 -0.18806766 -0.288949 -0.12526901 -0.21846557 -0.18583806
0.0017194512 0.1026584 -0.09017774 -0.10221685 0.036655497 -0.20027845 -0.065351255 -0.0052835047
0.14933842 -0.014643583 0.008654007 -0.07307117 -0.021184096 0.0400978 0.00088736333 -0.029228298
0.06869228 0.2278466 -0.07885848 -0.019197477 -0.19414572 -0.3201533 -0.12576714 -0.023170112
0.05807231 -0.03699343 -0.08675623 0.007128256 -0.051858746 0.1777565 -0.30550227 0.11979842
0.059920505 0.043389708 -0.032966577 0.008993225 -0.35405073 0.053473737 -0.17936844 0.012986048
-0.13080285 -0.21905413 -0.21430317 0.13488248 -0.14248757 0.09555694 -0.22224736 0.15001503
-0.04164718 0.2055611 -0.16588758 0.048482157 0.03944829 -0.22111657 -0.2656308 -0.06091617
0.20828418 0.35630247 -0.21296103 0.06323663 0.23490882 0.23658651 -0.14680438 -0.12764913
-0.051210754 -0.2698505 -0.14358632 -0.14411473 0.49439803 0.21927723 0.18318665 0.122831605
0.10063351 0.3064905 0.03453917 -0.10679593 -0.052509442 -0.05724689 -0.34811902 0.28217614
-0.08557965 0.25836703 0.49813372 0.10215117 0.037425805 -0.27221537 0.051852986 0.065186776
-0.012753657 -0.2740038 -0.20541741 -0.30635422 0.08155815 -0.1352891 0.1770392 -0.065289944
0.23918924 0.09694289 -0.2427686 0.1077242 -0.15112424 0.43023282 0.080032185 -0.06685225
-0.40096378 -0.0855079 -0.06017863 -0.0650799 -0.07339671 -0.16406053 -0.12161702 0.001603643
0.035586312 -0.24677692 0.06509075 -0.28443757 0.17398459 0.19159272 -0.27957726 -0.45903537
0.05780647 -0.4838801 0.71964604 -0.098217286 -0.025859293 0.2997242 -0.03147776 -0.06413468
-0.29523376 -0.28592312 -0.10653691 0.18311 0.08612932 0.19113627 -0.25820956 -0.05078113
0.18330507 -0.051973958 0.16532582 0.054701336 -0.156675 0.4237224 0.13633414 -0.39812198
-0.050204523 -0.41828564 0.033612024 -0.05240711 -0.090439446 -0.12456439 -0.08256392 -0.10476332
-0.31932 -0.3410245 -0.22534513 -0.0231908 -0.09903091 -0.14883822 0.54574585 -0.216012
-0.13125396 -0.3887273 0.16182455 -0.08519281 0.032520868 -0.11416842 -0.09204706 -0.15846041
-0.22477908 0.19218595 -0.01744901 0.0057407436 0.23174354 0.0108258445 -0.19174577 0.09151965
-0.06159296 -0.07718126 -0.08056203 -0.09520422 -0.11265733 -0.12098905 0.40650782 -0.36284986
00000000: cdde 223e 0f57 bdbe e940 bdbe 8949 35be
00000010: adc7 5ebd 2030 eabd 3f90 df3e 94ad 35bd
00000020: e994 c93e 3de8 683e 40ad 403e 72e7 11be
00000030: a144 3abe db03 073e 0772 89be a1b3 31bd
00000040: a949 09bd 1433 20bf 7e48 9a3d 609b 2d3e
00000050: 554b 02be 4411 82be e503 753e dec7 ecbe
00000060: fbcc ed3d f777 fa3c ff69 31be e5cf bf3e
00000070: aad7 c73e 3db7 38be 9be4 463e e780 f03d
00000080: 3a6c dd3e 7cdf 513e 3a25 ad3e 87a7 84be
00000090: 7e44 293e bfbb 06be 7a65 7bbe 990b 8cbc
000000a0: edd1 81bd 9941 f7bc 187e 87be aad0 9ebd
000000b0: 6920 9ebc 9920 11be 41ec 3fbe e31d 44bd
000000c0: bf66 5c3e b42a 263c 7259 a2bd f2d9 8cbe
000000d0: 062c c13c 6e4c 2dbe 021a be3e 4707 26be
000000e0: f999 97be e60d fa3e 0646 363e 5044 ca3d
000000f0: 2f53 1b3e 4e0b 36be 82e6 0c3e 333c c73e
00000100: 3b7d 023e d9db d5bc 10a0 79ba cf94 40be
00000110: 20f1 93be 8546 00be 70b5 5fbe 554c 3ebe
00000120: 355f e13a 913e d23d 1baf b8bd 1157 d1bd
00000130: 1324 163d cb15 4dbe e1d6 85bd 4021 adbb
00000140: 2cec 183e a4eb 6fbc 89c9 0d3c 56a6 95bd
00000150: 458a adbc 973d 243d f29d 683a 2f70 efbc
00000160: 8aae 8c3d 9e50 693e 8e80 a1bd 0744 9dbc
00000170: 23ce 46be 22eb a3be 1ac9 00be 3fcf bdbc
00000180: 3bdd 6d3d 6c86 17bd 40ad b1bd 2594 e93b
00000190: d669 54bd cd05 363e cb6a 9cbe e058 f53d
000001a0: 346f 753d 68b9 313d f607 07bd 5258 133c
000001b0: 2346 b5be 4707 5b3d 5cac 37be 6fc3 543c
000001c0: 2ff1 05be ba4f 60be 4a72 5bbe a21e 0a3e
000001d0: 43e8 11be 5bb3 c33d d094 63be 8a9d 193e
000001e0: 3c96 2abd 9c7e 523e 6fde 29be 3a95 463d
000001f0: 8894 213d 626c 62be c300 88be 3c83 79bd
00000200: 7348 553e 476d b63e 7512 5abe 3582 813d
00000210: f08b 703e bc43 723e e353 16be 74b6 02be
00000220: 5ec2 51bd d829 8abe 4b08 13be d092 13be
00000230: bd21 fd3e 368a 603e 4895 3b3e 238f fb3d
00000240: f118 ce3d 53ec 9c3e f278 0d3d d3b7 dabd
00000250: 2414 57bd b77b 6abd a83c b2be 6479 903e
00000260: 6244 afbd af48 843e 620b ff3e a234 d13d
00000270: cd4b 193d d05f 8bbe cc63 543d a580 853d
00000280: b7f4 50bc 3a4a 8cbe f158 52be 76da 9cbe
00000290: f607 a73d 3a89 0abe c449 353e bcb6 85bd
000002a0: 06ee 743e fe89 c63d 5598 78be 819e dc3d
000002b0: 50c0 1abe 7a47 dc3e eae7 a33d d5e9 88bd
000002c0: 204b cdbe c41e afbd de7d 76bd 9c48 85bd
000002d0: 0451 96bd 7cff 27be 5812 f9bd 5431 d23a
000002e0: f4c2 113d 17b3 7cbe 4d4e 853d cda1 91be
000002f0: 0429 323e e230 443e c024 8fbe af06 ebbe
00000300: 7ac6 6c3d 22bf f7be b93a 383f 2526 c9bd
00000310: ded6 d3bc 7375 993e d3ee 00bd 0b59 83bd
00000320: e128 97be 8464 92be 0630 dabd 3081 3b3e
00000330: 9264 b03d 3ab9 433e 0b34 84be e0ff 4fbd
00000340: 53b4 3b3e a5e2 54bd 2c4b 293e 820e 603d
00000350: 696f 20be 24f2 d83e 2d9b 0b3e a5d6 cbbe
00000360: 42a3 4dbd 8929 d6be c3ac 093d d6a8 56bd
00000370: 5138 b9bd 9d1b ffbd 4617 a9bd 278e d6bd
00000380: e97d a3be c39a aebe e0c0 66be a2fa bdbc
00000390: b8d0 cabd 0c69 18be 00b6 0b3f 4032 5dbe
000003a0: 7067 06be 4407 c7be 56b5 253e 9179 aebd
000003b0: 9a34 053d 22d1 e9bd 2b83 bcbd 7243 22be
000003c0: 7d2c 66be 65cc 443e 3af1 8ebc d91c bc3b
000003d0: 2e4e 6d3e e25e 313c 0159 44be a76e bb3d
000003e0: e648 7cbd 3511 9ebd b5fd a4bd 6efa c2bd
000003f0: e3b8 e6bd 1bc9 f7bd cb21 d03e 75c7 b9be

_module.mlp.8.bias f4 [5]
0.1669714 -0.08279568 0.0013367706 -0.009002456 0.108352184
00000000: 8dfa 2a3e c890 a9bd 9436 af3a 0a7f 13bc
00000010: c0e7 dd3d

exp_avg f4 [128, 24]
-0.00088451843 -0.003128955 -0.00024333621 0.001540636 0.0016578636 0.0012906516 -0.002607679 -0.001707312
0.0009352946 0.001298482 0.0016611918 -0.002454849 0.0010431877 0.0005199955 0.0034254012 0.0016695209
-0.003036237 -0.0017094723 -0.00033940855 -0.0011822284 0.0016457525 -0.002309577 0.00037971316 -0.0021879517
-0.0021588027 -0.0014966757 -0.00091184553 0.0007972538 -0.0015439539 -0.0010203277 -0.0015706574 -0.00085095636
0.00035693278 0.003688404 0.00014994251 -0.00032823582 -0.0020052863 0.0014212165 0.0020523071 0.00041625678
0.001144705 -0.0001983555 0.0013446512 -0.002126115 0.003604122 0.0002150206 -0.0011553585 -0.00061767333
-0.0021874048 -0.0029946773 0.00039279988 0.0027589528 -0.0034812945 0.0027798384 0.0022673705 -0.0009493117
-0.0025047117 0.002614165 0.00043279448 -0.00012862633 0.00066900597 0.00039184987 -0.00026751548 -0.0009738278
0.00064832025 -0.0015894374 0.0005053303 -6.53242e-05 0.00040112293 0.0014504286 0.00057571655 0.0004582361
-0.0015589857 -0.002238131 -0.002674574 0.0023233509 -0.0015290745 -0.0016312994 -0.00208733 0.00022172135
0.00049717206 -0.00048366192 0.0001250485 0.0001624094 -0.00010148035 -0.0016782889 0.0012983772 0.0014416366
-0.0019622515 -0.00153661 0.0019013624 -0.0044132867 -0.00029554695 0.0006788351 0.002291854 0.0019575506
0.0012031535 0.0004896674 -0.0016641327 -0.0002599755 -0.0025007888 -0.0030729405 -0.0007260421 -0.0010389374
-0.0013856664 -0.002089041 0.0021070098 -0.0018134527 0.00020844341 -0.00029537128 2.883021e-05 0.0010561137
-0.0007166599 -0.0039326823 0.00030571694 -0.002294854 0.0014785987 0.004992008 -0.0010915675 6.348057e-06
0.00026418213 0.0013411933 0.00070034026 0.00055038923 -0.002140351 0.00078777 0.004999016 0.0011243825
0.0012579769 -0.0008634023 0.0006402776 0.00060516165 0.0016323773 0.00064370764 -0.00058721425 -0.0025212101
-1.433854e-05 -0.0010019521 -0.0008687681 0.001263012 -0.0005764928 -0.0004801828 -0.00074280344 0.001815433
-0.0019795443 0.00024404596 -0.0013085402 -0.002247225 -0.002641538 -0.00092844584 -0.002944584 0.003289767
-0.00095147185 0.0032328418 0.000373456 0.0034452127 -0.0012324203 -3.860239e-05 -0.0013192566 0.002577997
0.0007054931 -0.0007075152 -0.0011357556 -0.0024026788 6.793181e-05 0.0014099865 -0.0023117058 0.002515676
0.0020816424 -0.0014160321 0.0017130788 0.00044454183 -0.00047201317 -0.0011984578 -0.0024931165 -0.0011722109
0.0027190633 0.0028585454 0.0012380058 0.0025939858 0.00039291425 0.0017500317 -0.0016552004 -0.0027406767
-0.0003775739 -0.0041774614 0.00097142934 0.004711458 -0.0005616198 0.0001783402 -0.0024680938 2.6887647e-05
0.0021060833 0.0017348931 -0.0004706138 -0.0012214422 -0.00091622426 0.0017914767 -0.00049361057 -0.000124607
0.004059738 -0.0015083178 0.0009316755 -0.0005199917 0.0008756925 0.0006435136 0.002924743 -0.00097439165
-0.001812902 0.00057807256 0.001821841 -0.0016397942 -6.411243e-05 0.002367009 -0.0030763824 0.003978244
1.5523878e-05 -0.0025490776 0.0007468998 0.00032445832 0.00040256008 -0.0015288296 0.00045836088 0.00016152937
-0.0042800074 -0.002459013 0.0019736663 0.003937557 -0.00046127714 -0.00052067713 -0.0019572617 0.0005199989
0.002918689 0.0008252801 -0.00218641 0.002206064 0.004305979 0.0004286703 -0.0025710305 -0.0013166858
0.0021671157 -0.0013882836 -0.00038091306 -0.0020847362 0.0011450701 0.0019643533 -0.0015501397 -0.00066523714
-0.0009153264 0.0012141506 0.0003218943 0.0010928785 -0.00086705346 -0.0001391442 0.00040588286 5.8433427e-05
00000000: 07df 67ba 270f 4dbb 1128 7fb9 2aef c93a
00000010: ac4c d93a 152b a93a 98e5 2abb e2c7 dfba
00000020: 8f2e 753a d331 aa3a 59bc d93a 88e1 20bb
00000030: 92bb 883a 4f50 083a b27c 603b d3d3 da3a
00000040: 9bfb 46bb 5f10 e0ba a5f2 b1b9 01f5 9aba
00000050: 4ab6 d73a 465c 17bb 3d14 c739 bd63 0fbb
00000060: b37a 0dbb 1a2c c4ba eb08 6fba ccfe 503a
00000070: 7f5e caba 84bc 85ba 84de cdba b712 5fba
00000080: b522 bb39 27b9 713b e339 1d39 1117 acb9
00000090: 1f6b 03bb 1d48 ba3a 0080 063b 0a3d da39
000000a0: ed09 963a a6fd 4fb9 023f b03a 4a56 0bbb
000000b0: 2233 6c3b 2777 6139 666f 97ba 5beb 21ba
000000c0: 905a 0fbb 5942 44bb b5f0 cd39 8ccf 343b
000000d0: 6e26 64bb f32d 363b 2a98 143b 3bdb 78ba
000000e0: 1726 24bb 6952 2b3b b1e8 e239 dedf 06b9
000000f0: 3b60 2f3a 3371 cd39 5241 8cb9 7a48 7fba
00000100: 09f4 293a ab54 d0ba 2478 043a aafe 88b8
00000110: cf4d d239 4f1c be3a afeb 163a 693f f039
00000120: e156 ccba 9bad 12bb e847 2fbb 5c43 183b
00000130: 3a6b c8ba 53d1 d5ba 96cb 08bb df7d 6839
00000140: a754 023a 0194 fdb9 731f 0339 714c 2a39
00000150: d9d1 d4b8 08fa dbba 4f2e aa3a 4cf5 bc3a
00000160: 1e99 00bb 1368 c9ba 2337 f93a 559d 90bb
00000170: a4f3 9ab9 daf3 313a ee32 163b 404a 003b
00000180: 22b3 9d3a 065d 003a 071f daba 524d 88b9
00000190: 46e4 23bb 6363 49bb dc53 3eba f42c 88ba
000001a0: 409f b5ba 4be8 08bb c215 0a3b 60b1 edba
000001b0: 9a91 5a39 10dc 9ab9 68d8 f137 4c6d 8a3a
000001c0: 3bde 3bba bbdd 80bb a248 a039 4365 16bb
000001d0: 8acd c13a 0094 a33b ed12 8fba 6501 d536
000001e0: ed81 8a39 fbca af3a 0a97 373a ff47 103a
000001f0: 2245 0cbb 5a82 4e3a c9ce a33b 0460 933a
00000200: b3e2 a43a f355 62ba 4dd8 273a b6a3 1e3a
00000210: 7ef5 d53a 7dbe 283a 48ef 19ba e33a 25bb
00000220: 8f8f 70b7 ef53 83ba 0abe 63ba a68b a53a
00000230: c71f 17ba 0bc1 fbb9 b2b8 42ba d3f3 ed3a
00000240: 3ebb 01bb 97e6 7f39 5383 abba 2e46 13bb
00000250: a71d 2dbb f262 73ba ecf9 40bb 2299 573b
00000260: 326c 79ba 16de 533b 6acc c339 14c9 613b
00000270: 2a89 a1ba 00e9 21b8 e8ea acba 9df3 283b
00000280: d7f0 383a 8b78 39ba a2dd 94ba 4376 1dbb
00000290: 9d76 8e38 4ccf b83a fd7f 17bb 0ade 243b
000002a0: 2a6c 083b 279a b9ba 6389 e03a 6511 e939
000002b0: 8978 f7b9 9215 9dba 8e63 23bb dfa4 99ba
000002c0: 5032 323b 6f56 3b3b 9544 a23a dcff 293b
000002d0: 0f00 ce39 5261 e53a 4ff3 d8ba ed9c 33bb
000002e0: 1cf5 c5b9 16e3 88bb 85a7 7e3a 9362 9a3b
000002f0: ab39 13ba d500 3b39 bebf 21bb c88c e137
00000300: 3706 0a3b 5a65 e33a b7bc f6b9 cd18 a0ba
00000310: c52e 70ba fccf ea3a a565 01ba f0a8 02b9
00000320: 8d07 853b bfb2 c5ba af3b 743a 0d50 08ba
00000330: bb8e 653a 77b1 283a 0cad 3f3b 516e 7fba
00000340: e69e edba cb89 173a d7ca ee3a 5dee d6ba
00000350: 1974 86b8 d21f 1b3b 229d 49bb ee5b 823b
00000360: 4639 8237 6d0e 27bb 99cb 433a 0f1c aa39
00000370: b30e d339 0263 c8ba 2850 f039 3660 2939
00000380: 4e3f 8cbb 6427 21bb a058 013b 9f06 813b
00000390: 92d7 f1b9 0d7e 08ba 6745 00bb 8950 083a
000003a0: 7a47 3f3b 9c57 583a df49 0fbb 9d93 103b
000003b0: 2b19 8d3b 27bf e039 bc7e 28bb a594 acba
000003c0: 2b06 0e3b 11f7 b5ba 49b5 c7b9 12a0 08bb
000003d0: 2d16 963a 61bc 003b 0f2e cbba 4f63 2eba
000003e0: 84f2 6fba 2224 9f3a ecc3 a839 eb3e 8f3a
000003f0: f94a 63ba 3de7 11b9 adcc d439 6a16 7538

exp_avg_sq f4 [128, 24]
6.0508602e-05 6.211108e-05 6.405339e-05 6.0050592e-05 5.9983035e-05 6.443854e-05 6.308194e-05 6.205132e-05
6.1733226e-05 6.29902e-05 5.7508412e-05 6.491661e-05 6.211535e-05 6.342575e-05 6.27503e-05 6.217537e-05
6.2794315e-05 6.006675e-05 6.5475964e-05 6.108232e-05 6.211813e-05 6.390235e-05 6.222004e-05 5.9972084e-05
6.0616898e-05 6.0002752e-05 6.106805e-05 6.437962e-05 6.004481e-05 6.381016e-05 6.336447e-05 6.605752e-05
6.18195e-05 6.477405e-05 6.2451e-05 6.0268034e-05 6.0616705e-05 6.4372885e-05 6.1067134e-05 6.179638e-05
6.397536e-05 6.13188e-05 6.480306e-05 6.63193e-05 6.428099e-05 5.953681e-05 6.0582974e-05 5.8927857e-05
6.483686e-05 6.0463146e-05 6.271739e-05 5.9296784e-05 6.000122e-05 6.109278e-05 6.0143942e-05 6.2081344e-05
6.204104e-05 5.9498438e-05 5.860535e-05 6.0092643e-05 6.2097424e-05 6.531175e-05 6.469409e-05 6.264491e-05
6.1928076e-05 5.942505e-05 6.40867e-05 6.4302905e-05 6.404393e-05 6.318778e-05 6.151874e-05 6.137746e-05
6.294253e-05 6.447234e-05 6.481964e-05 6.595373e-05 6.1009152e-05 6.270799e-05 6.236593e-05 6.276519e-05
5.7057267e-05 6.166083e-05 6.210542e-05 6.3795655e-05 6.273329e-05 6.33672e-05 5.9510487e-05 6.084421e-05
6.37381e-05 6.318926e-05 6.3711195e-05 6.327017e-05 6.296635e-05 6.59152e-05 6.219961e-05 6.272102e-05
5.8620983e-05 6.2728184e-05 6.2344814e-05 5.9641872e-05 6.400671e-05 6.297014e-05 6.2223065e-05 6.3573665e-05
6.0144666e-05 6.0227747e-05 6.2596e-05 5.9152557e-05 6.0240553e-05 5.955198e-05 5.9062397e-05 6.212782e-05
6.144599e-05 5.9349735e-05 6.161306e-05 5.8235033e-05 6.226554e-05 5.970027e-05 6.169361e-05 6.3186526e-05
6.13098e-05 6.2995525e-05 6.019465e-05 5.8584108e-05 6.0425737e-05 6.1943116e-05 6.222122e-05 6.2292616e-05
6.3103325e-05 6.2628904e-05 6.33834e-05 6.0786824e-05 6.217586e-05 5.96735e-05 6.187706e-05 6.2931125e-05
6.453111e-05 6.1215724e-05 6.7699344e-05 6.2805615e-05 6.029721e-05 6.1829676e-05 5.9443086e-05 6.1600964e-05
6.0870894e-05 6.0657556e-05 6.1597944e-05 6.3321604e-05 6.1575294e-05 6.078369e-05 6.0454946e-05 6.483095e-05
5.861346e-05 6.23342e-05 6.229154e-05 6.0556886e-05 6.1813014e-05 6.372807e-05 6.293716e-05 5.9782535e-05
6.626765e-05 5.9887298e-05 6.3712214e-05 6.418601e-05 5.9312213e-05 6.192253e-05 6.38052e-05 6.511698e-05
6.433913e-05 5.9962e-05 6.0342823e-05 6.2685926e-05 5.9870003e-05 6.1960265e-05 6.162626e-05 6.248742e-05
6.204567e-05 6.212559e-05 6.5928674e-05 6.127955e-05 6.1129445e-05 5.851381e-05 6.3377745e-05 6.185429e-05
6.375189e-05 6.23562e-05 6.111745e-05 6.2497325e-05 6.1701605e-05 6.144311e-05 6.085731e-05 6.0423026e-05
5.9768467e-05 6.198007e-05 6.438411e-05 5.9935734e-05 6.373405e-05 6.38519e-05 5.6608114e-05 6.1822895e-05
6.1483166e-05 6.1623454e-05 6.210542e-05 6.347541e-05 6.201034e-05 6.1513165e-05 6.028737e-05 6.1535095e-05
6.686121e-05 6.330158e-05 6.649644e-05 6.466566e-05 6.364739e-05 6.294891e-05 6.293364e-05 6.177502e-05
6.277732e-05 6.273081e-05 5.9758197e-05 5.9787188e-05 6.270532e-05 6.0707705e-05 6.148152e-05 6.176979e-05
6.213037e-05 5.8306792e-05 6.0632632e-05 6.046874e-05 6.566732e-05 6.29041e-05 5.9561655e-05 6.18456e-05
6.224074e-05 6.092455e-05 6.412484e-05 6.411895e-05 6.138252e-05 5.9710197e-05 6.042842e-05 6.2090236e-05
5.9796897e-05 6.228407e-05 6.302997e-05 6.648168e-05 6.27876e-05 6.3326166e-05 6.202103e-05 6.0907652e-05
6.1062616e-05 6.0435934e-05 6.221318e-05 6.0288916e-05 5.9793383e-05 6.347339e-05 6.6243e-05 6.086344e-05
00000000: 9eca 7d38 a241 8238 6754 8638 d5de 7b38
00000010: 4b96 7b38 2e23 8738 dc4a 8438 8c21 8238
00000020: c676 8138 9b19 8438 3035 7138 d723 8838
00000030: ed43 8238 7103 8538 d098 8338 2664 8238
00000040: 71b0 8338 2ff0 7b38 2450 8938 5219 8038
00000050: 6b45 8238 5003 8638 217c 8238 898a 7b38
00000060: e63e 7e38 77ab 7b38 a911 8038 8c03 8738
00000070: a0d8 7b38 d2d1 8538 8ae2 8438 5c88 8a38
00000080: 17a5 8138 4ed7 8738 20f8 8238 4fc8 7c38
00000090: b13e 7e38 eeff 8638 2b11 8038 ae98 8138
000000a0: 832a 8638 4898 8038 e1e6 8738 e714 8b38
000000b0: 98ce 8638 2ab7 7938 791a 7e38 4e29 7738
000000c0: 06f9 8738 cf99 7d38 2487 8338 70b5 7838
000000d0: d2a9 7b38 f01e 8038 1143 7c38 ab31 8238
000000e0: 081c 8238 f68d 7938 04cf 7538 fc0b 7c38
000000f0: 4d3a 8238 fbf7 8838 60ac 8738 3b60 8338
00000100: 62df 8138 293f 7938 4966 8638 5cda 8638
00000110: 534f 8638 ae83 8438 9f03 8138 c6b7 8038
00000120: 0300 8438 5335 8738 c7ef 8738 a450 8a38
00000130: 14e4 7f38 1982 8338 74ca 8238 cea0 8338
00000140: c650 6f38 e84f 8138 983e 8238 08ca 8538
00000150: ae8f 8338 02e4 8438 e69a 7938 f932 7f38
00000160: 22ab 8538 7a84 8438 b09c 8538 eaaf 8438
00000170: cd0c 8438 f43b 8a38 2971 8238 1789 8338
00000180: cddf 7538 f08c 8338 1ebf 8238 f927 7a38
00000190: 573b 8638 d60e 8438 c17d 8238 da52 8538
000001a0: d843 7c38 0d9d 7c38 f945 8338 931a 7838
000001b0: cdaa 7c38 74c7 7938 c4b9 7738 9f4a 8238
000001c0: 91dc 8038 4bee 7838 4236 8138 6441 7438
000001d0: 8f94 8238 ad66 7a38 8161 8138 0283 8438
000001e0: 7393 8038 771c 8438 8379 7c38 35b8 7538
000001f0: a471 7d38 75e7 8138 c37c 8238 18a3 8238
00000200: 5756 8438 a357 8338 b4ec 8438 5bf5 7e38
00000210: 6964 8238 ef49 7a38 fec3 8138 e4f9 8338
00000220: e054 8738 f160 8038 cff9 8d38 82b6 8338
00000230: a3e7 7c38 8eaa 8138 8752 7938 c42f 8138
00000240: a04f 7f38 8e6a 7e38 252e 8138 87cb 8438
00000250: fc21 8138 fdf1 7e38 0191 7d38 daf5 8738
00000260: b9d7 7538 6bb9 8238 84a2 8238 76fe 7d38
00000270: 9ca1 8138 bfa5 8538 21fd 8338 02bf 7a38
00000280: 2cf9 8a38 7f2f 7b38 3c9d 8538 9a9b 8638
00000290: 01c6 7838 68dc 8138 28cf 8538 6a8f 8838
000002a0: cfed 8638 b57f 7b38 9d18 7d38 4076 8338
000002b0: ed1c 7b38 aaf0 8138 593d 8138 ae0b 8338
000002c0: 841e 8238 6c49 8238 3043 8a38 3583 8038
000002d0: 9f32 8038 ba6c 7538 abe9 8438 c5b7 8138
000002e0: 89b2 8538 3bc5 8238 2e2c 8038 ff10 8338
000002f0: cc65 8138 05db 8038 0a41 7f38 bb6e 7d38
00000300: e7af 7a38 4cfb 8138 f505 8738 8163 7b38
00000310: f5a8 8538 3ae8 8538 806e 6d38 eaa6 8138
00000320: 86f0 8038 d73b 8138 983e 8238 1a1e 8538
00000330: 8c0b 8238 a100 8138 12dd 7c38 670c 8138
00000340: d737 8c38 c7c0 8438 0174 8b38 1d9d 8738
00000350: 6f7a 8538 7003 8438 3efb 8338 368d 8138
00000360: 51a7 8338 598e 8338 e0a4 7a38 01c4 7a38
00000370: aa80 8338 67a0 7e38 a4ef 8038 678a 8138
00000380: fd4b 8238 718e 7438 cb4f 7e38 d19f 7d38
00000390: e0b6 8938 62eb 8338 d7d1 7938 1bb3 8138
000003a0: 3e87 8238 3d89 7f38 c37a 8638 9977 8638
000003b0: 7dba 8038 5671 7a38 8674 7d38 7136 8238
000003c0: 6ece 7a38 819e 8238 f52e 8438 156c 8b38
000003d0: d6ac 8338 facd 8438 4911 8238 1877 7f38
000003e0: be0e 8038 977c 7d38 7278 8238 bbde 7c38
000003f0: a8ca 7a38 041d 8538 f1eb 8a38 9f47 7f38

exp_avg f4 [128]
0.0019175448 0.0037742655 -0.00036741677 0.0012925891 -0.00022511084 -0.00017288166 -0.00255563 0.0014546397
0.00028336805 0.001675146 4.3497294e-05 0.00088965334 -0.0018707957 -0.00028224068 -0.0005434244 0.001122247
0.0031268962 0.00023862929 3.6897636e-05 -5.1976473e-05 -0.00041862408 0.0025982133 0.00032510556 -0.0011130633
0.0019408807 -0.0005582234 0.0005272148 -0.0012944994 0.00018795225 0.0017226158 0.0010870949 0.0040146704
0.0017381473 -0.0016566846 -0.002156363 -0.00153063 -0.0013365947 -3.8068425e-05 -0.0010005961 0.0021138303
0.002073499 0.0013369473 -0.0012954627 -9.3874216e-05 -0.0007031917 0.0011194206 -0.0026937977 0.0026196744
0.0009239748 0.0018593101 0.0025714594 0.00089133694 -0.001188517 -0.0003418057 0.0012297542 -0.0024368183
0.0013495636 -0.0003712097 0.0007501065 -0.003570945 0.0021115518 -0.0028702978 -0.0017626163 0.0019427033
-0.002102019 -0.0013883095 0.0025368833 -0.0002622961 -0.002534215 0.0003452792 0.0017053499 0.0003263644
0.0023114842 -0.0012489912 -9.621134e-05 -0.00066672225 -0.0012381014 -0.0044337255 -0.0017018048 0.0006144403
-8.91066e-05 -0.00023595852 -0.0018530749 -0.0018601541 -0.0002793624 0.0012595138 -3.5224275e-05 0.0027200314
-0.002718069 0.00019142976 -0.0015819074 0.00012826861 0.002506836 -0.0012489761 -0.0021696812 -4.658333e-05
0.0005184001 -0.0008839974 -0.00039447471 0.0037859187 0.0004349936 0.00071243214 0.0020139343 0.0034536344
0.0026767286 -9.015017e-05 0.002424147 -0.0006811194 0.0024831938 -0.0014137396 -0.00044617217 0.0002978651
0.00069101737 -0.00045183516 -0.001940129 -0.00023519942 0.0032106277 0.002515095 -0.00078635203 -0.0035534657
0.0008726158 -0.0011877238 -0.0024607067 0.0012415549 0.0030374639 -0.00048285702 0.001330089 0.00023477344
00000000: 2056 fb3a ab59 773b d8a1 c0b9 186c a93a
00000010: bb0b 6cb9 9147 35b9 5b7c 27bb 9ca9 be3a
00000020: 0491 9439 9390 db3a dd70 3638 a037 693a
00000030: 7d35 f5ba b4f9 93b9 9874 0eba 5c18 933a
00000040: 9dec 4c3b 9038 7a39 89c2 1a38 5001 5ab8
00000050: c67a dbb9 c946 2a3b ee72 aa39 35e4 91ba
00000060: 2665 fe3a bd55 12ba c934 0a3a 31ac a9ba
00000070: 0c15 4539 65c9 e13a da7c 8e3a 7f8d 833b
00000080: 8cd2 e33a 1c25 d9ba c551 0dbb 6c9f c8ba
00000090: ad30 afba a9ab 1fb8 6f26 83ba 3088 0a3b
000000a0: 8ae3 073b 823c af3a 84cc a9ba 56de c4b8
000000b0: 6556 38ba 86b9 923a 6d8a 30bb d8ae 2b3b
000000c0: e636 723a 18b4 f33a ee85 283b 9ca8 693a
000000d0: 03c8 9bba 6234 b3b9 b42f a13a 07b3 1fbb
000000e0: d7e3 b03a ec9e c2b9 cca2 443a 8406 6abb
000000f0: f661 0a3b 9b1b 3cbb 9707 e7ba 4ea2 fe3a
00000100: 07c2 09bb f0f7 b5ba d741 263b c984 89b9
00000110: 1315 26bb 9706 b539 0c86 df3a e31b ab39
00000120: 457c 173b 31b5 a3ba 12c5 c9b8 f9c6 2eba
00000130: ca47 a2ba c948 91bb 180f dfba 6412 213a
00000140: bede bab8 a26b 77b9 e0e2 f2ba 6ad0 f3ba
00000150: 6377 92b9 4516 a53a c7bd 13b8 8e42 323b
00000160: a121 32bb 89ba 4839 0158 cfba d87f 0639
00000170: bb49 243b afb4 a3ba 3631 0ebb 7862 43b8
00000180: 3ee5 073a 10bc 67ba 80d1 ceb9 2d1d 783b
00000190: da0f e439 83c2 3a3a 36fc 033b 5f56 623b
000001a0: 0e6c 2f3b 010f bdb8 70de 1e3b 268d 32ba
000001b0: 14bd 223b 3b4d b9ba 37ec e9b9 c72a 9c39
000001c0: 6425 353a 4ae4 ecb9 ed4b feba dd9f 76b9
000001d0: 6569 523b 4bd4 243b 3123 4eba 43e1 68bb
000001e0: 41c0 643a 66ad 9bba cf43 21bb abbb a23a
000001f0: 3010 473b f927 fdb9 6256 ae3a 842d 7639
