results/dp/wesad/seed_456/best_model.pth (torch, 335541 bytes, 30 tensors)

_module.mlp.0.weight f4 [128, 140]
000000 45 df f0 3c 7e 81 c3 bd 6e 95 0b 3d 28 f1 2e 3d
       0.029403338 -0.09546183 0.034078054 0.042710453
000010 99 0d 2f 3b 3a 13 2b 3d e9 75 9e 3d 48 d6 9e bd
       0.0026710986 0.041766383 0.07737333 -0.07755715
000020 97 90 73 bd f6 49 0c ba dd 6d 8c 3c 02 32 8b 3d
       -0.059464063 -0.0005351597 0.01714223 0.067966476
000030 f5 d6 10 3d 9f 36 a1 bd ab ad fc bc 6e 5c 0e bd
       0.03536125 -0.07871746 -0.03084453 -0.034756117
000040 aa 93 b7 bc 30 fa a1 bd ea 96 67 bc 70 6f 0c 3c
       -0.022409279 -0.079090476 -0.014135102 0.008571491
000050 75 94 ee bb a2 55 4a 3d 53 df 9f 3c e5 c3 fe bc
       -0.007280881 0.049398072 0.019515669 -0.03109927
000060 67 3c ab bc 56 b6 77 bc aa 13 e2 bb 7f 0f 6c bb
       -0.020902826 -0.015119156 -0.006899317 -0.0036019979
000070 7a 92 4f 3d 8d 10 b4 bd 67 69 89 bd 9a 3d 1e 3d
       0.0506768 -0.08792219 -0.06709557 0.038632967
000080 d4 b2 89 3d 15 9d 03 3d be 7e 09 bd ad c0 b7 3c
       0.06723562 0.032132227 -0.033568136 0.022430742
000090 79 5c 77 bd cc d4 11 3d ca 8d 4c bd 2d 61 e2 3c
       -0.060390923 0.03560333 -0.049939908 0.027634228
0000a0 19 37 fc bc 8b 48 6c bd a2 cc 34 bd 12 ff 98 3d
       -0.030787991 -0.05768637 -0.044140466 0.07470526
0000b0 c5 16 93 bd 75 4d 3d 3b a9 40 78 bd be 5b a6 3d
       -0.07182077 0.002888528 -0.06060854 0.08122967
0000c0 25 52 62 bd 11 83 9d 3d ed 3f c4 bc 52 47 9a bc
       -0.05525412 0.076910146 -0.023956263 -0.018832836
0000d0 69 ae 8f 3d 6b 5c 6a 3d 60 71 99 bb 08 5d 0a bd
       0.07015688 0.057217043 -0.004682705 -0.033780128
0000e0 02 d4 52 bd 99 9a 3e bd 88 67 4f bc 38 81 7a bb
       -0.051471718 -0.046534155 -0.012658961 -0.0038223993
0000f0 73 ec ab 3c 29 3e c4 3d 5a 49 7a bd 66 d4 f1 bc
       0.020986771 0.095821686 -0.06110511 -0.029520225
000100 9a 58 26 3d 4c 6d 8f bd d8 18 b9 3c 02 87 87 bb
       0.04061184 -0.070032686 0.022594854 -0.004135967
000110 64 e5 53 bd 47 ea 83 bd 9f 96 9c 3d 44 fe 8b bc
       -0.051732436 -0.06441169 0.07645916 -0.017089017
000120 53 43 4f 3d 29 f8 4b bd 5e a2 00 3c 25 30 64 bd
       0.050601315 -0.04979721 0.007851211 -0.055709977
000130 95 40 99 bd e8 66 0f bd 0a e0 3b 3d 26 de a5 3d
       -0.07483021 -0.03501025 0.045867957 0.08099012
000140 d8 87 72 3c da 78 74 bd b5 16 66 bd 68 61 99 3d
       0.0148028955 -0.059685566 -0.056174 0.07489282
000150 6a 69 0e bd 4d 1f 63 bd e1 82 58 bc 38 1b 25 bd
       -0.0347685 -0.055449773 -0.013214798 -0.04030916
000160 a7 25 dc 3c f0 0b 1e bb 08 64 93 bd ca 13 66 bd
       0.026873423 -0.0024116002 -0.07196814 -0.056171216
000170 35 bb 88 3d 8f e9 a1 3d 7c 4f c3 bc 96 23 9a bc
       0.06676332 0.07905876 -0.023841612 -0.018815797
000180 ed 82 82 3d 25 12 b1 bd f5 21 dd 3c e9 c8 59 3c
       0.06372628 -0.08646039 0.026993731 0.01329253
000190 11 f7 5f 3d 13 5d b1 3d 55 39 9e 3d ac 94 72 3d
       0.05467898 0.086603306 0.07725779 0.059223816
0001a0 de 05 3c 3d 9c fe 78 bd 92 c4 3f 3d e9 b7 dd 3c
       0.045904033 -0.06078969 0.046818323 0.027065234
0001b0 e6 c8 1d 3d 63 4a 51 bc 5f 04 0b bc 6d 65 54 bd
       0.03852167 -0.012774083 -0.008484929 -0.05185454
0001c0 44 f3 8a bc d1 52 8b bc c5 8e ad 3a 4d 67 21 3d
       -0.016961701 -0.017007263 0.0013241401 0.039405156
0001d0 34 dc 3e 3d 85 12 49 3c 39 4e 1e bc 15 04 e3 3c
       0.04659672 0.012272482 -0.009662204 0.027711907
0001e0 a6 0d b4 bc 56 63 09 bd d1 0c 34 bd ef 5c 8a 3b
       -0.021979164 -0.033542 -0.043957535 0.0042225043
0001f0 2a 73 87 3d 3a c2 93 bd 79 3e 2e 3d d9 20 20 bb
       0.06613763 -0.0721478 0.042540047 -0.0024433641
000200 4b 03 2a 3d 91 46 87 bd 0c d3 72 bd f8 ab 84 bd
       0.041507047 -0.06605256 -0.0592833 -0.06478113
000210 a0 31 20 bb e7 02 ec bc 94 0a 47 bc 34 8b 98 3d
       -0.0024443641 -0.028809978 -0.012148518 0.07448426
000220 98 2a eb 3a bc cb 03 bc a3 fc 40 bc 66 00 62 3d
       0.0017941771 -0.0080441795 -0.011778983 0.05517616
000230 6d 48 b4 3d e6 d1 3d 3c cd e3 f8 ba 6f e4 88 3a
       0.088028766 0.011585688 -0.0018988788 0.0010444055
000240 bb 80 21 bc 0c 9a 80 3d 5b 58 b5 3c eb 96 28 bd
       -0.009857352 0.06279382 0.022136858 -0.04115955
000250 c1 6c 25 3d 3d be 01 3c c5 42 8e bd bf 28 02 bd
       0.04038692 0.0079188915 -0.06946329 -0.03177714
000260 2f 2d a8 3c c1 89 52 3d e4 78 9f bc 04 26 0e bd
       0.020529358 0.051400904 -0.019466825 -0.034704223
000270 9c b2 8a 3d 66 c5 de bc 06 6a 86 bd 4b b5 32 bb
       0.06772348 -0.027193736 -0.06563191 -0.0027268704
000280 a9 ab 51 3d 07 21 d3 bc 90 5c 67 3d bf 79 a3 bd
       0.0511891 -0.025772585 0.05648476 -0.079822056
000290 05 80 b3 3d 5a 4c 9b bd 5d a2 42 3d 6d 25 55 3d
       0.08764652 -0.07582922 0.047518123 0.052037645
0002a0 9c f9 00 bd 7b f7 57 bd 2b 5f 76 3c 47 83 48 3d
       -0.031488046 -0.05272625 0.015037338 0.04895332
0002b0 d9 89 90 3c ab e5 8f bc 36 8b e8 3b 96 de 0c bc
       0.017643856 -0.017565569 0.0070966734 -0.0085979905
0002c0 5f 57 f9 3c cc aa 23 bc 99 14 33 bd 48 aa 98 bc
       0.03043717 -0.009989452 -0.043720815 -0.018635884
0002d0 db f4 5d 3d bc 94 a6 bd 5b 67 4b 3d 93 a5 b6 bc
       0.05418859 -0.081338376 0.049659114 -0.022295749
0002e0 4f b7 96 3d c7 3f 36 bc 3d c5 80 3d 17 ac 89 3c
       0.07359182 -0.011123604 0.0628762 0.016805692
0002f0 67 a3 38 bd b9 a5 0f 3d a6 18 6e bd 7c af 1b bd
       -0.045077708 0.035070155 -0.058128975 -0.03800915
000300 c2 32 20 bd b4 f6 97 bd b1 c3 a9 bb 9e 2c fd 3c
       -0.039110906 -0.07420102 -0.005180799 0.030905064
000310 e9 7d 05 bd 8f c0 69 3d 80 d6 89 3d c1 26 fb bc
       -0.03259078 0.057068404 0.06730366 -0.030658128
000320 3a 04 a2 bd 6e eb f4 3c 60 31 88 bd f4 2a 71 bd
       -0.079109624 0.029897418 -0.066500425 -0.058878854
000330 1e 14 98 3b 84 f6 88 bc 3b 66 dc bc 65 fb dd 3b
       0.00464107 -0.01671911 -0.026904216 0.0067743533
000340 60 75 83 3d 5f 88 7e 3d 0b 31 84 3d b9 01 a5 bb
       0.06418872 0.062141772 0.06454667 -0.0050356057
000350 89 71 dc 3c 93 7b f9 bc 15 66 2c bd da 57 49 3d
       0.026909607 -0.030454433 -0.04208954 0.049156047
000360 99 bf 2e 3d 3b 34 c9 3b 60 9e d4 3c 97 59 ba 3d
       0.04266319 0.0061402596 0.025954425 0.09099119
000370 49 ee 56 bd cc fc e1 3c 44 b7 94 bd 83 ff 7f 3d
       -0.05247334 0.027586363 -0.07261518 0.062499534
000380 31 46 c7 bd 40 a0 9b 3d 68 2d 30 3d 56 35 55 bd
       -0.09730185 0.07598925 0.043012053 -0.05205282
000390 8d e4 02 3b b2 8b 30 3d 0d 9b 67 bd eb ff 78 bd
       0.0019972653 0.043101974 -0.056544352 -0.060790937
0003a0 44 f2 08 bc 4d 44 7e 3d 09 91 86 bd c5 fd 5e bb
       -0.008358542 0.062076855 -0.06570632 -0.003402577
0003b0 85 3a 98 bd 09 02 7e 3d 28 5a ad 3d 32 05 dd 3c
       -0.07433037 0.06201366 0.084644616 0.026980016
0003c0 a3 46 2e bd 64 d4 0e bd 94 2c a7 bc 21 a0 12 bc
       -0.042547833 -0.03487052 -0.020406999 -0.0089493105
0003d0 75 b1 86 3d 70 81 19 3d 9d fd a7 bd 95 39 dc bc
       0.06576816 0.037476957 -0.0820267 -0.026882926
0003e0 1b ca bd 3d 24 a9 a6 bb 36 45 38 bd 64 0c 1b bd
       0.09267064 -0.005086081 -0.04498788 -0.037853613
0003f0 27 5d 53 3d 7f 95 ae 3d 7c fe f3 bc db 7c 9f bc
       0.05160251 0.08524608 -0.029784434 -0.019468715

_module.mlp.0.bias f4 [128]
000000 93 48 74 bd b9 25 0f 3d f7 02 47 bc b0 0d a4 3b
       -0.059639525 0.034948085 -0.012146703 0.0050065145
000010 10 60 f3 3c 80 c7 bd bc f0 c8 7f bd 12 94 84 bd
       0.029708892 -0.023166418 -0.06244749 -0.06473555
000020 bb 0c 46 bd 48 d5 5d 3d f2 1b a6 bc 10 2c 9b bc
       -0.048351984 0.05415848 -0.020276997 -0.01894191
000030 e3 41 7e 3d 24 8e 9e bd 64 da 03 3b 14 e8 b0 bd
       0.062074553 -0.07741955 0.0020119185 -0.086380154
000040 53 63 c4 3c 3a 9b 04 3b 14 7c 84 bc 0c 23 2a bc
       0.023973143 0.0020234124 -0.016172446 -0.010384332
000050 15 1e 37 bd 04 93 25 bd 2f 0f 04 3c d4 31 1f bd
       -0.044706423 -0.04042341 0.008060261 -0.03886588
000060 22 ee 8f bd 30 ad 2b bc dc 25 83 3d e1 a1 52 3d
       -0.07027842 -0.010478303 0.064037055 0.05142391
000070 1d 7b 4f bd 4a f7 a5 3d 62 b6 84 bd 26 c0 08 bd
       -0.05065452 0.08103807 -0.06480099 -0.033386372
000080 07 20 14 3d 79 e8 a2 bd 98 8d 10 bd 15 d1 91 bd
       0.036163356 -0.07954497 -0.035291284 -0.07119957
000090 dd c6 45 bd df e2 8b 3d 4a 91 c8 3b 27 1c f5 3c
       -0.048285354 0.068303816 0.0061208354 0.02992065
0000a0 e4 35 b9 3c d2 29 94 3d b9 62 7f 3b 6d f5 21 3d
       0.022608705 0.07234539 0.0038968755 0.039540697
0000b0 f9 a3 2e 3d 18 44 ba 3b 7f 90 70 bd 6b 23 10 bd
       0.042636845 0.005684387 -0.058731552 -0.035190027
0000c0 d0 54 0e 39 1f f0 c7 3a b8 1b 35 bd 40 6b 60 bd
       0.0001357377 0.0015254057 -0.044215888 -0.05478978
0000d0 9b 4e 64 3b 6f 1f 5a bd 2b d3 b2 3c 0f 59 85 bb
       0.0034836892 -0.053252634 0.021829208 -0.0040694545
0000e0 1b d8 8b bd e7 e8 8d bd 02 fc 10 bd 39 8e 4d 3d
       -0.06828328 -0.06929188 -0.035396583 0.050184462
0000f0 49 c5 1f bd 61 f4 99 3c 2e 86 ce bc 78 8c 56 bd
       -0.039006505 0.018793287 -0.025210466 -0.052380055
000100 2f e7 6c 3d 05 20 95 3d 75 c4 57 bc b2 06 26 3b
       0.05783766 0.07281498 -0.013169398 0.002533358
000110 6a fe 9b bc cb 6d e9 bc 89 7b 15 3d fb 2d e4 bc
       -0.019042213 -0.028494736 0.036494765 -0.027853956
000120 1a 97 54 3d 0a b1 6f bd c8 68 21 3d 37 f8 13 3d
       0.051901914 -0.058518447 0.039406568 0.036125388
000130 16 94 bd 3d 6f fa f5 3c 2e b7 bc 3c 2d 2f 41 bd
       0.09256761 0.030026643 0.023036566 -0.04716413
000140 93 a0 27 bd 0e 5e f2 3b 57 bf 3b bd 4f a2 b8 bc
       -0.04092462 0.007396466 -0.045836773 -0.022538332
000150 b8 da 2c 3d 0a 4d 78 bd 5a 3a 9a bc a5 03 af 3d
       0.042200774 -0.060620345 -0.018826652 0.08545617
000160 64 4e 23 bc 96 e5 ae 3d f8 4c 69 3d 4b 65 3d 3d
       -0.00996742 0.08539884 0.05695817 0.04623918
000170 c9 b2 b9 3c 5b 62 3d bc fc 8d 80 bd a3 e9 b4 bd
       0.02266826 -0.011559094 -0.06277081 -0.08833625
000180 e5 06 d6 3c 0b 46 2e 3d 38 e0 20 bd c3 ed aa 3d
       0.026126334 0.042547267 -0.03927633 0.08346131
000190 dc 86 f8 bc d2 77 4a 3d 8b 2f 96 bd 2f c2 21 bd
       -0.030337743 0.049430676 -0.07333287 -0.03949183
0001a0 c3 7b 81 3d f7 bb 89 3d 99 7a 9d 3b a4 85 98 bd
       0.06322434 0.067253046 0.0048058745 -0.07447365
0001b0 03 76 b7 3c af 1f 36 bd ef 2f 1e 3d 08 4e 44 bd
       0.02239514 -0.04446381 0.03861993 -0.04792598
0001c0 42 a0 b9 3c 4a 72 06 bd 5e 4a 30 3d 72 ea c7 3c
       0.022659425 -0.03282384 0.043039672 0.024403784
0001d0 19 4f 7d 3c 9b ab 39 3d 84 bf 5c bd 1b bd f0 3c
       0.015460753 0.04532967 -0.05389358 0.029387048
0001e0 ee 35 78 bc e0 7c d3 3c 5e 1d 84 bc 28 7b 80 bd
       -0.015149577 0.025816381 -0.016127285 -0.0627349
0001f0 25 5c 50 3d 02 40 09 bd db 52 53 bd 41 25 95 3c
       0.050869126 -0.03350831 -0.05159269 0.01820624

_module.mlp.1.weight f4 [128]
000000 84 b0 80 3f 97 6d 82 3f dd 81 7f 3f 56 78 7b 3f
       1.0053868 1.0189694 0.9980753 0.98230493
000010 e5 9b 80 3f 97 b0 80 3f 6d 52 7c 3f 1a c6 7d 3f
       1.0047575 1.0053891 0.9856327 0.99130404
000020 0d bb 7f 3f 6d 86 7d 3f b2 34 81 3f 3b 5b 7f 3f
       0.9989479 0.9903324 1.0094206 0.9974858
000030 3d 86 7d 3f 12 0f 7d 3f 47 c3 7c 3f bf 24 7d 3f
       0.99032956 0.9885112 0.9873547 0.98884195
000040 ab 33 7d 3f e5 32 7d 3f 0b 98 7b 3f 3c 0a 7e 3f
       0.98906964 0.98905784 0.98278874 0.99234366
000050 58 6b 7c 3f 83 f1 7d 3f b7 9c 7e 3f ae c7 80 3f
       0.98601294 0.9919664 0.9945788 1.0060937
000060 0c 14 80 3f 47 bb 80 3f 4a 13 81 3f 03 26 7d 3f
       1.0006118 1.0057153 1.0084012 0.98886126
000070 8f 11 81 3f 81 a1 80 3f 05 aa 79 3f af 90 7e 3f
       1.0083483 1.0049287 0.97525054 0.9943952
000080 bd 5e 82 3f b6 57 80 3f bc e8 7e 3f 18 0b 7c 3f
       1.0185162 1.0026767 0.99573874 0.9845443
000090 fa fb 7f 3f d8 52 80 3f 2a 5e 7f 3f a7 4e 80 3f
       0.9999386 1.0025282 0.9975306 1.0024003
0000a0 43 27 80 3f 68 66 81 3f 3e 60 7e 3f 57 b9 80 3f
       1.0011982 1.0109377 0.99365604 1.0056561
0000b0 8f 19 7e 3f c1 11 81 3f 68 14 7e 3f 2d a9 81 3f
       0.9925775 1.0083543 0.9924989 1.0129753
0000c0 6d 16 80 3f 7c 09 7f 3f 8f a5 7f 3f bb 04 80 3f
       1.0006844 0.99623847 0.99862 1.0001444
0000d0 6c 97 80 3f 34 1b 7f 3f bc 3c 81 3f 33 e2 7d 3f
       1.004621 0.99650884 1.009666 0.9917328
0000e0 3e 7c 81 3f da 7d 80 3f ab 7a 7d 3f f5 34 80 3f
       1.0116041 1.0038407 0.990153 1.0016161
0000f0 2b c4 7e 3f 0e 63 80 3f 60 48 7c 3f 5b df 80 3f
       0.9951808 1.0030229 0.98547935 1.0068163
000100 1b 6b 7d 3f 3c 5d 80 3f bb 3e 7c 3f a8 b5 7e 3f
       0.98991555 1.0028453 0.9853322 0.99495935
000110 96 d5 7c 3f c4 b2 80 3f 7f d3 80 3f 20 30 7c 3f
       0.98763406 1.0054555 1.0064543 0.9851093
000120 64 91 80 3f 83 c8 7f 3f 23 f4 7c 3f 66 be 7b 3f
       1.004437 0.9991533 0.98810023 0.983374
000130 0f 1d 80 3f 1a fd 7f 3f 80 f7 7d 3f 02 4d 7f 3f
       1.0008868 0.9999558 0.9920578 0.9972688
000140 18 67 7e 3f be 85 7f 3f 14 3e 80 3f b8 de 80 3f
       0.9937606 0.9981345 1.0018945 1.0067968
000150 f9 23 7e 3f 20 f3 7d 3f 06 d9 80 3f 4d 17 7f 3f
       0.9927364 0.99199104 1.006623 0.9964493
000160 34 a2 7f 3f 65 a2 81 3f ce 3c 81 3f d0 9a 7d 3f
       0.9985688 1.0127684 1.0096681 0.9906435
000170 c9 ab 7e 3f 42 f2 7c 3f a9 86 7f 3f f9 fb 80 3f
       0.99480873 0.98807156 0.9981485 1.0076896
000180 11 e0 7d 3f 23 2c 80 3f 00 f4 7e 3f a4 a8 80 3f
       0.99170023 1.001347 0.99591064 1.0051465
000190 24 37 81 3f 7d 25 7d 3f 34 80 7b 3f 9b a9 7c 3f
       1.0094953 0.9888533 0.982425 0.986963
0001a0 a9 49 7f 3f 84 d6 81 3f 05 21 81 3f 01 d2 7f 3f
       0.9972177 1.014359 1.0088202 0.99929816
0001b0 4f 71 80 3f 2c 2d 80 3f 1b 5b 80 3f 61 cd 7d 3f
       1.0034579 1.0013785 1.0027803 0.9914151
0001c0 05 35 7c 3f 59 03 7e 3f 16 80 80 3f 1c c8 7e 3f
       0.985184 0.9922386 1.0039089 0.9952409
0001d0 03 58 80 3f de f1 7c 3f 09 a0 7c 3f 5d 75 7e 3f
       1.0026859 0.9880656 0.98681694 0.9939783
0001e0 5b 42 81 3f ca 8b 80 3f 5a 63 80 3f 55 92 80 3f
       1.0098375 1.004266 1.003032 1.0044657
0001f0 ea 27 80 3f cc 17 80 3f 1c 7e 7c 3f d6 8a 7d 3f
       1.0012181 1.0007262 0.9862993 0.9903997

_module.mlp.1.bias f4 [128]
000000 4d b8 99 bb f7 1c 88 3c 95 f7 45 bb 32 36 a3 3b
       -0.00469116 0.016615374 -0.0030207385 0.004980826
000010 32 c1 48 3a 3b 44 9e bb 06 d2 c3 bb 7e 13 d1 3b
       0.0007658183 -0.004829911 -0.0059759645 0.0063804975
000020 97 c1 e9 bb 3f 81 a5 3b 81 07 7e bc ac 0d b6 ba
       -0.0071336734 0.0050508077 -0.015504719 -0.0013889573
000030 62 f4 d5 3a e4 18 10 3c 01 2a 73 3c 01 66 28 bc
       0.0016323442 0.008794997 0.0148415575 -0.010278226
000040 f5 52 82 39 40 9c 40 3c d6 45 40 bc 39 92 96 bc
       0.0002485734 0.011756003 -0.0117354 -0.018380271
000050 6e 51 7e bc 0e b7 c0 bb 62 12 42 bc a9 0a ef 3b
       -0.015522344 -0.005881197 -0.011845203 0.007294972
000060 c7 d0 a9 bb c6 50 72 3a 46 28 ae 39 ad c1 23 3b
       -0.005182359 0.00092436036 0.00033217872 0.0024987266
000070 de fd 34 3c d7 fc 3d 3c 63 df b1 bb 27 db 70 bb
       0.011046855 0.011595926 -0.005428241 -0.0036751719
000080 9b ec 8a 3a 38 6c 1a bc 46 76 7f 3a 4f e8 c5 3b
       0.0010599078 -0.009425215 0.0009745102 0.0060396562
000090 0d aa 48 3b 0d ae 6c 3b 39 c2 d1 bb 29 0c af 3b
       0.0030618936 0.0036114485 -0.006401327 0.005342026
0000a0 6f e8 92 3b 79 f9 c0 bc 33 d6 f8 ba 61 a0 3a 3b
       0.0044832746 -0.023556458 -0.0018984735 0.002847694
0000b0 88 ae b3 bb 02 a0 28 bb c3 98 32 3c 24 4a 2d 3c
       -0.005483452 -0.0025730138 0.010900679 0.0105767585
0000c0 4d 10 e6 3b f9 6c 52 bc 47 9d 8f 3a 42 9b c0 3c
       0.007020986 -0.012843364 0.0010956906 0.023511533
0000d0 fa 1a 2c bb f7 2c 17 3c 2e 03 09 bc 41 c5 41 bc
       -0.0026261196 0.009227029 -0.0083625745 -0.011826814
0000e0 e3 52 86 bc f2 28 3a 3b 16 9e e5 3b 5b 44 e3 bb
       -0.016396945 0.0028405753 0.0070073707 -0.006935639
0000f0 8d 5e 5f bb 96 38 45 3c 14 28 e9 b9 41 25 06 3c
       -0.0034083456 0.012037417 -0.00044471084 0.008187593
000100 ef ff 89 3a c2 c1 0d bc 90 5a b5 3b 57 24 13 3c
       0.0010528545 -0.0086521525 0.0055344775 0.008980832
000110 75 32 ae 3b 5b c8 e2 3b b3 0f 11 3a a1 9b 2d 3b
       0.0053160735 0.006920857 0.00055336504 0.0026490467
000120 c3 f6 89 3a be 30 92 bb 52 81 6b 3c 48 22 5e bc
       0.0010525811 -0.004461377 0.014374094 -0.013557978
000130 a8 0a 5e bb 21 76 c7 3a db 38 39 bc d9 31 95 bc
       -0.0033880863 0.00152177 -0.011305059 -0.018212246
000140 5f 3e 19 3b 7e 9c e8 3b b9 e6 28 bc 95 17 b4 bb
       0.0023383123 0.0070987334 -0.010308915 -0.0054959753
000150 4e 24 b5 bb 71 55 49 bb 5d 17 b8 3b 8b 21 04 3c
       -0.0055280095 -0.0030721093 0.0056180195 0.008064638
000160 14 88 85 3a 54 2a b2 3b 01 a1 64 bb e2 08 c9 bc
       0.0010187649 0.005437175 -0.0034886005 -0.024540368
000170 ca 60 92 bb 92 10 45 3c 52 23 11 3c 6a e4 13 bc
       -0.0044671046 0.012027876 0.008858519 -0.009026626
000180 2b 71 95 3a a7 79 24 3b 4e a9 96 bb 09 3a 52 bc
       0.0011401525 0.0025096925 -0.0045978194 -0.0128312195
000190 52 63 a6 bb f5 15 5a bc 9b 79 e4 3b 32 8e 58 3b
       -0.005077758 -0.013310899 0.0069725043 0.003304374
0001a0 16 4c 31 3c e4 a1 51 3c 8e 8e d4 3b 61 ed d6 bb
       0.010821363 0.012794945 0.0064867204 -0.0065590595
0001b0 b5 9e 69 3b c2 ca d1 3b e1 9e 8d bb f1 06 86 3b
       0.0035647575 0.0064023444 -0.0043219184 0.004090183
0001c0 41 64 50 bc 40 14 05 3b 3d b5 90 bc 2b cf 5f 3c
       -0.012719215 0.002030626 -0.017664546 0.013660233
0001d0 20 f8 8f 3c 9d 27 bc 3b b7 88 39 3c 79 cf b1 3b
       0.01757437 0.005742027 0.011324099 0.005426344
0001e0 f9 5f 7b 3b ad 78 83 bb 36 e5 bc bb 98 a3 19 bc
       0.0038356765 -0.0040121884 -0.0057646288 -0.009377383
0001f0 24 10 3b bc b4 bb 75 3c 36 4f 78 bc 53 76 69 bb
       -0.011417422 0.014998365 -0.015155604 -0.0035623505

_module.mlp.4.weight f4 [64, 128]
000000 a5 49 c8 3c 29 ac 97 3d f3 3c 15 3d 79 f8 5f bd
       0.024449179 0.07405884 0.03643508 -0.05468032
000010 23 b4 71 bd 44 96 c4 3c 52 c6 5a 3d 20 1e ef 3b
       -0.059009682 0.023997433 0.05341179 0.0072972924
000020 0f 04 d0 3b 0f 89 48 bd eb 37 b6 bd ba 02 68 bd
       0.00634814 -0.048958834 -0.08897384 -0.056643225
000030 3a 61 3c bd 0f db d3 3d 4f af 0c bd ac 83 93 3a
       -0.04599116 0.103445165 -0.034346875 0.0011254451
000040 bf 32 f7 bc 0b 43 94 bd 2c b5 a0 3d b0 62 a5 3d
       -0.030175565 -0.0723935 0.07847056 0.08075464
000050 a3 f1 9f bc a2 07 71 bd fb 31 fd bc f6 69 ab bb
       -0.019524401 -0.05884517 -0.030907622 -0.0052311374
000060 82 73 74 bd b8 20 aa bd fb 5f be bc 8a 3c 8e 3d
       -0.05968047 -0.08307022 -0.023239126 0.06945141
000070 6e b4 da bc b3 cc f7 bc 00 d2 91 b6 b6 d3 60 3d
       -0.026697364 -0.030248975 -4.345784e-06 0.054889403
000080 7a 4d bc 3c c2 57 2a bd 26 bb c8 bc 02 ed fa 3c
       0.022986162 -0.0415876 -0.024503302 0.030630592
000090 2c c3 69 3d 2e c8 7f bd 0d fe 0e 3d ff d5 d7 3c
       0.057070896 -0.062446766 0.03491025 0.026347158
0000a0 7d f6 db ba 57 e0 a1 bd 7e 81 ed 3c c5 2a 8e bc
       -0.0016781833 -0.079041176 0.02899241 -0.017354378
0000b0 d9 a5 0f 3d 9e 18 97 3a ee 4b 7a bd 9c ee 5c bd
       0.035070274 0.0011527722 -0.06110757 -0.053938493
0000c0 6e 84 28 bd 54 cf 40 3d 22 27 21 3d 81 e7 62 3c
       -0.04114192 0.047072724 0.03934396 0.01384914
0000d0 43 81 95 bd f8 8a aa bc 93 76 69 bc 9b 99 08 3d
       -0.07300045 -0.020818219 -0.014249462 0.033349615
0000e0 60 cf 0c 3b bd 8f 87 3d 25 bb d0 3c d6 fd 17 3d
       0.002148591 0.06619213 0.025479862 0.03710731
0000f0 52 d9 d1 3b ab de b2 bd 55 b2 58 3d 03 56 55 3d
       0.0064040804 -0.08733877 0.052904446 0.05208398
000100 09 8c cc bc 3f e7 fe 3b 39 81 3d bc 5c 88 68 bd
       -0.024969118 0.0077790315 -0.011566454 -0.056770667
000110 88 c7 1e bd e5 b0 88 bd dc 9e 45 bc 6e 31 d0 3c
       -0.038764507 -0.06674365 -0.012061801 0.025414195
000120 5b a2 84 bd d5 b3 06 3a 5d 0f 9b 3d 24 96 7c bb
       -0.06476279 0.00051384914 0.0757129 -0.003854164
000130 d0 9d 18 bd 91 5b bc 3b f5 13 07 3d c9 63 81 bd
       -0.037259877 0.0057482203 0.032978017 -0.06317861
000140 82 b5 19 3d 3c 89 4d ba e9 c3 ff bb 60 d5 e8 bb
       0.037526615 -0.0007840579 -0.0078053367 -0.0071055144
000150 81 cf b2 bd 34 a0 80 3d 35 1e 79 3d 48 c1 b9 bd
       -0.087309845 0.06280556 0.060819823 -0.090700686
000160 9c 2e 3b 3d 8b f7 a6 3c b3 6e 29 bc e4 5c 0d 3d
       0.045698747 0.02038171 -0.010341334 0.034512416
000170 23 09 08 3c c0 a1 96 bc 25 81 87 3b bc 66 c5 bc
       0.00830296 -0.018387675 0.0041352683 -0.02409684
000180 21 43 22 bd 50 1d 79 3d c8 b0 00 bd b5 3e c5 bb
       -0.0396148 0.06081897 -0.03141859 -0.006019438
000190 2b 0b b5 bb 9c 45 a3 ba c3 ad 90 bd b6 d7 53 3d
       -0.005525013 -0.0012456658 -0.070643924 0.05171939
0001a0 e7 41 88 bd fd ce 80 bb 52 bc 7d bc 10 33 38 3d
       -0.06653195 -0.003930925 -0.015486794 0.044970572
0001b0 bf c8 92 3c e9 27 d2 3c c5 1e 00 bd 86 8a 76 3d
       0.017917989 0.025653796 -0.031279344 0.0601907
0001c0 de c4 0c bc 50 86 58 3d 0f 2e 83 bb 04 e8 e2 3b
       -0.008591859 0.052862465 -0.0040032933 0.006924631
0001d0 fc 0d 22 3d 72 63 84 ba db 57 6c ba 47 4a a8 3d
       0.039564118 -0.0010100438 -0.0009015777 0.08217292
0001e0 e0 8a 90 bd 40 fe 1d 3d 03 75 0b 3d 46 78 40 3d
       -0.07057738 0.03857255 0.034047138 0.0469897
0001f0 38 da ba 3d 0b 2c 55 3d dc 4c 81 bc 5a a1 a5 bc
       0.09123653 0.052043956 -0.01578372 -0.02021854
000200 77 21 81 3d 16 45 a1 3b 6e 0d 30 bd d8 12 23 bd
       0.06305211 0.0049215658 -0.042981558 -0.039812893
000210 24 f8 83 3d 1c e7 5e 3d 89 5f 8b 3d 27 51 da 3c
       0.064438134 0.05441962 0.06805331 0.026650025
000220 43 2b 96 3d ce bd 99 bd 1d b4 d6 bc a8 d9 94 3d
       0.0733247 -0.075069055 -0.026208932 0.07268077
000230 4a 13 48 bd 69 aa 78 3d 87 39 f6 3c 47 70 59 bd
       -0.04884652 0.06070939 0.030056728 -0.05308559
000240 c8 b3 4c bd 17 8b 11 3d 94 8a 88 bd 07 1b 8d 3d
       -0.04997614 0.035533037 -0.06667057 0.06889921
000250 bc 56 82 3c 0d 0b dd 3b 54 94 c9 3b de bf a2 bd
       0.015910499 0.006745702 0.0061517153 -0.07946752
000260 5b 7a 03 3d 7c 18 41 3d 69 6f ad 3d 23 51 4d bc
       0.03209911 0.04714249 0.084685154 -0.0125315515
000270 ab 2b 9f 3d f6 d1 22 bd 25 b1 f7 bb 67 f4 09 3d
       0.07772001 -0.039751016 -0.007558959 0.033680346
000280 c3 c0 8e 3d 94 4a 20 3d aa c3 be 3c d5 b6 7f 3d
       0.0697036 0.039133623 0.02328666 0.06243022
000290 8a 0e 0c bd ff 5d a8 3d eb d8 07 bd 2a ea 72 3d
       -0.034193553 0.08221053 -0.033165853 0.059305348
0002a0 f8 e7 b1 3d aa f6 01 bd 17 c1 7d 3d fb 80 6e bc
       0.08686823 -0.031729378 0.061951723 -0.0145571185
0002b0 10 12 3d bd cc c7 d3 bc 10 67 bd 3d 09 71 b5 3d
       -0.046159804 -0.025852107 0.09248173 0.0885945
0002c0 a2 d8 9f 3d f2 f7 d2 bc 21 10 a6 bd 01 ae a7 bc
       0.07804991 -0.025752995 -0.08108545 -0.020468714
0002d0 33 2e 0b bd 75 58 1a bd 06 5e 79 3d 5b 3f 89 3d
       -0.033979606 -0.037682015 0.060880683 0.06701537
0002e0 fe d4 0b bd 8d a2 2a 3d 1d 1c 29 3b 8b fd 76 bd
       -0.034138672 0.041658927 0.002580411 -0.06030039
0002f0 14 c3 33 3d 4c 3a f2 3c 77 cb 2e 3d e7 7a 8a 3b
       0.043887213 0.029568814 0.042674508 0.004226077
000300 c6 1b 25 3d 25 86 9d 3c d2 4a 8d bb df f7 53 3c
       0.04030969 0.019229004 -0.004311898 0.012937515
000310 46 03 4b 3d 18 34 96 bd 53 23 00 bd 35 37 08 bd
       0.04956367 -0.07334155 -0.031283688 -0.033255775
000320 2b 5c e1 3c 43 ad a5 bb 88 ea 84 bc af 19 b6 bd
       0.02750977 -0.005056055 -0.016225114 -0.088916175
000330 dd 00 ec 3c 53 7e 8e bc 52 5f 1f bd 2a 35 92 3d
       0.028809005 -0.01739422 -0.038909264 0.071390465
000340 6b b3 0a 3d f2 60 b2 bc 55 d7 a8 3c 3d 1a a3 3d
       0.033862513 -0.021774743 0.02061049 0.07963989
000350 2d bd 0e bd 1e 78 a4 3d 72 28 42 3d 12 3e 82 3d
       -0.03484838 0.08030723 0.047401853 0.06359495
000360 01 68 ef 3c e9 7d b4 bd 1d e0 37 bc 66 53 fb bc
       0.029224398 -0.08813078 -0.011222866 -0.030679416
000370 a6 e0 a2 3d b7 6e 6d 3d 15 37 c8 bb 21 1c 8d 3d
       0.079530045 0.057966914 -0.006110082 0.06890131
000380 3a 10 8d bd f0 5e 30 bd ab f5 83 3c 71 df 21 3c
       -0.068878606 -0.04305929 0.016108355 0.009879933
000390 88 90 7c 3c f6 a6 c0 3c bf c1 22 3d 00 5f 94 3d
       0.015415318 0.023517113 0.039735552 0.07244682
0003a0 78 04 af bc 29 61 33 3d 74 35 93 3d c2 b5 99 3d
       -0.021364436 0.04379383 0.0718793 0.07505371
0003b0 3c 53 55 3d c0 34 81 bd 84 e6 c7 3c 1c 79 d0 3b
       0.05208133 -0.063088894 0.02440191 0.0063620936
0003c0 d7 2e a1 3d 8b 5d 61 bd f9 69 a9 3d 9c 1a 97 3c
       0.07870262 -0.05502085 0.08272166 0.018445306
0003d0 71 2c 06 3c 0a 5d 69 3d 57 29 e5 bb a2 ae ad 3d
       0.008189307 0.056973495 -0.0069934535 0.08480574
0003e0 75 3d 58 bd 35 7f 8e bd 82 0a 23 bd e2 e6 82 bd
       -0.052792985 -0.069578566 -0.039804943 -0.06391694
0003f0 15 7f 9d bd 20 cc 8d bd 15 b6 01 bd 1b 83 c6 3d
       -0.076902546 -0.069236994 -0.031667788 0.09692975

_module.mlp.4.bias f4 [64]
000000 f7 49 e7 3a 11 5e 94 3d e9 f0 47 3c 2b 86 ea bb
       0.0017645945 0.07244504 0.012203434 -0.0071571073
000010 73 d2 9a 3d bf 5d ad bd a0 f5 24 bd 0d fc b5 3d
       0.07559671 -0.08465146 -0.04027331 0.088859655
000020 ec 64 99 bd f6 c1 89 3d ac 0b d8 bd c2 e9 8c bc
       -0.074899524 0.06726448 -0.10549101 -0.017201308
000030 0e 2a 00 ba c2 48 ef bc 78 28 1b 3d a3 5f f5 bc
       -0.0004889079 -0.029209498 0.03788039 -0.02995283
000040 fd ee 6a bd 40 2f 86 bd 68 80 0c bd 3d 78 90 3d
       -0.057356823 -0.06551981 -0.034302145 0.07054184
000050 d7 f2 5f bd aa be a8 bd bf da dd 3c f7 07 c3 bb
       -0.05467495 -0.08239491 0.027081845 -0.005951877
000060 61 c6 c0 bc 65 f8 fc bd 4a 34 08 bd 59 46 83 bd
       -0.023532094 -0.12352065 -0.03325299 -0.06409902
000070 8a e6 86 3d d4 66 36 3d 48 3f 01 bd 64 2e a2 3c
       0.065869406 0.04453166 -0.03155449 0.019797511
000080 ed c9 b0 3d 9d 0d 72 3d a0 fe 73 3d 1b ec 9f 3c
       0.08632264 0.059095014 0.059569 0.019521764
000090 7b 71 9d bc ec f1 4e bc 52 48 88 3d a4 07 d6 bc
       -0.01921915 -0.012630921 0.06654419 -0.02612669
0000a0 f5 f2 09 ba c6 55 b0 bd f8 07 27 bd b2 7a 5d 3d
       -0.00052623387 -0.0861011 -0.040779084 0.05407209
0000b0 91 f4 40 bd 73 98 30 bd dd 8c 2d 3d 42 80 8f bc
       -0.047108237 -0.043114137 0.042370666 -0.017517213
0000c0 d9 65 31 3d 7f 08 87 bd f5 b8 10 3d f4 8d 18 bd
       0.04331002 -0.065934174 0.03533264 -0.037244752
0000d0 b5 17 54 bd c4 3e 54 bd 40 94 06 3d 07 8c f8 3c
       -0.05178042 -0.05181767 0.032856226 0.030340208
0000e0 99 b3 3c 3d 63 69 a3 3c b8 bf 32 3d e4 3d bd 3b
       0.046069715 0.019947713 0.04363987 0.0057752
0000f0 b9 34 56 bd 93 c5 c0 bc 9f f6 89 3d 85 f3 dd bc
       -0.052296374 -0.02353171 0.06736492 -0.027093658

_module.mlp.5.weight f4 [64]
000000 93 20 82 3f ae dc 82 3f 6f af 7f 3f de 84 7b 3f
       1.0166191 1.0223596 0.99877065 0.98249614
000010 12 32 7f 3f 9f d0 80 3f 4e 05 80 3f 1f 42 7e 3f
       0.99685776 1.0063666 1.0001619 0.9931964
000020 b5 b0 7e 3f b6 c5 80 3f f5 d1 7f 3f b5 5c 7c 3f
       0.99488384 1.0060337 0.99929744 0.9857896
000030 3c 18 7e 3f 99 24 7e 3f a2 a9 7f 3f 91 96 7c 3f
       0.9925573 0.99274594 0.99868214 0.98667246
000040 23 ab 81 3f dc b9 81 3f b3 47 81 3f 7e 91 81 3f
       1.0130352 1.0134845 1.0100006 1.0122526
000050 dd f2 82 3f f7 2e 7f 3f ad 67 81 3f 50 f8 80 3f
       1.0230366 0.9968104 1.0109764 1.0075779
000060 53 93 81 3f 2f 34 7b 3f c3 46 7d 3f e3 9c 82 3f
       1.0123085 0.981265 0.989361 1.0204128
000070 e1 0c 83 3f 0b c1 81 3f e3 94 81 3f af 70 7e 3f
       1.0238305 1.0137037 1.0123562 0.9939069
000080 56 41 80 3f 2c 33 81 3f d0 5f 7d 3f 07 c4 80 3f
       1.0019939 1.0093741 0.98974323 1.0059823
000090 9f a5 7e 3f 41 a8 7f 3f 23 a4 81 3f 58 93 7c 3f
       0.9947147 0.9986611 1.0128216 0.9866233
0000a0 14 09 83 3f e4 0f 7b 3f 94 e3 7b 3f 6b 46 80 3f
       1.0237145 0.9807112 0.9839413 1.002149
0000b0 4f f8 80 3f e4 29 7f 3f 86 8c 81 3f 67 21 7e 3f
       1.0075778 0.99673295 1.0121009 0.9926972
0000c0 0c bc 82 3f 88 b8 7d 3f ff 07 82 3f 6c 9d 7d 3f
       1.0213637 0.991097 1.015869 0.9906833
0000d0 e8 9b 80 3f e5 55 81 3f f2 82 7c 3f 62 de 81 3f
       1.0047579 1.0104338 0.98637307 1.0145991
0000e0 62 a0 7c 3f d7 4d 80 3f 33 b8 82 3f 84 ab 83 3f
       0.98682225 1.0023755 1.0212463 1.0286717
0000f0 a3 a2 7e 3f cb 7d 81 3f c4 8a 80 3f 1f 4f 7f 3f
       0.99466914 1.0116514 1.0042348 0.99730104

_module.mlp.5.bias f4 [64]
000000 36 46 c6 bc 20 64 2a 3c dc cb 8b bb 18 9c c8 39
       -0.024203401 0.010399848 -0.0042662453 0.00038263272
000010 8f f9 c4 3b 58 9b 01 ba 9e 70 aa 3b d9 0c df 3b
       0.006011195 -0.00049441075 0.0052014133 0.0068069515
000020 2e 30 0f 3b a6 5e e8 3b 3b 02 4e bb 7a f4 5c bc
       0.0021848786 0.007091361 -0.0031434435 -0.013486022
000030 97 3c 7e bb 65 d9 12 3b 34 b6 6f 3c 88 fe fe 3b
       -0.0038793439 0.002240741 0.014630843 0.0077818073
000040 e8 c0 39 bb 84 8b d6 3b e7 88 82 3c f8 96 b6 3c
       -0.002834374 0.0065473933 0.01593442 0.022288784
000050 db 43 9f 3c 7b 79 dd bb c4 fa ef 3b 75 98 2b bc
       0.019441536 -0.0067588664 0.0073235948 -0.01047336
000060 db d6 86 3c 91 af 2c bb f0 62 5e 3c 3b 65 ea 3b
       0.016459873 -0.0026349763 0.013573393 0.007153181
000070 80 b3 f0 3b da 1f f9 3c a6 2d c3 bb f0 6d c3 3b
       0.007345617 0.030410696 -0.0059563695 0.0059640333
000080 1b 70 0c bc 84 aa 58 bc 2d 4c 72 bc db f2 4e 3c
       -0.00857165 -0.013224248 -0.0147886695 0.012631143
000090 37 37 29 bc 22 d3 5e 3b 7f 4e fe 3a 3c 59 92 bb
       -0.010328106 0.0034000357 0.0019402056 -0.004466204
0000a0 2f 40 01 bb 83 02 07 3c 67 67 e5 3b 8b a6 31 3c
       -0.0019722094 0.008240345 0.007000852 0.01084293
0000b0 84 b4 46 b8 00 78 87 bb 66 a6 77 bc 6a b7 03 bc
       -4.7374997e-05 -0.004134178 -0.015115356 -0.008039335
0000c0 b9 38 cd 3c 78 bc 7d 3c f7 29 d5 ba 69 9d 77 bc
       0.025051462 0.015486829 -0.0016263117 -0.015113213
0000d0 f1 ef f7 3b a4 0d 43 3b c9 18 14 3c 9e 88 fd 39
       0.007566445 0.002976277 0.009039112 0.00048357708
0000e0 31 b7 82 b8 e1 79 30 bc 30 97 59 3b d7 94 ad 3b
       -6.233005e-05 -0.010771246 0.0033201687 0.005297284
0000f0 3b 71 7b bc c8 eb 80 bb ec d9 5f bc 49 80 9e bc
       -0.0153468205 -0.0039343573 -0.0136627965 -0.01934828

_module.mlp.8.weight f4 [2, 64]
000000 b5 bd 0a 3d 9c d6 83 bc 03 f2 2a bb 80 21 0e bd
       0.033872325 -0.016093545 -0.0026084192 -0.034699917
000010 c0 98 c9 bd e9 56 bd 3c 4a b8 e6 3d ee 4e 60 bc
       -0.09843588 0.023112731 0.11265619 -0.013690693
000020 5a bf b3 3d 82 a7 ed 3d 5b 6f 40 3d 21 32 64 bc
       0.08776732 0.11604215 0.046981197 -0.013927967
000030 d0 87 5c 3d 13 08 34 3c e5 ce a0 3d 64 f6 05 3e
       0.05384046 0.010988253 0.07851962 0.13082272
000040 e8 f7 7d 3d 00 7d c6 3d 75 31 3a 3d 18 50 3c 3d
       0.062004 0.096918106 0.045457322 0.04597482
000050 ed 18 92 3d 1f 79 76 bd aa b3 bf 3d 29 df 97 3c
       0.071336605 -0.060174104 0.0936044 0.018539028
000060 85 f1 32 3e 67 54 99 bd 4f 69 8b bd e0 39 91 bb
       0.17474945 -0.074868016 -0.068071954 -0.004431948
000070 f5 71 20 3e ba 8a 06 3e 2f 50 01 3b 3f be 52 bd
       0.15668471 0.13138857 0.001973163 -0.051450964
000080 f3 30 7f bd e3 f9 e1 bd 21 a0 06 be b0 bf 1b 3e
       -0.06230254 -0.1103399 -0.13147022 0.15209842
000090 e0 8d a7 bd 55 e4 19 3e 07 7f ce bd 2e 2b 75 3d
       -0.081813574 0.15028508 -0.10082822 0.059855632
0000a0 34 af 17 3e d2 46 89 bd fc 06 91 3d d3 0d 1c 3e
       0.14812928 -0.06702961 0.0708141 0.15239649
0000b0 0b bf d9 bd b6 4c a9 bd 1a 61 53 bc b0 01 b2 bd
       -0.10632142 -0.082665846 -0.012901569 -0.08691728
0000c0 fd 63 30 3e b3 86 29 3e da 70 14 be 7e 8a c9 bb
       0.17225643 0.1655529 -0.14496174 -0.0061505428
0000d0 a1 dd df 3c f8 cc e6 3c 00 7e 96 bd f2 39 c1 bc
       0.02732736 0.028173909 -0.07348251 -0.0235872
0000e0 8b 03 ac bd a6 ee 6a 3b 5e 91 2f 3e ca d4 22 3e
       -0.08399113 0.0035847812 0.17145297 0.15901485
0000f0 1c 0b 74 3a 87 80 10 3e 5e 25 8d 3d db 9e d3 3d
       0.0009309517 0.1411153 0.06891893 0.10333034
000100 b6 d8 d4 bc aa e5 25 be cd 78 5b 3d 9e 8a 77 3d
       -0.025982242 -0.16200891 0.053582 0.06043493
000110 26 b3 49 bd 7b 48 a9 bc 46 cf 23 3d 90 f9 cc 3c
       -0.049243115 -0.020664444 0.039992593 0.025021344
000120 99 7e 44 3d 64 5f 9b bd c8 3f 9f 3d 4a 3d c5 3d
       0.047972295 -0.07586554 0.07775837 0.096308306
000130 a0 99 48 bd fc 42 92 3d ac 6d db bd b6 56 d3 bd
       -0.048974633 0.071416825 -0.107142776 -0.10319273
000140 c6 53 37 bd 6a e9 82 3d 02 8d 01 be a7 99 26 be
       -0.044757627 0.063921764 -0.12651446 -0.16269551
000150 f9 9c d4 bd bc 98 24 3d a9 f2 77 bd ba fe ce 3d
       -0.10381503 0.04018472 -0.060534153 0.10107179
000160 65 60 83 bd cb 19 95 bd 03 be db bd 93 30 0d be
       -0.0641487 -0.0728031 -0.10729601 -0.13788061
000170 46 bb fa bd 86 8d 35 be ac 32 f8 bd 12 bc 5d bd
       -0.12242751 -0.17729768 -0.1211904 -0.054134436
000180 56 3f 0e be 8e a7 dc 3d c0 c8 63 bd ba f5 63 bc
       -0.13891348 0.10774146 -0.055611372 -0.013913566
000190 ed 3f 61 3d 17 4a 62 3d 35 68 c1 bd f7 32 52 3d
       0.054992605 0.05524644 -0.09443704 0.051318135
0001a0 75 0c 1a be c0 2e d6 3c 05 27 f0 3d 3b b6 da bd
       -0.15043814 0.026145339 0.117261924 -0.10679289
0001b0 98 a8 c8 bc 2c d4 81 3d f7 32 f5 3c 68 ba 83 3d
       -0.024494454 0.06339297 0.029931528 0.064320385
0001c0 66 d2 62 bd d7 e7 a7 bd 5f 79 10 3e 7d 68 84 3d
       -0.055376433 -0.08198517 0.141088 0.06465242
0001d0 93 a4 00 be a4 dd 11 be 41 00 f2 3c 60 e2 2e 3d
       -0.1256278 -0.14244705 0.029541137 0.042696357
0001e0 b1 64 0f be a1 85 cc 3d 4f 37 d0 bd 56 79 8a bd
       -0.14003254 0.09986425 -0.10166799 -0.06761424
0001f0 8c 50 ea bc 98 fa 21 3d 6d 42 81 bd 99 c3 62 3d
       -0.02860286 0.039545625 -0.06311498 0.055362318

_module.mlp.8.bias f4 [2]
000000 1e df 6f bd 4f f8 98 3d
       -0.05856239 0.07469236

exp_avg f4 [128, 140]
000000 bd 54 d2 3a 8f f6 cb 39 29 11 6b bb 79 1a 00 3b
       0.0016046982 0.00038902878 -0.0035868383 0.001954703
000010 e0 3b dd 37 c7 50 aa bb c9 04 03 3b a6 e7 12 3a
       2.6373134e-05 -0.0051976177 0.0019991866 0.00056039763
000020 ee 8f 7b 3a 58 ed 33 3b 12 93 66 ba f0 c9 fb ba
       0.00095963373 0.00274547 -0.0008795719 -0.0019209962
000030 1b 0c 9c 3a 4d 7c 80 3b 5b e9 5b bb d0 f8 cd 38
       0.0011905463 0.003921068 -0.0033555839 9.821507e-05
000040 0c 7a bf 3a 55 92 e1 39 66 fc 2c bb 6e 14 87 b9
       0.0014608516 0.0004302437 -0.0026395558 -0.00025764428
000050 07 05 be 39 d7 c5 2e 3a 66 b8 f5 3a d9 a8 f6 ba
       0.0003624337 0.00066670537 0.0018746972 -0.0018818631
000060 b3 01 c7 39 02 a8 49 38 e7 13 24 3b a3 40 08 b9
       0.00037957504 4.8078604e-05 0.0025036277 -0.0001299405
000070 5a c4 85 38 99 7f 36 3b 96 43 c1 ba e9 bc dc 3a
       6.3785075e-05 0.002784705 -0.0014744874 0.0016840968
000080 f1 c5 3a ba 0e 18 e2 ba 95 67 f2 ba cc 81 01 bb
       -0.00071248325 -0.00172496 -0.0018494005 -0.0019761203
000090 c3 ca 5a 3a 99 fb 10 3b 5f d1 92 3a f4 d5 f4 3a
       0.0008346254 0.002212262 0.0011201313 0.0018679486
0000a0 fe ac 2d bb 70 19 8e ba cf 38 0c bb 91 d8 64 3b
       -0.0026500816 -0.0010841321 -0.0021396165 0.0034919123
0000b0 98 fa ae 3a b2 36 0f bb 16 bf 8f bb 02 85 88 bb
       0.0013349829 -0.002185267 -0.004386793 -0.0041662464
0000c0 13 f8 c1 b9 53 87 5c 39 76 3f 1d 3b cd a8 9a 3a
       -0.00036996658 0.00021031247 0.0023994124 0.0011799574
0000d0 62 09 26 b9 c5 b9 f4 ba 75 60 dd ba 1c a4 0b 3b
       -0.00015834489 -0.0018671086 -0.0016889708 0.0021307534
0000e0 18 89 53 3b b1 3f d8 ba da 58 09 3b 87 55 3a b9
       0.003227776 -0.0016498474 0.00209575 -0.00017770204
0000f0 08 9b 31 3a 83 7b 10 bb 3c 54 2d 37 e1 51 01 bb
       0.00067751156 -0.0022046275 1.0331216e-05 -0.0019732642
000100 a2 f4 5a 3a bf 34 65 ba ba 32 98 ba a7 d5 04 3b
       0.0008352493 -0.00087435165 -0.0011611797 0.0020268948
000110 e4 c5 81 ba bc 71 81 ba 5b e3 66 3a 38 f3 ba ba
       -0.0009900895 -0.0009875814 0.00088076823 -0.0014263159
000120 cd 29 85 b9 2b 21 77 ba ff 72 41 3b a0 da 59 ba
       -0.0002539888 -0.00094272447 0.0029518006 -0.0008310471
000130 96 57 c5 3a 5a 39 7d ba ae ce cd ba 6b a9 84 3b
       0.001505601 -0.000965973 -0.0015701854 0.0040485165
000140 c6 3b 40 3a 11 9b ba b9 9c 55 8d ba 6e 4e 6c ba
       0.00073331257 -0.00035592218 -0.001078296 -0.00090143725
000150 11 b4 7c bb 3d 9c fc 3a a0 f2 3d ba c7 d1 be 3a
       -0.0038559476 0.0019272637 -0.0007245932 0.0014558368
000160 9f d6 6d bb 22 f4 da 3a 5c 36 35 3b 5c 16 ce b8
       -0.0036291254 0.0016704837 0.002765081 -9.82701e-05
000170 39 06 1c ba c0 4e 33 b9 3d 80 40 38 2d b9 55 3b
       -0.0005951855 -0.00017100107 4.58958e-05 0.0032611594
000180 51 23 91 3a 3c 76 f1 b7 9b cc be ba e9 a8 81 bb
       0.0011073147 -2.8784496e-05 -0.0014556827 -0.0039569032
000190 4e cb f7 ba a5 4b 00 37 4e 30 0d b6 83 c0 32 3a
       -0.0018905194 7.647007e-06 -2.1038754e-06 0.00068188476
0001a0 b1 bb ae ba 37 2d 31 bb 3d ee 3e 3b 8d 39 07 ba
       -0.0013331083 -0.0027035007 0.00291337 -0.0005158417
0001b0 e1 33 0b 3b 7f 87 91 ba 9d 3c 82 ba 29 83 86 3a
       0.002124064 -0.0011103003 -0.0009936277 0.0010262477
0001c0 40 b9 a8 3a ab ca e9 b9 b1 8d a8 b9 aa df 96 39
       0.0012872592 -0.00044592223 -0.00032149025 0.00028776872
0001d0 60 99 7e 3a 29 31 db ba 2d 5d a0 ba fa f3 c6 b8
       0.0009712186 -0.0016723025 -0.00122348 -9.48682e-05
0001e0 cd 26 3a 3b cd 4d 87 3a a0 63 a1 ba 73 f5 3d 3a
       0.0028404475 0.0010322869 -0.0012313016 0.00072463526
0001f0 7d b8 c1 3a ff d3 1b ba 55 96 27 3b 3f 5f 31 b9
       0.0014779713 -0.00059443706 0.0025571783 -0.00016915517
000200 ce 7f 0c 3b 0c 1d fe ba bf 4a ff 39 4c 15 df 3a
       0.0021438482 -0.0019387319 0.0004869308 0.0017019897
000210 88 f0 ed ba ce 69 6a bb 6d d8 08 ba 36 5e 3e 3a
       -0.0018153349 -0.003576863 -0.0005220238 0.00072619633
000220 e1 af e8 3a 80 b6 56 ba dd 59 08 bb dc e3 4a 3a
       0.0017752611 -0.0008190647 -0.0020805516 0.0007739642
000230 7d 26 56 3a d1 92 31 3b ed 8c 17 b9 0a 3c 4b bb
       0.00081691873 0.0027095566 -0.00014452981 -0.0031011128
000240 4d 75 4b 3b ec 2d f0 ba b0 b2 aa 3a 93 c1 6c 3b
       0.0031045259 -0.0018324233 0.0013023224 0.0036126121
000250 30 79 5b 3b 68 71 70 bb c4 be 83 3b 2a db 8f 3a
       0.0033488981 -0.003668869 0.004020544 0.001097535
000260 cb dc 44 bb 7f c9 6b ba 95 c1 3d b9 4b 44 54 bb
       -0.003003883 -0.0008994564 -0.0001809656 -0.0032389339
000270 3d be 23 38 0d 6b 6e ba 61 58 31 38 cc 91 e9 39
       3.90394e-05 -0.00090949313 4.2282398e-05 0.0004454985
000280 9b 7b 23 3b 37 cd c3 3a e1 59 e5 39 ee 64 6e 3b
       0.00249455 0.0014938478 0.0004374525 0.0036376077
000290 9e b4 b7 39 06 66 66 3b a4 5f 2a 3b 9c ae f2 3a
       0.0003503905 0.0035156026 0.0025996948 0.0018515172
0002a0 dc 69 21 3b 64 53 33 3b cd 17 11 ba 9b f4 15 39
       0.0024629747 0.0027362937 -0.00055348576 0.0001430087
0002b0 a1 af b1 b8 74 bd 00 bb a0 5f 4c bb 18 fe 63 b7
       -8.472731e-05 -0.0019644173 -0.0031184927 -1.3589415e-05
0002c0 cd 79 53 b9 61 d0 69 ba 98 0d 84 bb 37 c2 b8 ba
       -0.00020167902 -0.00089192955 -0.004029941 -0.0014095966
0002d0 11 82 05 bb d0 65 e8 b8 0e 86 96 3b 32 41 17 b9
       -0.0020371715 -0.00011081586 0.0045936173 -0.0001442477
0002e0 02 ee 27 3b dc f9 42 3b 99 a4 72 3b 82 25 94 ba
       0.0025624041 0.0029750979 0.0037024377 -0.0011302682
0002f0 1d 00 22 39 97 ef 5d 3b 7a d9 4d bb 4c 64 ab 39
       0.00015449566 0.003386473 -0.0031410144 0.0003269039
000300 28 4f 4e 3a 42 61 73 ba fd a8 be ba c8 21 a2 3a
       0.00078700716 -0.0009284207 -0.0014546212 0.0012369687
000310 6a 25 6e bb 0a a7 03 bb 95 52 5e 39 be 7c 27 3b
       -0.0036338218 -0.0020088577 0.00021202334 0.002555653
000320 7e 43 43 3b 41 49 17 bb d1 59 0c bb c6 7b 27 bb
       0.0029794867 -0.0023084434 -0.002141584 -0.0025555952
000330 d1 a5 29 bb a8 a8 f0 b9 c9 f5 54 ba 5c 2e 20 3a
       -0.0025886188 -0.00045902026 -0.0008123783 0.0006110424
000340 80 71 3d 3b 50 99 8d 39 e1 e5 03 3b c9 13 8f 39
       0.0028906763 0.00027007842 0.0020126032 0.00027289827
000350 66 81 6c ba 68 07 65 bb 8a 20 c9 ba b4 1b 99 3a
       -0.00090219674 -0.0034947041 -0.001534478 0.001168123
000360 2b 06 6f ba e7 2e 80 3a 76 19 59 b9 cb a2 b2 3a
       -0.00091180456 0.0009779603 -0.00020704218 0.0013628838
000370 54 4f b9 38 b4 ab e7 3a 5b 5a 35 ba ed b5 d3 b9
       8.8362634e-05 0.0017675073 -0.0006918066 -0.000403806
000380 8b 2d 0f 39 74 d1 d0 3a 86 e0 bf 3a 6a ce 78 ba
       0.00013654509 0.0015931563 0.0014639057 -0.00094912073
000390 70 ee 96 ba b9 80 a8 ba 08 9f a1 3a a4 0f 6d 39
       -0.0011515152 -0.0012855745 0.001233072 0.00022607908
0003a0 64 46 b0 3a 73 03 87 bb c7 a6 1e bb ab d0 ad 3a
       0.0013448712 -0.004120284 -0.0024208294 0.001326104
0003b0 80 04 5e ba 5a f6 d8 b9 db db a2 b9 d5 70 6e 3b
       -0.00084692985 -0.00041382277 -0.00031062853 0.003638317
0003c0 47 19 ca b9 09 6f 88 bb 20 25 e9 b9 59 0b 29 bb
       -0.00038547275 -0.004163627 -0.00044468883 -0.0025794117
0003d0 c0 15 d6 ba be e4 20 bb 98 7c 50 ba 64 83 20 bb
       -0.0016333386 -0.0024550403 -0.0007953136 -0.0024492377
0003e0 f2 8e ba ba 7c 1c 22 3b b1 32 5c b9 93 8b 1c 3a
       -0.0014233275 0.0024736216 -0.00020999719 0.0005971726
0003f0 f4 a8 2f b9 b4 82 e8 3a 28 21 6e ba c5 d3 94 bb
       -0.0001675224 0.0017739148 -0.000908392 -0.0045418465

exp_avg_sq f4 [128, 140]
000000 47 e8 cb 36 7b d3 cd 36 ce a0 a1 36 78 c4 b1 36
       6.076912e-06 6.1340957e-06 4.816894e-06 5.297883e-06
000010 fc 33 88 36 3c 3e c2 36 89 86 c7 36 32 76 9a 36
       4.0591676e-06 5.7888956e-06 5.946324e-06 4.6033174e-06
000020 96 63 be 36 e8 00 c5 36 8f 48 cc 36 32 e4 d5 36
       5.6740346e-06 5.871163e-06 6.0881207e-06 6.37446e-06
000030 20 25 0e 37 68 ed c6 36 f2 c8 e9 36 ad 71 d7 36
       8.472503e-06 5.9284976e-06 6.9673342e-06 6.420733e-06
000040 59 a0 c2 36 3a 7c c0 36 35 e1 aa 36 f5 7d af 36
       5.8003175e-06 5.736508e-06 5.0926124e-06 5.2300697e-06
000050 f5 a1 de 36 f2 aa b0 36 c8 d3 a1 36 e2 31 9e 36
       6.63497e-06 5.2651094e-06 4.8228285e-06 4.714574e-06
000060 b8 f0 da 36 20 e8 8a 36 ff 14 93 36 27 68 b2 36
       6.5249296e-06 4.1397434e-06 4.3833857e-06 5.3169383e-06
000070 69 62 a7 36 06 6d c6 36 bd 17 d5 36 17 1e 9b 36
       4.9884443e-06 5.913552e-06 6.350658e-06 4.622863e-06
000080 74 c3 da 36 af 74 cb 36 2d c9 e3 36 16 36 b9 36
       6.51966e-06 6.063455e-06 6.788547e-06 5.519726e-06
000090 ec 66 b7 36 02 2d d8 36 ab dc a6 36 3c 4e c9 36
       5.4658067e-06 6.4425412e-06 4.9728746e-06 5.9993745e-06
0000a0 7b da bd 36 b0 b9 b2 36 8a 76 d7 36 41 7f c7 36
       5.6580734e-06 5.3264303e-06 6.421299e-06 5.9454765e-06
0000b0 22 87 9c 36 1c 11 a0 36 60 e3 b4 36 36 f3 a9 36
       4.664894e-06 4.7703634e-06 5.390888e-06 5.064906e-06
0000c0 4d 2a 03 37 ac 0d ce 36 f4 e6 df 36 20 ab 05 37
       7.818057e-06 6.14087e-06 6.6728044e-06 7.967261e-06
0000d0 a1 d7 da 36 91 6c b6 36 2e 9e 9f 36 05 29 b3 36
       6.522009e-06 5.4366615e-06 4.756984e-06 5.339391e-06
0000e0 20 3e cf 36 ff 9e cb 36 cf 2b ea 36 fe 0e d9 36
       6.176313e-06 6.068381e-06 6.9788434e-06 6.4688493e-06
0000f0 ee 09 d1 36 e0 7b 92 36 ec 92 ac 36 a9 35 ec 36
       6.2298413e-06 4.36556e-06 5.1431034e-06 7.039595e-06
000100 2f 69 b6 36 e5 d9 e7 36 11 0b 91 36 ea 43 d3 36
       5.4362677e-06 6.9097027e-06 4.322625e-06 6.2961963e-06
000110 ff f1 b1 36 c7 5b ce 36 88 e9 d8 36 90 fe af 36
       5.303183e-06 6.1499627e-06 6.4644883e-06 5.2450414e-06
000120 db 54 a7 36 5a 81 9c 36 da 08 eb 36 ba c9 90 36
       4.9868663e-06 4.664221e-06 7.004576e-06 4.3150185e-06
000130 f8 eb bd 36 07 c4 73 36 66 d2 ad 36 d3 a9 c7 36
       5.6601093e-06 3.6323925e-06 5.1802954e-06 5.9504323e-06
000140 ac aa e1 36 d7 f3 b6 36 e1 12 c9 36 ab 1e d3 36
       6.7253914e-06 5.4524094e-06 5.9924646e-06 6.2918602e-06
000150 2c 53 bf 36 1f 64 ac 36 fa f5 b4 36 75 cc d5 36
       5.701926e-06 5.137655e-06 5.3930535e-06 6.3716966e-06
000160 e9 c5 c3 36 0e d5 db 36 bd f2 b3 36 59 a0 d3 36
       5.8344926e-06 6.5515114e-06 5.362874e-06 6.306957e-06
000170 c0 41 ba 36 28 4a 85 36 e6 94 ce 36 cc 45 e4 36
       5.5508863e-06 3.972342e-06 6.1566125e-06 6.803055e-06
000180 35 00 b3 36 17 8f ce 36 72 b4 ad 36 8c 69 dc 36
       5.33464e-06 6.1559363e-06 5.1768084e-06 6.568798e-06
000190 76 42 ad 36 d0 0b b0 36 23 39 aa 36 01 9f f0 36
       5.163539e-06 5.246584e-06 5.0730464e-06 7.171068e-06
0001a0 a1 08 aa 36 55 77 b7 36 1c eb c9 36 43 d8 9c 36
       5.0673993e-06 5.467717e-06 6.017637e-06 4.6743385e-06
0001b0 dc 65 ac 36 71 42 9f 36 6e 2d ff 36 2e b3 aa 36
       5.1378574e-06 4.746304e-06 7.604881e-06 5.087254e-06
0001c0 c0 3a 93 36 95 9f d9 36 d1 ae e6 36 73 bb d6 36
       4.387781e-06 6.4856818e-06 6.8748855e-06 6.399519e-06
0001d0 9b cb ba 36 4d 9a d3 36 20 95 b1 36 7f b8 e0 36
       5.5669348e-06 6.306253e-06 5.2923715e-06 6.6971984e-06
0001e0 df 4a cd 36 56 89 9d 36 8c 05 d4 36 5d 30 b0 36
       6.1181922e-06 4.6949526e-06 6.318738e-06 5.250839e-06
0001f0 37 36 d3 36 1b b6 15 37 b5 0b 9e 36 ec a3 a5 36
       6.2946015e-06 8.923492e-06 4.71013e-06 4.936466e-06
000200 5c 6c cf 36 4c 8a b5 36 06 b9 c0 36 70 d9 9c 36
       6.1816954e-06 5.4103202e-06 5.7435855e-06 4.6744753e-06
000210 cc 18 b6 36 f5 0d b0 36 c6 0e d4 36 99 93 c1 36
       5.4269094e-06 5.2468336e-06 6.319812e-06 5.769031e-06
000220 bb b9 da 36 08 e6 c1 36 5f f3 b1 36 00 ea cb 36
       6.518528e-06 5.7786274e-06 5.303343e-06 6.0771126e-06
000230 16 35 d9 36 99 1f b0 36 55 dc fc 36 71 eb cb 36
       6.473284e-06 5.248887e-06 7.5358353e-06 6.0772804e-06
000240 da 47 ca 36 21 4a c8 36 e1 c0 86 36 e0 eb bf 36
       6.0284337e-06 5.969094e-06 4.0159653e-06 5.719703e-06
000250 7a 8b b4 36 37 4b c7 36 a7 c5 f4 36 ca 6d a8 36
       5.3806552e-06 5.9394183e-06 7.2947764e-06 5.0195713e-06
000260 4d 1b f0 36 39 9e 9b 36 ca 62 92 36 ea 5b a0 36
       7.1557356e-06 4.6377795e-06 4.3626396e-06 4.779072e-06
000270 b3 0e d2 36 31 53 d8 36 49 fd cf 36 4d 6d b2 36
       6.260199e-06 6.4469864e-06 6.198567e-06 5.3175377e-06
000280 98 91 a0 36 f9 ef c2 36 f4 70 b7 36 8c c7 f9 36
       4.785321e-06 5.809587e-06 5.4669745e-06 7.4440086e-06
000290 9e 68 cb 36 8e 6a a9 36 f0 a9 c2 36 c7 3c e8 36
       6.0620505e-06 5.048997e-06 5.801434e-06 6.921214e-06
0002a0 18 ff 9e 36 80 ca aa 36 28 02 00 37 b7 ff ea 36
       4.7384638e-06 5.089969e-06 7.629897e-06 7.0035126e-06
0002b0 9c 2d ef 36 e0 49 dd 36 83 ec bb 36 16 28 a9 36
       7.1280647e-06 6.5949134e-06 5.600568e-06 5.041259e-06
0002c0 bc 75 8a 36 9c 23 c9 36 2d ad 9f 36 3b 13 c7 36
       4.1264266e-06 5.9944123e-06 4.7587296e-06 5.932901e-06
0002d0 8c e1 d3 36 2d 22 a7 36 d8 6d b6 36 25 45 c0 36
       6.314547e-06 4.9809664e-06 5.43681e-06 5.7300954e-06
0002e0 b1 2e d8 36 84 28 01 37 cf 07 c7 36 d7 aa 9c 36
       6.4427372e-06 7.6984325e-06 5.931571e-06 4.6690507e-06
0002f0 d1 70 ab 36 c8 6f b6 36 d7 5c ce 36 22 ab e3 36
       5.1093307e-06 5.4370357e-06 6.1500864e-06 6.7850497e-06
000300 7d ed 86 36 6b 8a a5 36 1a da b9 36 8d 01 d4 36
       4.0211585e-06 4.933497e-06 5.53882e-06 6.318273e-06
000310 ea 74 d0 36 6c e9 b4 36 38 77 a6 36 be 31 b5 36
       6.2124936e-06 5.391592e-06 4.9610644e-06 5.400011e-06
000320 1b 16 c5 36 ff df f3 36 b2 44 c3 36 ad 49 a7 36
       5.873631e-06 7.268041e-06 5.81945e-06 4.985565e-06
000330 59 af 94 36 89 c1 cb 36 a9 7e d9 36 6d e3 d0 36
       4.431157e-06 6.072402e-06 6.481849e-06 6.225359e-06
000340 db 42 a4 36 eb 05 ba 36 bf 51 b7 36 12 7c df 36
       4.895364e-06 5.543921e-06 5.4633415e-06 6.6603616e-06
000350 50 06 c0 36 1a 15 cc 36 11 fb a3 36 f4 60 bf 36
       5.7227808e-06 6.0821303e-06 4.8870065e-06 5.7035304e-06
000360 0f 0d a7 36 f8 43 bf 36 d7 79 e7 36 a1 a2 b1 36
       4.978508e-06 5.700156e-06 6.8985205e-06 5.2939436e-06
000370 b6 99 d4 36 e7 58 bf 36 15 ad b0 36 4e 1c d1 36
       6.3359867e-06 5.702593e-06 5.265358e-06 6.2319805e-06
000380 52 d9 a6 36 5e fc ab 36 f0 fe be 36 0b 27 d0 36
       4.972485e-06 5.1255765e-06 5.69212e-06 6.2034283e-06
000390 f9 18 d7 36 a0 d4 af 36 5f 64 cd 36 96 93 ce 36
       6.4104065e-06 5.240159e-06 6.121161e-06 6.1564597e-06
0003a0 d9 af b8 36 76 61 d6 36 01 ba bc 36 6b b4 95 36
       5.5040987e-06 6.389043e-06 5.6244903e-06 4.4615495e-06
0003b0 2d 43 be 36 30 e6 c9 36 0e 13 84 36 bf ac d9 36
       5.6702615e-06 6.017064e-06 3.936125e-06 6.4872143e-06
0003c0 31 32 d0 36 24 f7 f0 36 14 e6 c4 36 1d 30 d9 36
       6.204726e-06 7.1813283e-06 5.86804e-06 6.472705e-06
0003d0 1e c2 fb 36 79 8c e5 36 36 9d c5 36 0f 5d ac 36
       7.502981e-06 6.841085e-06 5.8893593e-06 5.136833e-06
0003e0 83 76 b8 36 b5 01 c3 36 4a 3e c1 36 8b 76 9e 36
       5.497424e-06 5.8116516e-06 5.7590996e-06 4.722567e-06
0003f0 cd 4c c4 36 6d ba ae 36 db a4 c2 36 69 db e1 36
       5.850196e-06 5.207307e-06 5.8008422e-06 6.7310652e-06
