results/dp/sleep-edf/seed_42/best_model.pth (torch, 160309 bytes, 30 tensors)

_module.mlp.0.weight f4 [128, 24]
000000 c8 a3 35 3e b0 c1 46 3e 61 78 27 be e6 4b 76 3e
       0.17738259 0.19409823 -0.16354515 0.2405239
000010 71 5e 1c bc 3f 96 3c 3d 1e cc 9d bd 4c 58 6c 3e
       -0.009544001 0.046041723 -0.07704948 0.23080558
000020 ad 53 88 3d 20 3f d8 bd 1a fd 06 3e a5 50 9a bd
       0.06656585 -0.10558915 0.13182488 -0.07534913
000030 91 a9 35 3d c5 6d db bd 9c 3f de bc e0 11 b4 3d
       0.044351164 -0.10714296 -0.02712994 0.08792472
000040 c2 72 23 3e 01 a1 71 3d ae e8 7d be 91 ea 26 3d
       0.15961745 0.058991436 -0.24795792 0.040751044
000050 af 76 a3 bc 93 b2 1c 3e e8 a4 8b be f8 e4 19 3e
       -0.019954054 0.15302496 -0.2727425 0.15028751
000060 35 76 04 3d c4 d8 8d 3d a8 2f 33 bd 01 29 16 be
       0.032339294 0.069261104 -0.04374662 -0.14664079
000070 04 79 1f 3e b7 c4 79 be 2c 79 82 3c 2e ab e6 bd
       0.15573508 -0.24391447 0.01592692 -0.11263119
000080 db f9 0d 3e 65 c2 32 bd 9a ab 69 bd 61 22 36 3e
       0.13864844 -0.04364242 -0.057048418 0.17786552
000090 b2 73 95 bd e3 dd 5a 3e b2 dd 56 3e 1e 07 1e be
       -0.07297458 0.21373706 0.20983008 -0.15432402
0000a0 77 8d 2b bd fe 5a 1e be 57 f9 86 3d 17 30 e6 3d
       -0.04188296 -0.15464398 0.065905266 0.11239641
0000b0 02 8a 06 3d 07 1e 8b bd f7 92 23 3e 24 79 12 3d
       0.03284646 -0.06792837 0.15974031 0.03576006
0000c0 d3 b0 e8 3c 27 da 87 be 9f 57 37 be 00 b4 82 bd
       0.028404629 -0.26533625 -0.17904519 -0.063819885
0000d0 8c 42 a0 be 7f 94 e8 3d f3 5e ff 3d b8 6a 10 3e
       -0.3130077 0.113564484 0.12469282 0.1410321
0000e0 fc ab 3a bc af 74 1f bc 7a 34 9a 3d c9 81 38 be
       -0.011393543 -0.009732409 0.0752954 -0.18018259
0000f0 53 1d 51 3d ac 98 8a bb 1e 50 7f 3e db 95 39 bd
       0.051053356 -0.0042296257 0.24932906 -0.04530893
000100 9c 9a a2 3c 4c c0 34 bc 56 75 05 3e 62 2d ce bd
       0.019849114 -0.011032175 0.13033041 -0.1006725
000110 77 04 d0 be b6 cb 9b bd 38 65 c6 3e 03 bb 71 3e
       -0.40628406 -0.07607214 0.387491 0.23606496
000120 ec 74 8f 3e 78 0d 6e be 04 cc 7f be ef ec ca be
       0.28018892 -0.23247325 -0.2498017 -0.3963389
000130 bf 76 1c be 92 40 4f 3d 28 56 cb 3d 0e c2 12 3e
       -0.15279673 0.05059869 0.099285424 0.14331838
000140 e7 a3 7e be d9 4e 31 bd 9d 69 b7 3d 81 b9 98 bd
       -0.24867211 -0.043288086 0.08955691 -0.07457257
000150 3a d0 7b 3c b4 75 62 bd a2 fe 11 3e 60 86 6b bd
       0.015369469 -0.05528803 0.14257291 -0.057501197
000160 13 c7 4a be 23 4b 6b bd 64 eb e6 bd 4e 33 44 be
       -0.19802503 -0.057444703 -0.11275366 -0.19160196
000170 56 34 a7 3d 77 0a df 3d e6 34 41 be 7e 04 4d be
       0.08164279 0.10890668 -0.18867835 -0.20021245
000180 47 15 f1 3d 61 bc 20 be 66 1e a7 3d 09 dd fb bd
       0.117716365 -0.15696861 0.08160095 -0.122980185
000190 2e 1f 81 be ee 76 7d 3e 61 8e 05 be 2f e5 7f be
       -0.252191 0.247524 -0.13042594 -0.2498977
0001a0 7d 6c 98 3d 54 57 27 bd c6 45 17 be 55 c1 55 be
       0.074425675 -0.040854767 -0.1477271 -0.20874532
0001b0 8e 03 23 be 85 8b e2 bd a1 8f 19 bb 22 cc 73 be
       -0.15919325 -0.110617675 -0.0023431557 -0.23808339
0001c0 9a a2 e6 3d ad b8 ee bd 4d 20 83 be d9 f2 fb bd
       0.112614825 -0.11656318 -0.2561058 -0.12302179
0001d0 de a8 05 3e 1e d1 95 be de 03 2d bd 93 23 47 be
       0.13052699 -0.29261106 -0.042240016 -0.19447164
0001e0 59 9c f6 3c 35 11 65 3d 44 79 33 bd 86 da 79 bd
       0.03010385 0.055924613 -0.04381682 -0.060999416
0001f0 f2 52 85 be 0a 2d 58 3e 1e 9f 0b 3d db 5c d9 3d
       -0.26039845 0.21110931 0.034087293 0.10613414
000200 72 12 90 3d 56 07 08 3d 4c 26 37 3e cf 99 2a bd
       0.07034768 0.03321012 0.17885703 -0.04165059
000210 09 ec 51 be 64 bc 3d 3e 83 3d cc bd e0 28 93 bd
       -0.20500197 0.18528897 -0.0997267 -0.07185531
000220 e7 15 ab bc f0 06 5c be 1b 04 75 bd 33 35 76 be
       -0.020884467 -0.21487021 -0.05981837 -0.24043731
000230 14 78 68 3d 8c 84 56 be 7a a3 ba 3e 5b b2 b4 bd
       0.05675514 -0.20949 0.36452848 -0.08823081
000240 20 40 54 3e 67 f7 1f 3d 9c 64 eb 3c 72 cf 03 3e
       0.20727587 0.0390543 0.028734498 0.12872103
000250 ea d5 51 3e 40 e3 dd bc f9 d8 93 bd e6 62 6d be
       0.20491758 -0.0270859 -0.072191186 -0.23182258
000260 c3 a3 29 be bb 56 02 3c 0f 90 38 3e 31 99 a3 be
       -0.16566376 0.0079552485 0.18023704 -0.31952813
000270 77 b2 2b be 84 57 0e 3b 35 af be bc 59 50 4f be
       -0.16767298 0.0021719644 -0.023276905 -0.20245494
000280 74 af af 3e 27 27 2e bd 93 5b cd bd ea 7b c8 bd
       0.34313548 -0.042517807 -0.10027232 -0.0978926
000290 11 68 e6 3d 5b 4c a9 bd 0d 47 ba 3d c1 e8 cb 3e
       0.11250318 -0.08266517 0.09095583 0.39826015
0002a0 92 0a bc 3d d3 ae 53 be 38 3b b4 3d d7 61 8d bc
       0.091817036 -0.20672159 0.088003576 -0.017258568
0002b0 01 9f 44 3d 89 1a 84 bc 36 1d 6e be be 36 b4 bd
       0.0480032 -0.016125934 -0.2325333 -0.08799504
0002c0 69 09 2c bd e5 26 3a 3e 7c d8 92 3e 41 b1 5d be
       -0.04200116 0.181789 0.2868079 -0.21649648
0002d0 7b bc 47 bd 8c 88 78 3e 43 49 ad 3d a7 38 16 be
       -0.048763733 0.24270838 0.08461239 -0.14670049
0002e0 69 4b 06 3e 23 68 f5 3d 21 9a d8 3d 34 6b c7 bc
       0.13114704 0.11982753 0.10576273 -0.02434311
0002f0 e3 db 4e bd 54 14 4d 3e 13 0a d7 bd 6c 76 3f be
       -0.05050267 0.20027286 -0.104999684 -0.18697518
000300 50 23 0c 3d 0e 57 a2 3e 4e 39 03 be fe 0f 25 be
       0.034213364 0.31707042 -0.12814829 -0.16119382
000310 0f 0b c6 3d 70 48 0c bc c0 3e 9a 3d 6b cc 5f bc
       0.09670078 -0.008562192 0.075315 -0.013659577
000320 f1 fd 8a bd ab 09 5a be 26 ea 50 bd 77 8c 62 3e
       -0.06786717 -0.2129275 -0.05100455 0.22123896
000330 ac 7f 0c be 00 f7 26 be 4f 8b 17 3d df 91 e5 bd
       -0.13720578 -0.1630516 0.03699809 -0.11209463
000340 29 c1 35 3e e2 74 e0 3d d1 a1 1f 3e 11 72 08 3e
       0.17749466 0.109597936 0.15589072 0.13324763
000350 e8 4c 39 be a5 72 f1 bd 6b 33 05 bd 31 20 ab 3e
       -0.18095744 -0.11789445 -0.03251974 0.33422998
000360 fa 92 eb 3d df 1a 7e bc e0 a0 9a 3d a8 5b 57 3c
       0.11502643 -0.015509336 0.07550216 0.013144411
000370 cb 5c 95 bd ac 70 b0 3d 40 35 17 be 7b 75 b9 bc
       -0.072930895 0.086152405 -0.14766407 -0.022639027
000380 1f 67 24 be 6a 22 88 3d aa 5e 5e 3d 24 b3 e7 3d
       -0.16054963 0.06647189 0.054289497 0.11313465
000390 47 10 0b 3c 64 0b 36 be bc 0d e7 bd cb 2d 26 bd
       0.008487768 -0.17777783 -0.112819165 -0.040571015
0003a0 e7 ef 89 3c d5 62 ac 3e f6 39 54 3d 5f 71 17 3c
       0.016838027 0.33669153 0.05181309 0.009243338
0003b0 d9 5b bf 3d 11 f2 a6 be fc e1 c4 be 18 80 c8 be
       0.093436904 -0.32606557 -0.38453662 -0.39160228
0003c0 52 30 91 3d f5 ca 32 3c 59 8b c4 3d 6d 30 01 be
       0.070892945 0.010912647 0.09596891 -0.12616129
0003d0 7c 8b 90 3d 5f c9 89 be c7 c8 a2 bc 59 8c 07 be
       0.070578545 -0.26911446 -0.019871129 -0.13237132
0003e0 77 c9 34 bd 8a ff 2f 3e 53 66 2b be a2 c6 47 be
       -0.044137444 0.17187324 -0.16738252 -0.19509366
0003f0 88 ad a3 3d c2 7b c3 bd 1a ed 87 bd b9 57 fa bd
       0.07992083 -0.09545089 -0.066370204 -0.12223763

_module.mlp.0.bias f4 [128]
000000 69 1f 7c be 2d f9 06 3c c1 2e b5 bd 10 03 72 be
       -0.24621357 0.008238119 -0.08846808 -0.23633981
000010 f6 07 36 be 72 5f 19 3e b9 46 ae bc ac ce c2 bd
       -0.17776474 0.14977816 -0.021273958 -0.09512076
000020 32 8a 67 3e 97 94 0d 3d b2 d8 3b bd 99 b4 4c be
       0.22611311 0.034565534 -0.045860954 -0.19990768
000030 30 b3 6c 3d 0d eb c4 3d df be ca 3d 9b e4 b2 3e
       0.057788074 0.09615145 0.09899687 0.34940037
000040 9a 83 11 3e 49 24 65 3e 0d 5b 4a 3e 34 b6 01 be
       0.14210358 0.22377123 0.19761296 -0.12667161
000050 b6 e9 cb bd c3 9c 3e 3e 37 67 33 3e bd b1 bf 3d
       -0.09956686 0.18614487 0.17519842 0.09360073
000060 f3 41 20 bd 8f e2 97 bd ba 5f 90 be 9c a3 65 3e
       -0.039125394 -0.074162595 -0.28198034 0.22425693
000070 be e2 c0 3d c9 bc 20 be be a6 de bd 4a c0 0f 3d
       0.09418248 -0.15697016 -0.10871647 0.03509549
000080 32 fc a3 3d 5d 35 61 3e 41 00 7c be 6a 2a b5 3d
       0.08007087 0.21993013 -0.24609472 0.088459805
000090 43 d4 e1 3d 3d 0f dc bd 63 73 2f be b2 63 95 3d
       0.11026814 -0.10745094 -0.1713386 0.07294406
0000a0 b7 d8 9e 3b 4e 1e d9 bd c6 d7 91 3d 2c 34 fb 3b
       0.0048476118 -0.10601483 0.07121234 0.0076661315
0000b0 67 e6 aa be b2 c7 7a 3e c3 cf 24 bb f6 48 8e be
       -0.33378908 0.2449024 -0.002514825 -0.2779004
0000c0 9f b2 51 3e ed 4b 3e 3d b6 77 1f bd 0a 70 4d bd
       0.20478295 0.046459127 -0.038932525 -0.050155677
0000d0 0a b1 9b 3e 81 bb 22 be 8a c1 17 3c b9 71 1f bd
       0.30408508 -0.1589184 0.009262452 -0.038926814
0000e0 df 4e 84 bd bd d6 2b bc ae 14 88 bd c6 d5 5b 3d
       -0.06460356 -0.010488209 -0.06644569 0.053670667
0000f0 1c 53 d9 3e 22 29 2f be c8 89 30 3e 9e d7 b7 bd
       0.4244622 -0.17105535 0.1724006 -0.089766726
000100 64 93 86 3e 25 ee 27 3d 7e 34 86 bc f4 e7 3d 3c
       0.26284325 0.040998597 -0.016382452 0.0115909465
000110 80 3d 9b be 66 70 01 be da 09 12 be af 1a 06 be
       -0.30320358 -0.12640533 -0.1426157 -0.13096116
000120 c1 cb b7 3d 37 5f 4d 3e 6f 75 a9 3e 11 76 b3 be
       0.0897441 0.20055853 0.33097407 -0.35051015
000130 09 75 80 3d bf 42 0a be 1f e6 0f be 75 aa 81 bd
       0.06272323 -0.13502024 -0.14052628 -0.0633134
000140 73 a6 0c be 99 f9 a2 3e 78 84 0f bd a4 91 0d 3e
       -0.1373537 0.31831053 -0.03503844 0.13825089
000150 6d f0 2a 3e 2a 24 03 3e d0 a6 e3 3c 32 57 8f bd
       0.16693278 0.12806764 0.027789503 -0.06999053
000160 09 62 31 bd 80 a1 0e 3e 6c 09 6e be 22 97 35 3e
       -0.043306384 0.13928795 -0.23245782 0.17733434
000170 f3 1e c3 bd 22 4d 1d 3e e6 7e 7a be 0e 6c 26 be
       -0.095273875 0.15361455 -0.2446247 -0.16252157
000180 af 02 60 3e 19 81 f0 bc d8 6e b8 3e 25 30 ad bc
       0.21876024 -0.029358434 0.36022067 -0.021141121
000190 7d 28 95 bd 6d 97 9c bd 78 49 30 bc 80 8d bb bd
       -0.07283113 -0.0764607 -0.010759704 -0.09157848
0001a0 56 48 bd 3d 08 72 41 be c2 5c 6d 3e f3 af 51 bd
       0.092423126 -0.18891156 0.23179916 -0.05119319
0001b0 9a 89 dc bd 2d e1 68 be b8 69 7e be a4 21 5b be
       -0.10768433 -0.22742148 -0.24845016 -0.21399552
0001c0 49 30 8a 3e 79 be 11 be 91 6e dc 3c 58 c8 2b be
       0.26989964 -0.14232816 0.02690819 -0.16775644
0001d0 d3 9b fb bc 75 2a 34 bd c7 23 a8 bd e0 40 b2 bd
       -0.030713951 -0.043985803 -0.08209949 -0.0870378
0001e0 8a 28 b3 bd 74 98 4b 3e 63 07 f7 bd c8 0c a7 ba
       -0.087479666 0.19882375 -0.12061956 -0.0012744898
0001f0 56 04 c9 3d 86 b7 bd bd c9 ee 0c 3e cc 51 6b bd
       0.0981528 -0.0926352 0.13762964 -0.057451054

_module.mlp.1.weight f4 [128]
000000 27 c1 83 3f c6 0f 56 3f cc cd 8a 3f 3d a0 7f 3f
       1.029332 0.8361782 1.0844054 0.9985388
000010 b9 5d 88 3f 64 25 85 3f b9 56 73 3f 2a a3 89 3f
       1.0653602 1.0402036 0.95054203 1.0752919
000020 dd 24 5d 3f 7b bc 89 3f c1 bd 7b 3f 56 43 87 3f
       0.86384374 1.0760645 0.98336416 1.0567424
000030 c7 27 8c 3f 51 82 8d 3f a7 a8 76 3f a1 8f 89 3f
       1.0949639 1.1055394 0.96351093 1.0746957
000040 97 8e 82 3f 05 73 6e 3f 41 4d 6a 3f e3 43 8e 3f
       1.0199765 0.93144256 0.9152413 1.1114467
000050 8f b2 82 3f 2a 35 7a 3f a1 54 68 3f 0c 97 69 3f
       1.0210742 0.9773737 0.90754133 0.91246104
000060 5a 61 8a 3f 39 db 87 3f 14 58 8d 3f a5 31 8d 3f
       1.0810959 1.0613776 1.1042504 1.1030775
000070 c9 d9 69 3f 6f 37 95 3f 3a f9 58 3f f5 aa 6b 3f
       0.9134794 1.1657542 0.8475529 0.92057735
000080 19 d3 7b 3f a5 15 85 3f cb 37 89 3f 6a ff 7d 3f
       0.98368984 1.039723 1.0720152 0.99217856
000090 aa fe 87 3f 5c 62 66 3f c7 f8 89 3f 39 2e 7d 3f
       1.0624592 0.89993834 1.0779046 0.98898655
0000a0 a9 c9 82 3f dd 09 5f 3f cb 54 55 3f 4f 50 5c 3f
       1.0217792 0.87124425 0.8333251 0.8606004
0000b0 fb 16 75 3f b6 1d 90 3f f9 be a8 3f 10 64 83 3f
       0.9573819 1.1259067 1.318328 1.0264912
0000c0 91 42 87 3f f3 c8 7d 3f d7 46 75 3f 25 6a 5d 3f
       1.056719 0.9913475 0.9581122 0.8649009
0000d0 6f e1 68 3f af 72 6b 3f 84 7e 72 3f 60 df 7d 3f
       0.90968984 0.9197187 0.947243 0.9916897
0000e0 f5 a4 54 3f 42 ad 7d 3f c9 74 6b 3f c3 5d 65 3f
       0.83064204 0.99092495 0.91975075 0.89596194
0000f0 c8 1e 9e 3f a9 b7 7c 3f a2 de 79 3f a0 ee 83 3f
       1.2353144 0.98717743 0.97605336 1.0307198
000100 b3 02 82 3f b6 a8 61 3f 2a 32 7f 3f b8 ab 90 3f
       1.0157074 0.8814806 0.9968592 1.1302404
000110 19 89 6a 3f d3 78 60 3f 3c ef 87 3f ff fe 5e 3f
       0.91615444 0.87684363 1.0619884 0.87107843
000120 98 05 8d 3f 0a 43 77 3f fc 4a 8f 3f c4 51 7d 3f
       1.1017332 0.9658667 1.1194758 0.9895289
000130 d7 7b 7b 3f 50 9c 81 3f c4 d4 4e 3f cc 35 86 3f
       0.9823584 1.0125828 0.80793405 1.0485168
000140 2c eb 86 3f a1 aa 89 3f b1 ca 84 3f 34 95 60 3f
       1.0540519 1.0755197 1.0374357 0.87727666
000150 11 26 84 3f 4c 93 83 3f 9a 7e 80 3f 24 65 5e 3f
       1.0324117 1.0279326 1.0038636 0.8687308
000160 a0 8e 73 3f 19 04 45 3f 41 a2 8b 3f 1a dd 68 3f
       0.95139503 0.7695938 1.0908891 0.90962374
000170 fc 34 58 3f d5 db 85 3f 5d 3a 84 3f d5 44 83 3f
       0.8445585 1.0457712 1.0330311 1.0255381
000180 84 ea 90 3f 16 79 86 3f aa 66 99 3f a7 32 62 3f
       1.1321568 1.0505702 1.1984456 0.8835854
000190 18 9c 4c 3f b2 1f 71 3f d7 92 69 3f 60 b3 53 3f
       0.7992568 0.9418899 0.91239685 0.8269558
0001a0 68 23 63 3f 74 ad 52 3f ec 1e 5a 3f 1b dc 68 3f
       0.887259 0.8229592 0.85203433 0.90960854
0001b0 e1 94 72 3f f3 f9 83 3f b5 47 98 3f 54 df 5d 3f
       0.9475842 1.0310653 1.1896883 0.86668897
0001c0 00 48 90 3f 7c 22 77 3f 39 33 5c 3f 55 df 72 3f
       1.1271973 0.96536994 0.8601566 0.9487203
0001d0 f6 e6 80 3f 6d b1 69 3f 75 7e 85 3f c7 b9 a8 3f
       1.0070484 0.91286355 1.0429217 1.3181695
0001e0 de 23 91 3f a1 90 8f 3f 25 f2 5f 3f 6d 07 7b 3f
       1.1339071 1.1216012 0.8747886 0.98058206
0001f0 2a fc 7c 3f 40 80 6c 3f 23 85 8b 3f 93 57 8b 3f
       0.9882227 0.92383194 1.0900005 1.08861

_module.mlp.1.bias f4 [128]
000000 32 d8 96 bd 15 4d 93 3c e0 2e 16 3a 66 e0 be bd
       -0.07365455 0.017981092 0.0005729031 -0.09320144
000010 43 5b 2e be f6 34 80 3a 09 07 33 3e 21 0d b7 bd
       -0.17027001 0.0009781409 0.17483152 -0.08938051
000020 a6 c6 08 be 44 ba 24 be b4 45 38 3d a9 ee 11 be
       -0.13357028 -0.1608668 0.04498835 -0.14251198
000030 00 a6 91 be 15 b0 80 be 1c 5a bf 3c c4 84 bf 3d
       -0.2844696 -0.2513434 0.023358397 0.09351495
000040 16 7f b1 3d fe b9 1b bd 7d 19 00 3b 67 e4 62 3d
       0.08666818 -0.038019173 0.0019546442 0.055393603
000050 18 98 02 3c 2d e5 33 be 40 0b eb bd f0 73 17 be
       0.007970832 -0.17567892 -0.11476755 -0.1479032
000060 9d 07 a5 3c 46 f3 54 3d c3 23 48 bc 42 84 fb bd
       0.020145232 0.051989816 -0.0122155575 -0.122810856
000070 29 b9 c7 bd 6e 14 b8 bd c1 be 37 bd 67 a9 76 be
       -0.09752113 -0.08988272 -0.04485965 -0.2408806
000080 a2 02 15 bd 07 0f 30 bc 4f b8 03 bd a4 e2 55 3e
       -0.036379464 -0.01074577 -0.032158192 0.20887238
000090 41 66 da 3d 39 65 43 bd dc bd 90 bc 23 01 1d 3d
       0.10664035 -0.047703955 -0.017668657 0.038331162
0000a0 c5 e3 80 3d e7 6a 09 3e 4e 82 6c 3d 21 05 11 3d
       0.062934436 0.13419686 0.057741456 0.035405282
0000b0 5a 4d 84 3d 70 19 ba bc a4 77 b1 ba d9 ec cc 3d
       0.06460066 -0.022717208 -0.0013539684 0.100061126
0000c0 b3 82 78 3d 89 ca 47 bb 32 78 bf bd 5f 18 ce bd
       0.06067152 -0.003048571 -0.09349097 -0.10063242
0000d0 13 9a 87 bd 2f fa 2d 3c f8 87 55 bd 65 ce 86 bd
       -0.06621184 0.01061873 -0.052131623 -0.065823354
0000e0 87 0e 53 bd 13 1c 91 b9 0f f2 66 bc 65 a7 5a 3c
       -0.051527526 -0.00027677472 -0.014095797 0.013345574
0000f0 5f ee 8a bc b9 28 d8 3d ff 8c ab 3c 72 39 b5 bd
       -0.016959367 0.10554642 0.020941256 -0.088488474
000100 65 1f bf 3c 93 b9 71 bd 68 d8 38 be 87 90 10 be
       0.0233304 -0.059014868 -0.18051302 -0.14117633
000110 63 2e 39 3d 99 99 dd 3d e4 f4 c7 3c bc b8 fa bd
       0.045210253 0.10820312 0.024408765 -0.122422665
000120 d5 9d 27 be 9b 21 1a 3e 00 8f 3b bd c8 dd 02 bd
       -0.16368802 0.15051882 -0.045790672 -0.03194979
000130 63 fc a0 3d 1b fb df 3d 20 5c e2 bd 32 40 1b bd
       0.07860639 0.109365664 -0.11052728 -0.03790302
000140 a4 26 b6 39 c5 3b 08 bd 7d 07 a8 3d 66 e7 30 be
       0.00034742535 -0.033260126 0.08204553 -0.17275771
000150 26 7d 28 be 7a 16 db bb 21 09 9d bd 1a 3d de 3d
       -0.1645399 -0.006686029 -0.07667757 0.10851498
000160 1e 94 02 3c 97 c5 ff bd 7c f0 0f 3d 7c 32 08 3e
       0.007969884 -0.12488859 0.035141453 0.13300508
000170 eb 37 26 3c 6d 92 a4 bd a9 31 df bc 92 70 fe bc
       0.010145168 -0.08035741 -0.02724536 -0.031059537
000180 7a c9 d8 3d 3d 10 41 bd fb d8 9e bb 5f 80 18 3c
       0.105853036 -0.047134627 -0.0048476434 0.00930795
000190 ff 60 8c bd 93 9a 9c bd 64 56 6e 3e 33 ae 54 bd
       -0.06854438 -0.0764667 0.23275143 -0.05192394
0001a0 71 19 be 3d cf ec 06 3e 51 73 dd bd bf 0d cc 3d
       0.09282196 0.13176273 -0.108130105 0.09963559
0001b0 54 f5 d1 bd 0f ec 1b 3c 50 ff 23 bd fa 5b c9 3d
       -0.10251871 0.00951673 -0.040038407 0.09831996
0001c0 07 15 e2 bc 38 c9 d8 3d cd 15 e9 bd 8d c9 03 be
       -0.027597917 0.105852544 -0.11381111 -0.12869854
0001d0 bf 9d fd bc 4a e5 c9 bd 1e df 2b 3d fa 0b 43 3c
       -0.030959008 -0.098581865 0.041960828 0.011904711
0001e0 92 d8 70 bd 88 53 68 be 00 3a 2e be c7 2f 21 bd
       -0.058800288 -0.22688115 -0.17014313 -0.039352205
0001f0 8f ee 7c bc 8f d2 ce 3d 25 bf e7 3d 67 fd c3 bd
       -0.015437736 0.100987546 0.11315755 -0.09569817

_module.mlp.4.weight f4 [64, 128]
000000 b6 60 c3 bc f1 66 70 3d 01 ba 54 3e 28 68 20 3e
       -0.023849826 0.058691923 0.2077408 0.15664732
000010 74 3f ed 3d fd ff 15 3e ac 1b 89 3d db 7d 8a 3c
       0.11584368 0.14648433 0.06694731 0.016905716
000020 c6 cb 35 3e 72 ec f4 39 58 5a d4 bd 15 c2 9d bc
       0.17753515 0.00046715472 -0.10368794 -0.019257585
000030 a1 f9 62 be 7c 5f 08 bd bb c4 f9 3d ca ce 09 3e
       -0.22165538 -0.033294186 0.121957265 0.1345779
000040 f3 0d c0 3d ba 3c 7a 3e 4c 9c 60 bd 72 16 6a be
       0.093776606 0.24437228 -0.054836556 -0.22860125
000050 8b 7c b8 bc 01 bb c5 bd 07 48 15 3d 64 15 a0 bd
       -0.022520324 -0.09654809 0.036445644 -0.0781658
000060 13 09 57 bd 36 27 08 3d 70 3f b3 bc c8 60 b3 3d
       -0.05249889 0.03324052 -0.021880835 0.08758694
000070 75 c6 3f bc 45 ff 37 3d bf d2 09 be ee 64 e6 3c
       -0.011705031 0.04492118 -0.134593 0.028124299
000080 c0 1b 9c bd 42 78 05 3e 54 db e4 bd 85 72 26 ba
       -0.076224804 0.13034156 -0.11174646 -0.0006349462
000090 5a 16 90 3d 94 2d 37 3d 46 d2 2d be 11 2e 52 bd
       0.07035513 0.0447212 -0.16974744 -0.051313464
0000a0 fa 8f a9 bd 31 4b 04 3d c7 7a 50 be 5c be 05 bc
       -0.082794145 0.03229827 -0.20359336 -0.008163061
0000b0 52 68 c2 3c 92 a8 39 3e 9c c6 4b 3c dd db 50 bd
       0.023731384 0.1813071 0.012437489 -0.050990928
0000c0 51 f8 60 bd d4 e8 b7 bd 5c 60 38 3d 46 ff 8a bd
       -0.054924313 -0.08979955 0.04501377 -0.06786971
0000d0 c9 5b b8 3c bf 31 6e 39 26 80 05 3d 95 63 71 3e
       0.022504704 0.0002271598 0.032592915 0.23573144
0000e0 31 a1 35 3d 9d f8 dd bc b9 fb 87 bd c5 36 10 3e
       0.044343177 -0.027096087 -0.06639809 0.14083393
0000f0 30 2f 44 bd d5 30 d7 3d 22 03 9b bb 88 01 38 3c
       -0.047896564 0.10507361 -0.004730598 0.011230834
000100 81 09 18 3c d2 18 83 bd b3 fd e0 3d 9b 9b 38 3c
       0.00927961 -0.064012185 0.10985889 0.011267568
000110 96 af 6a bc 87 6d 57 3d 1d 80 44 be fb 2e 95 3d
       -0.0143240895 0.052594688 -0.19189496 0.072843514
000120 41 9c 8f bd 74 1b c1 3c 41 bd 2f be 53 45 8d be
       -0.07012225 0.023572661 -0.17162038 -0.27591953
000130 29 30 59 3c ab 1e ac bd 70 17 78 3c c3 da b3 bc
       0.013256111 -0.08404287 0.015142307 -0.0219549
000140 16 ba 0a be 9f ff cd bc f1 f7 34 3d 38 32 af 3d
       -0.13547549 -0.025146304 0.044181768 0.085545
000150 50 26 a5 3d ad 95 f8 3d 15 61 ec 3d 36 20 65 3d
       0.08063948 0.121379234 0.115419544 0.055938922
000160 0e b7 4a 3e 39 62 00 3e 00 54 0b be 81 a6 7b be
       0.19796392 0.12537469 -0.13606262 -0.24575235
000170 98 20 53 bd 79 fb c9 bd bf 96 02 3e e2 9e 56 3c
       -0.051544756 -0.09862418 0.12752818 0.013099404
000180 7f 4f 08 3e fd 2d 06 be 12 4e 5d 3e 7c 3a a7 bc
       0.13311575 -0.1310348 0.21611813 -0.02041363
000190 fb f8 a3 bd 73 3a 39 be 02 4f 52 3d 6f ad 90 3c
       -0.08006474 -0.18088703 0.05134488 0.017660825
0001a0 67 c6 35 be 20 52 f3 3d 02 ce 99 bc 46 ca dc 3c
       -0.17751466 0.118808985 -0.01877499 0.02695192
0001b0 de 03 62 bd 95 19 19 be b0 1e a6 bc 49 4d 4b bc
       -0.05517947 -0.14951165 -0.020278305 -0.012408563
0001c0 eb 92 80 3c 8f 03 80 be ed 86 03 bd 49 6d 4e bd
       0.015695056 -0.25002715 -0.032111097 -0.05039719
0001d0 23 00 ee 3d f9 68 f6 bb 4c ef b2 bd 69 1b c3 3d
       0.1162112 -0.007519838 -0.087370485 0.095267124
0001e0 12 10 27 3e 60 b8 c1 bd 3c 8e 93 be 9f 06 55 3d
       0.16314724 -0.09458995 -0.28819454 0.052008267
0001f0 0d 59 f6 bd d5 5a 23 3e ac 39 09 be 52 02 26 3e
       -0.12028704 0.15952618 -0.13400906 0.16211823
000200 0a b4 c9 bc 37 d4 2d be 3d e6 41 3e 96 d1 6a bd
       -0.024621982 -0.16975485 0.18935485 -0.057328783
000210 77 29 57 3d 8e 99 a3 bd ac 13 b1 3c 26 b6 91 3d
       0.05252978 -0.079882726 0.021615826 0.0711482
000220 d4 16 2b 3e 22 ec a1 bd 48 56 ca 3d 16 e3 82 bd
       0.16707927 -0.07906367 0.09879738 -0.063909695
000230 02 eb 97 bd 69 2a ea bc 58 75 fb bc 8b 4f 2d 3d
       -0.07417871 -0.028584676 -0.030695602 0.042312186
000240 1a 4c 73 be f8 7a 54 bd 33 64 1a 3e 35 c6 b2 3d
       -0.23759499 -0.051875085 0.15077285 0.08729211
000250 8f 19 2d bd 2c 94 17 be 7a f4 88 bc 27 9a c2 bd
       -0.042260703 -0.14802617 -0.016718138 -0.095020585
000260 c8 1e 71 3d 78 ba bd 3d 57 c6 45 3d ad de b5 3d
       0.058867246 0.09264082 0.048284855 0.08880363
000270 e9 87 57 3d ce a1 03 bd 75 75 af 3d 9f b6 2b bd
       0.05261985 -0.03213673 0.08567325 -0.041922208
000280 83 81 b2 bc 39 93 77 3e a3 bb 4b 3c f5 1a 56 bd
       -0.021790272 0.24177255 0.012434873 -0.052271802
000290 ce 0f b7 bc 5d 38 28 3e bc 2c a6 3d 87 00 fa bd
       -0.022346403 0.16427751 0.08114001 -0.12207132
0002a0 8c c8 36 3e 22 39 cb bd 44 d1 24 3e db b9 27 bd
       0.1784994 -0.099230066 0.16095454 -0.04094873
0002b0 50 f1 07 be 8e 7e 4d be b4 4a 36 3d f7 37 54 bd
       -0.13275647 -0.20067808 0.044504836 -0.051811185
0002c0 a4 fc de bd cc b9 73 3d 85 3a 9f 3c f1 f9 9d 3d
       -0.10888031 0.05950336 0.019437084 0.07713688
0002d0 22 3c 3c 3e 90 1d ae 3d 5b b9 70 3d 63 42 99 3d
       0.18382314 0.08501732 0.05877052 0.074833654
0002e0 1f 00 c5 bc 5f f9 00 be 27 66 20 bd 85 57 18 be
       -0.02404791 -0.12595128 -0.03915992 -0.14877136
0002f0 f4 2b 52 be 5b ac 09 3e da 48 6f 3d 86 f9 f7 bd
       -0.2052458 0.13444655 0.058419086 -0.1210814
000300 8d cf f0 3d e4 6e 86 3d 63 9d eb bd 8d ee 10 3e
       0.11758337 0.065641195 -0.115046285 0.141535
000310 3a 3b a7 bd 3a bd 5f 3b f3 3f f3 b9 ba ed fb 3c
       -0.081655934 0.0034139887 -0.00046396218 0.030753005
000320 76 48 21 bd 8b 84 b8 bd 82 f1 02 bc 8c 13 e0 3d
       -0.039375745 -0.090096556 -0.00799215 0.10941228
000330 93 aa 90 3c ee 15 41 bd f3 93 ec bc 66 f8 93 3c
       0.017659461 -0.047140054 -0.028879141 0.018062782
000340 69 30 2a 3d dc dc 94 3d 63 93 dd 3a 02 f1 8b 3d
       0.041550074 0.07268688 0.0016904887 0.06833078
000350 b2 68 d3 bd 2e f5 a4 bd 4a 99 83 bd 99 8a 10 3d
       -0.103227034 -0.08054577 -0.06425722 0.035288427
000360 45 70 3c be 97 68 91 bd 2e a1 ed bd ce 5a e2 bd
       -0.18402202 -0.07100027 -0.11603008 -0.11052476
000370 2c 59 51 3e 30 f7 81 ba b4 75 df 3c 48 fb 08 bd
       0.20444173 -0.0009915587 0.027277805 -0.033442765
000380 f7 97 22 3e 7e 62 c9 bd 85 7e 68 3d 16 70 af 3d
       0.15878282 -0.09833239 0.056761283 0.085663006
000390 77 ce 84 3e d7 d2 af 3c 6d 56 8e 3e 2a 84 19 be
       0.2593877 0.021462841 0.27800313 -0.14991823
0003a0 42 a3 d3 3c 09 d1 5e 3e 84 d6 66 3d 9b f8 be 3c
       0.025834683 0.21759428 0.05635692 0.023311904
0003b0 a5 f9 81 3e ec 8d 8d bd 98 a3 6b be c8 4e d9 3d
       0.25385776 -0.06911835 -0.23011625 0.106107295
0003c0 9a 6c a1 bd 51 cf ea bc f9 05 13 be 87 f4 b7 3d
       -0.07882042 -0.02866331 -0.14357747 0.08982187
0003d0 d2 09 13 3d 84 35 f2 3d 13 0a 0e 3e e4 a5 2b be
       0.035898037 0.118266135 0.1387103 -0.16762501
0003e0 80 b8 1e be c9 1d 51 be 9a 29 01 bd 55 3f 6d bd
       -0.15500069 -0.20421518 -0.031533815 -0.057921726
0003f0 de 3a 0a 3c 11 bb 90 3d 06 46 c7 3b 6f c6 6b 3c
       0.008436887 0.0706693 0.0060813455 0.014390572

_module.mlp.4.bias f4 [64]
000000 6a 96 5c 3e b0 34 d6 bd 02 02 f0 3d 09 43 2e bd
       0.21541753 -0.10459268 0.11719133 -0.0425444
000010 7d 6b 2d 3d a4 5c e4 bb 5a 5a 65 3e a4 08 d0 3c
       0.042338837 -0.0069690514 0.22397748 0.025394745
000020 4d 53 4e be 1d 1f 08 3e 19 47 0e bb 19 99 05 3e
       -0.20148964 0.13293119 -0.0021709858 0.13046683
000030 fd d4 9f 3d 16 8d a2 bd d4 f6 16 bd 4e 54 ec bd
       0.07804296 -0.07937066 -0.036856487 -0.11539517
000040 7d 74 fc bb 59 13 4c be a4 f2 37 be 4b 92 a8 bc
       -0.007704316 -0.19929256 -0.17963654 -0.02057757
000050 53 69 1f 3b 29 07 cf be db e3 d6 3d 0a b7 f7 bb
       0.0024324253 -0.4043515 0.10492679 -0.0075596618
000060 2f 48 b7 bd 63 e8 18 3d fc 90 48 be 56 fe 2c be
       -0.08949315 0.037330996 -0.19586557 -0.16893896
000070 22 8d 34 bd 47 a2 8d 3d ec e0 c2 bb 74 c7 cd bd
       -0.044079907 0.069157176 -0.005947223 -0.10047808
000080 2e 8d c2 3b b6 df d8 bd b6 d2 a9 bd 80 97 cd 3b
       0.00593724 -0.105895445 -0.08292143 0.0062741637
000090 1e 86 6f bc da 1f 2c be 0d 93 30 bd 50 e1 a5 3d
       -0.014619378 -0.16809025 -0.04310899 0.080996156
0000a0 5d 41 56 3d 62 a5 72 3d e8 8d 8e 3d 5e 25 d7 3d
       0.05230843 0.059239753 0.0696066 0.10505174
0000b0 b6 26 f7 3c c0 2d b4 3d a8 b7 2d 3e 6d 4c 2e bd
       0.030169826 0.087977886 0.1696459 -0.042553354
0000c0 10 bd c0 bc 5b 8c 0c 3e af ed 04 be a1 9a 05 bc
       -0.023527652 0.13725416 -0.12981294 -0.008154542
0000d0 5a 4e 8c 3d e8 95 a7 3d 00 e2 c5 bd 66 44 43 3d
       0.06850882 0.08182889 -0.09662247 0.04767265
0000e0 0b c2 eb bd 1f 20 f6 3d c3 97 2b 3d e3 ee 76 3d
       -0.1151162 0.12017845 0.041892778 0.060286414
0000f0 7a 09 57 bd 17 5a db 3b 0b 73 6b 3c 7f 70 82 bd
       -0.052499272 0.006694089 0.01437069 -0.06369113

_module.mlp.5.weight f4 [64]
000000 11 02 98 3f e9 29 72 3f 89 1d 87 3f 7b be 87 3f
       1.1875631 0.945952 1.0555888 1.0605005
000010 d6 bf 82 3f 29 db 6d 3f 16 f8 57 3f 6b ab 7c 3f
       1.0214794 0.92912537 0.84362924 0.98699063
000020 d3 97 86 3f 22 30 88 3f 3f 7d 99 3f ca a0 9f 3f
       1.0515083 1.0639689 1.1991347 1.2470944
000030 31 6a 81 3f 99 b7 80 3f 5d 65 9e 3f 09 79 a3 3f
       1.0110532 1.005603 1.2374684 1.2771312
000040 be 2b 5b 3f 31 63 8b 3f 11 06 98 3f 64 56 66 3f
       0.8561362 1.0889646 1.1876851 0.8997557
000050 53 8f 81 3f 28 9d a3 3f 6f df 78 3f 9a 13 4b 3f
       1.0121864 1.2782335 0.9721593 0.79326785
000060 15 3a 8a 3f 66 a1 77 3f 0c c8 94 3f 2b 1b 8c 3f
       1.0798975 0.9673065 1.162355 1.0945791
000070 10 8d 96 3f bf 82 97 3f 8d cf 88 3f 5d 0f 8f 3f
       1.1761799 1.1836776 1.068834 1.1176564
000080 fe 1e ad 3f cf 1f a7 3f 99 b3 6c 3f 9c 33 88 3f
       1.3525083 1.3056582 0.92461544 1.064075
000090 86 dc 85 3f 84 13 9d 3f 37 13 91 3f 8b 29 6a 3f
       1.0457923 1.2271581 1.1333989 0.9146964
0000a0 0b c5 8a 3f 76 57 a6 3f 47 49 9c 3f b0 4b a0 3f
       1.0841383 1.2995441 1.2209862 1.2523098
0000b0 76 7f 91 3f df 75 8c 3f ae 62 6d 3f 47 06 8e 3f
       1.1367023 1.0973471 0.927287 1.1095666
0000c0 17 fa 90 3f 84 60 46 3f 88 1c 85 3f 50 e8 73 3f
       1.1326321 0.7749102 1.0399332 0.95276356
0000d0 32 6d 9a 3f 8c a8 6c 3f 51 e3 82 3f e6 00 82 3f
       1.2064574 0.9244468 1.0225621 1.0156524
0000e0 64 7f 6d 3f ba 5e 9c 3f ae f4 6e 3f ff 01 8b 3f
       0.9277251 1.2216408 0.933421 1.0859984
0000f0 24 6c b0 3f 7f 1c 95 3f 01 13 80 3f 0e a6 8d 3f
       1.3783002 1.1649321 1.00058 1.1066301

_module.mlp.5.bias f4 [64]
000000 2d 20 41 3e d1 e5 0a be 9d 14 47 3d cf 2b 94 3c
       0.1885993 -0.1356423 0.048603643 0.018087296
000010 ca d8 57 bd 31 03 47 bc 48 1c 90 3d 76 d0 6d 3d
       -0.05269698 -0.012146757 0.07036644 0.058060132
000020 35 2c 52 3d 72 56 9e 3c 93 7f b1 3d e9 aa e4 3d
       0.05131169 0.01932833 0.08666911 0.11165411
000030 02 c0 bc 3d 3f 92 58 3d 09 1a 0a 3e 52 62 0b 3e
       0.0921631 0.052873846 0.13486494 0.13611725
000040 39 fe 2a 3e e5 a0 9b bd bd b2 fc bd 7c ed 02 3b
       0.16698541 -0.075990476 -0.12338779 0.0019977977
000050 a6 e9 66 3d 83 92 88 3d 21 ab e6 3c 30 6c d1 bd
       0.05637517 0.0666857 0.028157772 -0.10225713
000060 c2 0a 1f bd 77 59 23 3e cd d0 e8 3b 15 2f f5 3d
       -0.03882862 0.15952097 0.007104969 0.11971871
000070 92 86 43 bc a9 11 6e bd 4e ce 5a 3e 83 ed b5 bd
       -0.0119339395 -0.05812231 0.21367761 -0.088831924
000080 f5 47 62 3d 93 3c 6e bd c2 24 a8 3c 9e 66 d2 bd
       0.055244405 -0.058163237 0.02052534 -0.10273479
000090 5f c6 61 bc 1c 73 63 3d 04 a8 31 bd c0 a7 c9 bc
       -0.0137802055 0.0555297 -0.043373123 -0.024616122
0000a0 7d 1b 1c bd 55 c8 f6 3c 0c a3 53 3c f7 88 69 3c
       -0.038112152 0.030124823 0.012917291 0.014253846
0000b0 63 87 bf 3d 8e ca 4c bd dc df 1b bb ed 66 4d 3c
       0.09351995 -0.04999786 -0.0023784554 0.012536746
0000c0 bd b1 96 3d 93 eb 4c 3e 84 2d f8 3d 92 bc bf 3d
       0.0735812 0.2001174 0.121180564 0.09362139
0000d0 b4 bf 8d 3c 5f bb 20 3e a1 2e 19 bc 40 a6 0a 3d
       0.017303325 0.15696476 -0.009349496 0.033849955
0000e0 18 41 ac 3a e2 19 31 3d c1 c5 01 bb 90 61 27 3d
       0.0013141958 0.043237574 -0.0019801708 0.040864527
0000f0 a2 91 55 3d 9c 1d c8 3d 79 dd 16 3c 22 6c 80 3c
       0.05214084 0.097712725 0.009208077 0.015676562

_module.mlp.8.weight f4 [5, 64]
000000 ab 75 83 3e b5 eb 6f bd ad 6d 93 3d f7 9b 2f 3e
       0.2567571 -0.058574397 0.07198653 0.1714934
000010 b0 e1 b2 3d 15 c5 0c be 00 81 8b 3e b9 04 13 3e
       0.08734453 -0.13747056 0.27246857 0.1435727
000020 d6 28 2e 3e 1b e6 4b be 84 10 9c be 9a d0 cc 3e
       0.17007765 -0.19911997 -0.3048135 0.400029
000030 b1 59 59 be bf 10 5e 3e 3f 13 99 3e f3 19 58 be
       -0.21225621 0.21686076 0.29897496 -0.21103649
000040 34 c1 ea 3e d5 bd b7 bd 13 9c be be b7 af 6d bd
       0.45850527 -0.089717545 -0.3722845 -0.058028903
000050 49 ab c4 3e 82 8e 23 be 94 7f 47 3d e9 16 cb bd
       0.3841193 -0.15972331 0.048705652 -0.09916479
000060 34 be b8 be 46 ec 8e 3e a3 71 95 3e 02 95 d6 3e
       -0.36082613 0.27914637 0.2918826 0.4191056
000070 ba 2a a6 be 69 f0 ed 3e 7a be d4 3e 8c ae 58 be
       -0.32454473 0.4647248 0.41551572 -0.21160334
000080 f2 2a 4b 3e a1 65 82 3e d2 9b 99 be 11 62 6d ba
       0.19840601 0.25468162 -0.30001694 -0.00090554456
000090 fd 4c a5 bc 27 1d 74 be 28 63 ad 3e cc 5e 2a 3d
       -0.020178312 -0.23839246 0.33864713 0.04159431
0000a0 22 0b 0b be 74 ab 05 3e 36 3d c7 3e 2b fe 3d 3e
       -0.13578466 0.13053685 0.38913888 0.18553989
0000b0 91 eb 61 be fc 50 41 be d1 4c 7f be e0 38 8c be
       -0.22062518 -0.1887855 -0.24931647 -0.27387142
0000c0 12 26 cb be d6 8c 58 be 19 c2 d8 3e c7 56 22 bd
       -0.39677483 -0.21147475 0.42335585 -0.03963354
0000d0 43 14 94 be 02 f1 36 bd 26 51 78 be 8f ed 30 3e
       -0.28921708 -0.044663437 -0.24249706 0.17278121
0000e0 87 69 3e 3d ac 0d 33 3d 46 35 72 be 47 e5 0f 3e
       0.046487357 0.04371421 -0.23653135 0.14052306
0000f0 d5 f8 03 bf f6 5e 81 be 15 80 17 3c b7 c7 a8 bc
       -0.5155156 -0.25267762 0.009246846 -0.020603044
000100 fc fc e1 be 22 06 08 bd c2 c3 48 3d aa c1 71 be
       -0.44138324 -0.033208974 0.049014814 -0.23609033
000110 22 f7 91 3d 11 85 d1 3d 9a 65 1b 3e 84 88 44 3e
       0.07127215 0.102304585 0.15175477 0.19192702
000120 06 62 04 3d 2f 83 67 3c 99 d9 06 3e 98 8d 1a 3e
       0.032320045 0.014130398 0.13168944 0.15093076
000130 4b 3c 83 3e 2a 9f 05 be 19 0a 87 3d a3 1d 51 be
       0.25631937 -0.13048998 0.06593723 -0.20421462
000140 18 b4 18 bc 10 b0 87 bd a5 fb 05 bd 4e 5b f2 3c
       -0.009320281 -0.06625378 -0.03271069 0.029584553
000150 5e c1 4c be 98 60 cf bd 16 65 46 3e d5 b0 a5 bc
       -0.19995639 -0.10125846 0.19374499 -0.020225922
000160 5a 9c 8e bc 74 90 48 3d e5 78 6f be a3 61 44 3d
       -0.017408539 0.048965886 -0.23385961 0.047944676
000170 6d 40 7a be fd 7f ba bd d9 6d 4c be 54 54 95 bd
       -0.24438639 -0.09106443 -0.19963779 -0.07291475
000180 a4 4a 95 bb 84 db 84 be 5e 94 a2 bd 5c ee a6 3c
       -0.004556017 -0.25948727 -0.07938455 0.02037733
000190 f4 99 25 be bf 02 0b 3d 00 69 89 be ef d8 96 bd
       -0.1617201 0.033938166 -0.2683792 -0.073655955
0001a0 9c cc 7d 3d 83 b1 d7 bb 9b 59 11 3d 00 28 50 bd
       0.06196271 -0.0065824403 0.035485845 -0.050819397
0001b0 dd 4c 23 3d 03 a7 cc bd 3f e5 92 bb 04 b5 81 3d
       0.039868224 -0.099927925 -0.0044828947 0.06333354
0001c0 ae 31 1f be e3 95 58 be 24 74 16 3e 08 26 73 3d
       -0.15546295 -0.21150927 0.14692742 0.05936244
0001d0 c7 93 1d be 6e 24 69 3d 8f 8a 9b 3c 8a e9 f1 3d
       -0.15388404 0.056919508 0.018986968 0.11812122
0001e0 f3 2b 42 bd d2 04 1a be b0 2b 0c be a2 48 51 3e
       -0.047405194 -0.15040901 -0.1368854 0.20437863
0001f0 a5 47 22 bc 7b 52 2d 3d 5c 3b 24 bd 6b 67 2f bd
       -0.009904777 0.042314988 -0.040095672 -0.042823236
000200 21 bc 9d bd c4 77 c8 bc 65 28 d3 3d a2 54 6c 3e
       -0.07701898 -0.024471171 0.10310439 0.2307916
000210 7b ac 78 3e c3 e2 2a be a1 b3 5c bc 1f dc c5 be
       0.24284546 -0.16688065 -0.013470561 -0.38644502
000220 51 d2 54 bd 6f 95 25 bd 4a 3c 30 bd d2 02 c5 be
       -0.051958386 -0.040425714 -0.043026246 -0.38478714
000230 f3 5d cf 3e 8b 2b dd 3d 7f 86 b1 3c 63 1c 19 3f
       0.40501365 0.10799321 0.021670578 0.5980894
000240 7f 70 1b 3e ce 84 8f be 99 57 64 3e 3d 64 18 3e
       0.15179633 -0.2803101 0.22299041 0.14881988
000250 05 cd 97 bd f5 58 f1 be f6 cf 7a 3e 99 d2 53 bc
       -0.07412151 -0.4713818 0.24493393 -0.012928628
000260 77 12 6f 3e 6e b8 0e be b5 e0 0c bd f5 14 d9 3d
       0.23346888 -0.13937542 -0.034393985 0.105997
000270 ef a1 4a 3e 31 73 5a be b4 4f 92 be 81 53 2c be
       0.19788335 -0.21333005 -0.28576434 -0.16828729
000280 6d 11 af be 97 e1 21 3d 53 36 f5 3c e0 d9 7b 3d
       -0.34192982 0.03952178 0.02993313 0.06148708
000290 be 76 07 be 40 2b dd 3c f5 4f a7 bd 03 b0 e4 3b
       -0.1322889 0.026998162 -0.081695475 0.00697899
0002a0 cd 7c ae bd 0d c1 21 be 9d c5 3d be fb e9 d7 3d
       -0.085198976 -0.157963 -0.18532415 0.10542675
0002b0 a7 2d ae 3e e6 89 14 3f 23 f9 cc 3c 99 a8 2e 3e
       0.34019205 0.58022916 0.025021141 0.17056502
0002c0 ff 1d d5 3e 62 24 6f bd c0 67 0b 3d b3 c9 99 bc
       0.41624448 -0.058384307 0.03403449 -0.018772935
0002d0 41 ac 54 3e a2 42 ca bd ba b9 be bd 6d 2f 02 be
       0.20768835 -0.098759905 -0.09312768 -0.12713404
0002e0 40 08 5b 3c 1d d1 06 3e 0f a7 3b 3c 89 10 ae be
       0.013368666 0.13165708 0.011453404 -0.3399699
0002f0 9c fe 2d be 68 6f 7a be 35 e9 8f 3c 5b f9 80 bd
       -0.16991657 -0.2445656 0.017567256 -0.06297561
000300 90 34 d7 be 06 af 55 bd 05 00 f8 bc 75 4a 86 3e
       -0.4203229 -0.05216887 -0.030273447 0.2622868
000310 97 af 8b be 86 b9 71 be e0 af 92 be cd 32 22 3d
       -0.27282402 -0.23605928 -0.28649807 0.03959923
000320 40 ac ef 3c 61 ba 0f 3e ac 2a 98 3d 95 e8 cd 3d
       0.02925694 0.14035942 0.07430014 0.10054127
000330 ef 0a b2 be 51 4b 17 3e 26 94 80 be 76 7b 98 be
       -0.34773967 0.14774825 -0.25113028 -0.29781693
000340 35 47 25 be f2 a9 a3 3e 25 35 39 3d c7 68 b1 bc
       -0.16140445 0.31965595 0.0452167 -0.021656407
000350 1b 9b 72 bd 94 25 0f 3f fc a8 ce 3d 7e 78 74 bc
       -0.05922995 0.55916715 0.10090825 -0.014921306
000360 fa a5 2e bd cf 4d d1 be b0 a9 6d be 49 84 97 be
       -0.042638756 -0.40879676 -0.23209262 -0.29593113
000370 f5 fa d0 3d 9d 21 7e be 2d cd 8b be d7 bf 99 bd
       0.10204116 -0.2481751 -0.27304974 -0.07507294
000380 56 23 3c be 94 6d 88 bd 32 41 a1 3d 36 a8 d5 3d
       -0.18372855 -0.06661525 0.07873763 0.10432474
000390 48 5a 57 3d 4f 6d 9b bd 45 e2 3a be 05 ef ff 3d
       0.052576333 -0.07589208 -0.18250377 0.12496761
0003a0 96 6f 80 3e 27 35 2d 3f 02 c8 1c 3d 7f 21 81 be
       0.25085133 0.6765923 0.03827668 -0.25220868
0003b0 f6 68 b4 be b1 c6 90 be 0b c5 3c 3c fb 9c 9e bd
       -0.3523633 -0.2827659 0.011521588 -0.077447854
0003c0 e4 f1 31 3e d4 e4 15 be 42 68 fd bd b6 ab f9 bd
       0.1737743 -0.14638072 -0.12373401 -0.121909544
0003d0 f5 1b 1a 3e da d5 00 3e ab c2 00 3e 3d 4f ab 3c
       0.15049727 0.12581578 0.1257426 0.020911807
0003e0 29 6d 1d be 16 d5 79 bd 86 1e 2f be c6 e1 b6 be
       -0.15373673 -0.06099423 -0.17101488 -0.35719126
0003f0 20 14 32 be 03 dc 2d 3f 02 b8 13 be c5 2f 00 3f
       -0.1739049 0.67913836 -0.14425662 0.5007289

_module.mlp.8.bias f4 [5]
000000 ea e8 18 bc d5 51 06 bd 4a 2c 25 3b b8 2b 11 be
       -0.009332875 -0.032792885 0.00252034 -0.14176834
000010 ba 9d ca 3c
       0.024733413

exp_avg f4 [128, 24]
000000 7e d7 d1 3a 64 be c1 39 65 e3 0e 3a 05 25 21 3a
       0.0016009656 0.0003695368 0.00054507545 0.0006147179
000010 3a 8b 22 3b fc 04 9a ba 0c ac 5a bb 59 95 e7 ba
       0.0024802224 -0.0011750753 -0.0033366708 -0.001766841
000020 df ce 18 bb 13 4c af 37 ed ad ff 39 fd b5 5d ba
       -0.0023316664 2.089705e-05 0.00048766975 -0.00084575993
000030 12 3a 54 3a ac c0 01 3a 3c 28 a8 3a 80 4a 15 3b
       0.00080958114 0.000494967 0.0012829374 0.002278
000040 78 c1 0d ba cd 02 66 b9 9b 97 fe 39 87 72 17 3b
       -0.0005407552 -0.00021935553 0.0004855961 0.0023109035
000050 fe 38 06 3b 47 91 d5 3a 76 77 14 3b 88 ea 91 ba
       0.0020480747 0.0016293906 0.0022654212 -0.0011132518
000060 67 85 59 ba a2 f3 93 ba 99 52 6e 3a 16 9a da b9
       -0.00082977716 -0.0011287818 0.00090912875 -0.00041695003
000070 a5 e9 9f ba 8e b3 4a ba 79 75 82 b8 3a a4 48 b8
       -0.0012200369 -0.0007732444 -6.220764e-05 -4.7836664e-05
000080 68 41 1a bb 0d d2 59 ba 8e 88 20 3b 9d 47 f5 b9
       -0.002353752 -0.0008309193 0.0024495455 -0.00046783398
000090 d8 14 e8 3a ce be 50 3b 0d a7 be b9 c2 66 4f ba
       0.0017706407 0.003185201 -0.00036364087 -0.00079117354
0000a0 56 4c d5 3a d3 f9 1e 3b 17 80 c1 39 41 56 4a b8
       0.001627336 0.0024257794 0.00036907263 -4.8240883e-05
0000b0 b8 0e 75 3a ef 49 5c b9 a5 49 06 bb 51 fa c6 b9
       0.00093482016 -0.00021008377 -0.0020490673 -0.00037952003
0000c0 b8 42 86 bb be 74 1c 3a 9d 72 1c bb 8d 28 46 bb
       -0.004097309 0.00059683237 -0.0023872026 -0.0030236572
0000d0 98 44 1d 3b 96 31 5a ba b3 ea 82 ba 1d 53 3a 3a
       0.0023997184 -0.0008323429 -0.0009988159 0.0007107722
0000e0 25 02 cb ba ca 5f 01 ba 5b c6 10 3b a2 88 d3 3a
       -0.001548831 -0.0004935233 0.0022090885 0.0016138742
0000f0 08 e9 ec 39 17 da 01 bb 69 52 0b 3b c7 62 98 3b
       0.0004518705 -0.001981383 0.0021258837 0.004650447
000100 72 cd 40 b9 62 ee d3 ba 0f 67 33 3a bf 16 34 bb
       -0.00018387081 -0.0016169066 0.0006843665 -0.0027479378
000110 e2 f8 6f ba 2a b3 c0 ba 4d 20 a4 ba fe fb 5f ba
       -0.0009154213 -0.0014701833 -0.0012521833 -0.00085443247
000120 f2 1a 97 b9 9a fe de b6 b9 0b 42 3b b7 3a ba 39
       -0.0002882104 -6.645755e-06 0.0029609038 0.0003552043
000130 41 ea 47 ba e0 23 86 39 8d 0b 1d 3b d7 ed 13 3a
       -0.0007626154 0.000255852 0.0023963184 0.0005643046
000140 28 72 4e ba d4 eb 85 bb 3b dc aa 3a 89 a0 f3 ba
       -0.0007875287 -0.004086951 0.0013035604 -0.0018587272
000150 0a 90 54 ba a3 e8 18 3a 0d be d8 ba a2 a4 04 3a
       -0.00081086217 0.00058330054 -0.0016536132 0.00050599326
000160 b8 69 78 b9 2d 4d 4e 3a 50 cf 58 bb a8 23 91 b9
       -0.00023690506 0.00078697765 -0.0033082552 -0.0002768312
000170 8d 31 d2 ba 38 60 c0 ba 2a 30 7a 3a 62 c8 11 3b
       -0.0016036496 -0.0014677113 0.000954392 0.0022244682
000180 48 dd 09 bb 4f a3 aa 39 b1 9e ba 39 68 7f 13 3a
       -0.0021036435 0.000325466 0.0003559492 0.000562659
000190 0c a2 34 bb 22 62 fc b8 2c c7 d9 3a 0e e3 c1 b9
       -0.0027562408 -0.00012034575 0.0016615144 -0.00036980998
0001a0 13 f0 9b ba b5 ef 32 bb fc d0 bb 39 da e1 cc 3a
       -0.0011897109 -0.002730352 0.00035823125 0.0015631274
0001b0 71 1a 3f 3b d7 47 51 bb 11 68 86 3a 81 ee 9d b7
       0.0029160047 -0.003193369 0.0010254403 -1.882692e-05
0001c0 a3 13 65 3b 9d 6d c8 b8 41 c2 1f bb 1d 9f 82 ba
       0.0034954331 -9.55716e-05 -0.002437726 -0.0009965632
0001d0 48 9b de 3a 20 f2 d7 3a f8 23 93 3b ba c8 e8 ba
       0.0016983533 0.0016475357 0.004490372 -0.0017760016
0001e0 5d 87 31 3a bb de 77 ba 5d ca d8 ba ce 26 c5 ba
       0.0006772185 -0.00094554917 -0.0016539801 -0.0015041472
0001f0 4e d8 46 3a 1c 35 12 3b 40 95 a0 ba c9 5d cf 39
       0.00075853325 0.0022309488 -0.0012251511 0.00039551992
000200 7e a1 a9 39 65 49 9a ba b0 8f 26 ba 3f 20 49 3a
       0.00032354513 -0.0011771141 -0.00063538086 0.00076723465
000210 9f f5 1f bb 96 6a df 3a b6 95 0f bb e4 02 cd b9
       -0.0024407876 0.0017045315 -0.0021909303 -0.000391028
000220 ca 30 60 bb 90 20 06 3b 70 bc b0 3b d2 41 76 3b
       -0.0034208768 0.0020466186 0.0053935573 0.0037575853
000230 8e a0 bf ba 45 09 7c ba 45 04 8b 39 1e ab 4d ba
       -0.0014619993 -0.00096144184 0.00026515327 -0.0007845628
000240 ca f1 dd 39 93 58 cd 3a 9a a9 ea ba cc 93 a0 37
       0.00042332552 0.0015666656 -0.0017903328 1.914231e-05
000250 a5 32 bb 3a 5f 5c 06 bb 82 d4 e8 39 29 bd d6 b9
       0.0014282061 -0.0020501835 0.0004440882 -0.00040958196
000260 79 2e 84 ba e3 b3 fc 3a a7 94 5b bb 2e 9c 05 bb
       -0.0010084651 0.0019279685 -0.0033505352 -0.002038728
000270 26 08 3e ba 91 ee d9 b9 cc c1 43 bb c3 7d 83 ba
       -0.0007249139 -0.0004156721 -0.002987015 -0.0010031987
000280 17 28 57 3a 74 e5 29 3a 49 1d 35 3a 7a ac 43 3a
       0.0008207573 0.00064810296 0.0006908966 0.00074643607
000290 91 c6 4e 39 28 9a e1 ba 47 05 81 bb 6b ec c2 39
       0.00019719663 -0.001721208 -0.0039373967 0.0003717871
0002a0 94 4d 6a 3a 7e eb 82 ba b7 7e 14 3b 17 85 7e 3b
       0.00089379516 -0.0009988395 0.0022658536 0.0038836652
0002b0 52 83 f6 39 3d 55 d6 3a ee 7d 20 bb f7 b9 df 3a
       0.00047018618 0.0016352307 -0.0024489122 0.0017068972
0002c0 65 a4 b3 ba 6c 7b 68 3a 74 e3 41 3a ec da 36 3b
       -0.001370561 0.0008868489 0.0007396259 0.0027901484
0002d0 d6 1a b8 b9 48 39 ec 3a e7 08 27 3a 73 26 86 3b
       -0.0003511521 0.0018022442 0.0006371871 0.004093939
0002e0 c5 3d 52 3a 8a b3 56 3b 53 7b 50 38 6e 94 5b 3a
       0.00080200686 0.0032760822 4.970592e-05 0.0008376305
0002f0 c9 b0 a5 3a 0e 40 99 38 cc 17 14 bb 8e 5a 20 3b
       0.0012641187 7.3075396e-05 -0.0022597192 0.0024468037
000300 06 6f 80 ba 31 7d e2 3a 70 28 dc 38 05 9c 09 bb
       -0.0009798713 0.0017279742 0.000104979496 -0.0020997536
000310 43 75 8d 39 7c e2 88 bb ae 38 d8 3a 79 55 60 3a
       0.00026980983 -0.0041773897 0.0016496384 0.00085576583
000320 b8 17 17 ba 76 f3 3a 3a d9 a9 94 3b aa 5d 05 3a
       -0.0005763727 0.00071316154 0.004536849 0.00050875044
000330 99 e5 6a 3a 27 97 fc ba 1b c4 cc 38 fe 7a a2 ba
       0.00089606043 -0.0019271121 9.7640055e-05 -0.0012396274
000340 29 e5 08 3b 85 b8 cf 39 cf a8 b2 3a 16 8e ee ba
       0.0020888543 0.00039619594 0.0013630631 -0.0018200304
000350 0d 4d dc b8 9f b5 7d 3a 33 3a 77 bb 25 cd 17 3b
       -0.00010504769 0.0009678248 -0.0037723898 0.0023163047
000360 25 eb 02 3a a1 05 04 bb b2 b9 6d bb e7 7f 88 3b
       0.0004994146 -0.0020144957 -0.0036274013 0.004165638
000370 c3 95 33 bb 94 8a 79 ba 22 b6 3e b8 c6 35 fa ba
       -0.0027402497 -0.0009519246 -4.5469154e-05 -0.0019089512
000380 c8 88 4f bb 14 4d 2c bb 85 b2 63 ba 79 e2 48 3a
       -0.0031667221 -0.002629106 -0.0008685964 0.00076631416
000390 d8 e3 ad 39 11 4c 9a 3a a0 a9 b1 b9 48 7b 24 bb
       0.00033166888 0.0011771937 -0.0003388645 -0.0025097895
0003a0 cf 6e 1c bb 97 d0 19 bb 98 dd 3f ba bc 5b 5b 3a
       -0.0023869758 -0.0023470277 -0.0007319092 0.00083678565
0003b0 46 24 5b 3b 59 45 17 bb 86 1e 45 3b 51 c9 86 b9
       0.0033438369 -0.0023082106 0.0030078008 -0.00025708464
0003c0 af b4 4d 39 80 89 27 3b 67 74 f3 ba 60 54 3a 3a
       0.00019617633 0.0025564134 -0.0018574119 0.000710791
0003d0 9b 13 c3 39 a4 a2 62 3a c6 5c d1 3a 03 e4 01 3a
       0.00037207906 0.0008645451 0.0015973083 0.0004954936
0003e0 9b f9 fd ba e1 d1 83 3a 69 1c b6 3a 78 f1 2f ba
       -0.0019376756 0.0010057056 0.0013893965 -0.0006711702
0003f0 37 24 05 3a 31 c5 24 ba e9 03 dc ba 95 f2 8e ba
       0.0005078944 -0.00062854873 -0.0016785833 -0.0010906035
